src/pyoptes/optimization/budget_allocation/supervised_learning/trained_nn_states/ba_120_sci.pth (torch, 198383 bytes, 17 tensors)

layer_1.weight_ih f4 [128, 120]
000000 9d 13 99 3d c6 15 de 3d 89 08 52 3e e0 51 ec 3d
       0.07474444 0.10843997 0.20511068 0.11539054
000010 cb 5e 2b 3e 00 5e cd 3d eb df 35 3e 22 ac 32 3e
       0.1673538 0.10027695 0.17761199 0.17448476
000020 a6 78 04 3e c3 d8 66 3d 50 5c 63 3e 7a 4e 51 3e
       0.12936649 0.056359064 0.22203183 0.20440093
000030 14 57 07 3e d0 52 19 3e 8d 72 d5 3d d2 26 f7 3d
       0.13216811 0.14972997 0.104222395 0.12067951
000040 d8 59 10 3e 98 37 36 3e c1 dd 50 3e 7c f1 38 3e
       0.14096773 0.17794645 0.20397092 0.18060869
000050 18 71 57 3e 8e fc d3 3d 80 20 c9 3d 22 0c f7 3d
       0.21039236 0.10350905 0.09820652 0.12062861
000060 9f 4e 51 3e 9f a1 b9 3d 8e 9b fe 3c 8a b2 9d 3d
       0.20440148 0.0906403 0.031080034 0.07700069
000070 21 4b 01 3e 6a 59 67 3d 54 81 ce 3d c2 57 1e 3e
       0.12626316 0.056481756 0.10083261 0.15463164
000080 5a 71 35 3e 7f 62 52 3e 51 22 b0 3d 72 15 25 3e
       0.17719021 0.20545386 0.08600295 0.16121462
000090 c8 90 9d 3d bc be 1a 3e 83 cd 87 3d 9a d9 0e 3e
       0.076936305 0.15111822 0.06630995 0.13950196
0000a0 fa 99 6e 3d e9 eb 5a 3e 04 5b 06 3e d1 34 23 3e
       0.058252312 0.21379055 0.13120657 0.15938117
0000b0 d6 61 ef 3d f1 6e 3b 3e 96 2a b6 3d 32 dd 21 3e
       0.116885826 0.1830404 0.088948414 0.15807036
0000c0 5d e2 25 3e f9 68 04 3e bc a3 90 3d 90 fa 58 3e
       0.16199632 0.12930669 0.0706248 0.21189332
0000d0 42 29 08 3e 47 18 28 3e f3 e5 1d 3e 22 72 61 3e
       0.13296989 0.16415511 0.1541975 0.22016194
0000e0 1a c3 0b 3e 9b c8 4e 3e c5 fe 19 3e 0f e9 7b 3e
       0.13648644 0.20193712 0.15038593 0.24600624
0000f0 e6 8a 52 3e b2 6c 45 3e 2e e2 69 3e b7 0f 2f 3e
       0.20560798 0.19279745 0.22840187 0.17095838
000100 97 ca 3c 3e 12 6e a7 3d 43 44 ce 3d ba e1 ba 3d
       0.18436657 0.08175291 0.10071614 0.09125085
000110 b3 25 11 3e 78 97 42 3e 47 75 67 3e 2b 0a 02 3e
       0.14174537 0.19003093 0.22603332 0.12699191
000120 42 d5 05 3e 6d 97 2c 3e 19 6c 32 3e ab 6d ff 3d
       0.13069633 0.1685464 0.17424048 0.124720894
000130 7d ee 20 3e 8c 27 a4 3d 00 87 0b 3e cb bd 45 3e
       0.15715976 0.080153555 0.13625717 0.19310682
000140 60 fc 31 3e 46 65 cc 3d c2 55 59 3e e9 9e 8b 3d
       0.1738143 0.09980254 0.2122412 0.06817419
000150 18 12 34 3e c4 f5 fc 3d 9a 0e 4f 3e 31 28 ec 3d
       0.17585027 0.123515636 0.20220414 0.115311034
000160 b5 64 5e 3e 48 36 0b 3e 86 b9 ac 3d 60 6d 99 3d
       0.21718104 0.13594925 0.08433823 0.07491565
000170 01 8d e2 3d 6d aa 6f 3e 4d 99 d1 3d f6 08 43 3e
       0.110620506 0.23404856 0.10234318 0.19046387
000180 3e 6d 77 3e 53 cb 02 3e 1b 11 6e 3e 00 ba b9 3d
       0.24162766 0.12772875 0.23248713 0.0906868
000190 9a e0 31 3e e6 c6 1c 3e 03 96 0a 3e 17 46 3c 3e
       0.17370835 0.15310249 0.13533787 0.18386112
0001a0 8e 5b 1a 3e 76 6b 70 3e 5d d9 54 3e 0c 26 4e 3e
       0.15073988 0.23478493 0.20786043 0.20131701
0001b0 5b 74 e8 3d b7 00 a3 3d ee c3 9f 3d 1a d3 d1 3d
       0.11350318 0.07959121 0.078010425 0.102453426
0001c0 83 dc 37 3e 46 3e 41 3e 6a 45 12 3e d9 11 55 3e
       0.17955212 0.18871412 0.14284292 0.2080759
0001d0 bc 97 f4 3d 0c 7c 47 3e 82 3f 48 3e ca b7 43 3e
       0.119430035 0.19480914 0.19555476 0.19113079
0001e0 3c 1a d0 3b fc ac 9a bc d0 6c 60 3c 05 98 bb 3d
       0.0063507836 -0.018881314 0.013697818 0.09159855
0001f0 8e 29 0e bd 84 5c 96 3d 47 3d f2 3d 14 7e bb bc
       -0.0347076 0.07341865 0.11828094 -0.022887267
000200 09 5f 97 3d 3e 7d d5 3d ff b3 9e 3d a3 db 9d 3d
       0.073911734 0.10424279 0.07749175 0.07707908
000210 6c b5 e8 3d a9 6a 17 3e e3 0c 49 3d b9 7b c6 bd
       0.113627285 0.14786781 0.049084555 -0.09691567
000220 d3 6c 06 3e 02 df b5 3d 76 db 9a 3d 20 4e f3 bb
       0.1312745 0.08880426 0.0756139 -0.0074250847
000230 ea ea f0 3d b2 38 c2 3c f9 11 07 3e 52 43 0d 3e
       0.11763556 0.023708675 0.1319045 0.13795212
000240 38 94 dc 3d 24 71 b9 bc 8e 33 c5 3d d3 b9 82 3d
       0.10770458 -0.022636957 0.09628974 0.063830994
000250 b8 b1 65 3d 77 87 2d 3d 57 fd b7 3d a4 35 06 3e
       0.05607769 0.042365517 0.089838676 0.131064
000260 f3 1d fb 3c 85 9b 8f 3d 8d 07 23 bd a9 7b 89 3b
       0.03065393 0.07012085 -0.039802123 0.0041956496
000270 f2 de 90 3b ba 03 ba 3d 2f 4d a3 3d b5 51 af 3d
       0.0044211084 0.09082742 0.07973706 0.08560506
000280 5f 55 9d 3d c9 09 c6 3d cd 18 53 3d 63 0a c4 3d
       0.07682299 0.09669835 0.051537324 0.095722936
000290 10 f7 c5 3d 7c 5e 13 3e a3 55 ee 3c 8e 1e 01 3e
       0.09666264 0.14391512 0.02909357 0.12609312
0002a0 4c 13 d0 3d 1d bc f8 3c 2d 06 78 3d 7f 99 18 3e
       0.101599306 0.030363137 0.060552765 0.14902304
0002b0 f1 fe 20 3e b3 ed 18 3e 94 ca 99 3d 77 8c 12 3e
       0.15722252 0.14934425 0.07509342 0.14311396
0002c0 ef ce 00 3e 80 7e 8f 3d bc 20 bc 3d 53 ad 1e 3e
       0.12578939 0.0700655 0.09185931 0.15495805
0002d0 7f 7f 54 3b 0b 15 6c 3d aa 7c 2f 3e e8 06 0a 3e
       0.0032424626 0.057637256 0.171374 0.13479197
0002e0 f6 73 56 3d e1 61 81 3d 2a fb ac 3d 29 79 69 3d
       0.052356683 0.06317497 0.08446343 0.057000313
0002f0 d1 af 2d 3e a1 b6 5b 3c 36 dd 07 3e b8 b5 81 3d
       0.169616 0.013410241 0.13267979 0.06333488
000300 a3 44 bd 3d 45 26 a4 3d f3 75 e4 3d c2 8a 24 3e
       0.09241607 0.08015112 0.111553095 0.16068557
000310 60 74 e7 3c 94 5d e0 3d a7 19 8c 3d f7 70 9c 3d
       0.028253734 0.109553486 0.0684083 0.07638734
000320 8d ca 86 3d 13 c3 e6 3d c8 3f 06 3e fd ed 79 3d
       0.06581602 0.11267676 0.13110268 0.06101798
000330 c3 6a b6 3d 3a 6b a7 3d 80 47 3b 3d 8f 0c 1c 3e
       0.08907082 0.08174749 0.045722485 0.15239166
000340 c4 25 b8 3d 93 d2 45 3c 9c f0 91 3d cd ca b1 3c
       0.08991578 0.012074131 0.07125971 0.021703148
000350 c3 c2 7a 3d 9f 91 8f 3d 8f a2 c3 3d 7d dc d7 3d
       0.061220895 0.07010197 0.0955249 0.10540102
000360 74 5d 67 3d 88 0b b8 ba 7c 07 d1 3c 56 23 2b 3e
       0.05648561 -0.0014041523 0.025516264 0.16712698
000370 f7 5a 24 3d 4c 62 31 3e 90 5e 9b 3d 5a 27 70 3d
       0.040125813 0.17322654 0.07586396 0.05863128
000380 42 24 ba 3b 85 1c ed 3d c9 0b ec 3d ed 7f e9 3d
       0.005680592 0.11577705 0.11525685 0.11401353
000390 31 0e 49 3e 53 8b c5 3d 5a bd a9 3d 41 95 8a 3d
       0.1963432 0.096457146 0.08288069 0.06766749
0003a0 f9 44 e8 3d 9b 24 29 3e 4d 64 fb 3c 54 b3 1f 3e
       0.113412805 0.1651787 0.030687476 0.15595752
0003b0 de cb 15 3e eb 73 0a 3d ae fc 0d 3e 8b 05 27 3e
       0.1462855 0.033801954 0.13865921 0.16310708
0003c0 27 40 31 3e 48 01 45 3e a2 ac 79 3e 19 09 0c 3e
       0.17309628 0.1923877 0.2438226 0.13675345
0003d0 a9 69 79 3e 80 ef db 3d 88 6d 2f 3e 75 a6 06 3e
       0.24356712 0.107390404 0.17131627 0.13149436
0003e0 7b f3 1b 3e ee 30 5c 3e e3 49 35 3e bb 0f 0c 3e
       0.15229599 0.2150304 0.17703967 0.13677876
0003f0 05 c9 b8 3d a9 6c 62 3e 18 45 2d 3e 05 20 0d 3e
       0.090227164 0.22111763 0.16920888 0.13781746

layer_1.weight_hh f4 [128, 128]
000000 e4 c4 aa 3d f4 b2 32 3d fd 54 6b 3d 47 52 e3 3c
       0.08338335 0.043627694 0.057454098 0.027749194
000010 08 e2 62 3d dd fa ac 3d 29 46 ef bc 6e 57 3a bd
       0.05539134 0.08446286 -0.02920826 -0.045493536
000020 35 18 99 3d 4b 55 42 bd b7 24 73 3d 05 d2 4d 3d
       0.0747532 -0.047444623 0.059361186 0.05024912
000030 94 e3 e2 bc a5 2e 58 bd 41 af a1 3d e1 cc 84 bd
       -0.027696408 -0.05277886 0.07894755 -0.0648439
000040 f7 77 92 bd 86 a7 c0 3c 85 60 a0 bb 3e 9d 7d 3d
       -0.07151788 0.023517381 -0.0048943185 0.061917536
000050 7f e7 95 bc 70 89 56 3d 6a 57 2e bd 45 a3 a5 3d
       -0.018298863 0.052377164 -0.042563833 0.08087782
000060 75 07 3d bd bf 97 a2 3d d2 c0 9c bc b2 92 16 3d
       -0.04614969 0.079390995 -0.019134913 0.036760993
000070 c2 f6 e0 3c 01 d1 7d bb 51 83 5a 3d ca 8a 85 bd
       0.027461413 -0.0038729312 0.05334789 -0.065206125
000080 6f 87 a5 3d 2e d6 c0 bc c1 56 60 bd d5 46 b2 3b
       0.080824725 -0.023539629 -0.054770235 0.0054405727
000090 6c ff 8d 3c 9a f0 4f 3d 1f 7b 84 3d c7 d2 99 3c
       0.017333709 0.050766565 0.06468796 0.018777264
0000a0 00 3f 5d bc 63 c6 81 bc 80 9d 8a 3b b5 f3 2c 39
       -0.01350379 -0.015841668 0.0042302012 0.00016493986
0000b0 89 1f a6 3d 4b b3 b7 bc 07 a8 8d bb 19 b2 d1 bc
       0.081114836 -0.02242436 -0.004323009 -0.025597619
0000c0 14 08 75 3d 2a 10 ff bc 2b a3 a9 bd 35 cd 90 bd
       0.059822157 -0.031135637 -0.08283075 -0.0707039
0000d0 6f 2d 6d 3d b1 c2 81 bd 72 ab f0 bb 95 b6 a3 3d
       0.057904657 -0.063359626 -0.0073446566 0.07993809
0000e0 f2 5d 35 ba f6 76 86 3c e1 c5 81 bd a8 b4 d7 bc
       -0.0006918601 0.016414147 -0.063365705 -0.02633126
0000f0 75 01 b7 3c 63 1c 8b 3d 2c d9 25 3c f8 f1 69 bd
       0.022339562 0.06792524 0.010122579 -0.057115525
000100 80 0f 08 3d 92 ac 58 3d c5 22 92 3d 8f 31 59 bd
       0.033217907 0.05289895 0.07135538 -0.05302578
000110 0e 10 32 bd ee 28 d1 bc e6 80 02 3c da 82 59 bd
       -0.043472342 -0.025532212 0.007965302 -0.053103305
000120 15 db e1 3c 25 e5 5d bd 68 8c 90 3c d4 1d 8d bc
       0.027570287 -0.054173607 0.017645076 -0.017226137
000130 f7 83 ec 3c c3 95 a5 3c 97 d0 a2 3d eb 76 6d bd
       0.02887152 0.020213014 0.079499416 -0.057974737
000140 b0 1f ac 3c 6f 89 8c bd 70 eb 0f bd f2 1c 89 3d
       0.021011204 -0.06862151 -0.03513664 0.06694974
000150 35 49 9e 3d 53 de 8e bd 75 92 a9 3d f3 75 dc bb
       0.07728807 -0.06975999 0.082798876 -0.006727928
000160 57 fb da 3c 77 34 74 bd 92 b1 84 3d 4c 37 7d bd
       0.026731176 -0.059620347 0.06479181 -0.061820313
000170 45 e7 47 bd e2 40 77 3b 48 4e ef 3b 08 31 99 3c
       -0.04880454 0.0037727882 0.007303033 0.018700138
000180 9a b1 4d bd 9c 19 92 3d 4a 7d 76 bd d1 1f 0f bd
       -0.050218202 0.07133791 -0.06017808 -0.034942452
000190 b4 eb 88 3d d9 60 82 3c 29 fc 9e 3d 22 05 3b bd
       0.06685582 0.015915321 0.077629395 -0.045659192
0001a0 d5 e6 de bc 23 b7 23 3d c8 b0 31 bd 21 0c 70 bc
       -0.027209679 0.039969575 -0.043381482 -0.014651329
0001b0 10 fb 35 bd e2 a2 d9 3c 7e 33 0e 3d b0 f5 3e bd
       -0.044428885 0.026566926 0.034717076 -0.046621025
0001c0 12 74 0b 3d 3f 4b cb bc b4 65 1f 3d 7b 60 ab 3c
       0.03404624 -0.024816154 0.03891535 0.020920029
0001d0 5e 27 58 3d a0 37 04 bd 08 fd 9f bd d0 8a 26 3d
       0.05277192 -0.03227961 -0.07811934 0.040659726
0001e0 45 98 7a 3d 67 d8 9c 3d d2 3b da bc cf b5 d8 bc
       0.06118037 0.07658463 -0.026639853 -0.02645388
0001f0 ff 11 00 3a 60 92 c5 bc a9 e5 4b 3d ef 12 92 3d
       0.0004885494 -0.024117649 0.049779568 0.071325175
000200 08 38 45 3d 7c eb 9e bd a7 e8 2b 3d 1b 04 53 bc
       0.04814914 -0.07759759 0.04196992 -0.012879397
000210 6e 32 a8 3b a9 b8 28 bd 2a 36 7e 3d 0a 44 0e 3d
       0.005132965 -0.04119173 0.062063374 0.034732856
000220 e8 32 8d bd 64 20 94 3c a9 19 7a 3d 4f c6 79 bc
       -0.06894475 0.018081851 0.061059628 -0.015245034
000230 e4 64 26 bd 8e a2 f3 ba cc 02 f0 3c 04 2f 86 3d
       -0.04062356 -0.0018587874 0.029298209 0.06551936
000240 78 b5 ab bd 69 42 86 3d 66 52 03 3d 08 99 57 3b
       -0.08384222 0.065556355 0.032061003 0.003289761
000250 8f b0 a5 3d fe 90 8f 3d ed 20 32 bd 9b b9 4a 3d
       0.080903165 0.07010077 -0.04348843 0.049493413
000260 74 71 8d 3d 93 8f 7a bd b6 61 8d 3d ad fe 85 bd
       0.06906405 -0.06117208 0.069034025 -0.06542716
000270 73 8a 0e 3c e9 db 26 bd 75 70 10 bd 8b 9f 50 3d
       0.008700001 -0.040737066 -0.035263497 0.050933402
000280 9c d2 92 bd 06 2c 58 3d 01 b1 9d bd 36 d5 99 3d
       -0.07169077 0.05277636 -0.076997764 0.0751137
000290 3d 02 a2 bd 76 53 a2 bd c8 4c f8 3c db 70 87 bd
       -0.07910583 -0.07926075 0.03031005 -0.06613322
0002a0 75 31 ed 3a 28 0f 1c bd 35 65 76 bd 55 84 4b bd
       0.0018096404 -0.03810039 -0.060155112 -0.04968675
0002b0 20 84 2e bd d6 2b 91 3d 3e d9 6a 3d 1d 1c 80 bd
       -0.042606473 0.07088439 0.057336085 -0.06255362
0002c0 19 c7 92 3d 94 34 9e 3c fa a3 c3 3b 4d 78 ce 3c
       0.07166881 0.01931218 0.0059704753 0.025203848
0002d0 a6 cd 95 bd 64 15 11 bd 70 5d 8c 3d c5 af 05 3d
       -0.07314615 -0.03542079 0.06853759 0.03263833
0002e0 02 65 ac bd 15 bb 96 bd ea d9 80 bd 97 8e 30 bd
       -0.08417703 -0.07359902 -0.06291564 -0.043104734
0002f0 30 6d db 3c a1 70 a0 bb 1e be 1d 3c 1e ce 0b bd
       0.026785463 -0.004896239 0.009627847 -0.034132116
000300 93 3e 9d 3d 8c eb 61 3d 0c 39 e6 bc 3d 36 aa 3c
       0.07677951 0.055156276 -0.028103374 0.020777816
000310 55 3c 64 bd 1f 76 64 bd b5 b1 b1 3c a5 39 56 bd
       -0.0557216 -0.05577671 0.021691183 -0.052301068
000320 35 6d 92 bc c8 96 7f bd 6e 84 a6 3d fa e8 70 bd
       -0.01787434 -0.062399656 0.08130728 -0.058815934
000330 b6 6c ff bc 9a 1f 82 bd 0d 93 9f bc ab e4 53 3c
       -0.031179767 -0.06353684 -0.019479299 0.012932937
000340 bf ab 01 3d 6f 54 aa bd 9a 76 a6 bc 78 4e 1c 3d
       0.03165793 -0.08316886 -0.020320226 0.03816077
000350 c0 31 19 3a 06 f2 aa 3d a1 47 9b 3d 69 4b 5b bd
       0.00058439 0.083469436 0.075820215 -0.053538714
000360 42 ef 7c 3d 40 40 e4 3c b2 5e 15 bd 43 4d 91 3b
       0.06175161 0.027862668 -0.03646726 0.004434259
000370 60 ac 48 3d 9e 5d 22 bd 58 a0 c2 3c d5 da 7b bd
       0.048992515 -0.03964006 0.023758098 -0.06148799
000380 50 17 8d bd c1 b2 8a 3d 29 7b 71 3d 58 7a 83 bd
       -0.06889212 0.06772376 0.058955345 -0.064198196
000390 90 e0 86 3c 82 16 17 3d df 91 73 3d 7f 3a 2e bc
       0.016464502 0.0368867 0.059465285 -0.010634064
0003a0 1c 20 8c bd ce 59 7c bd 73 d6 2d bc bb b1 85 bd
       -0.06842062 -0.061609082 -0.010610211 -0.0652804
0003b0 67 31 6a bd 35 9b d9 3c 6e c4 85 3d 5f 2e 07 3d
       -0.05717602 0.026563266 0.065316066 0.033003207
0003c0 ab 7b 4f bd 0e 7e 61 3d 51 60 29 bd e4 42 9a 3d
       -0.05065505 0.055051856 -0.04135162 0.075322896
0003d0 d6 67 18 3d b6 97 ab bd 53 f8 4f bd 29 0e 43 3c
       0.0372084 -0.08378546 -0.05077393 0.0119052315
0003e0 7a 0d 94 bc 1e d3 25 bd f2 b2 7f bd 4f 30 c0 3c
       -0.018072832 -0.04048454 -0.062426515 0.023460535
0003f0 fc 4e ef 3c 21 85 8c bd 82 bd 94 bd 32 70 70 39
       0.029212467 -0.0686133 -0.07262708 0.0002292998

layer_1.bias_ih f4 [128]
000000 24 eb c7 3d 65 28 93 3d 00 76 05 3e 36 7c 10 3e
       0.097616464 0.07185439 0.13033295 0.14109883
000010 67 12 0e 3e 2e f3 fb 3d da e1 03 3e 2d 12 28 3e
       0.13874207 0.12302242 0.12879124 0.16413184
000020 1e 49 11 3e 2d 59 03 3e af 9b 55 3e b4 8b 4f 3e
       0.14188048 0.12826987 0.2086017 0.20268136
000030 cc 0a 9c 3d 5b 9f 08 3e 6f 91 13 3e ac f8 13 3e
       0.07619247 0.1334204 0.14410947 0.1445033
000040 7d 0d 38 3e 77 41 12 3e a6 77 6c 3d 87 69 4e 3e
       0.17973895 0.14282785 0.057731293 0.20157443
000050 d9 08 49 3e 4c e6 eb 3d 02 24 84 3d 57 90 fe 3d
       0.19632281 0.11518535 0.064521804 0.124298744
000060 76 56 4d 3e f6 46 49 3e 45 56 6f 3d 05 b1 4b 3e
       0.20052513 0.19655976 0.058431882 0.19891746
000070 48 35 10 3e ff 70 00 3e d3 ba e4 3d 59 4e 09 3e
       0.14082825 0.12543105 0.111684464 0.13408794
000080 41 0a 53 3e 62 6e 39 3e 1a f8 b3 3d 49 a4 1c 3e
       0.2060938 0.18108514 0.08787556 0.15297045
000090 5a 97 18 3e af 90 a4 3d fe 0b 15 3e d7 43 61 3e
       0.14901486 0.08035409 0.14555356 0.21998535
0000a0 ad 3f 22 3e 94 72 e3 3d f4 95 2c 3e cb 46 83 3d
       0.15844603 0.111058384 0.16854078 0.06409987
0000b0 af 13 27 3e b3 49 b9 3d cf 20 92 bd 1c f1 c0 3d
       0.16316102 0.0904726 -0.07135164 0.09420988
0000c0 51 63 3b 3e b1 ce a7 3d de 1e 2d 3e 6b 2b 15 3e
       0.18299605 0.0819372 0.16906306 0.14567344
0000d0 e5 b6 c9 3d 93 af ba 3d cb ec 5d 3d 44 5d 17 3e
       0.098493375 0.091155194 0.0541809 0.14781672
0000e0 76 03 92 3d 0c 14 25 bd df 42 51 3e d8 f3 c1 3d
       0.07129566 -0.04030232 0.20435666 0.09470338
0000f0 e4 d5 1d 3e 1c 34 2a 3c 96 62 25 3e 22 bd 1a 3e
       0.15413624 0.0103884 0.16150889 0.15111211
000100 a2 2c 60 3e ce 39 ca 3d 5f 3d c8 3d b7 f1 dc 3d
       0.21892026 0.098743066 0.097773306 0.10788291
000110 72 af ad 3d 2b 05 22 3e 4c 3c 59 3d 0c c3 de 3d
       0.08480729 0.15822284 0.05303602 0.10877046
000120 48 7f ca 3d 4f 29 00 3e 11 c3 aa 3d b0 c5 26 3e
       0.09887558 0.12515758 0.08337987 0.1628635
000130 44 0c 43 3e 92 3f c2 3d bf b6 58 3e 4c e8 18 3e
       0.19047648 0.09484781 0.21163462 0.14932364
000140 60 27 29 3e c6 fe 66 bd 53 45 5b 3e 60 8e 15 3e
       0.16518927 -0.056395315 0.21413164 0.14605093
000150 f1 2c 3f 3e 9f f9 05 3e 32 fa 95 3d 77 78 a3 3d
       0.18669488 0.13083504 0.073231116 0.07981961
000160 70 bc 10 3e 19 5c 11 3d 63 cc 06 3e 67 d2 17 3e
       0.14134383 0.03548822 0.13163905 0.14826356
000170 15 97 91 3d f3 b8 10 3e 77 d1 a0 3d 2e e6 35 3e
       0.07108895 0.14133053 0.07852452 0.17763588
000180 1d 37 ca 3d f8 81 75 3e b0 ac 47 3e 91 8b 53 3d
       0.09873793 0.2397536 0.19499469 0.051646773
000190 0a 91 f8 3d 59 f2 83 bc a0 3f 53 3e 37 32 48 3e
       0.12137039 -0.016106771 0.2062974 0.19550405
0001a0 b8 5b 2a bc 7b 32 3e 3e ac 99 2e 3e ed c0 17 3e
       -0.010397844 0.18573944 0.17050809 0.14819689
0001b0 7f 16 77 3e 1f 22 ca 3d 96 d1 1f 3e 5e b9 04 3e
       0.24129675 0.09869789 0.15607294 0.12961337
0001c0 14 b7 13 3e 8c 73 ac 3d 6e 16 db 3d e4 29 6b 3e
       0.14425308 0.08420476 0.106976375 0.22965199
0001d0 1c 6c e5 3d 65 c4 b3 3d fe 50 64 3e 9f 0a 7e bb
       0.11202261 0.08777694 0.22296521 -0.0038763655
0001e0 a8 e7 9d 3d a2 df 9b 3c 08 bb af 3d da 40 e6 3d
       0.077102005 0.019027535 0.08580595 0.11242838
0001f0 26 29 ec 3d 47 84 33 3e 39 e2 cf 3d 34 bd 2e 3e
       0.11531286 0.17530929 0.101505704 0.17064363

layer_1.bias_hh f4 [128]
000000 75 4e 12 3e f4 91 b3 3d 55 37 9e 3d ed 67 66 3d
       0.14287741 0.08768073 0.077253975 0.056251455
000010 27 64 a3 3d 3a f9 3f 3e ac 4a 03 3e 67 7f 0a 3e
       0.07978087 0.18747416 0.12821454 0.13525163
000020 3f ee 2c 3e 78 8b 28 3e d2 20 d9 3d 31 82 35 3e
       0.16887759 0.16459453 0.10601963 0.17725445
000030 76 dd 0c 3e ce 9b 03 3e 39 7a c3 3d a5 de bb 3d
       0.13756356 0.12852404 0.095447965 0.091733254
000040 f9 72 68 3e 5c 9b a5 3d 92 6a ee 3d 33 e6 2b 3e
       0.22700109 0.08086273 0.116414204 0.16787033
000050 28 8e 1e 3e e4 fa 42 3e b3 a6 50 3e ec f3 d3 3d
       0.15483916 0.1904102 0.2037609 0.10349259
000060 92 e0 34 3e a8 12 22 3e a9 e8 47 3e 52 5b 35 3e
       0.17663792 0.1582743 0.19522347 0.17710617
000070 8c 59 d9 3d 88 27 65 3e 9c a5 33 3e c1 e6 f6 3d
       0.10612783 0.22378361 0.17543644 0.120557316
000080 67 7d 2d 3e 0a 76 dd 3d 52 32 62 3e 3a 91 44 3e
       0.16942368 0.1081353 0.22089508 0.19196025
000090 bd 54 c7 3d a5 7e b2 3d ef 08 cf 3d 14 95 0d 3e
       0.097329594 0.08715562 0.10109126 0.138264
0000a0 c2 d5 6e 3e 86 f3 1f 3e c4 86 2f 3e 34 d1 29 3e
       0.2332373 0.1562024 0.17141253 0.16583711
0000b0 88 66 5b 3d 43 ad 56 3e 0c 50 b4 3d ec 6f d5 3d
       0.05356458 0.20964532 0.0880433 0.10421738
0000c0 22 e5 31 3e 63 99 31 3e 0c 8c 4a 3e ed 55 13 3e
       0.17372563 0.17343669 0.19779986 0.14388247
0000d0 4d 26 5b 3e e3 e2 e2 3d 24 d0 e1 3d e9 cf ef 3d
       0.2140133 0.110784315 0.11026028 0.117095776
0000e0 67 7e 20 3e 63 af 82 3c c2 85 d2 3d e6 ed 28 3e
       0.15673219 0.015952772 0.102794185 0.16497001
0000f0 bf 18 22 3e 41 9a d3 3d bf 6a 77 3e e4 84 50 3e
       0.15829752 0.10332156 0.24161814 0.20363194
000100 33 2b 74 3e b3 a8 64 3e c2 12 12 3e a4 6a 1f 3d
       0.23844604 0.22329979 0.14264968 0.03892006
000110 bc 5d 9f 3d 69 65 71 3e 8d fe b2 3d fb 8c 0c 3e
       0.0778155 0.23573841 0.08739958 0.13725655
000120 ab b1 2f 3e 72 86 fb 3d 32 f5 02 3e 5c 70 bf 3d
       0.17157619 0.12281503 0.12788847 0.09347603
000130 f5 92 25 3e 5b c0 27 3e 75 fd 09 3e 03 22 2d 3e
       0.16169341 0.16381972 0.13475592 0.16907506
000140 5e ce 55 3e e6 12 88 3d 5a e5 6c 3e 17 07 1c 3e
       0.20879504 0.066442296 0.23134366 0.1523708
000150 d0 6c 4f 3e 06 80 c6 3d 5a bf 1d 3d 60 76 0f 3e
       0.20256352 0.09692387 0.038512565 0.1401
000160 b8 99 4e 3e 6e d5 d1 3c 7c 01 b1 3d 72 d0 7b 3e
       0.20175827 0.025614467 0.08642861 0.24591234
000170 13 a4 0d 3e 43 f0 f1 3d 64 36 35 3e f7 00 34 3e
       0.1383212 0.118134044 0.1769653 0.17578493
000180 f8 0f be 3d 8f 5c c9 3d 58 3f c4 3d 05 d1 5f 3d
       0.092803895 0.09832107 0.09582394 0.054642696
000190 ad 5f d2 3d 90 a5 0a 3d 5c 20 11 3e d9 46 16 3e
       0.10272155 0.0338493 0.141725 0.14675464
0001a0 b6 f0 3a 3d e6 b6 93 3d 9c 53 c2 3d 56 f9 d1 3d
       0.045639716 0.072126195 0.094886035 0.10252635
0001b0 a7 93 2b 3e 0b 06 be 3d d8 85 79 3d f4 f4 30 3e
       0.16755544 0.09278496 0.06091866 0.17280942
0001c0 ef f3 b2 3d ca 39 49 3e 97 04 03 3e e5 72 ab 3d
       0.08737933 0.19650951 0.1279472 0.08371524
0001d0 08 b8 21 3e 03 21 2f 3e e0 ca 3e 3e 7e 16 2e bd
       0.15792859 0.17102437 0.18632078 -0.04250192
0001e0 53 df a9 3d 0c 2e 8e 3d c7 60 57 3e c0 b3 c4 3d
       0.08294549 0.069423765 0.21033011 0.09604597
0001f0 80 73 71 3e fe 8f 83 3d 74 0c 8e 3d 63 b8 58 3d
       0.23579216 0.06423949 0.06935969 0.05291022

layer_2.weight_ih f4 [64, 128]
000000 12 65 61 bd 3a 9b 96 bd de e3 fd b9 58 a2 5d bd
       -0.05502803 -0.07353826 -0.00048425695 -0.0541099
000010 bf 28 df bd e2 62 1b bd c1 08 7a bd ae 8c 71 bc
       -0.108964436 -0.0379361 -0.061043505 -0.014743013
000020 c2 61 17 3c 0e 4f 93 3d cc 8a 72 3d dd c6 9e bd
       0.009239616 0.07192813 0.0592144 -0.07752774
000030 83 21 8c bd 0d 75 84 bc 42 8a c3 3c ac 59 06 3b
       -0.06842329 -0.016169095 0.023869637 0.0020500226
000040 81 06 5e 3c 75 39 a8 bd 15 36 bb bc 12 e7 b5 bd
       0.013551355 -0.08214084 -0.022852937 -0.08881964
000050 1b 9c d4 3c 73 ea 1c bd e4 9f ce 3d fe c4 12 3c
       0.025953343 -0.038309526 0.100890905 0.008958099
000060 e2 87 26 bd ff bc d9 bc 25 c6 62 3d bb 2e a1 bd
       -0.04065693 -0.026579378 0.055364747 -0.07870241
000070 c6 08 a7 3d 7f fa 94 3d cc 39 ff bd 38 a4 de bd
       0.0815597 0.07274341 -0.12462196 -0.10871166
000080 bd 88 f8 bb 52 d9 d9 bc 7f 02 ee 38 47 70 07 bd
       -0.00758466 -0.026592884 0.00011349189 -0.03306606
000090 2d d9 b7 bd 9c 3b de 3b 2e 05 bb 3d ff c4 2e 3a
       -0.0897697 0.0067820083 0.09131847 0.0006666928
0000a0 71 0e 1e 3d 2f 1a e0 3c 05 88 63 3d f0 85 c2 bd
       0.03858799 0.027356235 0.05554964 -0.09498203
0000b0 42 08 ba bd aa 97 0d be 1e 56 e3 bc 2b 40 0e 3c
       -0.09083606 -0.13827386 -0.027751025 0.008682291
0000c0 5b 0a e8 bd 15 42 82 3d 76 e9 91 3d 44 9f e8 3c
       -0.113301 0.063602604 0.07124607 0.028396256
0000d0 f6 74 8e 3d 75 b5 64 3d 87 4c 2c 3d 43 6a 46 bd
       0.06955902 0.055837113 0.04206517 -0.048441183
0000e0 21 8e b6 bd e3 0d 07 3d e8 a4 d2 bd b4 23 a3 3d
       -0.08913828 0.032972228 -0.102853596 0.07965794
0000f0 83 79 90 3d b9 29 9b bd df 5b 2e bc d1 b4 b6 3b
       0.070544265 -0.07576317 -0.010642021 0.005575754
000100 fe 55 7e 3d 20 4c 5a bd 70 40 02 3b 25 0f c2 bb
       0.062093727 -0.053295255 0.0019874834 -0.0059222155
000110 09 65 b6 3d 1e 4f fd bc 7c f7 aa 3d 7b 55 61 3d
       0.0890599 -0.030921515 0.08347985 0.05501316
000120 5d d8 71 3d e6 5d 61 3d 79 53 76 3d 0b 83 00 be
       0.05904423 0.05502119 0.0601382 -0.12549989
000130 04 a0 83 bd e8 55 7c 3d ff 43 e1 bc 0f 0a 12 bd
       -0.06427005 0.061605364 -0.027498243 -0.035654124
000140 eb 72 b3 3c 8f a2 82 bd 51 cd c7 bd 3d 9c b7 3d
       0.021905383 -0.06378662 -0.09755958 0.08965347
000150 05 b5 e1 bc 1f af f8 bb 6a f6 c3 bd 67 d2 22 3d
       -0.027552137 -0.0075892354 -0.09568484 0.039751437
000160 be 3b 0a 3c 69 23 1e 3d 07 48 05 be 2c f6 0b be
       0.008437095 0.03860799 -0.13015758 -0.13668126
000170 33 01 4a 3d e0 55 2c 3b fc e3 81 bc 3b ea 9b bd
       0.04931755 0.0026296303 -0.015855782 -0.07613035
000180 d4 3d 00 3d f8 dc ad 3d f2 f0 70 bd 1c ae 7c 3c
       0.031308964 0.08489412 -0.058823533 0.01542237
000190 4a 3d b6 bd a7 0d 5c bc fc be 9e bd bb c2 a1 3d
       -0.08898409 -0.013430989 -0.07751271 0.0789847
0001a0 97 17 92 3d bd 87 ae bd f5 e6 d7 bc e4 a4 6c bc
       0.07133406 -0.08521984 -0.026355246 -0.01444361
0001b0 be 9a 24 bd 09 bb 34 3c e3 37 8b bc 45 88 80 bd
       -0.040186636 0.011030921 -0.016994422 -0.06275991
0001c0 3a 8c a9 bb 48 bd 01 3d 28 75 85 bd ed 3e 57 bd
       -0.005174187 0.031674653 -0.065164864 -0.052550245
0001d0 84 97 d8 bd 6c 4d bf bd 55 6a 03 bd ba 34 c2 bd
       -0.10575774 -0.09340939 -0.032083828 -0.09482713
0001e0 6c 1e 60 bd 6e 3c a0 3d 58 b1 07 be 36 6b 5b bd
       -0.054716513 0.07824026 -0.13251245 -0.05356904
0001f0 5e 19 ae 3d d7 dd d2 bc a9 7c e9 bd 2f 2c e6 bd
       0.08500932 -0.025740547 -0.1140073 -0.11238896
000200 54 da 80 3e 12 57 f8 3d 7b 40 27 3e cf 8e a8 3d
       0.2516657 0.12125982 0.16333191 0.082303636
000210 14 ae 41 3e f4 33 22 3e 15 6b 47 3e 7b c0 6c 3e
       0.18914062 0.15840131 0.19474442 0.231203
000220 16 6e 5c 3e 95 fa 2e 3e 84 95 53 3e b5 74 7b 3e
       0.2152637 0.17087777 0.20662504 0.24556239
000230 df d3 29 3e 04 66 ad 3d f5 42 84 3d 97 04 f5 3d
       0.16584729 0.084667236 0.064580835 0.11963766
000240 ad 95 82 3e ca 30 6b 3e dd 13 61 3e b5 49 fe 3d
       0.2550482 0.2296783 0.21980233 0.12416402
000250 bb a5 22 3e 47 43 2f 3e 43 50 ac 3d cd f7 0b 3e
       0.15883534 0.17115508 0.08413746 0.13668747
000260 fa 59 9b 3d 3f bf ae 3d 7c f8 85 3c b5 64 11 3e
       0.07585521 0.08532571 0.016353838 0.14198573
000270 15 94 32 3e 4a 08 32 3e 8d 7a b5 3d a0 46 3b 3d
       0.17439301 0.17385975 0.08861265 0.04572165
000280 20 f1 d0 3d 19 5f ac 3d 1b 31 82 3d c7 07 97 3d
       0.10202241 0.08416576 0.063570224 0.0737453
000290 21 01 6f 3e 81 fa eb 3d 8b af 85 3e 73 ee 25 3d
       0.23340274 0.11522389 0.2611049 0.040510606
0002a0 20 04 3b 3e 52 4f 7b 3d 5a a1 86 3e 34 59 65 3e
       0.18263292 0.061354943 0.26294976 0.2239731
0002b0 03 49 ab 3c 78 02 7c 3e bf 9a c9 3e 46 b0 3e 3e
       0.020908838 0.24610317 0.39375874 0.1862193
0002c0 8e db e2 3d 4e d9 37 3e d1 db 7f 3d 97 1f 1c 3e
       0.11077033 0.17953989 0.062465493 0.15246426
0002d0 b4 f6 a9 3d e5 6e 69 3d 64 d6 27 3e 8d b5 9d 3f
       0.08299008 0.056990523 0.16390377 1.232103
0002e0 14 07 47 3e bb 7e 23 3f cb d2 86 3e 9d 7d f4 3d
       0.19436294 0.6386525 0.26332697 0.11938021
0002f0 76 77 5b 3d 11 34 6c 3e da 68 88 3e 1c a4 57 3e
       0.053580724 0.23066737 0.26642495 0.21058697
000300 89 2b f1 3d 7a 89 a2 3d c4 72 71 3d 97 d3 29 3e
       0.11775882 0.07936378 0.05894734 0.16584621
000310 fa c3 9b 3d e8 c5 b3 3d 29 ec 12 3e ac 85 87 3e
       0.07605739 0.08777982 0.143479 0.2646917
000320 b9 ca f3 3d 01 8c 1f 3d f8 78 4f 3e f7 15 45 3e
       0.11903901 0.038951878 0.2026099 0.1924666
000330 74 78 56 3e d1 54 a4 3d 8d 43 39 3e 13 ff 5e 3e
       0.20944387 0.0802399 0.18092175 0.2177699
000340 c9 18 c7 3d 7d be 54 3e ce 1f 71 3e 7b 0f 27 3d
       0.09721524 0.2077579 0.23547289 0.040786248
000350 c5 00 1d 3e 38 b6 06 3d 46 47 4f 3d 27 3b 05 3e
       0.15332325 0.03288862 0.05060508 0.13010846
000360 a9 f2 4f 3d ca 10 45 3f ae 92 83 3d 23 cc 14 3e
       0.050768528 0.76978743 0.06424461 0.14530997
000370 3d 7f 1b 3e 57 b2 d5 3d 0e d1 f9 3d fa 56 74 3e
       0.15185256 0.10434406 0.12198077 0.23861304
000380 ae 3a 79 3e 37 99 26 3e 84 c7 5b 3e 81 13 0d 3f
       0.24338791 0.16269384 0.21462828 0.55107886
000390 39 7f d3 3d 44 cf ee 3e 18 f1 b2 3d e8 33 68 3e
       0.10327 0.46642506 0.08737391 0.2267605
0003a0 ae 23 04 3e 54 df d6 3d 8c 1b cf 3d cf 02 42 3e
       0.12904236 0.10491815 0.10112676 0.18946384
0003b0 71 cc 87 3e 4b ac 21 3e c5 dd 5f 3e 0a 7a 3f 3e
       0.26523164 0.15788381 0.21861942 0.18698898
0003c0 43 15 68 3e a6 8c 2a 3e 76 e9 71 3e 40 44 24 3d
       0.2266436 0.16655216 0.23624215 0.04010415
0003d0 eb 90 bb 3d 9e 8c 85 3e a6 29 a4 3d 89 2d fd 3e
       0.091585 0.26083845 0.08015756 0.49448803
0003e0 3e da 02 3e 49 ca cf 3e 9e 45 0e 3e d2 50 36 3e
       0.12778565 0.4058402 0.13893744 0.17804268
0003f0 41 bf 4d 3e e9 b4 ae 3d 49 c3 8a 3f 08 29 0e 3e
       0.20092489 0.085305996 1.0840846 0.1388284

layer_2.weight_hh f4 [64, 64]
000000 f9 56 5d bc 15 92 8e 3d 29 16 3d bd 48 36 f8 3c
       -0.013509505 0.06961457 -0.04616371 0.03029932
000010 23 d5 cb 3d a8 c7 2a 3c 7b e0 97 bb c0 6b 84 3d
       0.09952762 0.010423578 -0.0046349145 0.06465864
000020 c7 64 9d bd ee 8a 2e bc f1 07 9b 3d fa 52 87 bd
       -0.076852374 -0.010653241 0.07569874 -0.066076234
000030 c5 84 f1 bd 52 bd a5 3c 17 8c a6 bd af 9f bf bc
       -0.11792902 0.020231877 -0.08132189 -0.023391573
000040 fa 68 35 3b 5e ad 09 3d 10 82 e4 bd 92 c6 7f bd
       0.002768098 0.0336126 -0.1115762 -0.06244523
000050 96 d4 f9 bc f1 a0 1d bd dc c4 d9 3c ed 65 e0 3d
       -0.030496877 -0.038483564 0.026583128 0.10956941
000060 93 6c a1 3d 40 79 b3 bc 3c 4b 5d 3c eb 34 78 bd
       0.07882037 -0.021908402 0.013506707 -0.06059734
000070 42 5f 98 bd b5 b2 c6 bd cb b0 85 3c 13 75 c8 bd
       -0.07440044 -0.097020544 0.016319653 -0.09787955
000080 39 cc af 3d 23 cf 30 bd 53 43 f4 bb c3 50 bd 3d
       0.08583874 -0.04316629 -0.0074543147 0.0924392
000090 31 dc dc bd 22 a7 7d bd cf cb 20 bd 21 df 5c 3d
       -0.10784186 -0.06192697 -0.039256867 0.05392373
0000a0 e1 85 50 3d 11 c1 f0 3d f4 77 6a 3d 39 63 6f 3c
       0.050908927 0.117555745 0.057243302 0.014611059
0000b0 ab 5f 2c bd 62 2d 28 3d 7e dc 93 3c f2 10 40 3c
       -0.042083424 0.041058905 0.018049475 0.01172279
0000c0 bf f4 6a 3c 22 ed 8a 3d d1 98 e9 3d 50 8e cf bd
       0.014340579 0.06783511 0.114061005 -0.10134566
0000d0 66 73 ba 3d 92 3a ee 3d c0 8c 02 3c 8f 98 b6 3d
       0.09104042 0.11632265 0.007968128 0.08915817
0000e0 d2 65 bc 3d b1 0c 16 3c dd 83 e9 bc 3d b5 93 3a
       0.09199108 0.009158299 -0.02850526 0.0011269223
0000f0 2c 35 03 bc 44 b5 d8 3c ec 27 e1 bc 3e e9 e1 bd
       -0.008008283 0.026453622 -0.027484857 -0.110308155
000100 27 65 4b 3d a1 0b a2 3d 05 fa 83 3d 4a ed 75 bd
       0.049657013 0.07912374 0.06444172 -0.06004075
000110 0f f1 b1 3c f0 61 b1 3c 62 9e 95 bd 83 41 21 bd
       0.021721391 0.021653146 -0.073056 -0.039369117
000120 56 55 55 3d f4 58 b5 bd 39 06 b1 bd 44 f9 0b 3d
       0.052083336 -0.08854857 -0.08643765 0.034173265
000130 67 94 4c 3d f6 85 8c 3d 9b 77 ed bd c0 dc c2 bd
       0.049946215 0.068614885 -0.115950786 -0.09514761
000140 72 7a f7 bc e4 f5 b2 3c 0b 30 ac 3c ee ef 8a 3d
       -0.030209754 0.021845765 0.021019002 0.06784044
000150 e1 e6 f2 3d 92 fe 87 bc ac 34 22 bd c8 7d 3a bd
       0.11860443 -0.01660088 -0.039601013 -0.04553011
000160 2d e4 a1 bd 34 97 9d bd 2d 30 32 bc cb 99 dd bd
       -0.07904849 -0.07694855 -0.010875744 -0.10820349
000170 d7 21 67 bc f7 0a 58 bd 32 4e 53 3d f8 a4 d5 bd
       -0.014107189 -0.052744832 0.051588245 -0.10431856
000180 1f 26 b7 3c 4e c9 61 bd 44 1d 03 bd a6 35 93 bd
       0.022357045 -0.05512362 -0.03201033 -0.07187967
000190 09 81 52 bd 33 1a a1 bd 3b c9 85 3d 50 91 d6 3d
       -0.05139259 -0.07866325 0.06532522 0.10476935
0001a0 e2 53 86 3b 52 2e ea bd 8e 08 d1 3d bc a4 35 3d
       0.004099355 -0.11434616 0.1020671 0.044346556
0001b0 d4 08 c9 bd 6f 55 2d bd 61 c0 a7 bd e2 c1 a7 bd
       -0.09816137 -0.042317804 -0.0819099 -0.08191277
0001c0 d7 49 87 3d 02 97 51 bd c8 93 6b bc b5 a4 cc 3b
       0.06605881 -0.051169403 -0.0143784955 0.0062452205
0001d0 69 0e 8c 3d 4a 60 d1 3d 09 63 13 bd 35 f8 7b bd
       0.06838686 0.10223444 -0.03598312 -0.061516006
0001e0 99 1f 15 3d 1b 0b b9 3d 1f 83 08 3d ef 36 ea 3d
       0.036407087 0.09035321 0.03332817 0.11436259
0001f0 58 3d 88 bc a1 44 9a bd 31 f1 8f 3d 44 8e b8 3d
       -0.016630813 -0.07532621 0.070284255 0.0901151
000200 fb 82 9e bd 4a 7d 98 3d a3 04 00 bb 5f a5 84 bd
       -0.07739826 0.07445772 -0.0019534014 -0.064768545
000210 43 e5 83 3d 55 93 0c bd 9e 93 6b 3d 50 24 c7 3c
       0.064402126 -0.034320194 0.057513826 0.024309307
000220 48 84 82 3d b1 f2 c9 bd 34 dc 3e 3d a6 7c 9f 3d
       0.06372887 -0.09860743 0.04659672 0.07787447
000230 dc 2e 46 3c 4c b0 ef 3d 09 22 48 bd f4 ca 8b 3c
       0.012096133 0.11703548 -0.048860583 0.017064549
000240 43 84 e2 3c ad 22 be bd 01 9e b0 3d da 36 41 bb
       0.027650958 -0.09283958 0.08623887 -0.0029482157
000250 f6 3f aa 3c d8 ab 33 bd 37 8e 1b 3d e0 56 a6 3d
       0.020782452 -0.043865055 0.037977424 0.08122039
000260 33 cb 83 bd 42 e4 dc bb 58 46 1b 3d d4 74 29 bd
       -0.064352416 -0.0067410776 0.037908882 -0.04137118
000270 37 80 3c 3d e1 cc bf bd 3a 4b 6e 3d 10 b5 c9 3d
       0.046020713 -0.093652494 0.05817721 0.09848988
000280 ce e3 f1 bc 97 e4 1f 3d 72 aa bf 3c e1 0a fb 3c
       -0.029527571 0.03903636 0.023396704 0.030644836
000290 7d 32 85 bd 86 39 a7 3c e9 85 55 3d a8 53 4a bd
       -0.065037705 0.020413171 0.05212966 -0.049396187
0002a0 81 b2 a1 bd 23 10 c8 bd 2a 1f f2 3c 0d 39 a7 3c
       -0.07895375 -0.09768703 0.029555876 0.020412946
0002b0 62 c9 88 3d e2 4f e1 3d e9 70 4a bc c5 3b a6 3c
       0.06679036 0.110015646 -0.012356021 0.020292172
0002c0 8f e1 90 3d 5e 5a b7 bd 78 02 5d bd 70 58 02 3d
       0.07074272 -0.08952783 -0.053957433 0.03182262
0002d0 62 0a ca 3c 40 02 df 3d 6a a2 47 3d e6 8f 2d 3d
       0.024663154 0.10889101 0.048738874 0.04237356
0002e0 4d 7e e8 bb 68 3c 0a bd 83 9c 9e bc 4e 98 29 bd
       -0.0070951344 -0.033749014 -0.01936174 -0.041405015
0002f0 01 77 ab 3d 2e 16 b4 bb 79 4a 79 3d 49 03 f8 bc
       0.083723076 -0.005495808 0.06086204 -0.030275004
000300 b8 a2 51 bc 87 45 8a 3d ad 30 d2 3d 7c 15 cb 3d
       -0.012795143 0.067515425 0.102631904 0.09916207
000310 11 55 19 bd c8 86 21 bd 35 c2 8b bc da 18 87 3d
       -0.03743464 -0.039435178 -0.017060379 0.06596537
000320 ea a3 51 bd 71 b1 a2 3d b1 65 a8 3d aa c1 96 3c
       -0.05118171 0.079440005 0.08222521 0.018402893
000330 64 8c a8 bd cf 30 0d bd b3 80 ee 3d 97 ee a1 3d
       -0.082299024 -0.034470376 0.11645641 0.079068355
000340 1d af e1 3b 8a 18 a2 bd 34 b9 ea bd 93 d4 ec 3c
       0.00688733 -0.07914837 -0.11461106 0.028909957
000350 bb 51 9f bd 91 23 8d bd d4 59 bd 3d 56 3c e8 3d
       -0.07779261 -0.068915494 0.09245649 0.11339633
000360 9b 2e 41 3d 1f 68 0d bd 5a 75 b0 3d 85 dd c6 bd
       0.047163587 -0.034523126 0.08616133 -0.0971022
000370 76 9b 07 bd 9e 20 ee 3d ef e7 80 bd 07 c2 a4 3d
       -0.033107243 0.11627315 -0.06294238 0.0804482
000380 2b ca ea 3d 67 91 25 3c e5 d5 ac 3d 91 c5 b8 bd
       0.11464342 0.010105467 0.08439235 -0.09022058
000390 3b 2b 26 bd 64 53 83 3b 43 c3 b7 bd e1 74 a3 bd
       -0.04056857 0.0040077437 -0.0897279 -0.07981277
0003a0 c9 e3 97 3c 84 72 de bd 6b b2 b2 3d 23 c5 39 3c
       0.018541234 -0.10861686 0.08725437 0.011338505
0003b0 a5 ec 6d 3d c9 54 1b 3d 7c 1f e4 3d 2f 7e 6b 3d
       0.05808701 0.037922654 0.11138818 0.057493385
0003c0 f3 48 cd bd 14 e3 ad 3b d3 93 ba 3d d1 96 6f 3d
       -0.100236796 0.005306611 0.091102265 0.05849344
0003d0 a4 b1 c6 bd 83 ce af bd 1f 37 b9 3d 6c 1c 31 bd
       -0.09701851 -0.08584311 0.09043717 -0.043239996
0003e0 4e 33 a1 3d ca 9c a9 3c 01 4e bf bd 5e 75 02 bd
       0.07871114 0.020704646 -0.0934105 -0.03185021
0003f0 f8 06 0d bd 2c a7 a0 3d 10 07 ea 3d d4 c6 2e 3d
       -0.034430474 0.078443855 0.11427128 0.042670086

layer_2.bias_ih f4 [64]
000000 7c 23 aa bd 06 1e 1c 3e b5 1f 17 bd 96 39 bc bc
       -0.08307549 0.15245828 -0.036895473 -0.022976678
000010 c7 4a 4b bd e2 e8 82 3c 28 38 3a 3e 46 f4 a5 bc
       -0.04963186 0.015980188 0.18185484 -0.02025808
000020 a1 6f 41 3d de 5a c7 bc a9 74 9e 3b 0e 31 4f 3c
       0.0472256 -0.024335321 0.0048356843 0.012645973
000030 41 9a db bd 27 6c 30 3d 59 49 85 3e 8b 7a 46 3d
       -0.10722781 0.043071892 0.26032522 0.04845671
000040 93 7c 50 bc dd 89 cc ba dc 0c 60 3e 92 e2 6f 3e
       -0.012725013 -0.0015605051 0.21879905 0.23426273
000050 fe fc 4b 3d c3 f5 b5 3d d1 33 bc 3d 7e 10 e3 3d
       0.04980182 0.08884766 0.09189571 0.1108713
000060 08 e9 79 3d 39 ab 66 3e 1d f7 24 3e cc b2 89 3d
       0.06101325 0.22526254 0.16109891 0.06723556
000070 28 38 f6 bc f9 fc ad 3d b2 28 67 3e ac 96 58 3e
       -0.030056074 0.08495516 0.22574118 0.21151227
000080 5e bf 26 bd f4 ab 83 3d 42 87 49 3e 82 e1 84 3d
       -0.040709846 0.06429282 0.19680503 0.06488325
000090 1d 7c 15 3e 67 17 7f 3c 55 3b 71 bd 37 e9 ed bd
       0.14598127 0.015569544 -0.058894474 -0.11616748
0000a0 46 e7 02 3e 4d 7b 55 3e 17 d6 85 3d f2 d7 e0 3d
       0.12783536 0.20847817 0.06534975 0.10978688
0000b0 84 3e 79 3e ae 47 06 3e 6f 6b f8 bd 88 03 1e 3e
       0.24340254 0.13113281 -0.12129866 0.15431035
0000c0 60 82 83 3d f1 14 d4 3d 7e a3 2f 3e 96 c6 74 3e
       0.064213514 0.10355557 0.17152211 0.2390388
0000d0 2f 5d 77 3d 58 98 e2 bd 9c 5a c2 bd 78 77 f4 bc
       0.0603916 -0.110642135 -0.094899386 -0.029842123
0000e0 b0 18 59 3b bc df 12 3d 29 eb ab 3d cc 71 20 3e
       0.0033126287 0.0358579 0.083944626 0.1566841
0000f0 69 db 48 3d 14 22 b6 bd 3c 5a 6e 3e aa 2a 86 3b
       0.04903737 -0.08893219 0.23276609 0.0040944414

layer_2.bias_hh f4 [64]
000000 8a 5a a4 bd 30 0a 84 3d 7a 4c d9 3d 57 54 cf 3d
       -0.080250815 0.064472556 0.1061029 0.101235084
000010 22 c3 07 3c 13 12 b2 3d 15 c5 8b 3e a2 d2 cb 3d
       0.008286269 0.08694854 0.272988 0.099522844
000020 e0 48 bf bd 47 bb 52 bd 36 9b c1 bc c5 91 c5 3d
       -0.09340072 -0.051448133 -0.02363358 0.09646944
000030 fa 15 00 be cf c8 78 3b f3 da 5a 3e 80 b8 a3 3d
       -0.12508383 0.0037961488 0.21372585 0.07994175
000040 56 8b 69 bd 9d a9 86 3d 85 08 2e 3e 19 1c 25 3e
       -0.057017647 0.0657532 0.16995437 0.16124
000050 09 8b fa bd a3 d3 7a 3d a4 c3 30 3e dc 47 8e bd
       -0.1223355 0.06123699 0.17262131 -0.069473
000060 54 18 45 3c fe ab e7 3d 66 d6 c1 3d e3 dc 1a 3e
       0.012029726 0.11312102 0.094647214 0.15123324
000070 f0 e8 11 3d 5c f9 27 3d 1b 15 a2 3d f2 f3 50 3e
       0.035622537 0.041009292 0.07914182 0.20405558
000080 55 10 82 3d 69 13 6f 3e cd 87 e5 3c 76 0b 07 be
       0.06350771 0.23347248 0.028018856 -0.13187966
000090 91 e6 55 3e 12 a1 a1 3d 23 5b c2 3c ad 32 74 bd
       0.20888735 0.0789205 0.023725098 -0.05961864
0000a0 fa 53 e1 3d b4 37 21 3e 13 86 1c 3e 29 60 da 3d
       0.110023454 0.15743905 0.1528552 0.10662872
0000b0 31 a2 a8 3d c7 ab 41 3e 72 81 ce bd e5 ec 6d 3e
       0.082340606 0.18913184 -0.100832835 0.232349
0000c0 06 9e 34 3e 9c 41 15 3e 7f 30 67 3e b0 ac 04 3e
       0.17638406 0.14575809 0.22577094 0.129565
0000d0 7c 3b af 3d 4d 9f a5 bd fa d4 5b bd 56 fe 29 bc
       0.085562676 -0.08087025 -0.053669907 -0.01037558
0000e0 46 b8 07 be fc 4e 80 3e d3 47 03 3d d1 37 70 3e
       -0.13253888 0.2506026 0.03205092 0.23458792
0000f0 38 4e 26 3e 12 28 8b 3d 97 c0 7f 3e 4d 65 a7 3d
       0.16240776 0.06794752 0.24975811 0.081736185

layer_3.weight_ih f4 [32, 64]
000000 85 2f dc 3d e7 e7 c4 3c 5d 10 e9 3b 3b 0f 1d be
       0.10751251 0.02403636 0.0071125464 -0.15337841
000010 aa 84 e5 bd c6 1f a8 bd 23 7e 0e be 14 b6 0e be
       -0.11206944 -0.08209185 -0.13915305 -0.13936645
000020 fb ed 2b be 75 e6 16 be 5d ef 7d 3d 40 11 26 be
       -0.16790001 -0.1473635 0.061995853 -0.16217518
000030 f7 0d 9e bd fc cc 12 3e 60 5b 50 bd ee 37 99 bc
       -0.07717507 0.14336008 -0.050868392 -0.018703427
000040 87 9a 06 3e 7b dc dc 3d 15 14 97 bd 51 2d d3 bd
       0.13144885 0.10784241 -0.07376877 -0.10311378
000050 38 b8 e6 bd b5 d9 04 bd 69 a3 df 3c 7b ef cd bd
       -0.11265606 -0.032434184 0.0272996 -0.10055443
000060 e9 ef 55 bd 7e 4e 80 bd a6 ba 05 be a5 87 2a be
       -0.05223075 -0.06264971 -0.13059482 -0.16653307
000070 84 2e be 3c e5 a4 04 3c 97 31 5d bd 08 d0 1e bd
       0.02321554 0.008095955 -0.05400237 -0.038772613
000080 a8 63 03 be 61 7d fa bb dc bf 61 bd fc 0c 56 3d
       -0.12830985 -0.007644341 -0.055114612 0.052258477
000090 40 4c 05 be 17 e0 07 3e 79 f3 1a be 85 2a 6c 3d
       -0.13017368 0.13269077 -0.1513194 0.057657737
0000a0 7e e7 cd bd 6b a8 a6 3d 28 38 95 bd d4 e6 a8 bd
       -0.10053919 0.08137592 -0.072861016 -0.08247152
0000b0 be 6a f6 3d 72 19 f7 3d ba 3e bf bd e9 76 a6 3d
       0.12032078 0.120654 -0.09338136 0.08128149
0000c0 e2 16 1b 3e ae 40 07 be de 28 84 3d d5 68 ce bd
       0.15145448 -0.13208267 0.06453107 -0.10078589
0000d0 5c 2e 0c 3d 84 8b 59 bd d4 ed 94 3d 89 72 23 3e
       0.0342239 -0.053111568 0.072719246 0.1596166
0000e0 0f ae c2 bd e2 c8 36 bc f8 4c d9 3c 68 65 13 be
       -0.09505855 -0.011156293 0.02652596 -0.14394152
0000f0 87 93 bc bc 89 1b 7f bd b4 77 6d 3d 22 2d fd 3d
       -0.023019565 -0.06228212 0.057975486 0.12362124
000100 56 cc 05 3e 4f 38 be 3d 19 a4 b5 3d 7a fa 40 3c
       0.13066229 0.09288084 0.0886919 0.011778468
000110 be c7 12 be 57 a5 51 3f f3 bd 3a bd 21 2a 03 3c
       -0.14334008 0.81892914 -0.045591306 0.00800565
000120 fa 43 c1 bd c8 12 4e 3c 65 46 8c 3d 21 a8 a5 3d
       -0.094367936 0.01257772 0.06849364 0.08088709
000130 cf 38 c7 3b 8e 5c 1b 3e 5c de 3a bd db 79 44 bd
       0.00607977 0.15172026 -0.045622215 -0.047967773
000140 a7 21 9d bc bf 99 80 3e f2 71 76 3e dc 9d 4e 3e
       -0.019181086 0.251173 0.24066904 0.20177406
000150 62 69 21 3e 7f 32 63 3e d2 02 2f bd dc c3 a6 3f
       0.15762857 0.22187231 -0.0427273 1.3028522
000160 a7 0c 1b 3e 7b 35 99 3d d3 c7 7c 3e 46 8c ec 3d
       0.15141545 0.07480904 0.24685602 0.115501925
000170 7d 5c 0a 3e 11 1b e0 bc 01 17 52 3d 0c aa 31 bd
       0.13511844 -0.027356656 0.05129147 -0.04337506
000180 51 f1 c6 3d 59 82 0e 3e eb 0f 17 bd 77 00 64 bc
       0.09713996 0.13916911 -0.036880415 -0.013916126
000190 d9 58 6b 3e e7 e7 c7 3d 56 12 65 3c cf 13 28 3e
       0.22983111 0.09761029 0.013981422 0.16413806
0001a0 42 34 83 3e d0 30 7b 3d 88 58 44 3e cd c9 d0 3c
       0.25625807 0.061325848 0.19174397 0.025486851
0001b0 cd 20 6d 3e 93 a3 25 3e 8c ab fb 3d 7a e2 45 3e
       0.23157044 0.1617568 0.12288579 0.19324675
0001c0 9d 11 84 3e 92 61 ff 3d 39 3f 01 3e ff 04 5c bc
       0.25794688 0.12469782 0.12621774 -0.013428926
0001d0 af df 50 3e 4a a1 f2 bd bf 5f 0f be 76 21 f5 bd
       0.20397829 -0.1184717 -0.14001368 -0.11969273
0001e0 e5 ec 60 bd ce 68 6a bd 94 55 26 be 4d de 16 3e
       -0.05491342 -0.057228856 -0.16243583 0.14733239
0001f0 3f ec 54 3e 63 21 df 3c 44 2c 80 3c ba 6b ef 3d
       0.20793246 0.0272376 0.015646107 0.11690469
000200 08 7d 6c 3d 1f 8c 7b 3e 68 09 d5 bc 82 b8 a0 bc
       0.057736427 0.2456517 -0.026005462 -0.01961923
000210 15 a4 c8 bd 33 7c 49 3f eb 5b da 3a 2e 82 8f bc
       -0.09796921 0.7870514 0.0016659474 -0.01751813
000220 cf c5 85 bd ae a2 17 be a6 06 e9 3d da 62 51 3e
       -0.065318696 -0.14808151 0.11378221 0.20447865
000230 1d b2 57 3d 75 2d 0a 3e 95 2f 3d 3d 82 0c 8f 3d
       0.052660096 0.13493903 0.046187956 0.069848076
000240 91 5c 18 be c2 54 63 3d 75 9c 80 3d e2 28 74 3d
       -0.14879061 0.055500753 0.06279842 0.0596093
000250 bb 95 1d bd 9f 2e 00 3e 04 4e 05 3e be f9 9a 3f
       -0.038472872 0.12517785 0.13018042 1.2107465
000260 91 f8 81 3e 92 cc 71 bc ae 41 58 3e 59 1b 65 3e
       0.25384954 -0.014758246 0.21118805 0.22373714
000270 ae 46 d6 bd 28 46 fa 3d 00 38 85 3e 98 00 8f 3d
       -0.104627 0.122204125 0.26019287 0.06982535
000280 f1 2e 86 bd 0b 29 8a 3e 03 28 86 3e c7 bd 20 be
       -0.06551922 0.26984438 0.26202402 -0.15697394
000290 69 fd 10 3d 2e 1b b7 3d a5 81 1b 3d ea be df 3d
       0.03539792 0.08940731 0.037965436 0.10925086
0002a0 65 de 7b 3e 99 52 19 3d ba 4f f7 3d ec c0 86 3d
       0.24596556 0.037432287 0.120757535 0.06579766
0002b0 3f f6 05 3d 6d e2 1a 3d b5 07 8d 3d 9b 1c 8d 3e
       0.03270554 0.037813593 0.068862356 0.27560887
0002c0 ea 45 72 3e 97 b6 6c 3e 98 e4 8a 3e f2 72 3c 3e
       0.23659483 0.23116527 0.27127528 0.18403223
0002d0 aa 83 91 3e 7f 51 17 3e 65 92 54 bc 4a 8c 03 be
       0.28420764 0.14777182 -0.012974356 -0.12846485
0002e0 47 73 9f 3d cb 1e 84 3e d8 71 01 be 13 d3 0f 3e
       0.07785659 0.25804743 -0.12641084 0.14045362
0002f0 e2 a0 a2 3e c0 fc a3 3a 83 b2 3c 3e 70 ae 52 3d
       0.3176337 0.0012511238 0.18427472 0.051435888
000300 7a 27 52 bc bf c0 88 3e 1f b1 3a bd 3e db 26 bd
       -0.012826795 0.26709554 -0.045579072 -0.04073643
000310 0d 1e fe bd c0 f9 8c 3f e2 79 bb 3d 43 f2 0f be
       -0.124080755 1.1013718 0.09154107 -0.1405726
000320 a6 75 1a 3e 26 7e 27 be 22 a0 3b 3d b5 0b 52 3e
       0.15083942 -0.16356716 0.04580701 0.20512278
000330 5c 43 9a 3b ce e1 62 3d 08 c7 67 3e d1 75 9d bc
       0.004707737 0.055391125 0.22634518 -0.019221218
000340 95 39 55 be 14 fc 22 3e 9c 44 9b 3e ef 9f 70 bc
       -0.20822747 0.15916473 0.30325782 -0.014686569
000350 ae 99 b9 3d b0 7e 94 3e 78 18 09 3e 45 24 95 3f
       0.09062515 0.29002905 0.1338824 1.1651694
000360 49 8f 21 3d 94 55 43 3e 98 98 84 3e 7c 7e 25 3d
       0.039443288 0.19075614 0.2589767 0.040403828
000370 00 fe 07 be da 62 01 3e 90 07 00 3c 9a 1a 64 3e
       -0.13280487 0.12635365 0.007814303 0.22275773
000380 a8 6b d0 bd ab 67 58 3e 48 7a 02 3d 86 0d 82 3d
       -0.10176784 0.21133296 0.031854898 0.06350236
000390 ac c8 4e 3e b5 85 be 3c 87 97 82 3b 79 4a b6 bd
       0.20193738 0.023257116 0.0039853486 -0.08900923
0003a0 48 fc 99 3e a6 f9 97 3e 63 a7 70 bd 44 0e fa 3d
       0.30075288 0.29682654 -0.058753382 0.12209752
0003b0 de 5c 95 3e b9 c8 b7 3d fe 17 e9 bd 19 93 ba bc
       0.29172415 0.08973832 -0.11381529 -0.02277522
0003c0 d2 3d 91 3e c2 c0 fe 3d e5 c8 83 3e d9 93 96 3e
       0.28367478 0.124391094 0.25739208 0.29409674
0003d0 d0 7d 15 3e d2 c5 5f 3d 41 8a 15 bd 4d 10 6d 3d
       0.14598775 0.054632016 -0.036508802 0.057876874
0003e0 e9 a7 81 bd e9 4b c5 3c 43 63 4d bd d0 80 89 3c
       -0.063308544 0.024084048 -0.05014349 0.016785055
0003f0 2a a4 b1 3d 9d 84 f1 3d 7b 34 72 3e a0 33 2b bd
       0.0867389 0.11792872 0.23652832 -0.04179728
