src/pyoptes/optimization/budget_allocation/supervised_learning/trained_nn_states/ba_120_FCN_per_node.pth (torch, 324679 bytes, 10 tensors)

layer_1.weight f4 [128, 120]
0	0x3dac397a	0.084094
1	0xbd133bf4	-0.035945848
2	0xbd824557	-0.06360882
3	0x3d0ed1ae	0.034867935
4	0xbcb4a76b	-0.022052487
5	0xbd680c41	-0.05665231
6	0x3db7658a	0.08954914
7	0x3cc95b7f	0.024579762
8	0xbd3bc01c	-0.045837507
9	0x3dab6f7c	0.08370873
10	0xbdadff56	-0.08495967
11	0xbdb72310	-0.089422345
12	0x3d29f55a	0.04149375
13	0x3da7dc82	0.081963554
14	0x3d69b3b4	0.057056144
15	0x3cca2647	0.024676455
16	0xbd0ee0bc	-0.034882292
17	0x3d2aa134	0.04165764
18	0x3d8dafd2	0.06918301
19	0xbda7185d	-0.08158944
20	0xbd96798e	-0.073474035
21	0xbc1f2b53	-0.009714919
22	0xbd8e7818	-0.069565
23	0x38f5c86e	0.00011719843
24	0xbd233902	-0.03984929
25	0x3d966448	0.07343346
26	0xbd0480da	-0.032349445
27	0x3cf11b92	0.029432092
28	0x3d93e1a0	0.07220769
29	0x3db70d8f	0.08938133
30	0xbccc3643	-0.024928218
31	0x3d6a1765	0.057151217
32	0x3c6f1f76	0.014594903
33	0x3c51e405	0.012810712
34	0x3d39e189	0.045381103
35	0x3d65836e	0.056033544
36	0x3d4db253	0.05021889
37	0xbd229e3e	-0.039701693
38	0xbc419f35	-0.011817743
39	0x3d844f84	0.06460479
40	0xbcfe7496	-0.031061452
41	0x3b970466	0.0046086786
42	0xbbc17c22	-0.0059046904
43	0xbd0ba32c	-0.03409116
44	0xbdb79daf	-0.08965623
45	0xbdb489c3	-0.088153385
46	0xbb1dc975	-0.0024076377
47	0xbd1f9fa4	-0.038970605
48	0xbd46e957	-0.048562374
49	0xbd4d99f7	-0.05019566
50	0xbc8f0fbf	-0.017463563
51	0xbd75fcee	-0.060055666
52	0xbc81e9ca	-0.01585855
53	0x3d8a2fc7	0.06747394
54	0x3d44c936	0.048043452
55	0xbbca9d0f	-0.0061832736
56	0xbd689db8	-0.056791037
57	0x3cf1e452	0.029527817
58	0x3c89c818	0.016819045
59	0x3d3ba1c7	0.04580858
60	0x3db6d7a2	0.089278474
61	0x3b524533	0.0032084703
62	0xbd96486d	-0.07338033
63	0x3b9a4a1a	0.0047085406
64	0x3c94b35c	0.018151931
65	0xbdab2b43	-0.08357861
66	0x3db57077	0.088593416
67	0x3d3d8130	0.04626578
68	0xbd71f13a	-0.059067942
69	0xbdaff2ef	-0.08591258
70	0xbda5f6b2	-0.08103694
71	0x3d3a7412	0.04552085
72	0xbd4ba416	-0.04971703
73	0xbc543849	-0.012952873
74	0xbc85c1e9	-0.016327815
75	0x3c2ea0b9	0.010658436
76	0x3c31452e	0.010819716
77	0xbd29be47	-0.04144123
78	0x3d8fc1b8	0.07019371
79	0x3c814119	0.015778111
80	0xbd90b081	-0.070649154
81	0xbd8a0c8c	-0.067406744
82	0xbd557496	-0.05211314
83	0xba3d2a05	-0.0007216039
84	0xbd988be6	-0.074485585
85	0xbda6be53	-0.0814177
86	0x3cedaba3	0.029012507
87	0xbb244467	-0.0025065185
88	0xbd26211a	-0.04055891
89	0xbd451210	-0.04811293
90	0x3ce1e0af	0.027572958
91	0x3d901d59	0.070368476
92	0x3d4f1be5	0.05056371
93	0xbd4855df	-0.048910018
94	0xbb0d7f63	-0.002159082
95	0xbcbab276	-0.022790175
96	0xbd672756	-0.056433998
97	0x3bda9e91	0.0066717346
98	0xbd34778f	-0.044059332
99	0xbd9fb1c5	-0.07797579
100	0x3d06e723	0.032935273
101	0xbdb596dc	-0.08866665
102	0x3d803804	0.06260684
103	0xbdb5915c	-0.08865616
104	0xbdb63708	-0.08897215
105	0xbc58967b	-0.013219471
106	0x3d0d67a4	0.034522668
107	0x3da0e2b4	0.0785574
108	0x3d8e90b5	0.069611944
109	0xbd981edb	-0.0742776
110	0xbd035bcc	-0.032069966
111	0xbc4af6e7	-0.012387968
112	0xbc9345c5	-0.017977605
113	0xbc6937c0	-0.014234483
114	0x3d2a8cdd	0.041638244
115	0x3b329574	0.0027249726
116	0xbb40d099	-0.002942121
117	0xbbd2302a	-0.006414433
118	0x3daec038	0.085327566
119	0x3c7254b4	0.014790703
120	0xbdb6c1d2	-0.08923687
121	0xbd8fd615	-0.07023255
122	0xbc8eed6d	-0.017447198
123	0xbcf3e5a6	-0.02977259
124	0xbdac5893	-0.08415332
125	0xbc3e0dae	-0.011599941
126	0x3d909b1d	0.070608355
127	0xbd98dce2	-0.07464005
128	0xbd0eff22	-0.034911282
129	0x3c7decf0	0.015498385
130	0xbb9eda62	-0.0048478106
131	0xbd75afeb	-0.05998222
132	0xbdab274a	-0.08357103
133	0x3d4d9961	0.0501951
134	0xbcc83277	-0.024438126
135	0xbd341c3e	-0.043972246
136	0x3d860802	0.06544496
137	0xbd575a42	-0.05257631
138	0xbd94de1f	-0.07268929
139	0x3d0ff51a	0.035145856
140	0x3db79146	0.089632556
141	0xbd538cfb	-0.05164812
142	0xbd3f4ce6	-0.046704195
143	0xbd82a4f0	-0.063791156
144	0xbda545f2	-0.08069982
145	0xbda99103	-0.08279612
146	0x3baf3e4d	0.005348003
147	0xbd057c2d	-0.032589126
148	0xbd13d379	-0.036090348
149	0xbb9fdd84	-0.0048787016
150	0x3da518a1	0.08061338
151	0x3d87312e	0.06601177
152	0xbd818fce	-0.06326257
153	0xbd97b292	-0.074071065
154	0x3d9fcf97	0.078032665
155	0x3db115b0	0.08646715
156	0x3d9b2b40	0.07576609
157	0xbc385933	-0.0112517355
158	0x3d70818f	0.058717307
159	0x3d1e6b53	0.03867657
160	0xbd9c74ef	-0.07639491
161	0xbd97c21b	-0.074100696
162	0xbdb8448d	-0.0899745
163	0x3cdc8790	0.02692011
164	0x3dac83c6	0.08423571
165	0x3d334b1d	0.043772805
166	0x3d905ea0	0.07049298
167	0x3d874931	0.06605757
168	0xbda66ed2	-0.08126606
169	0x3d406699	0.046972845
170	0xbc2a884c	-0.010408472
171	0xbd9d6775	-0.076857485
172	0xbd181d29	-0.037137184
173	0xbd285972	-0.041100927
174	0xbbd00704	-0.0063484926
175	0x3d809549	0.06278474
176	0xbd16b0bf	-0.036789652
177	0x3d48d571	0.04903168
178	0x3d3f499a	0.04670105
179	0x3d13b711	0.036063258
180	0x395d2da8	0.0002109321
181	0x3d26285c	0.040565833
182	0x3c7ae304	0.015312914
183	0x3db50656	0.08839099
184	0xbd54957c	-0.051900372
185	0x3d61d7de	0.055137508
186	0xbd2cc32b	-0.042178314
187	0x3db5b846	0.08873038
188	0xbd8d0372	-0.06885423
189	0x3d888ee5	0.0666788
190	0x3d7450a1	0.059647206
191	0xbdb56906	-0.08857922
192	0xbd8816ec	-0.06644997
193	0x3cafdc77	0.02146743
194	0x3cf734a4	0.030176468
195	0x3da2e597	0.07953947
196	0xbbae5026	-0.005319613
197	0x3d270fd3	0.040786576
198	0x3c4e8ebb	0.012607272
199	0xbda28078	-0.0793466
200	0xbd575a9b	-0.052576642
201	0x3db0b945	0.08629087
202	0x3b8e3ccd	0.004340744
203	0x3d802eba	0.062589124
204	0xbd1db5cf	-0.038503464
205	0x3d879c47	0.066216044
206	0x3ce41fb6	0.027847152
207	0xbb879b91	-0.004138418
208	0xbc917f2a	-0.017760832
209	0xbd9d3301	-0.07675744
210	0x3b8f3390	0.0043701604
211	0xbbc5e09f	-0.00603874
212	0xbda1f5c5	-0.07908205
213	0x3d3d06f2	0.0461492
214	0xbd5e7e88	-0.05431989
215	0x3be1aa92	0.0068867886
216	0x3db6396e	0.088976726
217	0xbd7a5ada	-0.0611218
218	0xbd98ce55	-0.0746123
219	0x3d8dedc7	0.06930118
220	0x3d79c129	0.060975228
221	0x3d087bc9	0.033321176
222	0x3d3006d7	0.042975273
223	0xbce629ba	-0.028096069
224	0xbd3c9bfb	-0.046047192
225	0xbcdb17b2	-0.026744697
226	0x3d7ab074	0.061203435
227	0xbc1ceee9	-0.009578445
228	0xbd121154	-0.035661057
229	0x3d4ad352	0.049517937
230	0xbd54c615	-0.05194672
231	0x3bf3fb44	0.0074457247
232	0xbd2c5258	-0.042070717
233	0x3b99514f	0.004678882
234	0x3c988120	0.01861626
235	0xbd317609	-0.043325458
236	0xbcbdc146	-0.023163449
237	0xbd08e4ca	-0.033421315
238	0xbd28e99d	-0.041238416
239	0x3b01bf2a	0.001979778
240	0xbf160540	-0.5860176
241	0xbf02ab85	-0.5104297
242	0xbd9b22b1	-0.07574976
243	0xbf2abd2d	-0.6669491
244	0xbf05f46f	-0.523261
245	0xbf2f1450	-0.6839037
246	0xbf131b56	-0.57463586
247	0xbf1246c0	-0.57139206
248	0xbf235324	-0.6379874
249	0xbf0a1d39	-0.5395084
250	0xbf2a1ac6	-0.66447103
251	0x3d512d45	0.051068563
252	0xbf1cadd6	-0.6120275
253	0xbf0e8bc1	-0.55682
254	0x3d965bc6	0.07341723
255	0xbf25e182	-0.6479722

layer_1.bias f4 [128]
0	0xbd87c53a	-0.06629415
1	0x3d900202	0.07031633
2	0xbf11db42	-0.56975186
3	0xbd60d256	-0.054888092
4	0xbf1999b3	-0.6000015
5	0xbcf27e40	-0.029601216
6	0x3c893b30	0.016751856
7	0xbc621c3e	-0.013800679
8	0x3db6f9c9	0.089343615
9	0xbf10df02	-0.5659028
10	0xbf058137	-0.5215029
11	0x3c2ceef6	0.01055502
12	0xbce9dd21	-0.028547825
13	0x3c7ac2ca	0.01530523
14	0xba3a5cf3	-0.00071091874
15	0xbf158c6f	-0.5841741
16	0xbecef7d0	-0.4042344
17	0xbcd17c38	-0.025571927
18	0xbd51e7da	-0.0512465
19	0xbf09583c	-0.5365026
20	0xbf251b60	-0.64494896
21	0xbef1b1f8	-0.47206092
22	0xbf2a90ea	-0.6662737
23	0x3ceeab9b	0.029134562
24	0xbf0f66a1	-0.56015974
25	0xbf124070	-0.57129574
26	0xbf2afc3b	-0.66791123
27	0x3d913935	0.070909895
28	0xbc9ab191	-0.018883498
29	0xbf0fc5d0	-0.5616121
30	0xbd4d9355	-0.050189335
31	0xbc866eb3	-0.016410207
32	0xbd3397e5	-0.04384603
33	0xbf0d44a5	-0.5518287
34	0xbeee9513	-0.4659811
35	0x3da34d4b	0.07973727
36	0xbf26a5f9	-0.65097004
37	0xbf18c1c5	-0.5967067
38	0xbf11272e	-0.5670041
39	0xbf0ff5a3	-0.56234187
40	0xbf030027	-0.5117211
41	0xbf02e5d9	-0.5113197
42	0xbee2efed	-0.44323674
43	0x3b0f6265	0.0021878716
44	0xbf29c00e	-0.6630868
45	0xbda4b981	-0.080431946
46	0xbf0edfac	-0.55810046
47	0xbda2bb1e	-0.07945846
48	0xbc7cb3e8	-0.015423752
49	0x3d9ab972	0.07554902
50	0xbd088d04	-0.033337608
51	0xbeeb0514	-0.45902312
52	0x3da3a528	0.079904854
53	0xbf001cbc	-0.50043845
54	0xbecc854d	-0.3994545
55	0xbf28e7c0	-0.6597862
56	0xbc237c98	-0.009978436
57	0xbf256102	-0.6460115
58	0x3cca7ef8	0.024718747
59	0xbf118fc7	-0.5686001
60	0xbd9090d6	-0.07058875
61	0xbf152632	-0.58261406
62	0xbecca85b	-0.39972195
63	0xbd937954	-0.07200876
64	0xbefc3cd2	-0.49265152
65	0xbd655df1	-0.055997793
66	0xbc285c12	-0.0102758575
67	0xbf25f273	-0.64823073
68	0xbd9b171b	-0.075727664
69	0x3d95e6a6	0.07319383
70	0xbf233462	-0.63751805
71	0xbeee823e	-0.46583742
72	0x3d514923	0.05109514
73	0x3c6c4150	0.014419869
74	0xbd5e2e1b	-0.05424319
75	0x3dafcbb1	0.08583773
76	0x3d4a5433	0.049396705
77	0xbda3f1f6	-0.08005135
78	0xbee3ce55	-0.44493356
79	0xbf1f17f6	-0.62145936
80	0xbf17640e	-0.59137046
81	0xbf0d0c5b	-0.5509698
82	0xbd9b3be7	-0.07579785
83	0xbd286da8	-0.0411202
84	0x3d921779	0.07133383
85	0xbf2ac155	-0.6670125
86	0xbb633902	-0.003467143
87	0x3d304dee	0.04304307
88	0xbedf36d3	-0.43596515
89	0xbdb52f8f	-0.08846962
90	0xbf2b2a69	-0.6686159
91	0xbd55a931	-0.052163307
92	0xbd83067c	-0.06397721
93	0xbec79b78	-0.389858
94	0xbc413816	-0.011793157
95	0xbeb69b2e	-0.35665268
96	0xbeff6a4c	-0.49885786
97	0xbee1c76d	-0.44097462
98	0xbed08d0b	-0.40732607
99	0xbf14ab4e	-0.5807389
100	0x3ceb4a33	0.028721904
101	0x3db84184	0.08996871
102	0x3c872179	0.016495453
103	0xbeccf2d4	-0.40029013
104	0xbee9a966	-0.45637053
105	0x3c1ecaab	0.0096918745
106	0x3d5fcc52	0.054638214
107	0xbf2d2b49	-0.6764417
108	0xbf15dce3	-0.5854017
109	0xbef9298e	-0.48664516
110	0xbec64e8c	-0.38731802
111	0x3d0a73db	0.033801895
112	0x3c6f64e7	0.014611459
113	0xbf04a99e	-0.51821315
114	0xbf1b7998	-0.6073241
115	0xbda1fa91	-0.0790912
116	0xbf1a8f6c	-0.60375094
117	0xbecbe94b	-0.39826426
118	0xbf0ccf9f	-0.55004305
119	0xbd82dc69	-0.06389696
120	0xbedd3696	-0.43205708
121	0xbf257e11	-0.6464549
122	0x3ce07b91	0.027402671
123	0x3da72e3c	0.081631154
124	0xbf04b37b	-0.51836365
125	0xbf1a854c	-0.60359645
126	0xbf0b8469	-0.54498917
127	0xbceb4443	-0.028719073

layer_2.weight f4 [128, 128]
0	0x3d5fd5f0	0.054647386
1	0xbd9d4f2f	-0.07681119
2	0x3ca36934	0.019947626
3	0xbcbd0514	-0.02307371
4	0xbd4bce8d	-0.04975753
5	0xbd90cea2	-0.07070662
6	0xbd89aa6b	-0.06721958
7	0xbd959b1e	-0.07304977
8	0xbdaadbb5	-0.08342687
9	0x3d8988a9	0.06715519
10	0xbda17a26	-0.07884626
11	0x3c0184b6	0.007905176
12	0x3c7ce7f7	0.015436164
13	0x3db18f2c	0.08669886
14	0x3ca7acfc	0.020468228
15	0xbc2d25ac	-0.010568064
16	0xbbdd72d0	-0.0067580715
17	0xbcb3b346	-0.02193607
18	0x3b0e8cba	0.002175136
19	0xbd3bbc32	-0.045833774
20	0xbccffe01	-0.025389673
21	0xbd3f86a3	-0.04675926
22	0x3d5b12a2	0.053484567
23	0xbd80af68	-0.06283456
24	0x3d3b4d4d	0.045728017
25	0xbd1cf7ee	-0.03832238
26	0x39f0c8af	0.00045925888
27	0x3d34e7aa	0.044166245
28	0xbbd43e88	-0.006477181
29	0xbc34d72f	-0.011037632
30	0x3bd469b4	0.0064823274
31	0x3c40c23f	0.011765062
32	0x3c11c5f5	0.008897294
33	0x3cd8ecc8	0.026480094
34	0xbda6db31	-0.08147276
35	0x3cc90ec3	0.024543172
36	0xbd996d8d	-0.07491598
37	0x3cdd029e	0.026978787
38	0xbd16c781	-0.036811356
39	0xbd835eb6	-0.06414549
40	0x3cad215c	0.021134071
41	0xbac21400	-0.0014806986
42	0x3d29659d	0.04135667
43	0xbca29f4f	-0.019851355
44	0x3d640bc1	0.055675272
45	0x3d48d8cf	0.04903489
46	0x3cdc2aa3	0.0268758
47	0xbcb93f5d	-0.022613222
48	0xbc94c757	-0.018161459
49	0xbd254af6	-0.04035469
50	0xbcaa9d37	-0.020826919
51	0xbd308d9a	-0.04310379
52	0xbd577784	-0.052604213
53	0xbd94c1fd	-0.07263563
54	0x3c427429	0.011868515
55	0xbd9500a9	-0.072755165
56	0x3cc04368	0.023469642
57	0x3c25929a	0.010105753
58	0xbcc2b80d	-0.023769403
59	0xbc1882c3	-0.00930852
60	0x3c925c04	0.017866142
61	0xbd2c043b	-0.041996222
62	0x3d4a60af	0.04940861
63	0x3bbb2a33	0.0057118176
64	0xbd8b860d	-0.068126775
65	0xbb05248a	-0.0020315968
66	0xbd80b669	-0.06284792
67	0xbd8508ff	-0.064958565
68	0xbd958d92	-0.07302393
69	0x3dac4cb6	0.08413069
70	0xbd422fcb	-0.04740886
71	0xbc625525	-0.013814245
72	0x3c8304db	0.015993526
73	0x3d39d159	0.045365665
74	0x3c862f52	0.016379986
75	0x3d9c5348	0.07633072
76	0xbd9171cb	-0.071017824
77	0x3d3250b4	0.043533996
78	0x3cda12ab	0.02662023
79	0x3c7c6358	0.015404545
80	0xbd65a3e7	-0.056064513
81	0x3d345e62	0.044035323
82	0x3c256813	0.010095614
83	0xbda9eb23	-0.08296802
84	0xbd81b701	-0.06333733
85	0x3d909605	0.07059864
86	0xbd692e64	-0.056929007
87	0xbc6d0ec7	-0.014468855
88	0x3c20f46f	0.0098239025
89	0xbcaa335b	-0.020776441
90	0x3c97f524	0.01854951
91	0x3d841f78	0.06451315
92	0x3d3ed865	0.04659309
93	0x3c89ba10	0.016812354
94	0x3dad3765	0.08457831
95	0x3cab810f	0.020935563
96	0xbd3432bb	-0.043993693
97	0x3da0fd48	0.078608096
98	0xbd21d27c	-0.039507374
99	0xbd0be212	-0.034151144
100	0x3d7fd1a2	0.06245578
101	0x3d966c87	0.07344919
102	0x3d95c1f3	0.073123835
103	0x3bbb0d4f	0.0057083736
104	0x3c8c0e47	0.017096652
105	0x3bc1c580	0.0059134364
106	0x3d1344c0	0.035954237
107	0xbd847617	-0.06467836
108	0xbd9e9183	-0.07742598
109	0xbd3393a8	-0.043841988
110	0xbd6d6ae3	-0.057963263
111	0x3d9f088d	0.07765303
112	0xbb57c1c9	-0.0032921901
113	0x3d3a21a7	0.04544225
114	0xbc195c49	-0.009360381
115	0x3cca79c6	0.02471627
116	0xbc56d82a	-0.013113061
117	0xbc9aaf9f	-0.01888257
118	0x3d8795ec	0.06620392
119	0xbba9657f	-0.00516957
120	0xbc370a2c	-0.011171859
121	0x3c8deb0a	0.01732399
122	0x3d5f6ba0	0.054546
123	0x3d8f7fc7	0.070067935
124	0xbb4e0cc4	-0.0031440714
125	0xbd375d63	-0.044766795
126	0x3d4ec827	0.05048385
127	0x3db08aac	0.086201996
128	0x3c97775d	0.018489534
129	0xbcc6dcd0	-0.024275213
130	0x3f2213ac	0.63311267
131	0x3d66ba8b	0.056330245
132	0x3f2353a6	0.6379951
133	0x3da0d0c4	0.07852319
134	0x3d644e08	0.05573848
135	0x3da32732	0.0796646
136	0x3d932c8e	0.071862325
137	0x3f244fd0	0.64184284
138	0x3f1c4192	0.6103755
139	0x3d31a8a4	0.04337372
140	0xbd50d2fd	-0.050982464
141	0xbd7a3db3	-0.061093997
142	0x3da63c95	0.08117024
143	0x3f18d5b9	0.59701115
144	0xbf10b130	-0.56520367
145	0x3d546711	0.051856104
146	0xbcbc64d1	-0.022997292
147	0x3f1d6754	0.6148579
148	0x3f1bb1d8	0.60818243
149	0xbeeac5a2	-0.45853907
150	0x3f11d766	0.56969297
151	0xbcb53788	-0.022121206
152	0x3f2ab83b	0.66687363
153	0x3f2b28a3	0.6685888
154	0x3f13d60e	0.57748497
155	0xbd7c35cc	-0.061574742
156	0xbd8fc82b	-0.07020601
157	0x3f0ee7de	0.5582255
158	0x3daff2ba	0.08591218
159	0xbbbd0b4b	-0.0057691685
160	0x3c3590c4	0.011081878
161	0xbefc891c	-0.49323356
162	0xbef382fd	-0.47560874
163	0xbd927e6b	-0.071530186
164	0x3f08f196	0.5349363
165	0x3f2b8a70	0.67008114
166	0x3f255562	0.6458341
167	0x3f0318fb	0.5120999
168	0x3f1d5422	0.614565
169	0x3f268951	0.6505328
170	0xbeefe8c3	-0.4685727
171	0xbd86fc47	-0.06591087
172	0x3f1dd619	0.6165481
173	0x3cc61c18	0.024183318
174	0x3f0a9050	0.54126453
175	0x3d93681b	0.07197591
176	0xbdacfed2	-0.084470406
177	0xbcaa324f	-0.020775942
178	0xbd23a4d7	-0.039952125
179	0xbf194bbb	-0.5988118
180	0x3d5ba888	0.05362752
181	0xbf0b3a1f	-0.5438556
182	0xbf067cb6	-0.52534044
183	0x3f0dec81	0.55439
184	0xbad0afc6	-0.0015921525
185	0x3f0c4f86	0.54808843
186	0xbc93b511	-0.018030675
187	0x3f2ddc98	0.67914724
188	0xbd975d10	-0.07390797
189	0x3f1deb61	0.61687285
190	0xbefaa8e3	-0.48956975
191	0x3ca5a592	0.020220552
192	0xbef90ae7	-0.4864113
193	0x3d924ab9	0.071431585
194	0x3d85e419	0.06537647
195	0x3f163f19	0.5869003
196	0x3cff2d67	0.03114958
197	0xbcd0b442	-0.025476579
198	0x3f0d9c81	0.5531693
199	0xbf04a61f	-0.5181598
200	0xbd909c8a	-0.070611075
201	0xbcdedff9	-0.027206408
202	0x3d9ad3d3	0.075599335
203	0x3d9aad54	0.07552591
204	0xbd6b2fbf	-0.05741858
205	0xbda70582	-0.081553474
206	0xbef0c1c8	-0.47022843
207	0x3f0ee887	0.5582356
208	0xbefc2547	-0.4924719
209	0x3f13f0b2	0.57789147
210	0xbdac575e	-0.084151015
211	0x3b941ab1	0.0045197834
212	0xbd2625e8	-0.040563494
213	0x3f27dd44	0.65572
214	0xbd5ae397	-0.053439703
215	0xbd3678b0	-0.04454869
216	0xbf1b376e	-0.60631454
217	0x3d99583d	0.07487533
218	0x3f24d578	0.6438823
219	0xbcddedb0	-0.027090877
220	0x3ce71f8f	0.02821329
221	0xbef9674a	-0.48711616
222	0xbc9bb58f	-0.019007472
223	0xbf150cf5	-0.58222896
224	0xbf084654	-0.5323231
225	0xbf06fc5e	-0.5272883
226	0xbf1840c1	-0.59473807
227	0x3f0ef943	0.55849093
228	0x3d31eee7	0.043440726
229	0x3ccef56f	0.025263516
230	0xbd1c4cda	-0.03815923
231	0xbee6ce45	-0.45079246
232	0xbefc93fb	-0.4933165
233	0xbcef4a73	-0.029210305
234	0x3d9ebebf	0.07751226
235	0x3f133788	0.5750661
236	0x3f1a8473	0.6035835
237	0xbf15b7da	-0.5848366
238	0xbef3130f	-0.47475478
239	0x3d4f2f87	0.050582435
240	0xbda5cfe9	-0.08096296
241	0x3f178613	0.59188956
242	0x3f11f1fe	0.57009876
243	0x3b8b7f31	0.0042571058
244	0x3f055af6	0.5209192
245	0xbf0da6e1	-0.5533276
246	0x3f1e1552	0.6175128
247	0x3d556ce6	0.052105807
248	0xbefa3489	-0.48868206
249	0x3f0f5bd2	0.5599948
250	0xbce66f42	-0.028129224
251	0x3b442eac	0.0029935045
252	0xbef07787	-0.46966192
253	0x3f23d08f	0.6399011
254	0x3f163a10	0.58682346
255	0xbcb90b8b	-0.022588512

layer_2.bias f4 [128]
0	0xbaaf6055	-0.001338015
1	0xbf1b0fbb	-0.6057088
2	0xbf072f01	-0.528061
3	0xbf0a2b87	-0.5397267
4	0x400b5b0e	2.1774325
5	0xbf0c80e3	-0.54884166
6	0xbd472664	-0.048620597
7	0xbcdcafce	-0.026939299
8	0xbf0cbaa4	-0.5497229
9	0xbf1860bc	-0.59522605
10	0xbf214224	-0.6299155
11	0xbcea8233	-0.028626537
12	0xbf196f44	-0.599354
13	0xbf21b6cf	-0.6316957
14	0xbf1636cd	-0.5867737
15	0xbd9a8c74	-0.075463206
16	0xbf087980	-0.53310394
17	0xbf0be850	-0.54651356
18	0xbf0aa51a	-0.54158175
19	0xbf17bc31	-0.5927153
20	0xbd362cd7	-0.044476356
21	0xbceb7668	-0.028742984
22	0xbf0bf6bd	-0.5467337
23	0xbf275e49	-0.6537824
24	0xbd877648	-0.06614357
25	0x400739ca	2.1129022
26	0xbc91b008	-0.017784134
27	0xbf0ed3cc	-0.55791926
28	0xbef9efd8	-0.488158
29	0xbef716c4	-0.48259556
30	0xbf1a2c27	-0.6022362
31	0xbf07c117	-0.53029007
32	0xbd05a73d	-0.032630194
33	0xba53939d	-0.00080710073
34	0xbf0729de	-0.5279826
35	0xbf06cde4	-0.52657914
36	0xbf0da2f6	-0.55326784
37	0xbf2a755c	-0.66585326
38	0x401e1de9	2.4705756
39	0xbf3011f0	-0.6877737
40	0xbf2ab737	-0.66685814
41	0xbf1216d8	-0.57066107
42	0xbd54d959	-0.05196509
43	0xbf242b64	-0.6412871
44	0xbf1c3fbb	-0.61034745
45	0xbf1f2037	-0.6215853
46	0xbf1a4be2	-0.6027204
47	0x400f3c3a	2.238051
48	0xbf118dcf	-0.5685701
49	0xbf29f1cb	-0.6638457
50	0xbda8ad2d	-0.08236156
51	0xbd0aa426	-0.03384795
52	0x40101eed	2.2518876
53	0xbf00e9f5	-0.5035699
54	0xbef8041d	-0.48440638
55	0xbf1aa291	-0.60404307
56	0xbf03f9fd	-0.51553327
57	0xbf2164c4	-0.6304438
58	0xbf02180b	-0.50817937
59	0x40113eff	2.26947
60	0x4011b699	2.2767699
61	0x400663cc	2.099841
62	0xbf236c71	-0.63837343
63	0xbf10ce30	-0.5656462
64	0xbeed8e09	-0.46397427
65	0xbf1f0db9	-0.62130314
66	0xbd547cb4	-0.05187674
67	0xbda6cfb7	-0.08145087
68	0xbf22c282	-0.63578045
69	0xbf11a9c3	-0.5689966
70	0xbf1fdccf	-0.624463
71	0xbcd3c253	-0.025849497
72	0xbf0f97f2	-0.56091225
73	0xbd91d92f	-0.071215026
74	0x400f1d1b	2.2361515
75	0xbf299fa0	-0.66259193
76	0xbf10a65e	-0.56503856
77	0xbf119ac1	-0.5687676
78	0x401d2d1c	2.4558783
79	0xbf17e260	-0.59329796
80	0xbf0f3fd7	-0.55956787
81	0xbf278dff	-0.65451044
82	0xbf045c19	-0.5170303
83	0xbf23389d	-0.6375826
84	0xbf2e3ed7	-0.68064636
85	0xbf03e205	-0.51516753
86	0x40107b88	2.2575397
87	0xbf1a9289	-0.60379845
88	0xbf178dca	-0.5920073
89	0xbf1c673d	-0.6109503
90	0xbf198989	-0.59975487
91	0xbf1b9d1b	-0.607866
92	0x401173a8	2.272684
93	0x400cec16	2.2019095
94	0xbf14a93e	-0.58070743
95	0xbd05c580	-0.032659054
96	0xbf0de6b0	-0.55430126
97	0xbf28c722	-0.6592885
98	0xbf13db1f	-0.5775623
99	0x4010f17b	2.2647388
100	0xbf21aefb	-0.63157624
101	0xbf07c494	-0.5303433
102	0xbf0e9f06	-0.557114
103	0xbcbeeed8	-0.023307249
104	0x40111a05	2.267213
105	0xbf0bd4ce	-0.5462159
106	0xbf082ad0	-0.53190327
107	0x401bd618	2.4349422
108	0x40082d3d	2.1277611
109	0xbf1f18f6	-0.6214746
110	0xbf0f349d	-0.55939656
111	0x400fdbc8	2.2477894
112	0xbf33923d	-0.70145017
113	0x401fbfab	2.4960735
114	0xbd44be22	-0.048032887
115	0xbd5538a5	-0.052055974
116	0xbf196354	-0.5991719
117	0xbf1b3916	-0.6063398
118	0xbdb30b43	-0.087423824
119	0xbd42fd2c	-0.047604725
120	0xbf3d1ad1	-0.73869044
121	0xbf29eaba	-0.6637379
122	0xbf00159b	-0.5003297
123	0xbf34d428	-0.70636225
124	0xbf0a1c66	-0.5394958
125	0xbd92d0f4	-0.07168761
126	0x400ef6b8	2.2338085
127	0x4006ce53	2.106343

layer_3.weight f4 [128, 128]
0	0xbd6755d3	-0.056478333
1	0xbd84ea3d	-0.0648999
2	0x3d5ddc13	0.054164957
3	0x3d31ce74	0.04340978
4	0xbf2a77fe	-0.66589344
5	0xbdb21950	-0.08696234
6	0xbda3f080	-0.08004856
7	0x3d810956	0.06300609
8	0x3b6f0e04	0.003647686
9	0xbb934da0	-0.0044953376
10	0xbd15f9bd	-0.036615122
11	0xbd8027ad	-0.062575676
12	0xbd1ea14b	-0.03872804
13	0xbd5ffb68	-0.05468312
14	0xbd70d4a0	-0.058796525
15	0xbd012e2a	-0.031538166
16	0xbdae6d70	-0.08516967
17	0xbd530960	-0.051522613
18	0xbd4c5f70	-0.049895704
19	0x3d322484	0.043491855
20	0x3d9afe1c	0.07567999
21	0xbd60a826	-0.05484786
22	0x3d8c3626	0.068462655
23	0x3db10cb9	0.08645005
24	0x3d9f99e4	0.07793024
25	0xbf2f7f37	-0.6855349
26	0xbd689e92	-0.05679185
27	0x3d9da524	0.07697514
28	0xbbecad62	-0.0072228173
29	0xbda9dc51	-0.08293975
30	0x3c655f26	0.013999736
31	0x3c7a9091	0.015293256
32	0x3c3325a6	0.010934269
33	0x3caddd4a	0.021223683
34	0x3a99b9b9	0.0011728323
35	0x3d609bee	0.054836206
36	0xbd91acc9	-0.07113034
37	0xbda239c0	-0.07921171
38	0xbf347b08	-0.7050023
39	0x3da4a8f6	0.08040039
40	0xbcf80489	-0.0302756
41	0x3c3fa116	0.011696121
42	0x3db1bc0d	0.08678446
43	0x3d3bdb97	0.045863714
44	0xbd316714	-0.043311194
45	0x3d894b48	0.06703812
46	0xbd0fe2be	-0.035128348
47	0xbf1f8d6b	-0.6232516
48	0xbbee0464	-0.007263707
49	0xbd950bb2	-0.07277621
50	0xbd0b024a	-0.03393773
51	0x3d9fca4c	0.07802257
52	0xbf3ee449	-0.74567086
53	0xbc0d3c5e	-0.00862035
54	0xbc08046a	-0.008301834
55	0xbd063838	-0.032768458
56	0x3d88fbb5	0.06688634
57	0xbd87e092	-0.0663463
58	0x3d97bc6a	0.07408984
59	0xbf3f4faa	-0.7473093
60	0xbf422d37	-0.7585024
61	0xbf205cd5	-0.6264165
62	0xbd0809ed	-0.03321259
63	0xbd77578a	-0.060386218
64	0xbd4f0cb9	-0.050549243
65	0xbd8b4e88	-0.06802088
66	0xbd24c08c	-0.04022269
67	0xbd672dea	-0.05644027
68	0xbd018807	-0.031623866
69	0xbd17953d	-0.03700756
70	0xbc4274af	-0.01186864
71	0xbd4004fb	-0.04687975
72	0x3d87a0c3	0.0662246
73	0xbd9d33c0	-0.07675886
74	0xbf28c47e	-0.65924823
75	0x3d075587	0.03304055
76	0x3c8a3f0d	0.016875768
77	0x3c89b9a4	0.016812153
78	0xbf204cd1	-0.6261721
79	0xbc964e76	-0.01834796
80	0x3c9a6bbe	0.018850204
81	0xbd69cd2d	-0.057080436
82	0x3d91d550	0.07120764
83	0xbd8ec5c2	-0.06971313
84	0xbc83c08b	-0.016083023
85	0x3d7ef024	0.062240735
86	0xbf372b11	-0.7155009
87	0x3d1e50e9	0.03865138
88	0xbda84741	-0.082167156
89	0x3d9234df	0.071389906
90	0xbda809db	-0.08205005
91	0xbd8008f5	-0.062517084
92	0xbf217e42	-0.6308328
93	0xbf249f18	-0.6430526
94	0x3b155441	0.0022785815
95	0x3d975323	0.07388904
96	0xbda90fc2	-0.08254959
97	0x3d10b388	0.035327464
98	0x3d8fc69f	0.07020306
99	0xbf2943e8	-0.6611924
100	0xbd879544	-0.06620267
101	0xbd410e49	-0.047132764
102	0x3d87311b	0.06601163
103	0xbd52d5f2	-0.051473565
104	0xbf3d63bc	-0.7398031
105	0x3d542935	0.05179711
106	0x3d53c08b	0.051697295
107	0xbf1912e0	-0.59794426
108	0xbf24e94f	-0.644185
109	0x3d70dfa1	0.05880702
110	0xbca995f6	-0.02070139
111	0xbf229ded	-0.63522226
112	0x3dadfe6e	0.08495794
113	0xbf3e189a	-0.7425629
114	0xbd85a6e2	-0.06525971
115	0xbcde726a	-0.027154166
116	0xbc5ea205	-0.013588433
117	0xbcfb1953	-0.030651724
118	0x3d0799c0	0.03310561
119	0x3d025465	0.031818766
120	0x3da4d0ac	0.080476135
121	0x3d9e132a	0.07718499
122	0xbda25b7e	-0.07927607
123	0x3ccbb5c2	0.024866942
124	0x3d36d7a6	0.044639252
125	0xbd09c7d6	-0.033637844
126	0xbf24f69e	-0.6443881
127	0xbf18cedc	-0.5969064
128	0xbd31405d	-0.043274272
129	0x3bd8d47a	0.006617126
130	0xbb4e0f3c	-0.0031442186
131	0xbd42f5a8	-0.047597557
132	0xbef74941	-0.48298076
133	0xbd8f6654	-0.070019394
134	0x3d4e4713	0.05036075
135	0x3cd7eb08	0.026357189
136	0xbc7e1e00	-0.015510082
137	0xbc9d4f6d	-0.019202912
138	0xbd85eab8	-0.0653891
139	0xbd0d8851	-0.03455383
140	0xbda91994	-0.08256832
141	0x3ce25bc5	0.02763165
142	0xbd5ffce9	-0.054684553
143	0x3d06ca77	0.03290793
144	0xbd8a608d	-0.06756697
145	0x3d957031	0.072967894
146	0xbc3150f8	-0.010822527
147	0xbd3dea31	-0.04636592
148	0xbcce537c	-0.025186293
149	0xbcc88fd3	-0.024482643
150	0x3d308eac	0.043104813
151	0x3d90acd1	0.07064212
152	0x3d51063e	0.051031344
153	0xbef3f0da	-0.47644693
154	0x3d0175b9	0.03160641
155	0xbd921e90	-0.071347356
156	0x3d47801e	0.048706166
157	0x3d89fb5a	0.06737395
158	0xbd965982	-0.07341291
159	0x3d9475e2	0.07249047
160	0x3d23349d	0.039845098
161	0x3d95d6ba	0.073163465
162	0x3d6e845b	0.058231693
163	0xbd85f8d6	-0.06541602
164	0xbd280b6d	-0.04102652
165	0xbd9529e7	-0.07283383
166	0xbedd3dfa	-0.43211347
167	0xbda048fe	-0.07826422
168	0x3d30d02b	0.043167274
169	0x3a5e5e02	0.0008482636
170	0xbd8bff68	-0.06835824
171	0xbd815f3b	-0.06316992
172	0xbd798a0c	-0.060922667
173	0xbb4786ef	-0.0030445417
174	0x3dadf9fe	0.08494948
175	0xbf014963	-0.50502604
176	0x3dae2007	0.085022025
177	0x3cc2f37b	0.023797741
178	0x3d1da97e	0.03849172
179	0x3cc7db1e	0.024396475
180	0xbf024746	-0.50890005
181	0xbf0a1542	-0.53938687
182	0xbede2e29	-0.43394592
183	0x3d6c9142	0.057755716
184	0xbf1005b1	-0.56258684
185	0x3d770243	0.06030489
186	0xbd183a00	-0.037164688
187	0xbef42443	-0.47683915
188	0xbf15aa83	-0.58463305
189	0xbf004d84	-0.5011828
190	0x3ca5b450	0.020227581
191	0x3d29bf7e	0.041442387
192	0x3c9e1897	0.019298835
193	0xbd3be2f4	-0.045870736
194	0x3cf29de7	0.02961631
195	0x3c3e9594	0.011632342
196	0xbce6fe9f	-0.028197585
197	0xbda4a5e0	-0.08039451
198	0xbd89dfa4	-0.06732109
199	0xbc532794	-0.012887854
200	0x3d1a7d5c	0.03771721
201	0x3b9c3a28	0.004767675
202	0xbefc1c54	-0.49240363
203	0xbd516a6e	-0.05112689
204	0x3c06abc4	0.008219663
205	0x3c61a278	0.013771646
206	0xbef1b727	-0.47210047
207	0xbdb1b155	-0.086764015
208	0x3cd820a4	0.026382752
209	0x3d52c754	0.051459625
210	0xbd949256	-0.07254474
211	0xbcb5c0c3	-0.022186643
212	0x3ce93188	0.028466001
213	0xbedda74c	-0.432917
214	0xbf022a9e	-0.5084628
215	0x3d5dd536	0.054158412
216	0xbd43e1ef	-0.04782289
217	0x3d9f5c7c	0.07781312
218	0xbcab8dfc	-0.020941727
219	0xbd9a1eda	-0.07525416
220	0xbf042244	-0.51614785
221	0xbef91824	-0.4865123
222	0x3d823c6c	0.06359181
223	0xbd275cb0	-0.040859878
224	0x3b374d30	0.0027969591
225	0x3d25437d	0.040347565
226	0x3d92fc9d	0.071770884
227	0xbf039e04	-0.5141299
228	0x3d456507	0.04819205
229	0x3d5c5390	0.05379063
230	0xbd82e4a3	-0.06391265
231	0xbd51b819	-0.05120096
232	0xbf0ac36d	-0.54204446
233	0x3d6e04a1	0.058109883
234	0xbb5a97c2	-0.0033354615
235	0xbf10635c	-0.5640161
236	0xbf039222	-0.51394856
237	0x3d76b6b0	0.060232818
238	0xbc0b5016	-0.008502981
239	0xbefa4572	-0.48881108
240	0xbd8e23a7	-0.06940394
241	0xbf138b1b	-0.57634133
242	0xbd80a024	-0.062805444
243	0x3dac2f1b	0.08407422
244	0x3d84b991	0.064807065
245	0x3c8f9514	0.01752714
246	0x3d8b8b60	0.06813693
247	0x3d6ef394	0.058337763
248	0x3d9abade	0.07555173
249	0xbd5ec8a6	-0.054390572
250	0x3c2e817b	0.010650988
251	0xbd979e6f	-0.07403266
252	0x3d814680	0.06312275
253	0x3d38992c	0.04506795
254	0xbf07569a	-0.5286652
255	0xbf02a8df	-0.51038927

layer_3.bias f4 [128]
0	0xbf31c015	-0.6943372
1	0xbee5a8cb	-0.4485534
2	0xbd21ff9a	-0.0395504
3	0xbd41caa4	-0.047312394
4	0xbf2c7096	-0.6735929
5	0xbf0778cf	-0.52918714
6	0xbf0ed054	-0.55786633
7	0xbf05d931	-0.5228453
8	0xbf261e37	-0.64889854
9	0xbf27910d	-0.65455705
10	0xbf08a441	-0.5337563
11	0x401da757	2.4633386
12	0xbf140916	-0.57826364
13	0xbf0e733e	-0.55644596
14	0xbd91c3f7	-0.071174555
15	0x402b76c8	2.6791248
16	0xbf0dfd96	-0.55465066
17	0x4029d601	2.6536868
18	0x40297162	2.6475453
19	0xbf243386	-0.6414112
20	0xbf04c61f	-0.5186481
21	0xbef9341f	-0.48672578
22	0x3fca79c9	1.5818416
23	0x40279140	2.6182404
24	0xbf07202a	-0.52783453
25	0xbf0fae81	-0.56125647
26	0xbf0e813e	-0.5566596
27	0xbef12aa4	-0.47102845
28	0x40208636	2.5081916
29	0x4029a3f9	2.650633
30	0x402914c5	2.6418927
31	0x3c312fc8	0.010814615
32	0xbf10b81e	-0.5653094
33	0xbf26abf6	-0.6510614
34	0xbf1170a5	-0.56812507
35	0xbf105b58	-0.5638938
36	0xbf1163ff	-0.56793207
37	0x40238815	2.5551808
38	0xbf164ae9	-0.58708054
39	0xbf1993f2	-0.5999137
40	0xbf0e252d	-0.55525476
41	0xbf22f2c0	-0.6365166
42	0x40249277	2.5714395
43	0xbf047292	-0.5173732
44	0xbf169051	-0.5881396
45	0xbf09b83a	-0.5379673
46	0x40296707	2.6469133
47	0x402a8d22	2.664864
48	0xbd39a849	-0.045326505
49	0xbd0ed6e6	-0.034872912
50	0xbf0f7758	-0.5604148
51	0xbf04d6fe	-0.5189055
52	0x403250f1	2.7861903
53	0xbf2d54cc	-0.67707515
54	0xbf1363d3	-0.57574195
55	0xbf071abb	-0.5277516
56	0xbf22dd21	-0.63618666
57	0x3b638f9c	0.003472305
58	0xbf1fd4c6	-0.6243404
59	0xbf15cd96	-0.58516824
60	0xbdb2c0f4	-0.08728209
61	0xbda8920c	-0.08230981
62	0xbec3bc86	-0.3822977
63	0xbef97438	-0.4872148
64	0x401fbb14	2.4957933
65	0x402a0173	2.6563385
66	0xbf02439e	-0.50884426
67	0xbf1a365a	-0.60239184
68	0xbebb471e	-0.36577696
69	0xbf2585d5	-0.64657336
70	0xbf173381	-0.59062964
71	0xbd088dd6	-0.03333839
72	0xbd69ab81	-0.057048324
73	0xbf21de46	-0.6322979
74	0xbf0dbcc2	-0.55366147
75	0xbf1532bc	-0.5828054
76	0xbefc7250	-0.49305964
77	0x3fe7e5f8	1.8117056
78	0xbf1ec245	-0.6201518
79	0xbf397c41	-0.7245522
80	0xbf0a56be	-0.5403861
81	0xbd6ad27a	-0.057329632
82	0xbf22341e	-0.63360775
83	0x402ef75c	2.7338476
84	0xbe140066	-0.14453277
85	0xbf07ed1d	-0.5309618
86	0xbf228989	-0.6349111
87	0xbd976cfb	-0.07393833
88	0xbf1385bc	-0.5762594
89	0xbf16bedd	-0.58884984
90	0xbf277ae8	-0.65421915
91	0xbd3e5a2c	-0.046472713
92	0x4023b452	2.5578809
93	0xbefd35b2	-0.4945503
94	0xbd8fad04	-0.07015422
95	0xbf1e74d0	-0.6189699
96	0xbf277aa6	-0.6542152
97	0x402a0af4	2.6569185
98	0xbef8a1e3	-0.4856101
99	0xbf1c1b33	-0.60979
100	0xbf2c61f0	-0.6733694
101	0xbf0b1b03	-0.5433809
102	0xbf0033cd	-0.5007904
103	0xbf1ca2f5	-0.6118615
104	0xbf0c4d6f	-0.54805654
105	0xbf23c6e1	-0.6397534
106	0x3c87bc5e	0.016569313
107	0xbedd6e07	-0.43248007
108	0xbf1dbf31	-0.6161986
109	0x402c1048	2.6884937
110	0xbef9a889	-0.48761395
111	0xbf198f94	-0.5998471
112	0xbf0d3782	-0.55162823
113	0xbf125921	-0.5716725
114	0xbf031f31	-0.5121947
115	0xbd7762d5	-0.060396988
116	0xbf2b66bc	-0.66953635
117	0xbeed9599	-0.46403196
118	0x402c803b	2.6953266
119	0xbf056516	-0.5210737
120	0xbf120745	-0.5704234
121	0xbf1d4c46	-0.6144451
122	0x4028248b	2.6272304
123	0x402a5b6f	2.6618307
124	0xbf2a54c7	-0.6653561
125	0xbf07fb2c	-0.5311763
126	0xbf27adfa	-0.6549984
127	0xbed679ad	-0.41889706

layer_4.weight f4 [128, 128]
0	0x3f69373e	0.9109992
1	0x3f08e02d	0.53467065
2	0xbd56530d	-0.052325297
3	0x3d9570ef	0.07296931
4	0x3d55fa23	0.052240502
5	0xbcc6d09d	-0.024269396
6	0x3d11c6e6	0.035590075
7	0x3d393a4d	0.045221616
8	0x3d8300f7	0.063966684
9	0xbdb29125	-0.0871909
10	0xbc2e09a0	-0.010622412
11	0x3ff7a7e4	1.9348111
12	0x3f02b3af	0.51055425
13	0xbda48f67	-0.08035164
14	0xbd49bb63	-0.04925097
15	0x400707e4	2.1098566
16	0x3d7ef613	0.062246393
17	0x400b9d03	2.1814582
18	0x4005f7e7	2.0932558
19	0x3eea9824	0.458192
20	0x3d487922	0.048943646
21	0x3d90f13b	0.07077261
22	0x3fb765cc	1.4327941
23	0x40050e70	2.0790062
24	0xbd71ed5b	-0.05906425
25	0x3f096e8b	0.536843
26	0x3bcfc2ab	0.006340345
27	0x3f0377ac	0.5135448
28	0x40010127	2.0156953
29	0x400d4426	2.2072845
30	0x4006f820	2.1088943
31	0x3d8158c3	0.06315758
32	0x3d82d6b2	0.06388606
33	0xbd0b0836	-0.033943377
34	0x3d844eed	0.064603664
35	0x3d3e5a15	0.046472628
36	0xbd5478bf	-0.051872965
37	0x3ff09ed3	1.8798469
38	0xbd1b3129	-0.03788868
39	0x3c92f148	0.017937317
40	0x3d0c8fa8	0.03431669
41	0x3f0d1d20	0.55122566
42	0x400071ee	2.0069537
43	0xbd4b4b9d	-0.049632657
44	0x3ee00f2b	0.43761572
45	0xbd6a7ebd	-0.057249773
46	0x4007d2ec	2.1222486
47	0x4006e0db	2.107474
48	0x3c553abb	0.013014491
49	0x3d4ee068	0.05050698
50	0xbd75c4dd	-0.060002197
51	0xbd510020	-0.05102551
52	0x400bb510	2.1829262
53	0x3ef65080	0.48108292
54	0x3d3d6714	0.04624088
55	0xbd9f1360	-0.07767367
56	0x3cceaaf0	0.025227994
57	0xbc149319	-0.009068274
58	0x3eea2b3c	0.4573611
59	0xbd33cafc	-0.043894753
60	0x3d982425	0.07428769
61	0xbd1f9e58	-0.038969368
62	0x3bf22a15	0.0073902705
63	0x3f02d956	0.5111288
64	0x3fff2a7e	1.9934843
65	0x400656cb	2.0990474
66	0x3d8b448e	0.06800185
67	0x3d8ff672	0.070294276
68	0x3ce1245d	0.02748316
69	0xbf09a525	-0.53767616
70	0xbce9d819	-0.028545426
71	0x3b19e8fd	0.002348482
72	0x3d786ef8	0.060652703
73	0x3d82ea61	0.063923605
74	0xbd580d16	-0.052746855
75	0x3efe5588	0.4967463
76	0xbd9d8d82	-0.07693006
77	0x3fc81a65	1.5633055
78	0x3ef721ed	0.4826807
79	0x3ef0524a	0.46937782
80	0x3d805ede	0.062680945
81	0x3d8db665	0.069195546
82	0xbd9ca768	-0.07649118
83	0x400b9c2b	2.1814067
84	0xbe7b578f	-0.2454512
85	0x3f0d5d91	0.55220896
86	0x3f1448f7	0.57923836
87	0xba2800a1	-0.0006408785
88	0xbd17d0d2	-0.03706438
89	0xbd95e203	-0.07318499
90	0x3ef608c4	0.48053563
91	0xbbb98c7c	-0.005662499
92	0x400040e0	2.0039597
93	0xbd892524	-0.06696537
94	0x3cb8b11d	0.022545392
95	0xbda2bbe0	-0.079459906
96	0x3ce4f46b	0.027948579
97	0x4009fc2a	2.1560159
98	0x3f03d8aa	0.5150248
99	0x3f0d7679	0.552589
100	0x3f1d5933	0.6146423
101	0x3f19a92b	0.60023755
102	0xbc6a72f1	-0.014309631
103	0x3d5e1117	0.054215517
104	0x3d6af1ac	0.057359383
105	0xbadb0b90	-0.001671182
106	0x3daccecb	0.0843788
107	0x3d8e77b5	0.06956426
108	0x3c9df655	0.0192825
109	0x4008841f	2.133064
110	0x3f00435c	0.5010278
111	0xbd964541	-0.07337428
112	0x3d615925	0.055016655
113	0x3d869a1d	0.065723635
114	0x3f07f4a1	0.5310765
115	0x3d842fd4	0.06454435
116	0x3efb6d14	0.49106658
117	0x3ef843bd	0.4848918
118	0x400e9353	2.227742
119	0xbc289903	-0.010290387
120	0x3ef927cf	0.48663184
121	0x3f0a3498	0.539865
122	0x40098849	2.1489432
123	0x400f02b6	2.2345405
124	0x3eee46dd	0.4653844
125	0x3b8137e2	0.0039434293
126	0x3f0bdb29	0.54631287
127	0x3f118ce0	0.56855583
128	0x3f78d2a2	0.971964
129	0x3f0f28a4	0.5592139
130	0x3d4c505b	0.04988132
131	0x3d2f0091	0.04272515
132	0xbc9fb4ad	-0.019495333
133	0x3cd9dacf	0.026593594
134	0x3d7ff502	0.062489517
135	0x3d27096e	0.040780477
136	0x3d3eac0a	0.046550788
137	0xbdad94b6	-0.0847563
138	0x3c874718	0.016513392
139	0x400cfca1	2.2029192
140	0x3ef4e429	0.47830322
141	0xbd817b61	-0.06322361
142	0xbd5f5945	-0.054528493
143	0x4019e9e9	2.4049017
144	0xbda1e160	-0.07904315
145	0x40173489	2.3625815
146	0x400c7b67	2.195032
147	0x3f05b804	0.5223391
148	0x3d29fa56	0.041498505
149	0x3c106150	0.008812264
150	0x3fd6926a	1.6763432
151	0x4012fb48	2.296587
152	0xbd809fc1	-0.06280471
153	0x3f0bd429	0.54620606
154	0x3c33c999	0.010973358
155	0x3eef4e59	0.46739462
156	0x400fc996	2.2466788
157	0x401889b5	2.383405
158	0x4015213b	2.3301532
159	0x3d4da088	0.050201923
160	0xbc01628f	-0.007897033
161	0x3d5a2817	0.05326089
162	0xbd44b032	-0.048019595
163	0x3daffac7	0.08592754
164	0xbc1739e6	-0.009230113
165	0x4009d902	2.15387
166	0xbcd952ea	-0.026528794
167	0xbc89f3b9	-0.016839849
168	0xbd771431	-0.06032199
169	0x3ee7e743	0.45293626
170	0x400ac40c	2.1682158
171	0x3cb597a2	0.02216703
172	0x3ee3739c	0.4442414
173	0xbbf4a434	-0.0074658636
174	0x401598a7	2.3374422
175	0x40160bb7	2.344465
176	0x3cd8a297	0.026444716
177	0xbd3bc039	-0.045837615
178	0xbda05f4b	-0.07830676
179	0xbd2bc3f6	-0.04193493
180	0x4017b421	2.3703692
181	0x3f02cc8e	0.51093376
182	0x3c8840c8	0.016632453
183	0xbd9fbf72	-0.07800187
184	0x3d2df263	0.042467486
185	0x3c678ab7	0.014132193
186	0x3f0508d1	0.5196658
187	0x3cdad182	0.02671123
188	0xbd0a0788	-0.03369859
189	0x3cc89706	0.024486076
190	0x3d3b946b	0.04579584
191	0x3f1307a2	0.5743352
192	0x400d2917	2.205633
193	0x4017bd64	2.3709345
194	0xbd869f13	-0.0657331
195	0xbc45d7f5	-0.012075414
196	0xbb0761d9	-0.0020657687
197	0xbf248734	-0.64268804
198	0x3d6b5b50	0.05746013
199	0x3ce2fcb7	0.027708394
200	0x3d33b032	0.043869205
201	0x3cc50a21	0.024052681
202	0x3ce91538	0.0284525
203	0x3f0e86dd	0.55674535
204	0x3da2aa6b	0.07942661
205	0x3fdf8458	1.7462263
206	0x3ee57fa6	0.4482395
207	0x3f0d69fd	0.5523985
208	0x3d2de634	0.042455867
209	0xbbc4e230	-0.006008409
210	0x3c1349aa	0.008989731
211	0x40141fce	2.3144412
212	0xbde4a7b3	-0.111647986
213	0x3ef653fc	0.4811095
214	0x3f041677	0.5159678
215	0x3ccac2df	0.024751125
216	0xbd78e954	-0.060769394
217	0xbd52deb9	-0.051481936
218	0x3f07dbba	0.5306965
219	0x3d431844	0.047630563
220	0x40090e67	2.141504
221	0xbc920b12	-0.017827544
222	0x3d91efbf	0.07125806
223	0xbd1301c2	-0.03589035
224	0x3ccac532	0.024752233
225	0x400e780f	2.2260778
226	0x3ee26ef0	0.44225264
227	0x3f06bae5	0.5262893
228	0x3ef34e17	0.47520515
229	0x3ef79c50	0.48361444
230	0xbd0da14e	-0.03457766
231	0x3dacc8f9	0.0843677
232	0x3d8b865d	0.06812737
233	0xbd072eef	-0.033003744
234	0x3ac89af3	0.0015304968
235	0x3d53773e	0.05162739
236	0x3d96f16c	0.07370266
237	0x40162c6a	2.3464608
238	0x3ee88bc8	0.45419145
239	0x3a8e2add	0.0010846514
240	0xbd52a177	-0.051423516
241	0xbca9b0a6	-0.020714115
242	0x3f0f7d55	0.56050617
243	0x3cc82853	0.02443329
244	0x3f0a3628	0.53988886
245	0x3ef66caf	0.48129794
246	0x400f76da	2.2416291
247	0x3d5a1efb	0.0532522
248	0x3f099e2a	0.53756964
249	0x3f1ae150	0.6050005
250	0x4016c98d	2.3560517
251	0x4013e1b8	2.3106518
252	0x3f174d2c	0.5910213
253	0x3bfe2780	0.0077561736
254	0x3eebdfdf	0.46069238
255	0x3f18b782	0.5965501

layer_4.bias f4 [128]
0	0x400b3b67	2.1755006
1	0x40111451	2.266865
2	0xbe95bc00	-0.29244995
3	0xbe8f8012	-0.28027397
4	0x40152235	2.3302128
5	0x40150dd0	2.328968
6	0x401de7e4	2.4672785
7	0x401258ba	2.2866654
8	0xbf056fe6	-0.5212387
9	0xbf06d8c4	-0.5267451
10	0xbcd9c88b	-0.026584884
11	0x400eb0d8	2.2295437
12	0xbe35c3c1	-0.17750455
13	0xbe6cd2e4	-0.23127323
14	0xbeb0defa	-0.34545118
15	0x3fd7f59b	1.6871828
16	0xbee2976e	-0.44256157
17	0xbf7e28bb	-0.992809
18	0xbd2a58e0	-0.041588664
19	0xbcb67135	-0.022270778
20	0xbf05f81c	-0.5233171
21	0xbd235917	-0.039879885
22	0xbde06947	-0.1095758
23	0xbf2211b0	-0.6330824
24	0x3fa3addb	1.2787431
25	0x3b9c9f5b	0.004779739
26	0x4016dbdf	2.3571699
27	0xbd0839ca	-0.033258237
28	0xbf11b58a	-0.5691763
29	0xbd137cdb	-0.036007743
30	0x3ea5e082	0.32397848
31	0xbef003f2	-0.4687801
32	0x40127a1c	2.288703
33	0xbcdb351c	-0.026758723
34	0x40198d70	2.3992577
35	0x400ab84e	2.167499
36	0xbf0cb853	-0.54968756
37	0x400cbfd0	2.1992073
38	0xbf092739	-0.53575474
39	0xbe06fc67	-0.13182221
40	0xbc74ad35	-0.014933874
41	0xbdd7db75	-0.10539905
42	0xbea38a27	-0.3194134
43	0x3fe2c4c7	1.7716302
44	0xbf104c51	-0.5636645
45	0xbf0c9eae	-0.54929626
46	0x4011e6e1	2.2797167
47	0xbf02e2a1	-0.5112706
48	0x4008b9a9	2.1363318
49	0x3fd25533	1.6432251
50	0xbe89ac6f	-0.2688937
51	0xbf0fe558	-0.56209326
52	0xbf21e1e0	-0.6323528
53	0x400f413b	2.2383564
54	0x4014c996	2.3248038
55	0xbeeda659	-0.46415976
56	0xbf1f08f2	-0.62123024
57	0xbf1e170a	-0.61753905
58	0x4012a2fa	2.2911973
59	0x4010d996	2.2632804
60	0xbea821fc	-0.32838428
61	0x3d5b4489	0.053532157
62	0xbdabc339	-0.08386845
63	0xbdb10a6c	-0.08644566
64	0xbf1af0a9	-0.6052347
65	0x3fe0f776	1.7575519
66	0xbef057b4	-0.46941912
67	0xbf2107ba	-0.62902415
68	0xbf0dab0e	-0.55339134
69	0xbe81f0b1	-0.25378945
70	0xbeedcba4	-0.46444428
71	0xbce1faa9	-0.027585344
72	0xbf043074	-0.51636434
73	0xbef5b6ec	-0.4799112
74	0xbec90e72	-0.39268833
75	0x401b30f3	2.4248626
76	0xbc97b2f0	-0.018517941
77	0x3fd6862c	1.6759696
78	0x4011ab58	2.276083
79	0xbeef1451	-0.46695188
80	0x3dbf3f40	0.09338236
81	0xbf0e27a4	-0.55529237
82	0xbd6cc3f2	-0.057804056
83	0x3fd5cab0	1.670248
84	0xbd89cd5c	-0.06728622
85	0xbf06ad1d	-0.526079
86	0xbf18f0b9	-0.59742314
87	0xbf1036c9	-0.56333596
88	0xbf083ffc	-0.5322263
89	0xbf17dbdc	-0.59319854
90	0x4013fb69	2.3122199
91	0xbecd08a2	-0.4004565
92	0xbf0c470a	-0.54795897
93	0xbf129893	-0.5726406
94	0xbd6dfc69	-0.058102045
95	0xbe8e8d7f	-0.27842328
96	0xbf0a3bf7	-0.5399775
97	0x4033b963	2.80819
98	0x40184961	2.3794787
99	0x3fe414d5	1.7818857
100	0xbdb860af	-0.09002816
101	0xbeb41e42	-0.35179335
102	0xbf0df65c	-0.5545404
103	0xbea3d165	-0.31995693
104	0x3ff45003	1.9086918
105	0x40168b33	2.352246
106	0xbd8e5fb7	-0.0695185
107	0x3f4e386b	0.80554837
108	0xbf15eb00	-0.58561707
109	0xbda51f0f	-0.080625646
110	0xbef4b455	-0.47793832
111	0x3fcbe654	1.5929666
112	0xbf168ce2	-0.5880872
113	0xbb3864ad	-0.002813618
114	0xbf12bbc8	-0.5731778
115	0xbe8dfba2	-0.27731043
116	0xbec9d727	-0.3942196
117	0xbf0d2288	-0.55130816
118	0xbf1beccd	-0.60908204
119	0xbead5585	-0.3385431
120	0x400a9c5f	2.1657941
121	0x3fda4081	1.7050935
122	0x4013fd5d	2.312339
123	0xbf1346f0	-0.5753012
124	0xbf1283aa	-0.57232153
125	0xbc7301f9	-0.014832013
126	0x3fdb19ec	1.7117286
127	0x3fe86660	1.8156242

layer_5.weight f4 [120, 128]
0	0x3fa42509	1.2823802
1	0x3fa2cbe2	1.271847
2	0x3f170584	0.5899279
3	0x3f2e6947	0.6812939
4	0x3fb02ad6	1.3763072
5	0x3fc4e84f	1.5383395
6	0x3fa62fba	1.2983315
7	0x3f99c6a6	1.2013748
8	0x3f0436bb	0.5164601
9	0x3f077860	0.5291805
10	0x3f1a195e	0.6019496
11	0x3f9fa584	1.2472386
12	0x3f2a1c4b	0.6644942
13	0x3f3128d3	0.6920292
14	0x3f38289c	0.71936965
15	0x3f922c03	1.1419681
16	0x3f292ded	0.660857
17	0x3f11d154	0.56960034
18	0x3daa0952	0.08302559
19	0xbd8c6de2	-0.06856896
20	0x3f0f24d4	0.5591557
21	0x3f2a4b3b	0.6652104
22	0x3f1f0169	0.62111527
23	0x3f1ea72c	0.61973834
24	0x3f397232	0.72439873
25	0xbd28a2aa	-0.041170754
26	0x3faab6c5	1.3337027
27	0x3b20d3e6	0.0024540364
28	0x3ee8d87f	0.45477673
29	0x3d93c9ca	0.072162226
30	0x3f2480f8	0.6425929
31	0x3eddc2fa	0.43312818
32	0x3fbb3d95	1.4628168
33	0xbc2e2439	-0.010628753
34	0x3fa79a99	1.3094054
35	0x3fac3041	1.3452226
36	0x3f17c5dd	0.5928629
37	0x3fae8c34	1.3636537
38	0x3f14252e	0.5786923
39	0x3f27d052	0.65552247
40	0x3d4de077	0.050262894
41	0x3f1e5df2	0.618621
42	0x3f3158a9	0.6927591
43	0x3fc02099	1.5009948
44	0x3f007f63	0.50194377
45	0x3f1badd8	0.6081214
46	0x3fa07f57	1.2538861
47	0x3f06e1ed	0.52688485
48	0x3fc7ab37	1.5599126
49	0x3f55b996	0.83486307
50	0x3f379631	0.7171355
51	0x3f152eea	0.5827471
52	0x3f0f257f	0.5591659
53	0x3fa7e65f	1.3117179
54	0x3fae923d	1.3638378
55	0x3f3110c2	0.69166195
56	0x3f125977	0.5716776
57	0x3f1c4310	0.6103983
58	0x3fac2b1e	1.3450658
59	0x3fbe505a	1.4868271
60	0x3f1483f8	0.5801387
61	0x3f218f55	0.6310933
62	0xbd4b46d5	-0.049628098
63	0x3bc1a969	0.005910088
64	0x3ef85b80	0.4850731
65	0x3fa4be48	1.2870569
66	0x3efaf163	0.49012288
67	0x3ef52880	0.47882462
68	0x3f13947e	0.57648456
69	0x3f260026	0.64843976
70	0x3f1e81a6	0.6191658
71	0x3cdf53b1	0.027261587
72	0x3eef6218	0.46754527
73	0x3f0c4452	0.5479175
74	0x3f260a87	0.64859813
75	0x3fa1e9e7	1.2649506
76	0x3f277ca7	0.6542458
77	0x3f98903b	1.1919016
78	0x3f9ce0f1	1.2256147
79	0x3f11989f	0.56873506
80	0x3f3b56f2	0.73179543
81	0x3f06b372	0.5261756
82	0xbbf9769d	-0.0076130168
83	0x3f9d042e	1.22669
84	0xbd110df8	-0.035413712
85	0x3f0f3cc5	0.559521
86	0x3f1c43cc	0.6104095
87	0x3f0a3ac0	0.53995895
88	0x3f12d441	0.57355124
89	0x3f221a88	0.63321733
90	0x3f97da94	1.186358
91	0x3f3838ae	0.71961486
92	0x3f226013	0.6342785
93	0x3f215e5b	0.630346
94	0x3cfca37c	0.030839674
95	0x3f3b0558	0.7305503
96	0x3f190c5d	0.5978449
97	0x3f87f36c	1.0621161
98	0x3fb22c17	1.3919705
99	0x3fcdfbbd	1.609245
100	0x3f1c899f	0.61147493
101	0x3f24f384	0.64434075
102	0x3f07e90c	0.53089976
103	0x3f25bc2b	0.64740247
104	0x3f81c6be	1.0138776
105	0x3fac1983	1.3445286
106	0xbd87b9f2	-0.06627263
107	0xbec751ca	-0.38929588
108	0x3f149a13	0.580476
109	0xbd9af80f	-0.07566845
110	0x3eeb35b5	0.45939413
111	0x3f9e7bd2	1.2381537
112	0x3f084430	0.53229046
113	0x3d789aba	0.060694434
114	0x3ef8b842	0.48578078
115	0x3f185942	0.59511197
116	0x3f33d979	0.7025371
117	0x3ef75233	0.483049
118	0x3ef0df20	0.4704523
119	0x3f2f17db	0.68395776
120	0x3fa54ada	1.2913468
121	0x3fa2d37c	1.272079
122	0x3fa84b00	1.3147888
123	0x3f0844e8	0.5323014
124	0x3f0ec5be	0.5577048
125	0xbd807cd3	-0.06273808
126	0x3f805e2c	1.0028739
127	0x3f98a444	1.192513
128	0xba25ffc0	-0.000633236
129	0xbd2baf59	-0.04191527
130	0xbef2fe3e	-0.47459596
131	0xbf070b61	-0.5275174
132	0xbd77fd21	-0.060544137
133	0xbe24a686	-0.16079149
134	0xbd74f558	-0.05980429
135	0xbe4a7eb2	-0.19774893
136	0x3efe6362	0.49685198
137	0x3f183a1a	0.59463656
138	0xbeedf31a	-0.46474534
139	0xbedaa061	-0.42700484
140	0xbef60f1e	-0.48058408
141	0xbf06311e	-0.52418697
142	0xbed2085e	-0.4102201
143	0x3d00d841	0.031456236
144	0xbed74d94	-0.42051375
145	0x3f1ef162	0.6208707
146	0xbd33ca7e	-0.043894283
147	0xbc7ae066	-0.01531229
148	0xbefd20cb	-0.49439082
149	0xbec7d1be	-0.39027208
150	0xbec988f0	-0.39362288
151	0x3f1ae881	0.6051102
152	0x3e93fe80	0.28905106
153	0x3d1c7074	0.03819318
154	0xbd572065	-0.05252113
155	0x3c2a8ddd	0.010409799
156	0x3ef39749	0.4757636
157	0x3c16139d	0.00915995
158	0x3ea910ce	0.33020633
159	0x3eee5e9c	0.46556556
160	0xbe65fb9b	-0.22459261
161	0xbccb5aa1	-0.024823489
162	0xbdb1476f	-0.08656203
163	0x3b49b900	0.0030780435
164	0x3f273893	0.653207
165	0xbe026c40	-0.12736607
166	0x3f0ac0ab	0.5420024
167	0xbef82983	-0.4846917
168	0xbd546481	-0.05185366
169	0xbed6a10f	-0.41919753
170	0xbec18f19	-0.37804487
171	0x3dfb9d96	0.122859165
172	0xbf00670a	-0.50157225
173	0x3f15475c	0.5831201
174	0xbe809340	-0.25112343
175	0x3f06bce7	0.5263199
176	0xbe1d4171	-0.15356995
177	0x3e5ba3e2	0.21449235
178	0xbeef5a85	-0.46748748
179	0xbf1cc50a	-0.6123816
180	0xbf1d05e3	-0.6133711
181	0xbd7b4afc	-0.061350808
182	0xbe9a941c	-0.30191123
183	0xbecce1fb	-0.4001616
184	0xbf0e1eb6	-0.5551561
185	0xbf1d8def	-0.615447
186	0x3c717942	0.014738383
187	0xbe435628	-0.19075835
188	0xbf09c4fb	-0.53816193
189	0xbee257be	-0.44207567
190	0xbc5f8dbd	-0.013644633
191	0x3ca82728	0.020526484
192	0x3eea8579	0.45804957
193	0x3d599a24	0.053125516
194	0x3ef07d2c	0.469705
195	0xbf0cd4bf	-0.55012125
196	0x3f2897fe	0.6585692
197	0xbed5f136	-0.41785592
198	0xbefd3ed8	-0.49462008
199	0x3c23a7f6	0.0099887755
200	0xbef412d7	-0.47670624
201	0xbf0727e0	-0.5279522
202	0xbee91334	-0.45522463
203	0x3d09529d	0.03352605
204	0xbee078d8	-0.43842196
205	0x3d8f904b	0.070099436
206	0x3d7624cb	0.060093682
207	0x3f055e8f	0.5209741
208	0xbefbf646	-0.4921133
209	0x3f0ff2be	0.5622977
210	0xbd58136d	-0.0527529
211	0x3d773424	0.06035246
212	0xbda2091f	-0.07911896
213	0x3f107e20	0.5644245
214	0x3f0ddac6	0.55411947
215	0x3f05ee7d	0.5231703
216	0x3f21e08b	0.6323325
217	0xbf09e0ed	-0.53858835
218	0xbe80b73b	-0.25139794
219	0xbeeedff8	-0.4665525
220	0x3f064458	0.52448034
221	0x3f236041	0.63818747
222	0xbd89a14f	-0.0672022
223	0xbef5313a	-0.4788912
224	0x3f1ef506	0.62092626
225	0xbe146854	-0.14492923
226	0xbea13eee	-0.31493324
227	0x3dc8aec6	0.097989604
228	0xbedbfcad	-0.42966214
229	0xbeccbd32	-0.39988095
230	0x3f2d58ed	0.67713815
231	0xbebb2b75	-0.36556593
232	0x3e23c657	0.1599363
233	0x3d5db088	0.05412343
234	0x3c962ab1	0.018330904
235	0x3ed90ee1	0.42394164
236	0x3f202d28	0.625689
237	0x3d3bdefe	0.04586696
238	0x3f115d71	0.56783205
239	0xbc70a130	-0.014686868
240	0xbf195f80	-0.59911346
241	0xbc4c6246	-0.012474602
242	0x3f0c7ba7	0.5487618
243	0xbec0b7e4	-0.37640297
244	0xbefca195	-0.49342027
245	0xbeeebcf0	-0.46628523
246	0xbf18b24e	-0.5964707
247	0xbedf9c84	-0.436741
248	0xbd875d8e	-0.06609641
249	0x3db7b3cd	0.08969841
250	0xbd94788c	-0.07249555
251	0xbf1af514	-0.6053021
252	0x3eead22d	0.45863476
253	0xbda2607a	-0.07928558
254	0x3e80abe8	0.25131154
255	0xbd055a0c	-0.03255658

layer_5.bias f4 [120]
0	0x402fc2f0	2.746273
1	0x3e4d57a0	0.20052958
2	0x3ef03a1d	0.46919337
3	0x3e079a08	0.13242352
4	0x3f83fa40	1.0310745
5	0xbe587ac0	-0.21140575
6	0x40605197	3.5049798
7	0x3e996c58	0.29965472
8	0x3f882681	1.063675
9	0x3ecb7c4c	0.39743268
10	0x400642ca	2.0978265
11	0xbe8b8d67	-0.2725632
12	0x3ee62e68	0.4495728
13	0x3ea5b534	0.3236481
14	0x3fc9de63	1.5770992
15	0x3dece290	0.11566651
16	0x3f1d6bfd	0.614929
17	0x3e0b3e26	0.13597926
18	0x3f3f2410	0.746644
19	0x3f8f54a5	1.1197706
20	0x3de57fce	0.112060174
21	0x3fcf0011	1.6171895
22	0x3fbb9dd5	1.4657542
23	0x3f9d36d0	1.2282352
24	0x3fc004e4	1.5001493
25	0x3ea07226	0.31337088
26	0x3f1f92c4	0.6233332
27	0x3e65fd71	0.22459961
28	0x3ec393aa	0.38198596
29	0x3f926ac2	1.143883
30	0x3e929572	0.28629643
31	0x3f171a37	0.59024376
32	0x3e8fb78c	0.28069723
33	0x3ec8ca7a	0.39216977
34	0x3e126ac7	0.14298545
35	0x3f256aa9	0.64615875
36	0x3e6f4985	0.23367889
37	0x3fa687fb	1.3010248
38	0x40544092	3.316441
39	0x3fa31897	1.2741879
40	0x3f3944fe	0.723709
41	0x3e3eae02	0.18621066
42	0x3ea09b85	0.31368652
43	0x4053c814	3.3090868
44	0x3f06c273	0.52640456
45	0x3e9ef2b5	0.31044546
46	0x3f51757c	0.8181989
47	0x40ec47cb	7.383764
48	0x3f1c7bd8	0.6112647
49	0x3faa1f83	1.3290867
50	0x3f7e9e71	0.9946051
51	0x3ed7a7e7	0.42120287
52	0x3e92c121	0.2866297
53	0x3ee2f713	0.44329128
54	0x3e9656b3	0.2936302
55	0x3fa3b956	1.2790935
56	0x3f8b46b8	1.0880957
57	0x3fc88f7b	1.5668787
58	0x3f9d8e48	1.2309046
59	0x3f942e57	1.1576642
60	0x3e8c936f	0.27456233
61	0x3ff88731	1.9416257
62	0x3fa056d3	1.2526497
63	0x3eb94b04	0.36190045
64	0x3f9387f5	1.1525866
65	0x3efad0a9	0.4898732
66	0x3fd34b5d	1.6507374
67	0x3ff36eff	1.9018248
68	0x4122749c	10.153469
69	0xbdb72f06	-0.08944516
70	0xbdf79fbc	-0.12091014
71	0x3e89d8e8	0.269233
72	0x3f13d81f	0.5775165
73	0x3fad789e	1.3552434
74	0x3fa61347	1.2974633
75	0xbea01e2f	-0.31273028
76	0x3f18739f	0.59551424
77	0x3fa278c3	1.2693104
78	0x3f490807	0.78527874
79	0x3f834495	1.0255305
80	0x3eb749e2	0.35798556
81	0x3f23a13f	0.63917917
82	0x3f812a13	1.0090965
83	0x3f8d24b7	1.102683
84	0x3f8c3523	1.0953716
85	0x3f1442dc	0.5791452
86	0x3ed5b90e	0.41742748
87	0x3f88581e	1.0651891
88	0x3fa0be69	1.2558109
89	0x3fd02774	1.626204
90	0x3fc832ba	1.564048
91	0x3f9b1cbc	1.2118144
92	0x3eba892e	0.36432785
93	0x3ee27e3b	0.4423693
94	0x3f88486b	1.06471
95	0x3fa74ec3	1.3070911
96	0x3f0b1171	0.5432349
97	0x3f56441c	0.83697677
98	0x3eb5b80f	0.35491988
99	0x3fb37c9b	1.4022402
100	0x3eee94b3	0.46597824
101	0x3fd7c519	1.6857024
102	0x3f8bb517	1.0914639
103	0x3f9c3285	1.2202917
104	0x3db2273a	0.08698888
105	0x3eed30f6	0.46326417
106	0x3fadd509	1.3580638
107	0x3eb5e2fe	0.35524744
108	0x3f0b7fb9	0.54491764
109	0x3f917fe3	1.1367153
110	0xbe2e5908	-0.1702615
111	0x3f85d2be	1.0454938
112	0x3fc225eb	1.5167822
113	0x3ea113c9	0.31460407
114	0x3f6a39ff	0.91494745
115	0x3e9bd4cf	0.30435798
116	0x3f0228cd	0.5084351
117	0xbe067dde	-0.13133952
118	0x3fd874c3	1.6910633
119	0x3f988f06	1.1918647
