src/pyoptes/optimization/budget_allocation/supervised_learning/trained_nn_states/ba_120_fcn.pth (torch, 167943 bytes, 9 tensors)

layer_1.weight f4 [128, 120]
1.617822 0.226566 0.23703882 -4.018469 -2.5669575 0.8376849 -3.2175245 0.76652366
-0.29050818 1.4907688 0.8995948 -1.1828485 -0.7922008 -0.5987375 0.41497153 0.8026013
-0.2440686 -0.55142665 -2.253089 -0.7630647 -0.27050766 -0.6098003 -0.8723725 -0.18152605
-0.05792619 0.19133133 -0.11893923 0.5131796 -1.8326521 1.3326845 -0.8864927 -0.9731832
0.74870443 -0.28360498 -2.288988 -2.0138338 -0.19021991 0.2586183 0.16236702 -0.19828226
0.013050648 1.4355456 -1.5604477 0.77938336 -1.2790369 -1.0451908 0.84487057 -0.84510684
1.785104 0.84384793 0.57200503 1.7108301 -0.13764416 -0.46216643 -1.1979661 1.6756673
-0.17732744 2.0181854 -0.11823603 -0.52934706 1.4075196 0.24334833 0.7801133 1.7235541
-0.51384926 1.208685 1.7843269 -0.50046283 0.71349585 1.5723608 1.3082443 -0.956377
-1.171084 1.216742 0.9688707 0.5305925 2.1833494 1.1169652 -0.5606711 0.2528088
1.13301 0.36378515 1.2341481 -0.34379095 -1.1878383 1.4950429 -1.7252005 -1.1910728
0.28009275 -0.89504564 0.88322115 -0.16027772 -0.5578909 -2.0235436 -0.29916474 0.19634761
-1.4465529 0.9676063 0.6601617 -1.8121127 0.7360935 -1.3010623 -1.0731109 -0.42523807
-0.14070517 0.19343843 0.5965537 0.40353903 -1.066176 -1.3281612 1.4749647 0.55766153
0.178568 -0.9594129 -2.3502932 -0.28110263 0.16873264 -0.55179214 -0.05139207 -0.349364
-0.36103237 0.15364628 0.46972728 -0.23140596 0.27308282 0.35837638 0.44490284 0.34785396
0.15561946 0.16398323 0.29204234 0.37064588 0.36314407 0.28609163 0.5715927 0.15520617
0.19781458 0.08144183 0.24905628 0.15784422 0.38562182 0.041640002 -0.20113099 0.22239958
0.29177654 0.20054118 0.020670634 0.12705542 0.14568631 0.24850734 0.2762582 0.34534895
0.026772717 0.04910541 0.2087811 0.4208335 0.08942706 0.45944157 0.2998675 0.22469348
-0.025996545 0.3687887 0.4221641 0.31363428 0.360174 0.54239476 0.33238977 0.1330811
0.38358665 0.33736372 0.21897697 0.31202748 0.34914047 0.48201305 0.2638582 0.18985806
0.39001903 0.33621815 0.4133574 0.35344684 0.30638513 0.42250758 0.5050552 0.20012403
0.42832917 0.46670333 0.21946307 0.24104896 0.32423767 0.5238485 0.39904717 0.33941376
0.4305202 0.6106453 0.41169733 0.43821466 0.548702 0.3606527 0.5233294 0.28115553
0.39256108 0.39520192 0.51547843 0.3853985 0.39767265 0.40469235 0.5359299 0.31941703
0.4568501 0.444137 0.34898618 0.5748084 0.557636 0.5481915 0.31763372 0.58074343
0.5756604 0.41181582 0.48906142 0.46061584 0.33202192 0.5486635 0.5340319 0.49018592
0.41656604 0.4584914 0.49771136 0.5175526 0.5379593 0.3972403 0.5431621 0.57842165
0.4869239 0.48830974 0.5938975 0.5221912 0.4842722 0.47582757 0.58350587 0.5352823
0.49934885 0.6536017 -1.6483631 -0.28228867 -1.8517594 0.83354807 -0.76049244 -0.78558373
1.6431931 -0.6855246 1.1535811 -1.5623636 -0.7516542 1.013966 -0.08882725 -1.8655747
00000000: cb14 cf3f eb00 683e 4eba 723e 4c97 80c0
00000010: 0849 24c0 8572 563f eceb 4dc0 e53a 443f
00000020: 7dbd 94be 83d1 be3f d84b 663f 9467 97bf
00000030: accd 4abf dc46 19bf 2677 d43e 4777 4d3f
00000040: 1eed 79be 4c2a 0dbf 9c32 10c0 3558 43bf
00000050: fb7f 8abe df1b 1cbf ce53 5fbf f7e1 39be
00000060: 0344 6dbd 5cec 433e 6996 f3bd bd5f 033f
00000070: 5894 eabf 6895 aa3f 30f1 62bf 8922 79bf
00000080: 18ab 3f3f ac34 91be c87e 12c0 a7e2 00c0
00000090: 02c9 42be 9e69 843e 8a43 263e 810a 4bbe
000000a0: 63d2 553c f5bf b73f c0bc c7bf ab85 473f
000000b0: 7bb7 a3bf d0c8 85bf 7049 583f ec58 58bf
000000c0: 4a7e e43f 6b06 583f ec6e 123f 7bfc da3f
000000d0: 97f2 0cbe 14a1 ecbe f456 99bf 447c d63f
000000e0: 5395 35be f329 0140 bb25 f2bd 4a83 07bf
000000f0: 9a29 b43f 4e30 793e 81b5 473f 6c9d dc3f
00000100: a08b 03bf 31b6 9a3f d364 e43f 551e 00bf
00000110: aaa7 363f 1e43 c93f 8d74 a73f 20d5 74bf
00000120: 15e6 95bf 34be 9b3f e907 783f e9d4 073f
00000130: ffbb 0b40 b7f8 8e3f 2488 0fbf 2870 813e
00000140: 7906 913f 0c42 ba3e 91f8 9d3f 5e05 b0be
00000150: 160b 98bf 915d bf3f 5fd3 dcbf 1375 98bf
00000160: 5168 8f3e b621 65bf c81a 623f d81f 24be
00000170: f0d1 0ebf bd81 01c0 1f2c 99be 590f 493e
00000180: a528 b9bf 0cb5 773f 5b00 293f 4ff3 e7bf
00000190: a070 3c3f 3689 a6bf b35b 89bf ceb8 d9be
000001a0: 0415 10be b914 463e beb7 183f ab9c ce3e
000001b0: 7578 88bf 3001 aabf a5cb bc3f e8c2 0e3f
000001c0: 88da 363e 159c 75bf 346b 16c0 afec 8fbe
000001d0: 40c8 2c3e 4042 0dbf 7e80 52bd d7df b2be
000001e0: 3cd9 b8be 7355 1d3e 1880 f03e aff5 6cbe
000001f0: 83d1 8b3e 1c7d b73e 4eca e33e ea19 b23e
00000200: b55a 1f3e 38eb 273e 9386 953e 4cc5 bd3e
00000210: 05ee b93e 9a7a 923e e653 123f 5eee 1e3e
00000220: e88f 4a3e f9ca a63d 9c08 7f3e eaa1 213e
00000230: 3970 c53e b58e 2a3d 48f5 4dbe b7bc 633e
00000240: bc63 953e ab5a 4d3e 7655 a93c d11a 023e
00000250: cb2e 153e b578 7e3e b771 8d3e 94d1 b03e
00000260: 7552 db3c c122 493d b6ca 553e 7d77 d73e
00000270: 8925 b73d ed3b eb3e 3c88 993e 0c16 663e
00000280: b5f6 d4bc dfd1 bc3e e525 d83e ac94 a03e
00000290: ba68 b83e 62da 0a3f fe2e aa3e 6946 083e
000002a0: 7865 c43e f0ba ac3e 803b 603e 11c2 9f3e
000002b0: 8ac2 b23e 6aca f63e 6c18 873e 276a 423e
000002c0: 93b0 c73e c924 ac3e 95a3 d33e fcf6 b43e
000002d0: 83de 9c3e ea52 d83e 4c4b 013f 50ed 4c3e
000002e0: f64d db3e bdf3 ee3e edba 603e 8ad5 763e
000002f0: 7b02 a63e ef1a 063f e94f cc3e a4c7 ad3e
00000300: 256d dc3e 4053 1c3f fec9 d23e ac5d e03e
00000310: bc77 0c3f 78a7 b83e eaf8 053f 9ef3 8f3e
00000320: c4fd c83e e857 ca3e 65f6 033f f452 c53e
00000330: c09b cb3e d633 cf3e b432 093f a18a a33e
00000340: 42e8 e93e ed65 e33e 51ae b23e a526 133f
00000350: 3cc1 0e3f 4756 0c3f e3a0 a23e 9aab 143f
00000360: 7b5e 133f 86d9 d23e 4266 fa3e d7d5 eb3e
00000370: c7fe a93e 3675 0c3f 51b6 083f a6f9 fa3e
00000380: 2548 d53e 63bf ea3e 06d4 fe3e 547e 043f
00000390: b3b7 093f 1563 cb3e ac0c 0b3f 7113 143f
000003a0: 174e f93e bc03 fa3e ab09 183f 53ae 053f
000003b0: 87f2 f73e ac9f f33e a460 153f 4308 093f
000003c0: a7aa ff3e 7152 273f 90fd d2bf 2488 90be
000003d0: 7406 edbf 6863 553f a2af 42bf 041c 49bf
000003e0: 2754 d23f 8a7e 2fbf 8ca8 933f 88fb c7bf
000003f0: 696c 40bf a3c9 813f 10eb b5bd 27cb eebf

layer_1.bias f4 [128]
0.11547145 0.37083748 0.43505362 0.096496396 0.10579807 0.37221947 0.18844907 -0.52331126
0.25704902 -0.32240552 -0.22981465 0.37165794 -0.1467363 -0.036137737 0.3606807 0.114592426
-2.840034 -0.020676177 -0.5005406 0.16980033 -1.7345241 0.4282432 -1.8223966 0.2871185
0.3819035 -1.9275267 0.33066827 0.4533815 0.023154521 -1.9260055 0.19651024 0.3924025
-0.22193982 -0.05632287 -1.2182628 -0.21591444 -0.15053135 -0.14645681 0.20194173 -1.7565374
-1.8887327 0.11609731 -2.68738 -0.19364095 0.28523606 0.08379748 -2.0906985 -0.23192321
-1.6122658 0.3727323 -1.7006284 -0.007574249 0.52616996 0.067114644 -0.29839495 0.4314644
0.12545308 -0.09977791 0.46496058 0.49891302 -0.18181986 -0.891218 -0.06114512 0.07316267
-1.2184886 -1.6488144 0.20524567 -2.0707986 0.44515222 -0.1046576 -0.65566784 0.33441988
0.20771319 -2.28829 0.2586614 0.07930791 0.18655577 0.448231 0.44666633 -1.5416175
-1.1194084 0.45006955 0.29772136 0.39644575 0.050927427 0.17131357 0.48128763 -0.044055816
0.21959157 0.118298054 0.15801156 -0.16572633 -1.1063926 -1.2536819 -0.04218711 -0.237446
-0.03799639 -0.59516853 -2.2773278 0.26721105 -1.1229494 0.31553182 0.25540408 0.01566991
-0.12992233 -0.031645436 0.25039384 0.16502647 0.04258907 0.07445027 -0.5688629 -0.028673343
-2.0430872 -0.4849942 0.54337424 -1.5725079 -0.19246918 -0.72404474 -0.5849511 -0.042245295
-1.7572796 0.38698587 -1.3415946 0.2258336 -0.17314002 -0.21717499 0.11243327 -0.2634442
00000000: 4c7c ec3d 69de bd3e 59bf de3e e79f c53d
00000010: a9ac d83d 8d93 be3e cbf8 403e baf7 05bf
00000020: ee9b 833e 5612 a5be 8854 6bbe f349 be3e
00000030: 0a42 16be 2a05 14bd 24ab b83e 6faf ea3d
00000040: 1ec3 35c0 1661 a9bc 6e23 00bf 23e0 2d3e
00000050: e304 debf b142 db3e 4b44 e9bf 3201 933e
00000060: db88 c33e 32b9 f6bf 5a4d a93e 9f21 e83e
00000070: 8dae bd3c 5987 f6bf fb39 493e fbe8 c83e
00000080: 3144 63be cfb2 66bd 09f0 9bbf ad18 5dbe
00000090: e424 1abe c6f8 15be d0c9 4e3e 38d6 e0bf
000000a0: fec1 f1bf 6dc4 ed3d 09fe 2bc0 d049 46be
000000b0: 760a 923e 039e ab3d 01ce 05c0 477d 6dbe
000000c0: ba5e cebf c5d6 be3e 31ae d9bf 6831 f8bb
000000d0: 13b3 063f 6773 893d 39c7 98be e7e8 dc3e
000000e0: c676 003e 5c58 ccbd 500f ee3e 8771 ff3e
000000f0: fc2e 3abe dd26 64bf 4e73 7abd 4fd6 953d
00000100: 6ff7 9bbf 5a0c d3bf ec2b 523e f787 04c0
00000110: feea e33e b956 d6bd d9d9 27bf 1539 ab3e
00000120: c4b2 543e 5873 12c0 446f 843e 2f6c a23d
00000130: 7a08 3f3e 897e e53e 73b1 e43e b953 c5bf
00000140: c648 8fbf 846f e63e ef6e 983e f0fa ca3e
00000150: 4799 503d d36c 2f3e 556b f63e df73 34bd
00000160: 9ddc 603e 4046 f23d c8cd 213e 2ab4 29be
00000170: 469e 8dbf a678 a0bf 64cc 2cbd 0b25 73be
00000180: 1aa2 1bbd f75c 18bf bdbf 11c0 e3cf 883e
00000190: cebc 8fbf 638d a13e 53c4 823e 2f5e 803c
000001a0: 5c0a 05be a59e 01bd 9f33 803e b3fc 283e
000001b0: e071 2e3d 6279 983d 00a1 11bf 5ce4 eabc
000001c0: f1c1 02c0 2951 f8be 931a 0b3f f047 c9bf
000001d0: a416 45be ff5a 39bf 5bbf 15bf 6709 2dbd
000001e0: 8aee e0bf 0323 c63e 5fb9 abbf ec40 673e
000001f0: 9e4b 31be 1f63 5ebe 6a43 e63d 28e2 86be

layer_2.weight f4 [128, 128]
-0.24655351 -0.08769924 0.06560427 -0.20962347 -0.13249701 -0.13149205 -0.006186153 -0.0027835302
-0.09651071 -0.052842613 -0.21078825 -0.10062636 -0.117067054 0.051210042 0.0074753826 -0.11594869
-0.12122404 -0.20185456 -0.052768007 0.038368825 -0.14760078 -0.0015264639 -0.08428961 -0.14763829
-0.15305786 -0.022490425 -0.26200613 -0.009378934 -0.02982689 -0.14391635 -0.0547147 0.0073388787
-0.06015441 -0.21884327 0.058566425 0.010693425 -0.06430639 -0.19114669 0.03923148 -0.12667036
-0.0097196335 -0.084386736 -0.067060225 -0.1121372 -0.029367846 -0.0031422675 -0.08882145 -0.094115555
0.018845078 -0.06165588 -0.45308107 -0.21315968 -0.010938411 -0.0031902983 -0.14192484 -0.015188359
-0.0071416143 0.014077142 0.030755918 -0.071969956 0.0036283555 -0.06846973 -0.20093879 -0.031987395
-0.012358086 -0.07826482 -0.056180183 -0.058934804 0.04191235 0.0026665267 -0.1262278 -0.16944882
-0.045592137 -0.28849408 -0.1806142 -0.20939587 0.06468715 0.028981997 -0.017044904 -0.15493308
-0.032673936 0.010701897 0.0011162175 -0.060226593 -0.16160709 -0.06377027 0.07934655 -0.07689644
-0.13013482 -0.12985869 -0.17024629 -0.12574314 -0.12572902 -0.013222199 -0.14774086 -0.0037341018
-0.2211838 -0.108284615 -0.11685287 -0.10421618 -0.07200935 -0.025871089 -0.13346684 -0.19375148
-0.14596333 -0.18329221 -0.07111072 0.04721185 -0.14649712 -0.11122382 0.0016322046 -0.050103705
-0.114587106 -0.18791391 -0.016622467 -0.036002297 -0.18064696 0.0073947934 -0.00013233119 -0.1690756
-0.16804703 -0.022366991 -0.0632264 0.10738241 -0.18869151 -0.034384713 -0.12599838 -0.008863838
0.14528362 0.13081942 0.34703276 0.010147448 0.029455617 0.05302803 0.15836334 -0.05320404
-0.04084643 -0.03794433 -0.06533954 0.1943591 -0.12884942 0.017476497 0.23400974 0.14809364
-0.06429206 -0.057702795 0.003108558 0.27002153 -0.03949546 0.2647121 -0.030913182 0.03501602
-0.025579996 -0.06702899 0.09092162 0.18529013 0.22450086 -0.035520814 0.063820094 0.2344705
-0.010617592 -0.08538285 0.042731564 0.009829219 -0.06342438 -0.04442019 0.2068444 -0.03442204
-0.01720208 0.03498526 -0.039776545 -0.057126716 0.15953203 0.2205271 0.015265641 -0.0151322
-0.0142170945 0.17040817 -0.03756171 -0.15123908 0.29010427 0.16023864 -0.06589092 0.21062723
0.23342618 -0.08910145 0.23565757 0.26104546 -0.004963385 -0.04970385 -0.0330195 0.24971032
-0.024465883 -0.01877353 0.2328752 -0.0045802086 0.3593169 -0.023324331 -0.020151231 0.099289104
0.08422305 -0.3167311 0.12084134 0.22398438 0.31477404 0.30626532 0.100679815 0.0611471
-0.2829804 0.21979779 0.215508 0.28270605 0.1757333 0.11517656 0.3023062 0.16061798
0.23857774 0.10847605 0.20638567 -0.05419911 -0.10593345 -0.04589334 -0.0670833 0.01590492
-0.060466766 -0.14915012 -0.16545269 0.107396364 -0.016043035 -0.013537123 0.0203448 -0.08475826
-0.06336354 -0.038698357 0.07924585 0.23115693 0.19730319 -0.038300868 -0.0800236 -0.06467594
-0.01882381 0.12126914 0.32003513 0.01987426 -0.09144144 -0.09187281 -0.0100722825 -0.054007635
-0.030218046 0.24229798 -0.051042635 0.2672633 -0.08684458 -0.056294195 0.04155097 -0.06942128
00000000: 8678 7cbe a99b b3bd 885b 863d 89a7 56be
00000010: 4cad 07be daa5 06be 36b5 cabb e36b 36bb
00000020: 68a7 c5bd 7f71 58bd e0d8 57be 3115 cebd
00000030: dac0 efbd 9fc1 513d 0ef4 f43b 8276 edbd
00000040: 4f44 f8bd f6b2 4ebe 4423 58bd a128 1d3d
00000050: a924 17be a113 c8ba 08a0 acbd 7e2e 17be
00000060: 33bb 1cbe d73d b8bc ab25 86be 1aaa 19bc
00000070: 8657 f4bc cf5e 13be 851c 60bd fa7a f03b
00000080: 7864 76bd 7318 60be 59e3 6f3d 7a33 2f3c
00000090: 12b3 83bd f5bb 43be 30b1 203d e0b5 01be
000000a0: 193f 1fbc f4d2 acbd df56 89bd 30a8 e5bd
000000b0: d694 f0bc 80ee 4dbb 05e8 b5bd a8bf c0bd
000000c0: fe60 9a3c e08a 7cbd 3efa e7be 8846 5abe
000000d0: 0537 33bc 5314 51bb bf54 11be 98d8 78bc
000000e0: 3404 eabb d0a3 663c d6f3 fb3c fc64 93bd
000000f0: b4c9 6d3b dc39 8cbd e6c2 4dbe 3705 03bd
00000100: 9279 4abc 4e49 a0bd 311d 66bd 9f65 71bd
00000110: 49ac 2b3d e5c0 2e3b dc41 01be fe83 2dbe
00000120: d2be 3abd 7fb5 93be eef2 38be df6b 56be
00000130: b27a 843d a76b ed3c c1a1 8bbc c7a6 1ebe
00000140: 1bd5 05bd 0257 2f3c 0b4e 923a 29b0 76bd
00000150: 547c 25be fd99 82bd 7280 a23d e17b 9dbd
00000160: 1042 05be adf9 04be 0b55 2ebe cfc2 00be
00000170: 1cbf 00be eca1 58bc 6149 17be d5b7 74bb
00000180: 027e 62be 53c4 ddbd 8f50 efbd 4b6f d5bd
00000190: a379 93bd 9bef d3bc 88ab 08be ca66 46be
000001a0: 6977 15be f4b0 3bbe 7fa2 91bd 3661 413d
000001b0: 5703 16be 50c9 e3bd b3ef d53a 8b39 4dbd
000001c0: a5ac eabd 816c 40be d72b 88bc 2577 13bd
000001d0: 84fb 38be 0650 f23b 62c2 0ab9 2722 2dbe
000001e0: 8514 2cbe fb3a b7bc d87c 81bd 4feb db3d
000001f0: 5938 41be fcd6 0cbd b805 01be a239 11bc
00000200: 3bc5 143e 87f5 053e 47ae b13e 7b41 263c
00000210: e84c f13c eb33 593d 002a 223e 7bec 59bd
00000220: 964e 27bd 846b 1bbd bdd0 85bd 1206 473e
00000230: 1af1 03be df2a 8f3c 40a0 6f3e dca5 173e
00000240: 8eab 83bd c459 6cbd f3b8 4b3b 4340 8a3e
00000250: fec5 21bd 5888 873e a43d fdbc f56c 0f3d
00000260: 248d d1bc 7f46 89bd 1d35 ba3d b2bc 3d3e
00000270: 8ee3 653e 467e 11bd 1cb4 823d 0919 703e
00000280: 69f5 2dbc 34dd aebd 4b07 2f3d bc0a 213c
00000290: a4e4 81bd f2f1 35bd 05cf 533e 20fe 0cbd
000002a0: 60eb 8cbc b44c 0f3d bbec 22bd b4fd 69bd
000002b0: 5d5c 233e dbd1 613e bd1c 7a3c 0ced 77bc
000002c0: d1ee 68bc 7b7f 2e3e 4fda 19bd 6bde 1abe
000002d0: 8c88 943e 9915 243e d2f1 86bd aaae 573e
000002e0: 4607 6f3e d27a b6bd 3850 713e c0a7 853e
000002f0: e4a3 a2bb 4496 4bbd 753f 07bd 10b4 7f3e
00000300: ad6c c8bc f2ca 99bc d676 6e3e 9315 96bb
00000310: 62f8 b73e ab12 bfbc 3214 a5bc 1658 cb3d
00000320: 227d ac3d 942a a2be aa7b f73d 295c 653e
00000330: 102a a13e cfce 9c3e 3831 ce3d 6275 7a3d
00000340: cfe2 90be ac12 613e 21ae 5c3e d9be 903e
00000350: 6ef3 333e b0e1 eb3d e1c7 9a3e 0a79 243e
00000360: b94d 743e b128 de3d c456 533e e3ff 5dbd
00000370: a3f3 d8bd a8fa 3bbd f862 89bd 094b 823c
00000380: 00ac 77bd cfba 18be 6e6c 29be a0f2 db3d
00000390: af6c 83bc cfca 5dbc 23aa a63c bd95 adbd
000003a0: bec4 81bd 2b82 1ebd a64b a23d 67b4 6c3e
000003b0: d909 4a3e 5fe1 1cbd 6ae3 a3bd d274 84bd
000003c0: 6434 9abc f45b f83d a5db a33e 58cf a23c
000003d0: a645 bbbd d027 bcbd 3706 25bc 1c37 5dbd
000003e0: d68b f7bc f61c 783e 1512 51bd bcd6 883e
000003f0: 92db b1bd be94 66bd 5a31 2a3d be2c 8ebd

layer_2.bias f4 [128]
0.7335243 1.1013819 1.3571409 0.79440355 1.0926175 0.28638995 1.2624786 0.3270472
1.0068984 0.2047781 -0.04010407 1.2087979 -0.018691922 0.20908052 1.2051352 0.6419903
0.29132387 0.7463278 0.25720984 1.3062897 0.2538989 1.1947433 0.2689795 0.6452357
0.8323466 0.15205432 0.9068652 1.1718802 1.2555432 0.14456926 1.1814508 -0.09080806
0.24162446 0.69905907 -0.056264102 0.18072402 -0.039939072 0.67360437 1.2507249 0.45228735
-0.02456435 1.1064094 0.09209901 0.04027646 -0.015198852 1.217817 0.33680916 0.3477026
-0.06842008 1.2384882 -0.03126008 0.7177083 1.3058378 1.1912832 0.45909873 1.2044538
-0.06907372 -0.10113236 -0.07924351 1.2494739 -0.114487655 -0.15159678 0.745965 1.3251299
-0.093293175 0.5856117 1.2400807 0.34335378 1.2352686 0.26792955 0.45098624 1.0335938
0.15604347 0.045742434 0.9975878 0.47464508 1.3302863 1.3164988 1.1687155 0.4710149
-0.05447614 -0.04300815 1.2459258 1.1815203 -0.056452736 1.0480055 1.2974575 -0.05460915
0.23429272 0.48842916 -0.38262263 0.4175533 0.33583397 0.018339893 0.72718173 0.22377391
0.7182501 0.6833112 0.41785017 1.1033404 0.13898236 0.5886476 0.9485579 0.71578074
0.62194824 0.61112124 -0.040774073 1.3585093 0.3527906 0.8619116 0.18411057 0.2552148
0.3243656 0.20540123 1.2890465 -0.021773497 -0.070055716 -0.076721184 -0.10552844 0.0039847293
0.3308132 1.2187608 -0.2094302 1.3598465 -0.09741682 0.16966648 1.1242166 -0.36729965
00000000: 40c8 3b3f 15fa 8c3f cbb6 ad3f 085e 4b3f
00000010: e4da 8b3f b4a1 923e e698 a13f bb72 a73e
00000020: 0ce2 803f 5ab1 513e 2a44 24bd e4b9 9a3f
00000030: cd1f 99bc 3419 563e df41 9a3f 7a59 243f
00000040: 6728 953e 570f 3f3f 02b1 833e 8034 a73f
00000050: 09ff 813e 59ed 983f aeb7 893e 2b2e 253f
00000060: ab14 553f 21b4 1b3e 5128 683f 2c00 963f
00000070: a4b5 a03f f709 143e c839 973f 93f9 b9bd
00000080: 676c 773e 89f5 323f 3075 66bd b80f 393e
00000090: 2797 23bd 5671 2c3f c117 a03f 3592 e73e
000000a0: 2d3b c9bc d39e 8d3f 689e bc3d eef8 243d
000000b0: 9b04 79bc 6de1 9b3f 4072 ac3e 1306 b23e
000000c0: d41f 8cbd c886 9e3f 920a 00bd bbbb 373f
000000d0: b125 a73f f87b 983f fd0e eb3e 8b2b 9a3f
000000e0: 8676 8dbd 7c1e cfbd 6c4a a2bd c3ee 9f3f
000000f0: 8178 eabd 303c 1bbe 90f7 3e3f db9d a93f
00000100: 7e10 bfbd a6ea 153f f7ba 9e3f 11cc af3e
00000110: 481d 9e3f 102e 893e abe7 e63e cd4c 843f
00000120: dcc9 1f3e 6b5c 3b3d ea61 7f3f ae04 f33e
00000130: d246 aa3f 0883 a83f 7898 953f dd28 f13e
00000140: 5f22 5fbd 5029 30bd 7f7a 9f3f 0f3c 973f
00000150: fc3a 67bd 0b25 863f 1613 a63f d8ad 5fbd
00000160: 6eea 6f3e 6313 fa3e 1de7 c3be 8cc9 d53e
00000170: 6ef2 ab3e 8b3d 963c 9528 3a3f fd24 653e
00000180: 3ddf 373f 7ced 2e3f 75f0 d53e 423a 8d3f
00000190: 6451 0e3e 9cb1 163f b1d4 723f 683d 373f
000001a0: 0038 1f3f 7172 1c3f b702 27bd a2e3 ad3f
000001b0: f8a0 b43e 3da6 5c3f 7b87 3c3e 84ab 823e
000001c0: 3f13 a63e b354 523e 7aff a43f 555e b2bc
000001d0: 5f79 8fbd ff1f 9dbd 4b1f d8bd 5592 823b
000001e0: 5960 a93e 5b00 9c3f df74 56be 730f ae3f
000001f0: 7882 c7bd 0dbd 2d3e 54e6 8f3f b30e bcbe

layer_3.weight f4 [64, 128]
0.014466353 -0.075389184 -0.03351661 -0.054884437 0.012580289 -0.12506573 -0.053110227 0.020947628
-0.034849487 0.050515693 0.016120978 0.03516469 0.05332541 0.016662689 0.043837566 -0.0114682885
0.012955819 0.016835814 -0.01056624 0.033925757 -0.04445688 0.0021191076 0.0043264925 -0.11632174
-0.079743065 -0.0026499308 -0.06564479 -0.0061849263 0.032000817 -0.029659009 -0.06957026 0.019410605
-0.028299943 0.0258906 0.020858426 0.027047494 0.031475708 -0.06650686 0.024274768 -0.029872535
-0.0036482427 0.0046199257 -0.08022833 -0.074781716 0.039586566 0.013986995 -0.039860554 -0.05746086
0.013057 -0.04560796 0.026536545 -0.06010896 0.048258334 0.0022309085 0.014020053 -0.04937656
-0.018974254 -0.0033785664 0.01085353 -0.037460715 -0.030227648 -0.098079555 -0.047474284 -0.013738339
-0.050915238 -0.07289135 -0.071980864 0.022192841 0.0067985547 -0.030246967 -0.018843697 -0.025321553
-0.0630988 -0.053736616 -0.039985634 -0.040816363 0.05888706 0.02562906 -0.0771144 -0.031297013
-0.07731913 0.024671156 -0.0507628 -0.03447427 -0.018872723 -0.030464187 -0.05082215 -0.007749773
-0.07009118 -0.059986737 -0.021462373 0.0012291049 -0.043723505 -0.024953153 0.0071334885 -0.09322235
0.007239216 -0.07325943 0.03281934 0.011253662 -0.042275254 -0.0387442 0.012192461 -0.05135483
-0.09452337 0.028311832 -0.007884254 -0.04483197 -0.05581628 -0.0044639474 -0.04811401 -0.010708977
-0.048079904 -0.01968123 0.007982366 -0.03445322 0.053573746 -0.043564625 0.032678105 0.004171222
0.03271359 0.014935171 0.03156892 -0.040960573 0.022874486 0.008840304 0.018389938 -0.045826163
0.038838062 -0.017853007 0.024490098 -0.030814856 -0.048317224 0.058371272 0.0042755166 0.036373936
-0.050279662 -0.0495817 -0.019385029 0.032106735 0.057035107 -0.040492333 0.021424586 -0.02563783
-0.02698582 0.042112496 -0.0057610567 -0.032298274 0.045272123 -0.0474348 -0.012326651 -0.04382871
0.018721167 -0.00027634948 0.059755724 -0.004694671 -0.05033009 -0.009441763 -0.038578484 -0.019166712
-0.060326673 0.059691686 0.041070987 -0.03759893 0.034553096 -0.026777819 -0.023236228 0.055506147
-0.015593015 0.0063840603 -0.05667713 -0.00919927 0.046249945 -0.06089628 -0.008367327 0.0045836032
0.0034231276 0.008009367 -0.025282672 -0.04388444 -0.01864315 -0.023654295 0.033616375 0.041488532
-0.013490225 -0.051443428 -0.019070834 0.003784274 0.03748243 -0.054286193 -0.059667796 0.03506515
0.049940303 0.032058958 0.025469823 -0.05867369 0.008191921 -0.00818608 0.0013474191 0.031581067
0.030982666 0.032784082 0.041477468 -0.01798417 -0.06304092 -0.030975962 0.027232043 0.0074572875
0.062948935 0.042291168 0.04242705 0.05012291 0.04166775 -0.05723022 0.0011389195 -0.048259806
0.007265969 -0.027149022 -0.008130867 0.029816272 0.058445 -0.019369852 0.04409069 0.039855137
-0.0005024162 0.0023040208 -0.049774773 -0.060526192 -0.0045054946 0.041856423 0.03653832 -0.03394754
-0.06129958 0.041811448 0.017400004 0.029120069 -0.007780047 0.042037036 -0.019374011 -0.044120874
-0.06024365 -0.058217164 0.05766678 -0.033519022 -0.023260454 0.036198 0.029517611 0.00038797405
-0.0156047065 0.052216332 0.03978494 -0.0515329 0.015200944 0.019056974 -0.02311415 0.055251256
00000000: 4804 6d3c a565 9abd b648 09bd 81ce 60bd
00000010: 8e1d 4e3c 3b11 00be 1c8a 59bd 5c9a ab3c
00000020: 56be 0ebd 8be9 4e3d 2410 843c da08 103d
00000030: bf6b 5a3d 3180 883c 058f 333d 7de5 3bbc
00000040: a544 543c 43eb 893c 061e 2dbc bcf5 0a3d
00000050: 6b18 36bd bae0 0a3b 40c5 8d3b 183a eebd
00000060: 5550 a3bd 76aa 2dbb c770 86bd ecaa cabb
00000070: 4a13 033d 73f7 f2bc da7a 8ebd fd02 9f3c
00000080: 48d5 e7bc 8618 d43c 4adf aa3c b592 dd3c
00000090: acec 003d c034 88bd e1db c63c 3fb7 f4bc
000000a0: 5b17 6fbb bf62 973b c04e a4bd 2827 99bd
000000b0: 8625 223d b629 653c d244 23bd 145c 6bbd
000000c0: 07ed 553c 6acf 3abd 2b63 d93c d034 76bd
000000d0: 88aa 453d 6f34 123b 5db4 653c 133f 4abd
000000e0: e56f 9bbc f06a 5dbb 01d3 313c 6870 19bd
000000f0: f99f f7bc efdd c8bd 6574 42bd c516 61bc
00000100: 7f8c 50bd 0f48 95bd b46a 93bd c3cd b53c
00000110: 69c6 de3b 7dc8 f7bc 195e 9abc 256f cfbc
00000120: f239 81bd ed1a 5cbd fac7 23bd 0f2f 27bd
00000130: 8f33 713d 09f4 d13c 28ee 9dbd 4c31 00bd
00000140: 7e59 9ebd 2a1b ca3c a7ec 4fbd e434 0dbd
00000150: f89a 9abc 0890 f9bc e32a 50bd cff1 fdbb
00000160: f78b 8fbd a7b4 75bd dcd1 afbc eb19 a13a
00000170: 6b17 33bd 8e6a ccbc 0ac0 e93b 5ceb bebd
00000180: f236 ed3b 0a09 96bd 926d 063d 4861 383c
00000190: d128 2dbd 3db2 1ebd e3c2 473c 7159 52bd
000001a0: 7895 c1bd 37ee e73c f52c 01bc baa1 37bd
000001b0: 9d9f 64bd 4e46 92bb 3213 45bd b474 2fbc
000001c0: 6fef 44bd 883a a1bc 78c8 023c d21e 0dbd
000001d0: 2570 5b3d d270 32bd 7ad9 053d bfae 883b
000001e0: affe 053d a6b2 743c 694e 013d 46c6 27bd
000001f0: 4663 bb3c ecd6 103c 7fa6 963c 37b4 3bbd
00000200: a914 1f3d 7840 92bc 759f c83c 706f fcbc
00000210: 48e8 45bd b716 6f3d a219 8c3b d6fc 143d
00000220: 0cf2 4dbd 2e16 4bbd 5acd 9ebc 5a82 033d
00000230: a59d 693d 4adb 25bd 9d82 af3c 6d06 d2bc
00000240: 5e11 ddbc 277e 2c3d 3fc7 bcbb 324b 04bd
00000250: 436f 393d fe4a 42bd b9f5 49bc bc85 33bd
00000260: 225d 993c 00e3 90b9 6bc2 743d c1d5 99bb
00000270: ed26 4ebd a0b1 1abc 7904 1ebd 8203 9dbc
00000280: 1a19 77bd 457f 743d 0d3a 283d 5601 1abd
00000290: 8c87 0d3d 285d dbbc e759 bebc 6a5a 633d
000002a0: d879 7fbc 6131 d13b 4726 68bd 89b8 16bc
000002b0: 9570 3d3d 616e 79bd 1d17 09bc 0d32 963b
000002c0: 8d56 603b b839 033c 9b1d cfbc 2cc0 33bd
000002d0: 85b9 98bc a7c6 c1bc 53b1 093d e1ef 293d
000002e0: 1b06 5dbc 58b6 52bd 703a 9cbc 9501 783b
000002f0: 2d87 193d 335b 5ebd 3866 74bd 7aa0 0f3d
00000300: 348e 4c3d 4150 033d 17a6 d03c d353 70bd
00000310: 6837 063c e81e 06bc e29b b03a 265b 013d
00000320: 5ccf fd3c 9a48 063d 47e4 293d 8a53 93bc
00000330: 991b 81bd 4dc1 fdbc bc15 df3c 435c f43b
00000340: 5feb 803d 8139 2d3d fdc7 2d3d ae4d 4d3d
00000350: cdab 2a3d 3c6a 6abd cc47 953a 13ac 45bd
00000360: 5e17 ee3b a067 debc 5437 05bc 4141 f43c
00000370: 0664 6f3d 86ad 9ebc 7098 343d 243f 233d
00000380: 95b4 03ba 0eff 163b a2e0 4bbd 50ea 77bd
00000390: d4a2 93bb a471 2b3d 35a9 153d 930c 0bbd
000003a0: 4515 7bbd 7b42 2b3d 748a 8e3c 368d ee3c
000003b0: c4ef febb 072f 2c3d 3fb6 9ebc 17b8 34bd
000003c0: 0cc2 76bd 1f75 6ebd 0034 6c3d 3e4b 09bd
000003d0: b58c bebc 5b44 143d ebce f13c ff68 cb39
000003e0: e2aa 7fbc cbe0 553d 89f5 223d 2a14 53bd
000003f0: 610d 793c 5f1d 9c3c e359 bdbc 244f 623d

layer_3.bias f4 [64]
1.146017 -0.028791867 -0.04645396 -0.016371448 -0.023877943 4.6298347 -0.0523801 -0.002480357
-0.0529154 -0.01730136 1.088096 -0.04054912 4.672753 -0.050459646 -0.02406334 -0.097938605
-0.057506222 -0.045171224 4.703356 -0.055065904 -0.03343383 -0.053730164 -0.049610842 4.64004
2.708441 -0.059090998 -0.04922094 -0.01941454 -0.033748575 -0.06774529 1.7702106 2.8463917
-0.011748052 0.060873598 -0.025707224 -0.029211655 -0.033750776 1.2603235 2.6002126 -0.0033731381
-0.043223064 1.7111094 2.0523446 -0.015065777 0.93188006 3.1801677 -0.021394651 0.0029883536
-0.008660979 -0.09353112 -0.10858122 1.0000591 -0.087629445 -0.084570795 0.018822648 0.018699052
-0.0069055506 -0.075751536 1.5402689 -0.019462012 0.0038737387 0.5886492 4.6826587 -0.23949131
00000000: afb0 923f ecdc ebbc 8246 3ebd 6a1d 86bc
00000010: ad9b c3bc 9b27 9440 848c 56bd 7c8d 22bb
00000020: d2bd 58bd 95bb 8dbc bb46 8b3f d616 26bd
00000030: 3187 9540 c6ae 4ebd 7b20 c5bc 0994 c8bd
00000040: a58b 6bbd 7605 39bd e481 9640 c98c 61bd
00000050: e9f1 08bd 2914 5cbd bd34 4bbd 357b 9440
00000060: 1957 2d40 6709 72bd e59b 49bd 3e0b 9fbc
00000070: f23b 0abd 0bbe 8abd 4396 e23f 482b 3640
00000080: e77a 40bc 9856 793d f597 d2bc 484d efbc
00000090: 413e 0abd 4852 a13f e269 2640 de0f 5dbb
000000a0: ab0a 31bd a205 db3f 9d59 0340 73d6 76bc
000000b0: b18f 6e3f de87 4b40 d643 afbc 41d8 433b
000000c0: c7e6 0dbc 3e8d bfbd d55f debd f001 803f
000000d0: 1177 b3bd 7433 adbd f431 9a3c c12e 993c
000000e0: f547 e2bb 9f23 9bbd 8827 c53f cc6e 9fbc
000000f0: 8dde 7d3b b7b1 163f 57d8 9540 363d 75be

layer_4.weight f4 [16, 64]
-0.03771344 -0.03273115 0.008001239 0.0016568393 0.016529528 -0.0050600157 0.016311556 -0.04635887
-0.04920065 0.009297412 -0.0036808117 -0.012553985 0.01967345 -0.1280701 -0.017165752 -0.006368998
0.04346305 -0.055685643 -0.02267245 -0.046814557 -0.072547 -0.053896654 -0.0043728976 -0.13669921
-0.03462597 -0.095203415 -0.011751809 0.025504697 -0.0043665855 0.037529264 -0.13411883 -0.08824655
-0.016619213 0.0037380094 -0.036240578 -0.06967496 0.04867782 -0.06990148 -0.00046476343 -0.062069945
-0.08942031 -0.12033588 0.0019804419 -0.008257542 0.013867583 -0.074324906 -0.031371366 -0.056388065
-0.034368124 -0.066105306 -0.005679934 -0.093413904 -0.10877573 0.016987825 -0.022549672 0.028611038
-0.11719852 0.035944957 -0.08378682 0.008754675 -0.06593778 0.06634627 -0.11040843 0.08315409
-0.045298602 -0.08709345 0.007187042 -0.0716466 -0.07205947 -0.024352862 0.025075102 0.06537151
-0.0021404396 0.032186095 -0.10602112 -0.05543041 -0.14516686 0.0065918732 -0.090201795 -0.07232727
0.030061211 0.016159656 -0.13455224 -0.116082616 -0.023363965 -0.0016188707 -0.029714575 -0.036877003
-0.09462603 -0.0474209 -0.07340369 -0.08361791 -0.058458705 -0.03897172 -0.1127435 -0.050248876
-0.00011651904 -0.042031243 0.05330727 -0.044208486 0.020663505 0.080516614 -0.05340088 -0.103870444
0.01673124 -0.13445278 -0.08002894 -0.025169725 -0.010450282 -0.029467635 -0.0061615775 -0.046986327
-0.042401165 -0.082054764 0.0457294 -0.030893032 -0.10821148 -0.119045414 -0.07777824 -0.033525843
-0.0563646 -0.10079734 0.019086815 -0.080075465 0.040331483 -0.031282663 -0.04925016 -0.052540846
-0.06583265 0.026050504 0.04270779 0.0029796436 0.01652614 -0.005381152 -0.08612618 -0.05403193
-0.083447754 -0.004133098 -0.030899845 0.059166808 0.018260466 0.02953189 0.019260392 0.05424226
-0.014220562 0.034317307 0.07311621 0.011136382 0.075839244 0.028202409 0.051312387 -0.041084938
-0.085319154 -0.0017025522 -0.011714839 -0.03672939 -0.04268819 0.054305263 0.007981851 -0.043992363
-0.023919035 -0.042652734 0.011418677 0.0139956465 0.04946446 -0.017342636 -0.094079964 -0.045761082
-0.08792912 0.009779113 0.21141806 0.0642335 -0.01984651 -0.057943374 -0.05638833 -0.087158635
0.07037606 -0.048328135 0.01893982 -0.08153073 0.022698617 0.019351296 0.05062247 -0.07759906
0.054195274 0.05220601 0.033975013 -0.07943988 -0.038136233 0.046214554 -0.0708917 -0.05955257
0.034144398 0.0022693286 0.04018476 0.027098088 -0.04098096 -0.064178914 -0.11778899 0.029015882
-0.012834257 -0.008530294 -0.13343394 0.03553056 -0.07905675 -0.025891816 -0.07452763 -0.061819866
-0.055800956 0.012615709 -0.1124351 0.0068148808 -0.025294237 -0.050641224 -0.0904937 -0.047024082
-0.13325253 0.076736435 0.01180548 0.06585567 -0.025049536 -0.06256961 -0.061596237 0.023635626
0.008011309 -0.104174 0.07045487 -0.0140398 -0.054474253 0.06850388 -0.07069165 0.038945064
0.046833217 -0.07615386 -0.03151501 0.033865876 -0.1324884 -0.08645005 0.03322626 0.055404436
-0.050301433 -0.087077454 0.03282796 -0.07798028 -0.020119369 0.033218045 0.008476904 0.017923517
0.020137401 0.04603274 -0.027863368 0.014537989 0.03723721 -0.04570783 -0.103176914 -0.0028055694
00000000: 6879 1abd 1911 06bd a117 033c 4d2a d93a
00000010: ef68 873c 7dce a5bb d09f 853c cce2 3dbd
00000020: 9f86 49bd 2c54 183c c639 71bb 3baf 4dbc
00000030: 372a a13c cf24 03be 319f 8cbc 07b3 d0bb
00000040: 5006 323d a116 64bd 93bb b9bc 9fc0 3fbd
00000050: 8693 94bd bdc2 5cbd 864a 8fbb e1fa 0bbe
00000060: f6d3 0dbd 02fa c2bd a98a 40bc 3aef d03c
00000070: 9315 8fbb 49b8 193d 7256 09be 9bba b4bd
00000080: 0425 88bc 64f9 743b 0071 14bd bfb1 8ebd
00000090: 6562 473d 8228 8fbd 7eab f3b9 0e3d 7ebd
000000a0: ff21 b7bd a872 f6bd 4dca 013b a44a 07bc
000000b0: dc34 633c a837 98bd 437f 00bd 2cf7 66bd
000000c0: 97c5 0cbd 3862 87bd bd1e babb ca4f bfbd
000000d0: cfc5 debd 0d2a 8b3c 17ba b8bc b261 ea3c
000000e0: c705 f0bd 053b 133d 6d98 abbd c56f 0f3c
000000f0: 630a 87bd 8ee0 873d d11d e2bd b14c aa3d
00000100: 078b 39bd 0d5e b2bd 4781 eb3b 74bb 92bd
00000110: ea93 93bd a77f c7bc 4d6a cd3c 80e1 853d
00000120: 9e46 0cbb 91d5 033d 9a21 d9bd ff0a 63bd
00000130: 9fa6 14be a400 d83b b8bb b8bd 5220 94bd
00000140: ee42 f63c 4161 843c 10c8 09be b9bc edbd
00000150: c965 bfbc 4930 d4ba fb6b f3bc 570c 17bd
00000160: 4bcb c1bd 6b3c 42bd ac54 96bd de3f abbd
00000170: 6572 6fbd cfa0 1fbd 10e6 e6bd c4d1 4dbd
00000180: af5b f4b8 f428 2cbd b958 5a3d f513 35bd
00000190: 8346 a93c e5e5 a43d e2ba 5abd 07ba d4bd
000001a0: f40f 893c fdad 09be 37e6 a3bd bd30 cebc
000001b0: a937 2bbc 1c66 f1bc 0fe7 c9bb bc74 40bd
000001c0: d8ac 2dbd 540c a8bd c04e 3b3d 6213 fdbc
000001d0: fb9d ddbd 15ce f3bd 334a 9fbd 6552 09bd
000001e0: 91de 66bd d66e cebd f45b 9c3c 9bfe a3bd
000001f0: a032 253d 4022 00bd 89ba 49bd 1235 57bd
00000200: 45d3 86bd de67 d53c 5dee 2e3d 2046 433b
00000210: d461 873c 6054 b0bb ec62 b0bd 9650 5dbd
00000220: a8e6 aabd f06e 87bb ac21 fdbc e558 723d
00000230: f996 953c ddec f13c f8c7 9d3c 222d 5e3d
00000240: 5cfd 68bc 4e90 0c3d f4bd 953d 5f75 363c
00000250: 9b51 9b3d bd08 e73c f02c 523d ae48 28bd
00000260: cfbb aebd 2c28 dfba 99ef 3fbc 8f71 16bd
00000270: d0d9 2ebd 326f 5e3d 4fc6 023c 5631 34bd
00000280: daf1 c3bc a2b4 2ebd 6715 3b3c ff4d 653c
00000290: 3f9b 4a3d 2512 8ebc ffac c0bd f96f 3bbd
000002a0: 2f14 b4bd 9338 203c fa7d 583e da8c 833d
000002b0: 2695 a2bc 0856 6dbd 73f7 66bd 3a80 b2bd
000002c0: 5321 903d b9f3 45bd ae27 9b3c 95f9 a6bd
000002d0: 73f2 b93c 9c86 9e3c 8259 4f3d 42ec 9ebd
000002e0: ddfb 5d3d f8d5 553d 6229 0b3d 60b1 a2bd
000002f0: bd34 1cbd 794b 3d3d ab2f 91bd 65ed 73bd
00000300: ffda 0b3d 04b9 143b c698 243d cffc dd3c
00000310: a7db 27bd 3c70 83bd 5b3b f1bd b7b2 ed3c
00000320: c746 52bc a5c2 0bbc e8a2 08be 7e88 113d
00000330: 81e8 a1bd 131b d4bc f1a1 98bd d436 7dbd
00000340: 8b8f 64bd 1eb2 4e3c 6044 e6bd 5d4f df3b
00000350: dc35 cfbc 2c6d 4fbd c354 b9bd 539c 40bd
00000360: 5a73 08be fe27 9d3d c66b 413c 56df 863d
00000370: af34 cdbc 7f24 80bd 564c 7cbd 809f c13c
00000380: de41 033c 2e59 d5bd a54a 903d 3007 66bc
00000390: 6520 5fbd c34b 8c3d c9c6 90bd dc84 1f3d
000003a0: 30d4 3f3d 8ef6 9bbd e215 01bd f2b6 0a3d
000003b0: 0aab 07be b90c b1bd 4218 083d c3ef 623d
000003c0: e008 4ebd aa55 b2bd 9c76 063d 20b4 9fbd
000003d0: 60d1 a4bc a50f 083d b6e2 0a3c 57d4 923c
000003e0: 31f7 a43c d48c 3c3d b841 e4bc bf30 6e3c
000003f0: 0b86 183d 2238 3bbd 6b4e d3bd a5dd 37bb

layer_4.bias f4 [16]
-0.032617886 0.0011872982 -0.06718664 0.0040642903 2.5653949 5.162327 -0.060223974 -0.32840267
0.25517854 -0.03790788 -0.24346139 -0.078868024 -0.024415432 5.3310256 -0.051751226 0.0075901398
00000000: 559a 05bd 1e9f 9b3a 2699 89bd bd2d 853b
00000010: 6e2f 2440 c831 a540 6aad 76bd 6524 a8be
00000020: c3a6 823e 4b45 1bbd f14d 79be 8f85 a1bd
00000030: df02 c8bc c397 aa40 18f9 53bd b5b6 f83b

layer_5.weight f4 [1, 16]
-0.074879766 -0.008019349 -0.00616739 -0.07680335 0.00016830578 0.2741562 0.008777612 0.07794891
0.00582773 0.023283318 0.21615152 -0.09804521 -0.030692507 0.2958219 0.08406054 -0.07626606
00000000: 905a 99bd 9663 03bc d117 cabb 134b 9dbd
00000010: 3d7b 3039 345e 8c3e f9cf 0f3c aea3 9f3d
00000020: 8bf6 be3b a8bc be3c d356 5d3e edcb c8bd
00000030: da6e fbbc f875 973e ef27 ac3d 6131 9cbd
