src/pyoptes/optimization/budget_allocation/supervised_learning/trained_nn_states/ba_120_rnn.pth (torch, 167943 bytes, 9 tensors)

layer_1.weight f4 [128, 120]
000000 fd c5 a2 3c e6 a4 28 bc 98 5b 96 bc c8 00 64 3d
       0.019869799 -0.010293221 -0.018354222 0.055664808
000010 dc 0c e6 3d 27 55 58 bc 20 16 c0 3a c0 63 87 bb
       0.112329215 -0.013203896 0.0014655031 -0.004131764
000020 8d 22 c6 3b bf 0f 76 3d 62 78 c4 bc 07 11 00 3d
       0.0060465992 0.06007361 -0.023983184 0.03126624
000030 29 73 57 3c a8 78 ad 3d 18 c0 98 bb af 40 d5 3d
       0.013150015 0.08470279 -0.0046615712 0.10412728
000040 ea 82 e4 3d d6 f6 8e 3c 0b 1c ae 3d 13 fe 59 3d
       0.111577824 0.017451685 0.085014425 0.05322082
000050 c8 4b ac 3c 17 b1 ac 3d df 4c ab 3c 08 50 1f bc
       0.021032229 0.08432215 0.020910678 -0.009723671
000060 89 f6 95 3d a4 d8 8b 3d f0 c4 be 3d 3a 16 a0 3c
       0.073224135 0.0682843 0.093149066 0.019541848
000070 f5 74 e2 3d 0d 33 40 3d 90 d2 e7 3d d5 f4 93 3c
       0.11057464 0.046923686 0.113194585 0.018061081
000080 5d 32 ac 3d 04 9e cc 3d 36 39 3c bd 6d d6 13 bd
       0.084080435 0.099910766 -0.045952998 -0.036093164
000090 ab 1c 37 3d ce 3b 01 3e 15 29 c0 3c a8 3a ba 3c
       0.044705074 0.1262047 0.02345709 0.022733048
0000a0 d8 05 e4 3d 44 1d 13 bc c4 38 95 3c 38 ad 2d bc
       0.11133927 -0.008979145 0.018215545 -0.010600381
0000b0 15 a6 9c 3c cf 4d 23 38 fc ac 60 3c 33 a1 59 3d
       0.019122163 3.8934693e-05 0.013713118 0.053132247
0000c0 ca 94 7a 3b 36 cd de bc 5b 05 9b 3d 05 60 36 3c
       0.0038235658 -0.027197462 0.07569381 0.011131291
0000d0 e3 5b f3 3d 9b c8 54 3c 16 0f dd 3d c7 26 67 bd
       0.118827604 0.012987281 0.10793893 -0.056433465
0000e0 47 0f 56 bc a7 8e 81 3c 14 05 3b 3d 79 3d 2b 3c
       -0.013065166 0.015815092 0.04565914 0.010451668
0000f0 91 fe 38 bd 90 80 b8 3d 1c 3b b1 bc a5 8d a3 3d
       -0.04516465 0.09008896 -0.02163463 0.07986001
000100 c6 ba bf 3d 99 fc 82 bd b7 a0 55 bc e7 ae a6 3d
       0.09361796 -0.063958354 -0.013038806 0.08138829
000110 23 43 90 3d 1d 70 0b 3d 10 6d aa 3d 63 2b dc 3d
       0.07044055 0.034042466 0.08321583 0.10750463
000120 ce 56 7f 3d f3 a4 33 bd da df 8e 3a f3 ee 13 3d
       0.062338643 -0.04385848 0.0010900453 0.03611655
000130 87 c0 d8 3d d3 d8 8f 3d 51 59 ba bc 82 0b fd bc
       0.10583597 0.07023778 -0.022747668 -0.030889276
000140 37 68 9f 3d 98 15 e9 3c 32 9c 67 3d 7b 89 1b 3d
       0.07783549 0.02845268 0.056545444 0.03797291
000150 d9 46 12 3d 63 0c 1d bc b1 dc 01 b8 ac d3 5c 3d
       0.035712097 -0.009585473 -3.096153e-05 0.053912804
000160 a9 22 43 3d 6d 65 cf 3d 91 03 04 3d 36 02 9e 3c
       0.047640476 0.10126767 0.032229964 0.019288164
000170 28 95 68 bd 15 dd e9 3c 77 d1 b7 3d 1e 3b a0 3d
       -0.05678287 0.028547803 0.08975499 0.07823776
000180 bb e7 90 3d 22 e6 d8 bc 8b 50 03 bc 03 43 30 3d
       0.07075449 -0.026476923 -0.008014808 0.043032657
000190 7a 51 4c bc 45 70 42 bd 34 53 9a 3d d0 45 ba 3d
       -0.012470597 -0.04747035 0.07535401 0.09095347
0001a0 3b 71 be 3d 1a 30 6d 3d 4b 2f 37 3d 08 ec ca bc
       0.09298941 0.0579072 0.044722836 -0.024770752
0001b0 85 0c a1 3b 63 d5 58 bd 1c bc 99 3d e7 ea a0 3d
       0.0049148225 -0.052937876 0.07506582 0.07857304
0001c0 44 61 ab 3d 88 4a 04 bd 83 90 97 ba be 67 b5 3d
       0.08368161 -0.03229764 -0.0011563454 0.08857678
0001d0 da 14 e1 3c 90 ea fd 3c a7 c9 b8 3c 1b 19 08 3d
       0.027475763 0.030995637 0.022557093 0.033227067
0001e0 12 e2 8f 3d 61 1c 83 bd 7a ac 87 bd fc 00 70 bb
       0.07025541 -0.06401897 -0.06624694 -0.003662168
0001f0 ff 16 96 3b f2 84 b2 3d a4 cc 06 bd a0 0f 43 bd
       0.004580378 0.087167636 -0.032910004 -0.047622323
000200 ac 78 86 bd c1 ef 7a bd 7b 20 7f 3d f6 3b 1c bd
       -0.06565985 -0.061263803 0.062286835 -0.03814312
000210 93 ab ca 3c 15 f0 8c bd 8d e9 1c 3d 2a de 13 bd
       0.024740016 -0.068817295 0.03830867 -0.036100544
000220 1d 61 85 bd 86 79 32 bd ea 09 28 bd 68 5f 46 bc
       -0.065126635 -0.043572925 -0.04102508 -0.012107708
000230 da 37 11 bc 08 9a 68 3d e1 6f 3d 3b f8 53 54 bc
       -0.008863414 0.05678752 0.0028905796 -0.012959473
000240 04 bb 3b 3c 0e 76 6b bc ce 38 ae 3d 8c 46 a0 3d
       0.011458162 -0.014371408 0.085069284 0.07825956
000250 72 cf 92 bd 09 c8 a4 bd 3e 3b 36 3b 9c ff 27 3d
       -0.07168473 -0.08045966 0.0027806307 0.041015252
000260 6f d6 a8 3d 22 a4 7a 3d 45 b4 83 3c 4e 8e 87 bb
       0.08244025 0.061191685 0.01607717 -0.004136837
000270 20 21 4d bd 68 85 35 3d a8 46 31 bd 69 0f 2e bb
       -0.05008042 0.04431668 -0.043280274 -0.0026559478
000280 66 23 b0 bc 18 cf f9 bc cb d2 9e 3c 6e d7 43 bb
       -0.021501254 -0.030494258 0.019387623 -0.0029883045
000290 e7 ef 70 bd c5 15 05 3d 09 7d 57 3d 56 ba 8e bd
       -0.05882254 0.032491464 0.052609477 -0.069691345
0002a0 63 7f a6 3d 52 d7 01 3d b2 ea 98 3d ac aa 8c 3c
       0.08129766 0.031699486 0.074666396 0.017171226
0002b0 08 3f f1 bc 5a 67 d7 bc 86 f7 6b bd 90 59 22 bd
       -0.029449001 -0.026294399 -0.057609104 -0.039636195
0002c0 30 cc 27 3d de af e7 bb 4f 13 fe bc cb 66 de 3b
       0.040966213 -0.0070705255 -0.031015066 0.006787156
0002d0 25 5d a5 bd c6 8e a5 3c aa 0e be 3d b3 b2 92 3d
       -0.080744065 0.020209681 0.09280141 0.071629904
0002e0 70 12 07 3d 22 5a 7c 3c db 80 87 3c 47 93 39 bd
       0.032976568 0.015402349 0.016540935 -0.04530647
0002f0 04 56 2a 3d b8 86 02 3d 72 99 7d 3d 73 f2 0c bd
       0.041585937 0.03186676 0.061913915 -0.034410905
000300 2c aa 00 bd a5 8f 6b 3d 21 6a d2 bc a2 ab a8 3d
       -0.03141229 0.057510037 -0.025685372 0.08235861
000310 6d 71 d5 3c 30 d1 b0 bd 13 3a a8 3d af 4e 9b bd
       0.026055062 -0.08633649 0.08214202 -0.07583367
000320 ed 06 a1 3d 5f f4 74 bd b2 d3 2e 3d dd 61 04 bb
       0.07862649 -0.059803363 0.042682357 -0.0020199933
000330 42 7e 86 3c 64 61 52 3d aa d4 98 bd 7f fa 49 bd
       0.016417626 0.05136241 -0.074624375 -0.049311157
000340 8f a3 67 3d 3f a7 45 3d 50 32 b0 3d 78 9f 85 bd
       0.056552466 0.0482552 0.08603346 -0.06524557
000350 15 12 70 3b ee bc 8e bd 21 5b 63 3b 14 99 80 3d
       0.0036631871 -0.06969629 0.0034691768 0.06279197
000360 6c c8 96 3d e7 88 2e 3d 59 34 73 3d ba 3a 90 bd
       0.07362446 0.04261103 0.059376094 -0.07042451
000370 45 5e 00 3d 57 ad a6 3d 78 68 2e 3d 89 77 a7 3b
       0.031339902 0.08138531 0.042580098 0.0051106852
000380 b9 92 bb 3d fb cb 1c 3d 09 6a 5c bc 8d ee 54 3d
       0.091588445 0.03828047 -0.013453015 0.051985312
000390 48 0c a0 3d 89 b9 2a 3d 65 1a 64 bd 96 2e ab 3c
       0.078148425 0.041680846 -0.055689234 0.020896237
0003a0 d7 a4 77 bd 1e 77 de bb 62 ea 9e 3d 4b 3b b6 bd
       -0.060459938 -0.006789102 0.07759549 -0.08898028
0003b0 6f 38 f1 bc f0 d6 89 3c 53 54 87 3c 03 62 7e 3b
       -0.029445855 0.016826123 0.016519701 0.0038815744
0003c0 c1 ce 10 bd f8 8d 9a 3d 75 ea 60 3d 73 66 35 3d
       -0.035353426 0.0754661 0.054911096 0.044287156
0003d0 cc bd 35 3d 03 bd d0 3b 0b 66 b0 3d 61 a0 a5 3d
       0.044370458 0.006370188 0.08613213 0.080872305
0003e0 30 f7 ae bd ec 39 60 bd 86 10 6b 3d 55 9c 4c 3d
       -0.08543241 -0.05474274 0.057388805 0.049953777
0003f0 94 e7 54 ba 33 24 af 3d c2 c4 46 bd 4d fb af bc
       -0.0008121666 0.08551826 -0.048527487 -0.021482134

layer_1.bias f4 [128]
000000 08 7f 4a 3d 35 93 67 bd 61 8d 94 bc 10 d9 1a 3c
       0.049437553 -0.056536872 -0.018133821 0.009451166
000010 52 71 c5 3d f3 32 10 bd a5 5b b3 3d a7 84 89 bd
       0.09640755 -0.03520484 0.08757714 -0.067147546
000020 69 c8 9a 3d f4 8b 7e 3d d1 54 3e bd 07 1e 03 be
       0.075577565 0.06214519 -0.046467606 -0.12804423
000030 19 af 7e 3c 33 3c c0 3d 27 fe da bc 16 26 27 bd
       0.015544676 0.09386482 -0.026732517 -0.040807806
000040 fc 43 47 3d 0b 09 68 bd 81 0a c4 3d c8 aa a6 bd
       0.04864882 -0.05664925 0.09572316 -0.08138043
000050 b3 5b 56 3d b9 1f 99 3d ba 48 47 bd e7 f8 c3 bd
       0.052333545 0.07476754 -0.04865334 -0.09568959
000060 1b 1e f3 3c f1 05 50 bd 28 80 94 bd 85 30 eb bd
       0.029677441 -0.050786916 -0.07251006 -0.11483864
000070 7e 21 a9 bd 07 be 47 bd 7b 0d 2f be 91 54 fd bd
       -0.08258341 -0.04876521 -0.17094986 -0.123696454
000080 a4 fe dd 3d 76 1e b2 3d 25 4c 93 3c df 5b 49 3d
       0.108395845 0.08697216 0.017980644 0.04915988
000090 f8 97 6b 3d 5e dc 3d 3d 97 0a 09 bd 74 25 7b bc
       0.057517976 0.046352737 -0.033457365 -0.015328754
0000a0 81 8a 36 bd 20 66 c6 3d ae e0 68 bc 0f df 84 3b
       -0.04456568 0.096874475 -0.014213724 0.004054911
0000b0 b2 95 c8 bc 2a 79 62 bd dc cc 86 bc 71 8b 67 bc
       -0.024485443 -0.055291332 -0.016455106 -0.0141323665
0000c0 d2 55 33 bc ac 29 b0 bd 21 0f 2d 3c da ec c1 3d
       -0.010945754 -0.08601698 0.010562689 0.09469004
0000d0 36 e0 10 3d f5 2b 34 3d f0 ff b7 bd b7 8d 68 3c
       0.035370074 0.043987233 -0.08984363 0.014193944
0000e0 bc 68 90 3b ec 85 92 3d 35 af 54 bd b1 91 b5 3d
       0.0044070166 0.0715445 -0.051924903 0.08865679
0000f0 31 15 b2 3d 94 7d 39 3d fe 2a 63 3d 34 08 da 3d
       0.08695448 0.045285776 0.055460922 0.10646096
000100 d1 ac ba 3c 33 f8 e7 bc 51 4e b9 3d b9 49 19 bd
       0.022787483 -0.028316593 0.09048141 -0.037423823
000110 72 39 6b bd ec 03 90 bd f7 e1 e8 3d bc 39 34 bd
       -0.05742783 -0.07031998 0.113712244 -0.044000372
000120 40 bd ed 3d 83 27 49 3b fc 48 bd 3d be b0 d0 3c
       0.11608362 0.0030693717 0.09242436 0.025474902
000130 81 5b 6c bd 8b 78 82 bd a9 63 22 3d ab 35 59 3d
       -0.057704452 -0.06370648 0.039645825 0.053029697
000140 8c 58 29 3b 95 46 a3 3d 37 cf ea 3c d4 cf ae bc
       0.0025840132 0.07972447 0.02866326 -0.021339335
000150 d9 f1 27 bd 8b ed ba bc 09 a5 77 bd ef 84 fa bb
       -0.04100213 -0.022818347 -0.060460124 -0.0076452415
000160 51 41 3b bd 05 3e 56 3d 5e 64 1a 3d c6 94 76 bd
       -0.045716587 0.05230524 0.037693374 -0.060200475
000170 ed 17 c0 bc a9 35 3e 3d 6c fd 5e bd 5c 29 13 3d
       -0.023448909 0.046437893 -0.0544409 0.035928115
000180 fc b8 eb 3d c0 19 f6 bc 8c b0 21 bd bc 86 c1 3d
       0.11509892 -0.030041575 -0.03947501 0.09449527
000190 bb 02 49 bd b2 a9 9d 3d cd fa e9 3b 39 e2 ed bc
       -0.04907487 0.076983824 0.0071404935 -0.029038535
0001a0 df 4c c0 3c ea 28 91 3d 62 27 d4 3c 3f bd 45 bc
       0.023474155 0.07087882 0.025897685 -0.012069046
0001b0 63 a3 20 3d 85 7a 46 3d 3e 7e 19 3c 82 b9 8a bd
       0.039218318 0.048456687 0.009368477 -0.06773664
0001c0 32 a7 64 bd 83 e5 4a 3d 13 b1 cb 3c f5 bf 68 3d
       -0.055823512 0.049535286 0.024864709 0.05682369
0001d0 03 de 77 bd c7 67 48 bd d8 d1 5b bd 96 af 8c bd
       -0.06051446 -0.048927095 -0.05366692 -0.06869428
0001e0 22 f2 8d 3d 86 ed 2e bd a2 86 22 3d c6 eb 88 3d
       0.06930949 -0.04270699 0.039679177 0.06685595
0001f0 20 25 96 bd 01 ce 86 3d 72 6f 72 bd 49 93 56 bd
       -0.073313 0.06582261 -0.059188314 -0.052386556

layer_2.weight f4 [128, 128]
000000 0e 16 86 3d 85 25 e8 3a 64 cb 36 3d 05 08 8f 3d
       0.06547175 0.0017711377 0.044627562 0.069839515
000010 21 4a 67 3c b5 9a 60 bd 8d ca f4 bc c6 21 c9 bc
       0.014116795 -0.05483504 -0.02988174 -0.024552237
000020 13 dd 5a 3d 84 d1 96 3d 59 c5 95 3d 12 2c b0 3d
       0.05343349 0.07364181 0.07313032 0.08602156
000030 14 1c 97 bc 92 e5 a5 bc 30 f0 9d 3d 7e 18 9e 3d
       -0.018446006 -0.02025107 0.07711828 0.07719515
000040 64 a2 3e bc 4d 78 0a bc 37 29 3a 3d 3d 50 25 3c
       -0.011635397 -0.0084515335 0.04544946 0.010089931
000050 ed d1 6f bd 64 e2 08 bb 6b b7 20 3c 5d e8 89 3c
       -0.05854981 -0.0020886892 0.009809355 0.016834432
000060 49 b6 02 be a7 f4 06 bd 6f af 9b 3d cc 94 4e 3d
       -0.12764849 -0.032948162 0.07601821 0.050434873
000070 e7 00 11 3c f2 05 26 bd e1 71 5e 3b 0e 80 96 bc
       0.008850313 -0.040533014 0.003394239 -0.018371608
000080 9f b8 b2 3d 2e f7 c6 3c 8f a8 90 bc ba 3c d5 3c
       0.0872662 0.024287786 -0.0176585 0.026029933
000090 ad 97 3e bd dd d5 44 3d 5f c9 f3 bd a9 40 c6 3d
       -0.046531368 0.04805552 -0.11903643 0.09680302
0000a0 6c 73 41 3d 93 d2 54 bd 2c f7 1e bd 64 89 8a bd
       0.047229216 -0.05195863 -0.03880994 -0.067644864
0000b0 13 6a 80 bb 0f 5f 71 3d f9 49 14 bd 0c 07 30 bd
       -0.003918895 0.058928546 -0.03620336 -0.04297547
0000c0 a8 2f 90 bc 1a 30 b8 bc 79 44 46 bd df 69 98 3d
       -0.01760085 -0.022483874 -0.048405144 0.07442068
0000d0 69 ba 80 3d f7 4c 76 3d 5e 3e df bd ea 1f c4 3d
       0.06285555 0.060131993 -0.109005675 0.095763996
0000e0 8b 52 39 3d 54 e8 03 3d 2c 96 92 bd 26 9c 53 bd
       0.045244735 0.032203987 -0.07157549 -0.051662587
0000f0 83 67 6b 3d aa 8d 2a 3d 87 66 5d 3c 37 bc 0e bd
       0.057471763 0.041639008 0.013513214 -0.034847464
000100 10 d3 24 bd 60 46 b5 3d 1c 80 99 bc 1b b0 ab 3d
       -0.040240347 0.088513136 -0.018737845 0.08383199
000110 a9 cf 79 bb 5c 58 03 be 33 be de 3d 87 d7 c2 bc
       -0.003811816 -0.12826675 0.10876121 -0.023784412
000120 3c 0e 27 bc f0 1c 40 bd 60 e4 b4 bd 01 b2 14 3d
       -0.010196265 -0.046902597 -0.088326216 0.03630257
000130 2c fc 15 bd fe bc a6 3d 51 47 49 bb 82 48 71 bb
       -0.036617443 0.08141516 -0.0030712674 -0.00368169
000140 6c 24 02 3d e8 f6 eb 3b 86 d3 a3 3d 7b c5 96 3c
       0.031773016 0.0072010644 0.07999329 0.018404713
000150 96 e7 4e bd 5a e2 4e 3d 0b eb 6d 3d e0 44 99 3c
       -0.050513826 0.050508834 0.058085483 0.0187096
000160 57 3d 86 3a 84 16 aa bc 12 ae 5e 3d 83 38 0e bd
       0.0010241669 -0.02076269 0.054365225 -0.034721863
000170 aa 1a 98 3b 89 d4 90 bd 31 62 28 bd 55 91 ce bc
       0.0046418505 -0.07071788 -0.041109268 -0.025215784
000180 d1 18 20 3d a4 cf 93 bb 9e d3 52 bc e2 43 95 bd
       0.039086167 -0.0045108367 -0.012867836 -0.07288338
000190 3d 52 7e 3d 83 b2 da 3d af 5b 92 bd 8a d0 0e 3d
       0.062090147 0.1067858 -0.071463935 0.034866847
0001a0 bb c9 86 bd 60 ac eb 3c f3 b5 de 3c 43 d2 96 3c
       -0.06581446 0.028768718 0.02718637 0.018410807
0001b0 b6 f2 ab 3d a3 8d 98 3d 2d 33 da 3d 08 68 d4 3b
       0.08395903 0.0744889 0.10654292 0.006482128
0001c0 fd ab fa bc ce 34 8f 3d ad d9 d7 3d 78 74 ad 3d
       -0.030599589 0.069924936 0.10539565 0.0846948
0001d0 54 25 d2 bc 05 b5 9e bc 36 43 c2 3c 9a 30 f4 bc
       -0.025652565 -0.019373426 0.02371369 -0.029808331
0001e0 88 cc 2b bd 14 38 97 3c 7f 83 ad 3d 3d ad 06 bd
       -0.041943103 0.018459357 0.084723465 -0.032880057
0001f0 88 fc 70 3b 2e 48 e1 3d 18 50 83 bd d4 49 66 bd
       0.0036771614 0.11000095 -0.06411761 -0.05622275
000200 cc f7 96 bd 5a 6e 29 3d 5f 75 4b 3d d0 3f e3 3c
       -0.07371482 0.041365005 0.04967248 0.02774039
000210 6e bb 9d ba c1 47 2a 3d 9e e9 2b 3d 83 00 13 3d
       -0.0012034008 0.041572336 0.04197084 0.03588916
000220 58 2e 22 bd 98 63 26 bd 56 be 8e 3d 72 41 cd bc
       -0.039594978 -0.040622324 0.069698974 -0.02505562
000230 86 fe b3 bc 58 5b 31 3d a3 cb 1f bd 11 71 d4 3b
       -0.021971952 0.043300003 -0.039012562 0.006483205
000240 75 d5 9f 3c da 3d 10 3d 51 a3 7b 3d 52 01 c5 3d
       0.019510964 0.035215236 0.061435048 0.096193925
000250 e3 4b 25 3d 7a 1b a5 3d c4 e2 30 3d 67 86 51 bd
       0.040355574 0.08061881 0.04318501 -0.051153567
000260 c1 3c 32 bc 9a 3e ee bc a4 b3 e2 bc ff d9 17 3d
       -0.010878743 -0.029082585 -0.02767355 0.03707313
000270 f7 de 42 bd 12 00 c6 3d f3 86 14 bc b3 69 0d bd
       -0.047575917 0.09667982 -0.0090653775 -0.03452463
000280 9f 47 9f 3d 07 ac ec bc 93 9e 42 3d 36 18 f0 bc
       0.077773325 -0.028890623 0.04751451 -0.02930842
000290 26 94 ad 3d 12 91 64 3d a3 1c 6c bd f2 b7 b6 3d
       0.08475523 0.055802412 -0.057644498 0.089218035
0002a0 a5 87 1e bb 19 67 cc bc 65 22 34 3d 79 07 7d bd
       -0.0024189737 -0.024951505 0.043978114 -0.061774705
0002b0 c4 8c 0e bc 93 76 3c 3d 66 30 67 3c 7b 39 2b bd
       -0.008700553 0.04601152 0.01411066 -0.041802865
0002c0 14 ab d3 3c ac 95 7a 3d e6 8a 45 3c ac 88 7b 3d
       0.025838412 0.061177894 0.012057042 0.061409637
0002d0 4c e3 8d 3b 4e 3f 9e bd 32 52 aa bd 25 07 3d 3b
       0.0043300744 -0.07726918 -0.08316459 0.002884337
0002e0 a1 6f 91 bd 03 49 ad 3d e4 25 29 3c ce 96 2c bd
       -0.0710137 0.084611915 0.010323975 -0.042136006
0002f0 6d e0 a7 3d c1 2d a1 3d 87 67 54 3c 64 0d 00 3d
       0.08197103 0.07870055 0.012964136 0.03126277
000300 9e 88 40 3b 7d 5c c3 3d 3c b6 4e 3d 95 77 96 3d
       0.0029378305 0.09539125 0.05046676 0.07347027
000310 36 5c 93 bd eb ba f6 bd b1 04 8e 3d f9 c6 a6 bc
       -0.07195322 -0.120473705 0.069344886 -0.02035855
000320 6b d5 29 3d 94 d0 18 bd 42 2a 29 bd 76 12 a4 3a
       0.041463297 -0.03730829 -0.041300066 0.0012517709
000330 e1 28 cc 3d 30 ca 60 3c 8f 77 d8 3c 3a e0 32 bd
       0.099687345 0.01372008 0.026424197 -0.04367087
000340 a6 bd dc ba 29 4a 77 3d 4f f0 11 3d a0 85 82 bd
       -0.0016841188 0.06037346 0.035629567 -0.06373143
000350 b4 f5 38 bd 2a 31 9d 3d ef 20 c3 3c 0a eb 9e 3d
       -0.045156196 0.07675393 0.023819415 0.07759674
000360 a2 19 c0 bc c2 e4 42 bc e2 94 8f bd f3 7b 6c 3d
       -0.023449723 -0.01189536 -0.07010819 0.057735395
000370 a3 04 82 3d f3 cb 80 3d df a3 cd 3d 61 9f 8f 3d
       0.06348541 0.062889 0.100410216 0.07012821
000380 0c 97 0e 3c 05 93 a3 3d 46 99 ee 3b 40 42 42 bd
       0.008703005 0.07987026 0.007281455 -0.047426462
000390 25 84 3e 3d 58 0e ab bc 57 c1 84 3d da 4a 6c 3c
       0.04651274 -0.020880863 0.06482189 0.014422143
0003a0 ff 45 7a bd 7d 1c 69 bd 31 18 d3 bc c9 ee 0d bd
       -0.06110191 -0.056911934 -0.025768371 -0.03465155
0003b0 a5 c1 cf 3d 12 02 fc bc 4b da 99 3d 2c 57 0b 3d
       0.10144357 -0.030762706 0.07512339 0.03401868
0003c0 bc e0 7a ba a2 0f 43 3d d1 a9 af 3d 7d 9a 9c bc
       -0.0009570231 0.04762233 0.08577312 -0.019116635
0003d0 75 44 57 3d 55 a7 32 bd 68 9f 44 bd 57 d9 68 bd
       0.05255552 -0.04361661 -0.048003584 -0.056847896
0003e0 28 ad be bb f2 c4 aa bc 85 f0 5a bc 11 24 c6 bc
       -0.0058189817 -0.020845864 -0.013363008 -0.02418712
0003f0 d4 1b 27 bd cf 78 84 3d 81 29 e0 bc d7 d6 be bc
       -0.040798023 0.06468355 -0.02736354 -0.023295803

layer_2.bias f4 [128]
000000 55 fd 09 3d 74 d1 9d 3d 4e db 1f 3d da 11 c4 bc
       0.033688862 0.07705966 0.039027505 -0.023934294
000010 14 e2 07 bd ce 8a f7 3d 62 4d 79 3c 74 7f 04 3e
       -0.03317459 0.12087022 0.015216203 0.12939245
000020 9b 98 eb bc d1 9e ce 3d d5 9b 2e 3d 16 84 b3 3d
       -0.028759291 0.100888856 0.04262908 0.08765428
000030 a2 4d 0f 3d 72 67 3b bd 33 1a cd 3d be f8 bf bc
       0.034986146 -0.04575295 0.10014763 -0.02343404
000040 0b 58 07 3d 50 5d 5e 3d 57 c4 8d 3d 52 c4 56 bc
       0.03304295 0.05428821 0.069222145 -0.01310833
000050 fe b9 94 bc 9f 20 4c 3d 05 67 db bc e7 ed 20 3b
       -0.018155094 0.049835797 -0.026782522 0.0024555863
000060 e9 b9 a8 bb d6 47 b6 3d 3c 56 7d bd b7 78 07 bd
       -0.0051491153 0.0890042 -0.061849818 -0.033074107
000070 45 df 86 3d f5 9a 1a 3d f4 b5 d7 3d ac 01 a2 3c
       0.06585554 0.037745435 0.10532752 0.019776188
000080 fd ed aa 3d 11 80 a0 3d 80 21 33 3d f3 0d 9b bc
       0.08346174 0.07836927 0.04373312 -0.01892755
000090 f1 e2 83 bd 06 f4 03 bd 59 4d b0 bd 0c fd 00 3e
       -0.0643977 -0.03221514 -0.08608503 0.1259653
0000a0 b3 27 84 bc ee 3a 04 3c ea 5a 7b bd 87 2d fe 3c
       -0.016132211 0.008070691 -0.061366 0.031027569
0000b0 42 bd 16 3b 6f 7b 6c bd dc 7d a4 3d 73 ec 48 3b
       0.002300099 -0.057734903 0.08031818 0.0030658513
0000c0 48 db fe 3d f4 b7 ab 3d ab b1 36 bd d7 67 39 3d
       0.12444168 0.08384696 -0.04460303 0.045265045
0000d0 08 e9 2c bd 46 1a 8c 3c a7 a1 c3 bd 64 44 67 3d
       -0.042214423 0.017102372 -0.09552317 0.056461707
0000e0 b1 cf 4c 3a fc ba d7 3c 82 dc 82 3c 09 bb 87 bd
       0.0007812931 0.026334278 0.015974287 -0.06627471
0000f0 47 02 b5 3d 1c d2 c5 bc 18 6a d6 3c 7f c7 37 bd
       0.08838325 -0.02414804 0.026173636 -0.04486799
000100 58 12 db 3d f6 16 d4 3d ee b5 bd bd 70 76 ad 3d
       0.10696858 0.10355942 -0.09263216 0.08469856
000110 45 5c ee 3d 77 46 68 bd 8f 9d 09 3d 31 35 65 3d
       0.11638693 -0.056707826 0.033597525 0.05595893
000120 81 c9 a1 3d 9b 15 8f bc 6b a8 0b bd 7b 86 56 3a
       0.07899762 -0.017466357 -0.034096163 0.00081834913
000130 29 d5 0f 3d 87 09 60 3d f7 a8 08 bd 9d 5f 42 3c
       0.035115395 0.054696586 -0.033364262 0.011863616
000140 0e 11 10 bd dd 0f 5c 3d 8e 33 a7 3d 2f 94 57 3d
       -0.035172515 0.053726066 0.0816413 0.052631553
000150 62 8a 5e bc e7 6b 35 3d 62 63 21 bd 82 a2 86 3d
       -0.013582798 0.044292357 -0.03940142 0.06573965
000160 5d 7d 79 3d 12 6b c9 3d 37 f6 cf 3b 5c 03 a1 bc
       0.06091057 0.09834875 0.00634649 -0.019654922
000170 1b f9 e1 3d 3f 1e 74 bd 26 3c 79 bd 5c 55 74 bd
       0.11033841 -0.059599157 -0.060848378 -0.059651718
000180 42 9d d2 3d 6c 01 88 bd ae 20 46 bd 49 1e 6d bd
       0.10283901 -0.06640896 -0.04837101 -0.05789021
000190 58 6e c3 3d 25 ad cc 3d f9 8a af bc b2 d5 59 bd
       0.09542531 0.09993962 -0.021428572 -0.05318231
0001a0 33 f4 39 3b 29 a5 25 3d 08 71 d6 3d dd f1 95 bd
       0.0028374314 0.040440712 0.10470778 -0.073215224
0001b0 70 0c 4b bc b1 35 6a 3d 91 75 82 3d f3 e4 d6 bc
       -0.012393102 0.05718011 0.0637008 -0.026232218
0001c0 fc d2 a7 3d 41 9f 9a bd ae c2 8a bc 9a f4 89 3d
       0.08194539 -0.075499065 -0.016938534 0.06736107
0001d0 b1 99 09 bb 80 10 9c bc a7 9e bc 3c 96 29 a3 bd
       -0.0020996148 -0.019050837 0.02302487 -0.07966916
0001e0 ce b3 ff 3c 53 8e 28 3d ea e5 c9 3d ef 03 f5 3d
       0.031213667 0.041151356 0.09858306 0.11963641
0001f0 38 3d a1 3d 82 82 29 bd be af af bc 61 73 95 bc
       0.07873005 -0.041384228 -0.021446105 -0.018243494

layer_3.weight f4 [64, 128]
000000 d9 11 41 3c 4c da 49 bd a8 8f 0c 3d d0 cd 53 3d
       0.01178404 -0.04928045 0.03431669 0.05170995
000010 b0 16 9c 3d cd 82 09 3d a5 0f 99 3d 57 4f 24 3d
       0.07621515 0.033572007 0.07473687 0.040114727
000020 82 bb 98 bd b8 35 47 3d 8e a6 9f bd 2e 5d 0f bc
       -0.07457639 0.048635215 -0.0779544 -0.008750243
000030 e0 97 84 bd 93 a7 b4 bc d1 5f 46 bd 35 dd d7 bc
       -0.0647428 -0.022052562 -0.04843122 -0.026350597
000040 b1 be bc 3c 8b df 79 bc 02 be c7 bc d8 ab 73 bd
       0.023040147 -0.015251051 -0.024382595 -0.059490055
000050 f0 0d 9a bd 67 86 97 3d 28 d5 84 bd c6 2f a6 bb
       -0.075221896 0.07398682 -0.06485969 -0.005071613
000060 20 79 8e bd 61 fc 1d 3d a5 48 9d 3d c9 fb a9 3d
       -0.069566965 0.038570765 0.076798715 0.08299977
000070 9c 80 af bd d9 56 af bd 91 e5 af bd 02 21 ce 3b
       -0.08569452 -0.08561487 -0.08588708 0.006290556
000080 36 29 45 3d 40 a2 cb bc 8e 5e 1d 3d 6c ab 32 bd
       0.048135005 -0.02485764 0.038420253 -0.043620512
000090 15 4c 94 3d 0a f1 8c 3d 50 61 cc bc 05 f2 69 bd
       0.07241074 0.06881912 -0.024948746 -0.057115573
0000a0 6d bb b3 3d 70 ec 99 3b 12 10 8d 3c 9d f0 e5 ba
       0.08775983 0.004697375 0.017219577 -0.0017543022
0000b0 3e 9d f9 3c 03 e7 a0 bd b9 7b b8 bd b0 cf 80 bd
       0.030470487 -0.07856562 -0.09007973 -0.06289613
0000c0 06 89 9c bd 95 dc ea 3c 6d c3 7f 3c 3b f7 4d bd
       -0.07643323 0.028669635 0.015610558 -0.050284605
0000d0 78 c5 10 3d 80 13 6f bb 68 17 47 3d fc 5b 17 bd
       0.03534457 -0.0036480129 0.048606306 -0.036952958
0000e0 0b 51 88 3d 60 d0 9f bd 80 38 ee b8 e2 5e 27 3d
       0.06656083 -0.07803416 -0.00011359248 0.04086197
0000f0 cf ca 03 3d ac 4a 97 bb 52 5e 98 3d 32 1b 96 bd
       0.032175835 -0.004617056 0.07439865 -0.07329406
000100 6f de 93 bd 9b e4 8e 3c 0c 20 9f bd 6b c1 66 bd
       -0.0722016 0.017442992 -0.07769784 -0.0563368
000110 b0 d8 47 bd ac b3 9e 3d c6 09 16 bd 65 ec af bc
       -0.048790634 0.077491134 -0.036630414 -0.021475026
000120 1d b4 9b 3c e5 ee 84 3d 9c 0e f1 3c ce 2c cf bc
       0.019006783 0.06490878 0.029425912 -0.02528992
000130 54 fa 61 bd e9 26 87 3d 30 be d0 3c 55 ae 37 3d
       -0.055170372 0.065992184 0.025481313 0.04484399
000140 3a ee 4e 3d 10 9b a5 bd 71 81 24 bd 8f 04 f8 bb
       0.05052016 -0.080862164 -0.040162507 -0.007568903
000150 b1 43 9a 3d ec ea 9b 3c 81 9f 04 3d 87 e1 68 bd
       0.07532442 0.019032918 0.032378677 -0.056855705
000160 c2 b7 ad bd 7b b6 00 3d 96 7e a9 bd db d8 d1 3c
       -0.08482315 0.031424027 -0.082760975 0.0256161
000170 42 82 35 3d 9c 6b df bc c4 92 46 3d 62 c5 8e bc
       0.044313677 -0.027272992 0.04847981 -0.017428104
000180 96 85 9a 3c e1 3c 81 3d 0d e3 f5 bc 6f d1 a5 bc
       0.018862527 0.0631044 -0.030015493 -0.020241467
000190 6c 8b 99 bb d3 90 1d bd e0 a5 99 3c 0a 92 b4 bd
       -0.00468581 -0.038468193 0.018755853 -0.08816917
0001a0 3a 1c a8 bc 38 63 39 bd 38 7f a9 bd 0e f9 aa 3c
       -0.020521272 -0.045260638 -0.08276218 0.020870712
0001b0 62 bb 93 bd ee 1e 95 3d eb cc 6e 3d 5e a3 7b bc
       -0.07213475 0.0728129 0.058300894 -0.015358774
0001c0 2f 8b cc 3b 68 78 d6 3c 72 b5 47 3d 7b a7 45 3d
       0.006242178 0.026180461 0.048757024 0.048255425
0001d0 49 3c 47 bd 07 6e 9e bd 2c 2a 57 bc 34 bf 3e 3d
       -0.048641477 -0.0773583 -0.013132613 0.046569064
0001e0 62 60 90 bd 1b c5 ae 3c 9d f0 3f 3d 8f 63 76 bd
       -0.070496336 0.021334222 0.046860326 -0.06015354
0001f0 bf a5 a2 bc 9b 61 a7 bc 25 13 36 bd b2 dd 7c 3d
       -0.019854425 -0.020432284 -0.04445185 0.061734863
000200 29 5f 1b 3d 6d de d2 bd 80 05 08 bc 70 57 5f bd
       0.03793255 -0.102963306 -0.008302093 -0.054526746
000210 d8 bb 77 bc 7d 64 7d 3d 62 6c 48 bd 7c 74 b5 3b
       -0.015120469 0.06186341 -0.048931487 0.0055375677
000220 80 97 f4 bc 1b 81 b2 bd 25 06 1c bd 82 8e 5c bd
       -0.029857397 -0.08716031 -0.038091797 -0.053846844
000230 0e a8 24 bd 80 de ba bc 54 71 67 bd ae af 46 3b
       -0.040199332 -0.022811174 -0.056504562 0.0030317116
000240 69 0f 93 3c c1 ba d2 3c 6d 87 3a 3c 52 31 10 3d
       0.017951684 0.025723817 0.011384827 0.035203286
000250 a9 6e b4 bd 8d 1a 80 bc 70 69 7a 3d 80 3a c0 bd
       -0.08810169 -0.01563766 0.06113571 -0.09386158
000260 71 9c 8a 3d c9 f5 b8 bd 5c 5e ba 3c 78 c6 fc bc
       0.0676812 -0.09031255 0.022750072 -0.030856356
000270 eb da 83 3d ff 5a 09 3c 16 75 fe bb 3b d3 a3 bc
       0.0643824 0.008383512 -0.0077654226 -0.019998183
000280 71 d7 7e 3c 54 e9 53 3d 0c be 4e bd 1f 5c 8e 3d
       0.015554295 0.05173619 -0.05047421 0.069511645
000290 ec 7b 5e 3d b3 e1 94 3d 85 2b 83 bd 02 24 22 bd
       0.0543174 0.07269611 -0.06404785 -0.03958512
0002a0 93 1a a7 bd 9b 77 24 bd 90 65 62 3d d9 07 32 3d
       -0.081593655 -0.040153127 0.05527264 0.043464515
0002b0 b7 5f 91 bd 24 7b 20 3d a8 57 5e 3d c0 99 64 3d
       -0.07098334 0.039179936 0.054282814 0.05581069
0002c0 47 d2 91 3d 78 be 22 3d 69 8c a7 3d 31 f3 91 bd
       0.07120185 0.039732426 0.08181078 -0.07126463
0002d0 a2 86 85 3c 1a 49 07 bd d4 4a 59 3b 0f 3e 26 bd
       0.01629955 -0.0330287 0.0033156173 -0.040586527
0002e0 d4 4e af bc fd bb 33 3d 81 ed 90 3d c2 b4 bc bb
       -0.021399893 0.04388045 0.0707655 -0.0057588527
0002f0 6e 5c 7a bd f0 f6 6e 3c 30 72 d1 3c 57 39 a1 bd
       -0.061123304 0.014585242 0.025567144 -0.07872265
000300 18 7c 96 bd c1 ed 83 3b 6c 91 81 bd e7 c5 23 bd
       -0.07347888 0.004026145 -0.06326565 -0.039983656
000310 e7 2f 62 bb 00 19 ac bd 3a 76 25 3c 00 bc 7a 3d
       -0.0034513415 -0.08403206 0.010098988 0.061214447
000320 7e d8 85 bc ba ae e3 3b a8 4b 36 bd 4c 8d 80 bc
       -0.016338583 0.0069483193 -0.044505745 -0.015692376
000330 40 ef 97 bc e5 a5 b2 bd 18 12 b6 3b 75 19 94 bc
       -0.0185467 -0.08723048 0.005556356 -0.018078545
000340 54 0b 4c bd 05 dc 91 bd 87 c7 bf bd f8 75 31 3a
       -0.04981549 -0.071220435 -0.09364229 0.0006769593
000350 6e 9f c0 3a 60 55 7f bd c1 53 1a bd 63 bf b9 bd
       0.0014695951 -0.06233728 -0.03767753 -0.09069707
000360 a4 fe 64 3d fa fc 2e bc 40 e7 cb 3c f8 cd 2a 3d
       0.055906907 -0.0106804315 0.024890542 0.041700333
000370 b2 69 c8 bd 18 68 4b bc fc 0a ba bc f3 b0 8d 3d
       -0.09785785 -0.012414955 -0.022710316 0.06918516
000380 59 f1 68 3d 14 30 d9 3a 77 a6 3d bd ae 0e e8 bc
       0.056870792 0.0016570115 -0.04630133 -0.028327312
000390 e5 c1 f9 bc 51 38 b0 bd 3c 00 fc bc ad b3 c0 3c
       -0.030487964 -0.086044915 -0.03076183 0.023523176
0003a0 f5 44 b2 3d 74 65 81 3d 53 eb 87 3d 30 74 73 bc
       0.08704559 0.06318179 0.066366814 -0.014859244
0003b0 e4 0f 6f bd 50 54 15 3d 43 70 bc bd 7f 14 ac 3c
       -0.058364764 0.03645736 -0.092011 0.021005867
0003c0 09 c3 2b bd f2 d3 21 bc 61 db 98 3d 7d c3 8c bd
       -0.041934047 -0.009877192 0.07463718 -0.06873224
0003d0 13 e5 0f bc 66 d9 3f bc d5 be 1e 3d 16 ec 04 3b
       -0.008782643 -0.011709547 0.03875621 0.002028232
0003e0 73 e7 9d 3d b5 b6 c4 bd 12 db 5d 3b f0 a1 df 3b
       0.07710161 -0.09605161 0.00338525 0.0068247244
0003f0 1c f2 2d bd b7 22 a8 bc 80 d3 92 3d d4 3e 16 bc
       -0.04246722 -0.020524366 0.07169247 -0.009170253

layer_3.bias f4 [64]
000000 dc 4e a0 3d af 8b 82 3d 20 95 4b bc f9 9b d6 3d
       0.07827541 0.06374299 -0.012425691 0.10478968
000010 58 47 68 bd 06 c5 73 3d be e4 21 bb 0e af 99 3d
       -0.056708664 0.059514068 -0.0024702991 0.07504092
000020 22 e9 8d bd de 3d 8e bd 08 74 7a bd cc 83 ea 3c
       -0.06929232 -0.06945394 -0.061145812 0.028627299
000030 83 83 ff 3d 73 c5 9d bd 9f 7d 44 3d f6 cd 92 bd
       0.12476256 -0.07703676 0.047971364 -0.0716819
000040 5a 6d 0b bd 08 ac 17 bd 7c 95 96 3d 68 ad c2 bd
       -0.034039833 -0.037029296 0.07352731 -0.09505731
000050 9e cc 77 bd f6 f3 bf bc 3c 81 0c bd cf 83 ac bd
       -0.060497873 -0.02343176 -0.034302935 -0.08423578
000060 e3 71 07 3e d0 b0 cb 3c a8 9a 98 bd fa ec cb 3d
       0.13227038 0.024864584 -0.07451373 0.09957309
000070 51 40 33 bd 0e d3 6f 3a c0 ea 4c 3d d4 43 83 3d
       -0.04376251 0.0009148576 0.050028563 0.064094216
000080 92 6f 5e bc 65 ba 1e bd a0 72 49 bc 58 4a 8e 3c
       -0.013576405 -0.03875198 -0.012295395 0.017369434
000090 04 50 0d bd ff d7 3d 3d 7e 9d c5 3d 40 05 88 bd
       -0.034500137 0.046348568 0.0964918 -0.06641626
0000a0 4a 08 cc 3c 10 b3 b1 3c 8b 0d 38 bd 1e f7 bb 3c
       0.024906296 0.021691829 -0.04493479 0.022944983
0000b0 48 b8 93 3d 88 f5 13 bd a4 0b 46 bd c4 b9 35 3c
       0.07212883 -0.03612283 -0.048350945 0.011091653
0000c0 98 05 2c bd c0 a0 a5 3b ab 8c 17 3e 5f e3 54 bd
       -0.041997522 0.0050545633 0.14799754 -0.05197465
0000d0 dc ce d3 bc 7c 90 98 bc 30 bd 02 bd d1 83 09 3e
       -0.025855474 -0.018623583 -0.031918705 0.1342919
0000e0 49 9f ea 3c 90 4d 9a bc eb 99 b7 bc c2 c0 23 bc
       0.028640406 -0.018835813 -0.022412261 -0.0099946875
0000f0 49 e3 21 bc af 77 ad 3d 50 ba 13 3d fb 49 3a 3d
       -0.009880849 0.084700935 0.036066353 0.04548071

layer_4.weight f4 [16, 64]
000000 6a 8b a4 3c 05 d8 ea 3d 5d 01 5b bd 44 b7 30 3d
       0.020086009 0.11466984 -0.053468097 0.043143526
000010 7e 2a c7 3c 7f a0 be 3c aa 9f c2 bc df 33 b3 3c
       0.024312254 0.02326989 -0.023757774 0.02187532
000020 7a b2 d3 bd 21 cd 65 bb 74 8d 56 bd 76 65 55 3d
       -0.10336776 -0.0035064893 -0.052380994 0.052098714
000030 d1 e3 9e 3d f0 86 b4 3c 90 7c 70 3d f0 27 b8 bc
       0.07758296 0.022037 0.058712542 -0.022479981
000040 3b 61 36 bd 48 80 84 3d 73 9e d7 bc e2 5b d9 bd
       -0.04452632 0.0646978 -0.026320672 -0.106132284
000050 46 a5 46 3d b2 2e e2 bc 5e 93 d6 bd 12 c3 8a 3d
       0.04849746 -0.027610157 -0.10477327 0.06775488
000060 78 32 18 3d f6 f7 5b bd 86 43 82 bc cc c0 18 3e
       0.037157506 -0.05370327 -0.015901338 0.14917296
000070 68 ea 82 bd c7 f1 8b bd 51 e3 bc 3d 8b 06 69 3c
       -0.06392366 -0.06833225 0.09223045 0.014222751
000080 16 d2 03 3b 7c 86 e4 bd 00 34 bb bc d2 35 15 bc
       0.0020114235 -0.11158463 -0.022851944 -0.00910707
000090 14 a9 c0 bd 86 b5 8d 3d 9c 97 d4 3d bd 30 6b bd
       -0.09407249 0.069193885 0.1038048 -0.057419527
0000a0 6d 10 ee 3c a6 34 bb bd b4 be ee 3d 42 ec 6e 3d
       0.029060567 -0.09140901 0.116574675 0.05833078
0000b0 cb 0c 14 3b 02 f5 17 3d e6 b4 08 3d b5 d5 82 bd
       0.0022590633 0.037098892 0.033375643 -0.06388418
0000c0 48 32 0f bd e8 f5 ec bc 6c 25 48 3d 3e 44 b1 3d
       -0.03496006 -0.028925851 0.048863813 0.08655594
0000d0 76 c9 9f bd 8a 88 bd bd 28 c8 33 bd d5 88 8a 3d
       -0.078020975 -0.092545584 -0.043892056 0.0676438
0000e0 b3 e3 4b 3d 98 56 d0 bc 5c 5e 89 3c b0 3d fd 3d
       0.049777698 -0.025431916 0.016768627 0.123652816
0000f0 17 1b bf bc e3 2c 16 3e e5 65 89 bb 0b 06 59 bd
       -0.023328347 0.1466556 -0.004193055 -0.05298428
000100 bf 1e cf bd 3d 38 cd 3d 2f a8 18 3d 67 a7 03 be
       -0.10113286 0.10020492 0.037269767 -0.12856828
000110 83 6b 34 3d 10 a8 9b 3d 18 5f 7e 3c b7 4f 5b bd
       0.044047844 0.07600415 0.015525602 -0.05354282
000120 b4 21 f4 bd 56 85 d7 bd b8 20 cb bd 87 30 27 bd
       -0.11920491 -0.10523479 -0.0991835 -0.040817764
000130 cb 87 2a 3d da a9 5e 3c d5 c8 b3 3d c5 92 60 bd
       0.04163341 0.0135903 0.0877854 -0.05482747
000140 b7 91 db 3d 12 e2 f8 bd 88 e2 8f 3d 03 05 e8 bd
       0.10721152 -0.121524945 0.07025629 -0.11329081
000150 9e 68 98 3d 16 25 06 bd 84 25 ec bd e8 77 bf bd
       0.07441829 -0.03275021 -0.11530593 -0.09349042
000160 ef d7 9a 3d b0 ab 34 bd 10 ef 12 3d ea db c6 3d
       0.07560717 -0.044109046 0.03587252 0.09709914
000170 8c e5 ce 3d c6 e2 09 3c d6 a4 c9 bd 0f 10 57 3d
       0.10102376 0.008415883 -0.09845893 0.05250555
000180 86 87 07 3c 3c ce d1 bd d8 c4 aa 3c 73 12 0e be
       0.008272057 -0.10244414 0.020845816 -0.13874225
000190 ea d4 b6 3d 32 9b 9a bd a1 d4 0c be ba d4 a5 bc
       0.08927329 -0.075491324 -0.13752986 -0.020243037
0001a0 53 a6 79 3d 27 29 56 3d fe 93 78 3d 6c 49 07 3d
       0.060949635 0.05228534 0.06068801 0.033029005
0001b0 93 77 f7 bd 96 de 0e ba fc 4b f0 3d 1c d2 88 3b
       -0.12083354 -0.0005450038 0.11733243 0.0041754376
0001c0 14 e4 bc bd 6d b7 e9 bd 27 bd 09 be 28 00 d2 bd
       -0.0922319 -0.11411939 -0.13451062 -0.10253936
0001d0 ce fd f4 bd c0 60 b9 3d 9e b8 c5 bc cc a5 87 bd
       -0.11962472 0.09051657 -0.024135884 -0.0662342
0001e0 a7 c0 b5 bd a4 d0 11 bd 0b a7 b7 bd 84 5f e0 bd
       -0.08874636 -0.035599366 -0.08967408 -0.10955718
0001f0 9a f4 e0 3d 5b 1d 03 be cd 38 b2 bd d3 6d 38 3b
       0.10984154 -0.12804167 -0.0870224 0.0028141632
000200 ed ff 7d bd b3 6b 8b 3d 97 da d2 3d ff 43 e1 bd
       -0.062011648 0.06807651 0.10295599 -0.10999297
000210 86 16 64 3c 9f 25 86 bd 1f ee 99 bc 66 eb 6b bd
       0.013921386 -0.065501444 -0.018790303 -0.05759754
000220 fe cd 99 bd 82 c7 aa bd be 01 fb 3c cd a8 c2 bd
       -0.07509993 -0.08338834 0.03064048 -0.095048524
000230 d5 2b ba bd 98 7e 2f bc 1c 24 a2 3d d3 ca 8e bd
       -0.090903915 -0.010711335 0.079170436 -0.069722794
000240 72 02 cf bd b2 70 8c bd b6 7c 31 bc aa 4c 03 bd
       -0.10107888 -0.068574324 -0.010832956 -0.032055534
000250 62 41 47 bd f4 b5 cb bd 64 75 56 3c 6c ee 6d 3d
       -0.04864634 -0.09946814 0.013089512 0.058088705
000260 c6 e9 08 bc 06 c3 90 3d 42 03 03 bd 1f 3d 07 be
       -0.008356517 0.07068448 -0.03198553 -0.1320691
000270 b4 f2 dc bd 60 9e 94 3d 96 4a b5 bd 8f 97 59 3d
       -0.107884794 0.0725677 -0.08852117 0.053123053
000280 fa b4 60 3c ee c4 ea 3d 25 81 ec bb dc 5c d4 bd
       0.013715023 0.114633426 -0.0072175437 -0.10369274
000290 10 12 d9 3d 4c 06 30 3d 45 93 84 bc fa d9 8d bd
       0.10599148 0.042974755 -0.016183505 -0.06926341
0002a0 cc 6f cc bc 13 46 40 3d ee 6b 8c 3c 90 33 83 3d
       -0.024955653 0.046941828 0.017141309 0.06406319
0002b0 57 c0 90 3d e2 87 9f 3d 48 dc 39 bd 15 ad 91 3d
       0.07067936 0.077895895 -0.045376092 0.07113091
0002c0 22 33 cd 3d 38 ce 23 3d 12 0b 60 bc 6c ff cc 3d
       0.100195184 0.039991587 -0.013674514 0.10009655
0002d0 38 dd da bd f2 4f e2 3c 18 0b f8 bd 09 54 09 be
       -0.106867254 0.027626012 -0.12111491 -0.13410963
0002e0 a6 f5 9f bd 2a e7 8a 3d d4 cf af bd 2a 25 02 3d
       -0.078105256 0.06782372 -0.08584562 0.031773724
0002f0 20 f6 cb bc ef 23 a2 3c ef ed 30 bc 88 9a bc 3d
       -0.024897635 0.019792525 -0.010798915 0.09209162
000300 1a 59 9e 3d 18 25 11 bd 7b 2a c9 3c 6e 86 96 bd
       0.077318385 -0.035435766 0.02455639 -0.07349859
000310 5d 6f e4 3d 23 d6 01 bd 4d e3 7a bd d3 db 9c 3d
       0.11154053 -0.031698357 -0.061251927 0.07659116
000320 40 d4 c2 3d 30 e5 d9 bb 0a bb c2 3d 2a b9 89 bd
       0.0951314 -0.0066496357 0.09508331 -0.0672477
000330 3e 5c 98 bd 3e 50 e5 bd 1f fe 1b 3d 11 4a c1 3c
       -0.07439469 -0.111969456 0.038084146 0.023594888
000340 a9 95 47 bd 7c e4 f5 bd 41 49 ae 3d 65 8f 36 bd
       -0.04872671 -0.120064706 0.08510066 -0.044570345
000350 30 c8 ed bd 2e 1a 82 3d fc 9e b3 3d 36 54 c5 bd
       -0.11610448 0.0635265 0.08770558 -0.096352026
000360 b6 5f a0 3d f2 d8 89 bd aa f6 27 3d cf f1 12 be
       0.078307554 -0.06730832 0.04100672 -0.14350055
000370 f0 98 12 3d 26 9c 10 3c 09 af 9b bd 12 c1 89 bd
       0.035790384 0.008826291 -0.07601745 -0.06726278
000380 96 93 2a bd c0 19 56 3d b5 84 3d 3d de 11 07 be
       -0.041644655 0.05227065 0.046269137 -0.1319041
000390 96 21 c2 bd e5 47 30 bd 40 da 11 be 34 03 9c 3d
       -0.09479062 -0.043037314 -0.14243412 0.076177984
0003a0 7e 07 88 3d e7 ea c3 3d 54 82 cd bc 74 db 23 3d
       0.06642054 0.095662884 -0.02508656 0.04000421
0003b0 2a e2 c9 bc 9a e9 cd bd 9c 49 13 3c 0e de b3 bd
       -0.024643976 -0.100543216 0.008989718 -0.08782588
0003c0 da 4f 3f bd 84 7f e6 3d c6 a0 cc bd c2 8b db 3c
       -0.04670701 0.112547904 -0.099916026 0.02680004
0003d0 0e 09 c8 bc 5f 0d 0f bd 80 e9 b6 3d 8d bf 4c 3d
       -0.02441838 -0.03492486 0.08931255 0.049987365
0003e0 fd ae 96 3d d5 7e e9 bd eb 1b 8e 3d 60 96 f9 3d
       0.07357595 -0.114011444 0.06938919 0.12186885
0003f0 5e 82 46 bd 99 fb c2 3c 36 36 ab bd 1e 13 95 3d
       -0.04846417 0.023801612 -0.08359949 0.07279037

layer_4.bias f4 [16]
000000 bc 27 14 3e ac 55 d4 3d d4 81 a7 3d 18 67 b2 3d
       0.14468282 0.10367903 0.081790596 0.0871107
000010 6a 87 c8 3d c4 a2 18 bd 9b b3 2c 3d 5c f6 b4 bc
       0.09791453 -0.0372646 0.042163473 -0.02209013
000020 26 34 90 bd de c2 e7 bd b7 e0 e2 bd ae 94 cc 3d
       -0.070411965 -0.11316465 -0.11078017 0.09989296
000030 3e 69 2c 3e bc e7 d6 bd a6 a9 5e bd f6 3d 4f bd
       0.16837022 -0.104934186 -0.054361008 -0.0505962

layer_5.weight f4 [1, 16]
000000 1f bb e6 3d c2 ac 54 be 8a e1 47 be 15 04 e0 bd
       0.11266159 -0.20769027 -0.1951963 -0.109382786
000010 c8 22 5e be 6a bf 34 3e 44 a5 85 3e 6d a9 c6 bc
       -0.21692955 0.17651144 0.2610265 -0.02425071
000020 bd d4 6a 3e 97 39 3e bb f4 98 0e bc af 67 80 3d
       0.22932716 -0.0029026025 -0.008703459 0.06269776
000030 c4 9f 7b 3e 54 86 60 3e 40 a0 8f 3d fd 4b 6b be
       0.24572664 0.21926242 0.07012987 -0.22978206
