src/pyoptes/optimization/budget_allocation/supervised_learning/trained_nn_states/barabasi_500.pth (torch, 880355 bytes, 17 tensors)

layer_1.weight_ih f4 [256, 500]
0.017789776 0.12831101 0.03800451 0.15462898 0.09974261 0.030458923 0.14422654 0.10430812
0.07947465 0.06318277 0.022904124 0.0077430448 0.02931195 0.16818742 0.042762876 0.022997309
0.055609707 0.11549564 0.092961416 0.1300903 0.121614195 0.020708466 -0.017116422 -0.0076889647
0.00289758 -0.027656259 0.013525751 0.066894345 -0.00747233 -0.0037737002 0.12483794 0.01646275
0.097393855 0.062447663 0.070834644 0.13419355 0.06366445 -0.013451843 0.12634845 0.11394894
0.12500595 0.0353298 0.047933772 0.03686087 0.059412945 0.055539984 0.1051468 0.021088585
0.060271002 0.14085756 0.10418098 0.10866067 0.057229865 0.15267271 0.071420774 0.123107046
0.09435428 0.10845569 0.07730853 0.0614257 0.11742424 0.16066252 0.05980029 0.10320386
0.1119973 0.027767196 0.03538551 0.14018588 0.12049574 0.12890875 0.10591592 0.11230504
0.052118 0.090976454 0.106221355 0.07310491 0.13328624 0.1123213 0.0029163868 0.07404226
0.04516465 0.05909836 0.083726265 0.13675646 0.06387234 0.1443093 0.15242128 0.11006491
0.056809567 0.13036478 0.089461185 0.050342347 0.117422156 0.057144754 0.08467661 0.13679342
0.059216093 0.056937672 0.1364871 0.15491945 0.035614755 0.017772472 0.056445654 0.03827643
0.13787562 0.039447356 0.15220731 0.1389138 0.09269734 0.064540885 0.14906088 0.10046155
0.04910922 0.1476198 0.13863437 0.106023796 0.12728779 0.10861555 0.13334045 0.11194058
0.15790288 0.09869609 0.09749751 0.097751565 0.03509449 0.15440106 0.078623354 0.1358441
0.05451157 0.07865499 0.08132064 0.042107537 0.10921822 0.02110819 0.082069844 0.11316684
0.06398901 0.15533651 0.08717737 0.15832464 0.10352186 0.12807947 0.1537959 0.042861678
0.17833951 0.06687579 0.07165735 0.15258583 0.10413682 0.16922788 0.10628978 0.13960403
0.12735942 0.089297876 0.14240351 0.09970729 0.03722261 0.06543599 0.11212789 0.096759856
0.115003526 0.0850695 0.07253761 0.062356886 0.16401263 0.052106544 0.13749775 0.11804346
0.10777349 0.14772873 0.08028563 0.110264264 0.10419661 0.09473615 0.13440391 0.16863587
0.12513718 0.038232714 0.082169056 0.04625301 0.07961523 0.030714493 0.06550124 0.13860351
0.083336696 0.093537755 0.09634621 0.046140265 0.13425994 0.07302685 0.118262924 0.062461432
0.12171021 0.047545772 0.16406311 0.128103 0.04137675 0.15083358 0.11170166 0.14790285
0.10731361 0.12506539 0.067470886 0.115654536 0.041374933 0.1438249 0.14377226 0.15428056
0.09016729 0.020982295 0.15704696 0.10459168 0.029151358 0.05335554 0.072102584 0.13874663
0.15377334 0.14688589 0.06718877 0.12841399 0.13832538 0.08285473 0.080670506 0.13576986
0.06797191 0.13029912 0.13835843 0.10038165 0.11559934 0.15791295 0.09110816 0.15637675
0.14212318 0.13043499 0.10802986 0.09527107 0.0891094 0.095413975 0.14957516 0.05433887
0.029786488 0.1399172 0.09394007 0.119799584 0.07673532 0.0982942 0.09265008 0.16402209
0.06379394 0.07294779 0.09991568 0.10041176 0.15510914 0.058572136 0.15332489 0.09911045
00000000: ddbb 913c f663 033e 9eaa 1b3d 0f57 1e3e
00000010: da45 cc3d fe84 f93c 1fb0 133e 7f9f d53d
00000020: 9bc3 a23d f865 813d 6ea1 bb3c 5eb9 fd3b
00000030: 9d1f f03c 5339 2c3e 2028 2f3d da64 bc3c
00000040: 01c7 633d fa88 ec3d 8e62 be3d 6436 053e
00000050: dd10 f93d cda4 a93c bd37 8cbc b6f3 fbbb
00000060: 53e5 3d3b 618f e2bc 1d9b 5d3c e7ff 883d
00000070: 72da f4bb 2f50 77bb 09ab ff3d e4dc 863c
00000080: 6e76 c73d 1fc9 7f3d c111 913d 096a 093e
00000090: 8262 823d 1e65 5cbc 7d61 013e 105e e93d
000000a0: 8f01 003e fbb5 103d 3456 443d 6cfb 163d
000000b0: fd5a 733d e57d 633d 3557 d73d f8c1 ac3c
000000c0: bade 763d f73c 103e d65c d53d 7c89 de3d
000000d0: dd69 6a3d 3c56 1c3e 0e45 923d 8c1f fc3d
000000e0: d13c c13d 041e de3d ef53 9e3d 8499 7b3d
000000f0: 1f7c f03d b784 243e 26f1 743d 8c5c d33d
00000100: d75e e53d 0878 e33c 66f0 103d e38c 0f3e
00000110: 78c6 f63d a800 043e 72ea d83d 2f00 e63d
00000120: af79 553d dd51 ba3d 958a d93d 07b8 953d
00000130: 307c 083e b608 e63d da20 3f3b 78a3 973d
00000140: 91fe 383d 1f11 723d ad78 ab3d e309 0c3e
00000150: 80cf 823d d1c5 133e 5314 1c3e b669 e13d
00000160: 26b1 683d 587e 053e 6d37 b73d c733 4e3d
00000170: 077b f03d 9e10 6a3d ee6a ad3d 9313 0c3e
00000180: 938c 723d 7a37 693d 46c3 0b3e 34a3 1e3e
00000190: c7e0 113d 9397 913c 8f33 673d bfc7 1c3d
000001a0: 442f 0d3e 8d93 213d 3cdc 1b3e 6b3f 0e3e
000001b0: 1ad8 bd3d 032e 843d 6aa3 183e c9be cd3d
000001c0: c026 493d a529 173e 2bf6 0d3e 0123 d93d
000001d0: bb57 023e d471 de3d 668a 083e 1a41 e53d
000001e0: 4bb1 213e 2d21 ca3d c6ac c73d f931 c83d
000001f0: 3dbf 0f3d 501b 1e3e 4805 a13d b71a 0b3e
00000200: 8647 5f3d de15 a13d 708b a63d f478 2c3d
00000210: cdad df3d 15eb ac3c 3c14 a83d 04c4 e73d
00000220: ac0c 833d 8910 1f3e 0d8a b23d db1f 223e
00000230: 4503 d43d 4427 033e ac7c 1d3e ba8f 2f3d
00000240: a29e 363e 2df6 883d 17c1 923d 763f 1c3e
00000250: af45 d53d 134a 2d3e 75ae d93d 5cf4 0e3e
00000260: 826a 023e cee1 b63d 3ad2 113e 5633 cc3d
00000270: bc76 183d 4e03 863d 4fa3 e53d 082a c63d
00000280: f886 eb3d eb38 ae3d 998e 943d ef69 7f3d
00000290: edf2 273e ac6d 553d 36cc 0c3e c5c0 f13d
000002a0: 59b8 dc3d 3346 173e cb6c a43d 3bd2 e13d
000002b0: 0865 d53d 0705 c23d 2ea1 093e e2ae 2c3e
000002c0: f623 003e e899 1c3d 4048 a83d cc73 3d3d
000002d0: 4f0d a33d f69c fb3c 8425 863d 14ee 0d3e
000002e0: 6eac aa3d b990 bf3d 2951 c53d 93fd 3c3d
000002f0: 707b 093e 1a8f 953d d533 f23d 8fd7 7f3d
00000300: 3443 f93d 5bbf 423d 2900 283e 6f2d 033e
00000310: ab7a 293d 1e74 1a3e d7c3 e43d d873 173e
00000320: 3dc7 db3d 2411 003e 2d2e 8a3d 49dc ec3d
00000330: c378 293d d646 133e 0939 133e b9fb 1d3e
00000340: a1a9 b83d 10e3 ab3c ebd0 203e 2a34 d63d
00000350: d4ce ee3c 578b 5a3d 85aa 933d 9913 0e3e
00000360: c276 1d3e 4169 163e 449a 893d f57e 033e
00000370: 2ba5 0d3e beaf a93d 9436 a53d 4107 0b3e
00000380: db34 8b3d 226d 053e d5ad 0d3e e594 cd3d
00000390: 59bf ec3d efb3 213e ea96 ba3d 3a21 203e
000003a0: bd88 113e c090 053e c23e dd3d 7b1d c33d
000003b0: fd7e b63d 6768 c33d 3b2a 193e 6f92 5e3d
000003c0: cb02 f43c 7446 0f3e a763 c03d 7c59 f53d
000003d0: 6827 9d3d 784e c93d 53bf bd3d 68f5 273e
000003e0: 66a6 823d a765 953d 98a0 cc3d aea4 cd3d
000003f0: eed4 1e3e 56e9 6f3d 3301 1d3e 6bfa ca3d

layer_1.weight_hh f4 [256, 256]
0.04759989 0.034975357 -0.050073788 -0.022630155 -0.013479158 -0.052765258 0.05354727 -0.030783303
-0.050068423 -0.031286128 0.031140476 0.0035739765 0.047497943 -0.057824284 -0.05963587 0.04592748
0.014874488 0.01991538 -0.013099313 -0.054105513 0.054637626 0.062289245 0.052419588 -0.044913962
0.0045922995 0.022953331 0.034755684 -0.010024257 0.057961427 -0.035131425 -0.046588235 -0.035858497
0.03489297 0.028960384 0.033559002 0.02187004 -0.032892466 0.040077016 0.0097565055 -0.03309884
-0.011905231 0.062114812 -0.04893937 -0.04003399 0.027801022 0.055539772 0.027770184 0.040951535
-0.036617994 -0.051154494 0.03673829 0.015575267 -0.018708505 -0.04637538 -0.008815125 -0.034716517
0.02040007 -0.042516626 -0.052859075 -0.0070497543 0.037738338 0.029972821 -0.02712971 -0.041712813
0.019043773 -0.03424324 0.019364603 0.044575557 0.058344133 -0.0003475845 0.0038241744 -0.0010364354
-0.0014290437 0.0063397065 -0.051970355 -0.058000065 -0.056224145 0.025349922 -0.0046286583 0.034431823
-0.0010092556 -0.021796994 -0.05993925 0.029503621 0.0047970936 0.0024626032 -0.060235567 -0.003768593
0.027254537 0.01307372 -0.05297695 0.01798366 0.009253405 -0.05943144 0.05788912 -0.056909762
0.009407893 0.059687242 0.046003133 -0.03805787 -0.019021094 -0.023449145 0.03678195 0.022884533
0.026184916 -0.026966758 -0.036687687 -0.016982824 0.013374686 -0.034383975 -0.0047479197 0.058041953
-0.052040957 -0.059363805 -0.007682979 -0.002252303 0.0024849847 0.002632171 0.02526819 -0.05518444
0.06208516 0.011177741 0.044858977 0.017896771 -0.028002687 -0.009692326 0.026142567 0.029952891
0.056357257 0.013454527 0.03610117 -0.060520142 -0.0017625093 0.045322515 0.041370027 -0.033859767
-0.00908874 0.0071592852 -0.008447781 0.059094347 -0.015106052 -0.004996389 -0.027969807 -0.012779087
0.014089875 0.054618806 0.009490579 -0.029611982 0.0046073794 -0.027045555 -0.024805166 -0.027125657
0.041003674 -0.02068244 0.014766835 -0.03915941 0.011796609 -0.052672982 0.04141915 -0.034768865
-0.040678874 0.0021741316 -0.034526415 -0.039518215 0.030460723 -0.057925403 0.055436075 -0.058422655
0.022974677 -0.010238685 0.0366636 -0.015863724 0.027650617 0.0564731 0.009825051 0.034616902
-0.032429412 -0.026501536 0.015796721 0.0520923 0.053029522 -0.032753564 0.022707246 -0.004827954
-0.0287465 -0.05627557 -0.001678884 0.05153556 -0.041028142 -0.014060199 -0.010063134 -0.04798737
0.05328674 0.02340556 -0.042048 -0.009100087 0.003879942 -0.037435904 -0.020755395 0.006337583
0.06116122 -0.057067752 -0.0044894293 -0.010220952 -0.051730193 0.01927188 0.05673927 -0.01926513
-0.036285073 0.018847406 -0.050916247 -0.024095707 -0.00041750073 -0.006815411 -0.008494884 0.031341873
-0.041289046 0.014984265 0.047863223 0.02366905 -0.060217902 0.057426862 0.037724704 -0.04083824
0.014848538 0.03692945 0.054332405 -0.008453108 -0.021970592 -0.021701418 -0.025598489 0.054893486
-0.0050760955 -0.017659023 -0.061429575 -0.038695484 0.052849866 0.03154397 -0.038348302 -0.0013593659
-0.038643345 0.024175763 0.039955646 -0.058473155 0.060369574 0.031396262 -0.008713014 0.028681561
-0.02618222 -0.04945202 -0.058528632 0.05893454 -0.03154967 0.019342482 -0.051027715 -0.05243072
00000000: 1af8 423d 5242 0f3d 2c1a 4dbd e062 b9bc
00000010: b0d7 5cbc 6220 58bd 6254 5b3d 442d fcbc
00000020: 8c14 4dbd e225 00bd 501a ff3c 6039 6a3b
00000030: 348d 423d 28d9 6cbd be44 74bd 741e 3c3d
00000040: 20b4 733c 9425 a33c 809e 56bc be9d 5dbd
00000050: b4cb 5f3d 0223 7f3d ecb5 563d b4f7 37bd
00000060: 007b 963b a008 bc3c fa5b 0e3d c83c 24bc
00000070: f668 6d3d f8e5 0fbd 4ed3 3ebd 5ce0 12bd
00000080: eeeb 0e3d 543e ed3c 2a75 093d cc28 b33c
00000090: 40ba 06bd cc27 243d c0d9 1f3c a692 07bd
000000a0: 280e 43bc 1a6c 7e3d a674 48bd aefa 23bd
000000b0: f8be e33c ac7d 633d 4c7e e33c ccbc 273d
000000c0: c0fc 15bd 6087 51bd e47a 163d 682f 7f3c
000000d0: 9442 99bc 1cf4 3dbd 506d 10bc e832 0ebd
000000e0: 0c1e a73c ea25 2ebd c282 58bd a001 e7bb
000000f0: 8493 1a3d 9089 f53c 203f debc 0edb 2abd
00000100: b001 9c3c a442 0cbd 84a2 9e3c dc94 363d
00000110: 42fa 6e3d 003c b6b9 009f 7a3b 00d9 87ba
00000120: c04e bbba 50bd cf3b dede 54bd 7a91 6dbd
00000130: 4a4b 66bd a4aa cf3c 00ac 97bb 6208 0d3d
00000140: 0049 84ba 9c8f b2bc dc82 75bd 94b1 f13c
00000150: f030 9d3b a063 213b 92b9 76bd 80fa 76bb
00000160: e844 df3c 2833 563c 5cfe 58bd 7852 933c
00000170: 989b 173c 626e 73bd 241d 6d3d 361a 69bd
00000180: 9023 1a3c 9c7a 743d c86d 3c3d 92e2 1bbd
00000190: 20d2 9bbc 6c18 c0bc aca8 163d 5878 bb3c
000001a0: c081 d63c 64e9 dcbc d445 16bd 901f 8bbc
000001b0: 8021 5b3c 36d6 0cbd 7094 9bbb 66bd 6d3d
000001c0: e628 55bd 7627 73bd 80c1 fbbb 609b 13bb
000001d0: 20db 223b 8080 2c3b 3cff ce3c 1409 62bd
000001e0: 024d 7e3d d822 373c 0cbe 373d 409c 923c
000001f0: e465 e5bc 90cc 1ebc f028 d63c c45f f53c
00000200: ded6 663d 6070 5c3c d2de 133d f8e3 77bd
00000210: 0004 e7ba 1aa4 393d 9e73 293d 8ab0 0abd
00000220: f0e8 14bc 7098 ea3b 9068 0abc ea0c 723d
00000230: 607f 77bc c0b8 a3bb f020 e5bc 605f 51bc
00000240: 38d9 663c f8b7 5f3d 607e 1b3c d494 f2bc
00000250: 80f9 963b a48e ddbc 3434 cbbc a036 debc
00000260: 78f3 273d 386e a9bc 98f0 713c 9e65 20bd
00000270: 9046 413c a0bf 57bd 20a7 293d cc69 0ebd
00000280: e49e 26bd e07b 0e3b 926b 0dbd dadd 21bd
00000290: c488 f93c 3043 6dbd f010 633d 984c 6fbd
000002a0: 6435 bc3c 28c0 27bc 922c 163d a4f4 81bc
000002b0: 8c83 e23c 5650 673d 40f9 203c 74ca 0d3d
000002c0: b4d4 04bd c019 d9bc 2068 813c bc5e 553d
000002d0: 7c35 593d 9a28 06bd 8c04 ba3c d033 9ebb
000002e0: c87d ebbc 3681 66bd 000e dcba f416 533d
000002f0: 200d 28bd c05c 66bc d8df 24bc 688e 44bd
00000300: 3243 5a3d 04bd bf3c 863a 2cbd 8818 15bc
00000310: a046 7e3b 6456 19bd 3807 aabc 80ab cf3b
00000320: 3084 7a3d e0bf 69bd 101c 93bb c875 27bc
00000330: 0ae3 53bd 10e0 9d3c 7067 683d e8d1 9dbc
00000340: a89f 14bd e065 9a3c 8e8d 50bd 5c64 c5bc
00000350: 00e4 dab9 d053 dfbb 202e 0bbc 5660 003d
00000360: b41e 29bd 9080 753c 3a0c 443d 98e5 c13c
00000370: 0ca7 76bd 6e38 6b3d 3885 1a3d 0046 27bd
00000380: 4847 733c 5643 173d a88b 5e3d e87e 0abc
00000390: acfb b3bc 2cc7 b1bc ecb3 d1bc fed7 603d
000003a0: 6055 a6bb a8a9 90bc 949d 7bbd 287f 1ebd
000003b0: 1a79 583d 4034 013d 1c13 1dbd c02c b2ba
000003c0: 7c48 1ebd 400c c63c 88a8 233d 8c81 6fbd
000003d0: 1646 773d 5e99 003d 08c1 0ebc 98f5 ea3c
000003e0: 187c d6bc 348e 4abd b8bb 6fbd 5865 713d
000003f0: 3a3a 01bd 2074 9e3c 7002 51bd 98c1 56bd

layer_1.bias_ih f4 [256]
0.0544015 0.100384295 0.13527708 0.12914036 0.055045303 0.030258998 0.05052661 0.1126968
0.079426974 -0.015765328 0.13289869 -0.06424101 0.12725967 0.03430696 0.02714408 0.15721823
0.031635024 0.018386083 0.03822875 0.056487057 -0.035782628 0.15827999 -0.012314656 0.09012497
0.14295784 0.078656055 0.10914295 -0.034292042 0.047590166 0.1348227 -0.04801558 0.069459744
0.054016095 0.1469355 0.019414745 0.10081835 -0.050204918 -0.06972642 -0.009418841 -0.023262545
0.058960907 0.12160761 0.13663152 0.07940623 0.10271897 0.1601572 0.12014138 0.058779128
-0.054840207 0.07203959 0.1137077 0.090169564 0.14033301 0.06683661 0.047976155 0.10426438
0.14568932 0.043184485 0.057851408 0.12935421 0.0061205216 0.1595675 0.09337619 -0.032461856
0.14089032 0.11324989 0.112039946 0.022054382 0.042616654 0.044087864 -0.044194892 0.053223867
-0.00016590873 0.14448106 0.03917364 0.14152062 0.05525765 0.06879084 0.053078897 0.04496771
0.11102883 0.008074301 0.104753576 0.09845678 0.06316371 -0.02685038 0.058030777 0.146355
0.04475817 0.059315406 0.07034842 0.14155433 0.008366765 -0.06364473 0.0034625325 0.16058382
0.06367558 0.084830336 0.073353305 0.15535413 0.12263662 0.06543286 0.024490166 0.1515991
0.05926509 0.08362185 0.11007209 0.124149315 0.09712009 0.032849804 0.050580155 -0.046016358
0.089967094 0.085052095 0.08046226 0.09648845 0.1347605 0.088533975 -0.033442065 0.047443256
0.073539 0.028583976 0.10461379 0.063912414 0.050313562 0.05813536 -0.015231897 0.087330505
-0.003866244 0.07881031 0.13116993 0.016295731 0.12432663 0.14915803 0.045456894 0.17476667
0.10210461 -0.0111505855 0.066469975 0.09105847 0.14151455 0.08107743 -0.017174387 0.10047688
-0.027120242 0.093675286 0.08591427 0.08147276 0.07437438 0.13513114 0.1451338 0.06860112
0.1518191 0.11272223 -0.02473941 -0.025073664 0.0115644615 0.0780106 0.09136522 0.12550053
0.038070474 0.036694605 0.0648175 0.11939992 0.06574773 0.039878048 0.099993676 0.092904404
-0.021992028 0.03404139 0.15349181 0.09758072 0.116963916 0.015942512 0.056507975 0.04285435
0.051147204 0.10080678 0.028148364 0.12248078 0.12383797 0.061728947 0.08427651 0.15140805
0.05552304 0.082275294 0.14657961 0.049195543 0.07731072 0.009802496 0.015465116 0.16156767
0.043821156 0.086817704 0.049636707 0.092756376 0.10103448 0.15995546 0.044890895 -0.06292288
0.14781286 0.011011003 0.13295856 0.06153144 0.11874487 0.024774475 0.0302675 -0.011640347
-0.036083348 0.13801022 0.115462154 0.04630972 -0.013846165 0.0943056 0.039520167 0.07810326
0.07882413 0.107282996 0.107682616 0.049317796 0.13062717 0.11515083 0.04437491 -0.035097674
0.048338026 0.06873671 0.04201477 0.062214755 0.039664216 0.16007228 0.039650176 0.060896426
0.048331305 -0.055086687 0.07001282 0.08791231 0.12487809 -0.031717252 0.05179691 -0.030416708
0.030119233 0.08326687 0.046705704 0.030505886 0.10619642 0.09739167 0.09879334 0.07146452
0.06827218 0.062329367 0.083448984 0.08930176 0.13576765 0.009615824 0.116403714 0.08284486
00000000: 1bd4 5e3d 4896 cd3d 1386 0a3e 5f3d 043e
00000010: 2f77 613d b8e1 f73c fef4 4e3d 94cd e63d
00000020: 9caa a23d 4a26 81bc 9816 083e ca90 83bd
00000030: 5c50 023e 7485 0c3d 435d de3c d1fd 203e
00000040: ba93 013d 699e 963c c095 1c3d f95e 673d
00000050: ce90 12bd 2614 223e 69c3 49bc 7193 b83d
00000060: 8a63 123e 6d16 a13d 5786 df3d d075 0cbd
00000070: e8ed 423d f60e 0a3e fcab 44bd e940 8e3d
00000080: fb3f 5d3d 4276 163e ac0b 9f3c da79 ce3d
00000090: aca3 4dbd bacc 8ebd 7c51 1abc 1891 bebc
000000a0: fe80 713d 690d f93d 22e9 0b3e bc9f a23d
000000b0: 535e d23d 4000 243e af0c f63d 62c2 703d
000000c0: 20a0 60bd 7e89 933d 95df e83d d2aa b83d
000000d0: 75b3 0f3e a2e1 883d a582 443d 9088 d53d
000000e0: 952f 153e 37e2 303d 99f5 6c3d 6e75 043e
000000f0: a88e c83b aa65 233e 043c bf3d b9f6 04bd
00000100: 8d45 103e 8fef e73d 3375 e53d 64ab b43c
00000110: cd8e 2e3d 7a95 343d b405 35bd 4501 5a3d
00000120: c9f7 2db9 d8f2 133e 8a74 203d c8ea 103e
00000130: d855 623d 36e2 8c3d 4269 593d 1030 383d
00000140: 1563 e33d 134a 043c 0b89 d63d b5a3 c93d
00000150: fa5b 813d 54f5 dbbc aeb1 6d3d 16de 153e
00000160: 5854 373d b6f4 723d d512 903d 9ef3 103e
00000170: c214 093c 2b58 82bd a8eb 623b 1670 243e
00000180: 5868 823d 87bb ad3d 423a 963d 2715 1f3e
00000190: e928 fb3d aa01 863d 9a9f c83c cb3c 1b3e
000001a0: f3bf 723d ef41 ab3d 7a6d e13d ff41 fe3d
000001b0: e6e6 c63d 848d 063d 232d 4f3d a67b 3cbd
000001c0: ab40 b83d cb2f ae3d 66c9 a43d bd9b c53d
000001d0: a8fe 093e 4d51 b53d 8cfa 08bd dc53 423d
000001e0: 9d9b 963d f128 ea3c c13f d63d 83e4 823d
000001f0: 9815 4e3d 581f 6e3d 358f 79bc 56da b23d
00000200: d060 7dbb 4d67 a13d 6951 063e a07e 853c
00000210: f69e fe3d e2bc 183e 0231 3a3d 09f6 323e
00000220: 391c d13d f2b0 36bc 6921 883d dd7c ba3d
00000230: 31e9 103e ec0b a63d 4db1 8cbc d3c6 cd3d
00000240: 452b debc d4d8 bf3d d2f3 af3d 31db a63d
00000250: 9851 983d d15f 0a3e f49d 143e be7e 8c3d
00000260: 7776 1b3e eada e63d 4eaa cabc 4967 cdbc
00000270: de78 3d3c 05c4 9f3d b01d bb3d 3683 003e
00000280: c9ef 1b3d 154d 163d 0abf 843d f287 f43d
00000290: bfa6 863d 2a57 233d 7cc9 cc3d aa44 be3d
000002a0: a028 b4bc fc6e 0b3d f52c 1d3e 67d8 c73d
000002b0: c78a ef3d df99 823c e874 673d 0b88 2f3d
000002c0: bb7f 513d c973 ce3d 6697 e63c 34d7 fa3d
000002d0: c39e fd3d 7ed7 7c3d 2a99 ac3d b60a 1b3e
000002e0: 216c 633d f37f a83d f718 163e 4481 493d
000002f0: 1555 9e3d a69a 203c 6661 7d3c ff71 253e
00000300: d07d 333d 7bcd b13d dc4f 4b3d 0ef7 bd3d
00000310: 2aeb ce3d 5dcb 233e 84df 373d b6dd 80bd
00000320: 415c 173e 7e67 343c 4a26 083e 6408 7c3d
00000330: 8330 f33d d7f3 ca3c 8cf3 f73c 27b7 3ebc
00000340: 22cc 13bd 8d52 0d3e 6c77 ec3d 43af 3d3d
00000350: 06db 62bc 4b23 c13d e6df 213d 9af4 9f3d
00000360: 8c6e a13d 30b7 db3d b488 dc3d 7501 4a3d
00000370: 21c3 053e 33d4 eb3d 77c2 353d 94c2 0fbd
00000380: 18fe 453d d5c5 8c3d ae17 2c3d e6d4 7e3d
00000390: f276 223d fde9 233e 3968 223d 886e 793d
000003a0: 0cf7 453d 94a2 61bd e262 8f3d 5f0b b43d
000003b0: 16c0 ff3d f3e9 01bd ff28 543d 762c f9bc
000003c0: 9cbc f63c d287 aa3d 7b4e 3f3d 7be7 f93c
000003d0: 827d d93d 4975 c73d 2a54 ca3d fe5b 923d
000003e0: 49d2 8b3d 144d 7f3d 4de7 aa3d d7e3 b63d
000003f0: ad06 0b3e b08b 1d3c 1265 ee3d 91aa a93d

layer_1.bias_hh f4 [256]
0.1575046 0.13739963 0.0949849 0.14519937 0.059901144 0.11831062 0.1604528 0.04617404
0.02444866 0.02489725 0.044433407 0.043267407 0.10840632 -0.034914516 0.019553276 0.13831992
0.04916159 -0.006889045 0.024705905 0.047724936 -0.07144866 0.15748286 0.028303834 0.050947342
0.068982616 0.16419916 0.08384564 0.04083284 0.13026829 0.13817924 -0.030712927 0.00076943426
0.07881003 0.11052104 0.021994025 0.16070597 -0.0368596 0.0099045895 0.02581151 -0.046989046
0.08360805 0.041632555 0.09230145 0.06398632 0.08162614 0.10868432 0.13397023 0.008570389
-0.045853876 0.11467232 0.1397484 0.14877157 0.07355604 0.060565654 0.15456133 0.064032346
0.13194071 0.13603239 0.08761402 0.16807371 0.060352232 0.12437536 0.12058522 -0.057356488
0.057622965 0.047032483 0.052216075 0.11364602 0.15744 -0.0560674 -0.019845665 0.055055622
0.017648026 0.101345174 0.04045973 0.14587629 0.0068118894 0.123436406 0.15811644 0.04537274
0.12601222 0.00214965 0.08841429 0.019041868 0.11675285 -0.049275428 0.06525003 0.10174881
0.11518648 0.05749011 0.005587406 0.1396944 0.010931181 -0.080244824 0.09201724 0.16335335
0.15330715 0.13142262 0.1515304 0.14730765 0.13632625 0.08211891 0.0015386275 0.16112082
0.07839735 0.05662399 0.06325883 0.085015394 0.09186734 0.046108313 0.080034 -0.016372584
0.115044154 0.03645959 0.0728357 0.11189421 0.16036355 -0.0030417487 0.0089436155 0.08560527
0.14280763 0.013202998 0.089549385 0.15870534 0.14525147 0.03607081 0.050403412 -0.02803554
-0.05075858 0.09983792 0.060482383 -0.002008289 0.069057986 0.10475267 0.06165251 0.09928749
0.13392533 0.0696594 0.15815042 0.12950262 0.067441344 0.15123132 -0.04550921 0.03963746
0.03507399 0.1473281 0.017117549 0.0033938433 0.047628403 0.11176033 0.1515694 0.07844673
0.044350676 0.1323235 0.01803482 -0.037302107 0.023110865 0.10556554 0.09764691 0.065913945
0.09288426 0.0948064 0.082990095 0.08478075 0.011089001 0.10324615 0.13764684 0.08538124
0.009060741 0.023849469 0.04629445 0.13128601 0.13836505 0.041089788 0.015660677 0.08689538
0.10729468 0.13879885 0.04451381 0.118738055 0.08868856 0.12856169 0.047029026 0.09256065
0.10560191 0.05160569 0.08177989 0.078992784 0.045261566 0.017555824 -0.03814268 0.041121043
0.076804005 0.1262456 0.151707 0.1322327 0.0107983025 0.04669817 0.07893445 0.007650679
0.1328166 0.12121032 0.09623691 0.052476257 0.10017552 0.03377529 0.015907487 0.0038690034
0.009923983 0.06420115 0.093272656 0.046466563 0.03395388 0.07491521 -0.06938698 0.07204574
0.06341569 0.06523971 -0.005028688 0.13517901 0.1030594 0.12780116 0.07938258 0.039302878
-0.038535498 0.12279198 0.14861637 0.09660563 0.056308866 0.13723294 0.11871067 0.137744
0.06876037 0.022512943 0.091958925 0.15916763 0.09690874 -0.04553933 -0.07058588 -0.05784315
-0.011902399 0.0039411364 0.10998271 0.03731368 0.11018145 0.12608719 0.078691974 0.0708293
0.025999116 0.13420983 0.04612997 0.10875315 0.096507624 0.0219573 0.05089297 0.07235671
00000000: e348 213e 7db2 0c3e 7187 c23d 25af 143e
00000010: e75a 753d d74c f23d bd4d 243e fd20 3d3d
00000020: 8e48 c83c 51f5 cb3c ceff 353d 2a39 313d
00000030: 2204 de3d 8602 0fbd 312e a03c bda3 0d3e
00000040: aa5d 493d 7fbd e1bb 0a64 ca3c 397b 433d
00000050: ad53 92bd 3043 213e 71dd e73c 29ae 503d
00000060: c246 8d3d d323 283e 43b7 ab3d 5640 273d
00000070: 0d65 053e dc7e 0d3e ad99 fbbc dcb3 493a
00000080: 2767 a13d db58 e23d d02c b43c 1b90 243e
00000090: 18fa 16bd dc46 223c a972 d33c 9677 40bd
000000a0: b33a ab3d e686 2a3d 8b08 bd3d 420b 833d
000000b0: 9b2b a73d e295 de3d 7e2f 093e d16a 0c3c
000000c0: 46d1 3bbd 52d9 ea3d 341a 0f3e 9357 183e
000000d0: 8da4 963d b113 783d 5345 1e3e 6423 833d
000000e0: 771b 073e 134c 0b3e fb6e b33d 841b 2c3e
000000f0: e733 773d 82b8 fe3d 62f5 f63d a3ee 6abd
00000100: 0f06 6c3d 22a5 403d 86e0 553d 3fbf e83d
00000110: f437 213e eea6 65bd 6093 a2bc 0182 613d
00000120: 9892 903c 0f8e cf3d 1ab9 253d 9860 153e
00000130: 4536 df3b 3acc fc3d 47e9 213e c4d8 393d
00000140: 5909 013e 24e1 0c3b 8d12 b53d b1fd 9b3c
00000150: 1e1c ef3d 08d5 49bd cfa1 853d ae61 d03d
00000160: e4e6 eb3d c07a 6b3d 8f16 b73b 0c0c 0f3e
00000170: b218 333c 6657 a4bd 8973 bc3d 1a46 273e
00000180: 8dfc 1c3e a793 063e c92a 1b3e d1d7 163e
00000190: 1c99 0b3e f62d a83d c6ab c93a dbfc 243e
000001a0: ca8e a03d 8fee 673d d88d 813d 8d1c ae3d
000001b0: f224 bc3d 12dc 3c3d dee8 a33d cc1f 86bc
000001c0: 459c eb3d a756 153d e22a 953d cb28 e53d
000001d0: 5836 243e 1358 47bb 3e88 123c d151 af3d
000001e0: 2a3c 123e 6351 583c ab65 b73d a783 223e
000001f0: cdbc 143e fcbe 133d cf73 4e3d caaa e5bc
00000200: 3be8 4fbd d377 cc3d 60bc 773d 809d 03bb
00000210: 466e 8d3d 9188 d63d 5887 7c3d 3d57 cb3d
00000220: b923 093e 96a9 8e3d 2ff2 213e 569c 043e
00000230: b01e 8a3d 62dc 1a3e de67 3abd e45a 223d
00000240: bea9 0f3d 2ddd 163e 1a3a 8c3c 3e6b 5e3b
00000250: 0016 433d 9ae2 e43d 0235 1b3e aea8 a03d
00000260: 0ea9 353d d07f 073e c2bd 933c 18ca 18bd
00000270: ff52 bd3c bf32 d83d 1afb c73d e4fd 863d
00000280: 1a3a be3d dc29 c23d b6f6 a93d 88a1 ad3d
00000290: a4ae 353c b872 d33d 4bf3 0c3e 5cdc ae3d
000002a0: 8173 143c f65f c33c 409f 3d3d d76f 063e
000002b0: 91af 0d3e c44d 283d d24a 803c 34f6 b13d
000002c0: 50bd db3d 4921 0e3e 1d54 363d f02c f33d
000002d0: 59a2 b53d ada5 033e 82a1 403d 7090 bd3d
000002e0: d045 d83d 7d60 533d 377c a73d f8c6 a13d
000002f0: 3164 393d 3bd1 8f3c 803b 1cbd 8a6e 283d
00000300: 6b4b 9d3d 8746 013e 1459 1b3e 0268 073e
00000310: 5deb 303c 9546 3f3d 63a8 a13d 8cb2 fa3b
00000320: 1301 083e 1e3d f83d db17 c53d 58f1 563d
00000330: d328 cd3d f557 0a3d 6b50 823c 1b8f 7d3b
00000340: 3498 223c e47b 833d bc05 bf3d b953 3e3d
00000350: 3913 0b3d 256d 993d c31a 8ebd b88c 933d
00000360: 16e0 813d 669c 853d b1c7 a4bb 5e6c 0a3e
00000370: cf10 d33d 4fde 023e 5693 a23d 0efc 203d
00000380: 66d7 1dbd 5d7a fb3d e42e 183e 2cd9 c53d
00000390: 20a4 663d cb86 0c3e 941e f33d c30c 0d3e
000003a0: 3dd2 8c3d 106d b83c f654 bc3d d7fc 223e
000003b0: 1778 c63d 7387 3abd 548f 90bd f0ec 6cbd
000003c0: 4802 43bc a624 813b 9d3e e13d 3bd6 183d
000003d0: d0a6 e13d 001d 013e 4229 a13d f40e 913d
000003e0: 19fc d43c 4d6e 093e c8f2 3c3d f9b9 de3d
000003f0: caa5 c53d ccdf b33c 2675 503d c12f 943d

layer_2.weight_ih f4 [64, 256]
-0.09210115 0.09225517 -0.12929477 -0.0079839155 -0.038847275 -0.049643405 -0.0720069 -0.03511008
0.06420169 0.0366045 0.04181253 0.036647297 -0.05517318 -0.05822298 0.029325148 -0.020992152
-0.066200055 0.07514318 0.053630747 -0.0075447178 0.026999556 -0.08673956 0.111164324 -0.11725635
0.022559732 -0.10585592 0.0357958 -0.006732667 -0.080803566 -0.007388437 -0.08179293 0.023809902
-0.041574933 -0.012081658 0.12645175 -0.06687928 -0.12927806 0.09927697 0.011247342 0.11106511
0.08244883 -0.049965374 0.014594217 -0.053084873 0.048797745 -0.0333345 0.0405825 -0.0967171
0.049125735 -0.08412612 0.02934367 0.067847796 -0.039511047 0.12681702 0.047962114 0.090964474
-0.11429645 0.005202299 0.040137537 0.057084538 0.09126497 -0.09983378 0.00083592255 -0.10204724
0.08130077 0.076154776 0.09036553 0.03280034 -0.10919721 0.06663191 0.010806447 0.05900856
0.11252136 -0.020005431 0.013902769 -0.012635032 -0.024556495 -0.056077383 0.062134363 0.015635168
-0.13214329 0.081668355 -0.020818979 0.027837716 -0.10089456 -0.0015146974 -0.00017070025 -0.12162603
0.040498644 -0.008650849 -0.1333162 -0.03429974 -0.12702519 0.018863045 -0.058866926 -0.12954563
-0.04615166 0.09381317 -0.12927389 -0.074367665 -0.057687916 0.08698311 0.009039244 -0.046418793
-0.060748264 0.059795 -0.06748218 0.03890527 -0.1346253 0.05556322 -0.015803002 -0.050381623
-0.054079257 0.07496711 0.08388727 -0.005722204 0.048447795 0.04422865 0.03704243 0.062730335
0.06276945 -0.027969891 -0.014192024 0.07604083 0.03179998 -0.06192609 -0.085947804 0.052460037
0.018778138 -0.03450965 -0.040358536 -0.042110957 0.10448205 -0.06466972 0.0991218 -0.03678427
0.043952845 -0.013501594 -0.022707991 -0.0058510993 0.06343639 0.08399806 -0.0588504 -0.030055603
-0.07568921 -0.13360645 -0.0072356407 -0.09178289 -0.035259567 0.024047416 0.030069223 -0.03727595
-0.037287854 0.08484011 -0.124094315 0.038821705 -0.01504657 -0.023820201 0.06482568 0.09934159
0.09590588 -0.0048104916 -0.012482667 -0.0064194445 -0.11822336 0.08379664 -0.11087073 0.09132486
-0.104373455 -0.053641252 -0.083620645 -0.03860984 0.021312717 -0.09895409 -0.09065481 -0.06921027
-0.01520183 0.07692749 0.09211534 0.084508784 -0.12536177 0.060172014 -0.03139282 0.068482466
0.034475572 0.11035224 0.054275803 0.033680387 0.09331063 -0.024479214 0.053118743 -0.012063658
-0.038576655 0.062593006 0.07316647 0.02104675 0.030419528 -0.0959977 -0.055474006 0.0541872
-0.039004363 0.031262316 -0.027079681 0.06295554 -0.021237575 -0.024276197 0.03460703 0.07447175
-0.075301565 -0.010958138 0.07307579 0.08164849 -0.08664941 -0.01849281 -0.09780246 -0.0691678
0.036180146 -0.023879612 -0.115012236 0.0627592 -0.09931565 0.022670394 -0.021460768 0.10108926
0.0364993 0.023392227 -0.115870915 -0.10290139 0.013779933 0.10984417 -0.091707446 -0.094291426
0.08130982 -0.052191593 0.011358436 -0.12592784 -0.11284893 -0.0057514533 0.003709048 -0.057172112
-0.036428504 0.099496655 0.033955958 0.052016415 0.0869775 -0.0321502 0.09795637 0.041577004
-0.027794251 -0.097597994 -0.05738052 -0.08039863 -0.0860974 -0.033619024 -0.10252709 -0.07404066
00000000: 879f bcbd 47f0 bc3d d965 04be f8ce 02bc
00000010: 521e 1fbd e256 4bbd 5b78 93bd 96cf 0fbd
00000020: 2d7c 833d 9aee 153d 9e43 2b3d 7a1b 163d
00000030: 46fd 61bd 387b 6ebd 4b3b f03c bcf7 abbc
00000040: e593 87bd abe4 993d eaab 5b3d ae39 f7bb
00000050: 2c2e dd3c 83a4 b1bd 1faa e33d 1924 f0bd
00000060: 30cf b83c fdca d8bd 9e9e 123d b49d dcbb
00000070: 577c a5bd b41a f2bb 0d83 a7bd fc0c c33c
00000080: 7a4a 2abd 25f2 45bc 917c 013e 01f8 88bd
00000090: 7861 04be b951 cb3d c646 383c 1b76 e33d
000000a0: efda a83d 7ea8 4cbd 951c 6f3c 866f 59bd
000000b0: 25e0 473d c289 08bd d639 263d 9d13 c6bd
000000c0: 1138 493d 514a acbd 2362 f03c c9f3 8a3d
000000d0: 56d6 21bd 52dc 013e ec73 443d 954b ba3d
000000e0: 4214 eabd 0c78 aa3b 4267 243d 7ad1 693d
000000f0: 21e9 ba3d a775 ccbd d021 5b3a 25fe d0bd
00000100: 0581 a63d 09f7 9b3d 9011 b93d a659 063d
00000110: c9a2 dfbd 5076 883d 860d 313c f6b2 713d
00000120: 9971 e63d 6ee2 a3bc 71c8 633c 2a03 4fbc
00000130: b42a c9bc 66b1 65bd 9a80 7e3d 5315 803c
00000140: 9250 07be bd41 a73d 908c aabc ec0b e43c
00000150: cfa1 cebd d088 c6ba 00fe 32b9 1117 f9bd
00000160: e8e1 253d 4abc 0dbc 0b84 08be e27d 0cbd
00000170: e412 02be ac86 9a3c 721e 71bd 9ca7 04be
00000180: 8609 3dbd 1f21 c03d 6060 04be 134e 98bd
00000190: 2a4a 6cbd 3324 b23d 5619 143c a221 3ebd
000001a0: 2cd3 78bd 9aeb 743d 1934 8abd 225b 1f3d
000001b0: 37db 09be 4296 633d 4c75 81bc f65c 4ebd
000001c0: 3682 5dbd 5b88 993d 17cd ab3d 5481 bbbb
000001d0: 3271 463d 1a29 353d ceb9 173d c378 803d
000001e0: 458d 803d 1d21 e5bc aa85 68bc 4bbb 9b3d
000001f0: b240 023d 36a6 7dbd 6705 b0bd 56e0 563d
00000200: 9cd4 993c fe59 0dbd fe4e 25bd 8a7c 2cbd
00000210: affa d53d 8f71 84bd 5f00 cb3d 1aab 16bd
00000220: e607 343d ca35 5dbc 1c06 babc 94ba bfbb
00000230: f0ea 813d 2d07 ac3d 1e0d 71bd 2b37 f6bc
00000240: f202 9bbd 21d0 08be f418 edbb abf8 bbbd
00000250: 566c 10bd 16ff c43c bb53 f63c abae 18bd
00000260: 26bb 18bd a7c0 ad3d 2925 febd 8203 1f3d
00000270: e485 76bc 9522 c3bc 53c3 843d 9b73 cb3d
00000280: 4d6a c43d 54a1 9dbb 1a84 4cbc 345a d2bb
00000290: 171f f2bd 939d ab3d 3110 e3bd 8708 bb3d
000002a0: c0c1 d5bd eeb6 5bbd 4d41 abbd 5a25 1ebd
000002b0: 0298 ae3c 71a8 cabd 3ba9 b9bd 1dbe 8dbd
000002c0: 1911 79bc 298c 9d3d f8a6 bc3d f112 ad3d
000002d0: d65e 00be ee76 763d c295 00bd 8940 8c3d
000002e0: 4236 0d3d 5b00 e23d 4e50 5e3d 72f4 093d
000002f0: a519 bf3d a288 c8bc 0a93 593d a6a6 45bc
00000300: 8e02 1ebd c330 803d 4dd8 953d 3c6a ac3c
00000310: 6032 f93c 719a c4bd b638 63bd 66f3 5d3d
00000320: 0ac3 1fbd ea0c 003d 35d6 ddbc d6ee 803d
00000330: 6cfa adbc e0de c6bc 1ac0 0d3d a584 983d
00000340: b537 9abd c389 33bc c3a8 953d 5337 a73d
00000350: 3f75 b1bd 3c7e 97bc a84c c8bd d9a7 8dbd
00000360: a231 143d 2d9f c3bc 898b ebbd e587 803d
00000370: 0166 cbbd 43b7 b93c 7ece afbc e307 cf3d
00000380: 4a80 153d 0ea1 bf3c bb4d edbd f7bd d2bd
00000390: 3ac5 613c fbf5 e03d 1dd1 bbbd dd1b c1bd
000003a0: c385 a63d dac6 55bd bc18 3a3c 3af3 00be
000003b0: 571d e7bd b076 bcbb 8013 733b 4e2d 6abd
000003c0: 0e36 15bd e7c4 cb3d 6715 0b3d 2a0f 553d
000003d0: 4221 b23d eeaf 03bd 599d c83d a64c 2a3d
000003e0: c5b0 e3bc 75e1 c7bd d607 6bbd 09a8 a4bd
000003f0: d553 b0bd 1ab4 09bd b9f9 d1bd a1a2 97bd

layer_2.weight_hh f4 [64, 64]
0.08584759 0.1214802 -0.08781983 0.10771158 0.044759154 -0.11858922 0.06820823 0.109496936
-0.016704664 0.03560011 -0.022496715 0.036346257 0.06367083 -0.09704548 -0.07019064 0.08869308
0.058798805 -0.09775078 0.030907467 0.020144254 0.050818622 -0.045063674 0.08036929 0.066169515
-0.03734772 0.015245751 0.056168646 -0.07437138 0.06210074 0.11868125 0.0108727515 -0.032877937
-0.06801218 0.04301928 -0.05085185 0.110170364 -0.077142894 -0.057459146 0.015313208 -0.0928442
0.03305149 -0.07493582 -0.10524249 0.12410115 0.10012609 0.11954953 0.023913234 -0.11994663
0.023752183 0.07125077 0.10078767 0.0002297312 0.0499402 0.0038701147 0.01195316 -0.073315084
0.005960256 0.023896202 -0.101613656 0.10987723 -0.09225482 -0.109780386 0.11042562 0.0381393
-0.03706053 0.030045614 -0.01440002 0.018975198 -0.08452745 -0.08370954 0.10637048 0.08647458
-0.095635116 0.07543802 0.0054718703 -0.0012925118 0.044025123 0.11657335 -0.0056364834 -0.049179703
-0.11307576 0.08378066 0.0926667 -0.078670666 -0.04215534 0.09158215 0.01829964 0.014734313
-0.0966081 -0.040510178 0.071566164 -0.067154855 -0.020594478 -0.078581065 -0.11392413 0.041607916
0.06075853 0.0807343 0.03190662 -0.04523945 0.06233707 -0.025276527 0.0012451708 -0.122867554
0.11414473 0.095511585 0.10652417 0.08675219 -0.09908241 0.08560915 0.027048305 0.020987794
-0.12443325 0.029938877 -0.059629247 -0.029262275 0.1218493 0.069002494 -0.12392004 0.0077375174
0.0016517639 0.11408566 0.03702949 0.0059108585 -0.01341109 -0.075518295 0.029886514 -0.019108385
0.037212163 0.123415485 -0.08849597 0.07574892 0.05275847 -0.026544124 -0.089023605 0.010667786
0.113636166 0.0783658 -0.0015954077 0.04202661 -0.049688697 0.07015467 0.05282542 -0.041822165
0.08832739 0.03838736 0.09927991 -0.10516904 -0.0041711926 0.013687119 -0.11267491 -0.09218663
-0.07997015 0.118612215 0.10997222 0.010345429 0.04279557 0.056178227 0.054569274 0.02575609
0.025311813 0.09888612 0.0047079027 -0.07143779 0.03367333 -0.019634753 -0.016903087 0.023537233
-0.04260321 0.06996484 0.013094649 0.02247803 -0.048049793 0.056989998 0.1010437 0.04141724
0.08561775 0.026652306 0.08397463 0.101153076 -0.064677194 -0.007534668 -0.08552505 -0.033981368
0.020736918 0.106044546 -0.09803775 0.12079127 -0.10610229 0.041186005 0.113423854 0.0325197
-0.09730156 -0.025338694 -0.08532639 0.036643878 -0.032191172 0.014695138 0.08260901 0.0697124
0.09795311 -0.017102018 0.060834184 0.017849684 -0.017615125 0.025299355 -0.018334746 -0.08125156
0.043222874 0.061534196 -0.057997838 0.12135422 0.08513656 0.04106006 0.05928038 -0.045604944
0.06518231 0.012226462 0.050301954 -0.11871971 -0.037024364 0.117702216 -0.11427133 -0.086135104
-0.0076592714 -0.052743897 0.096566126 0.07950106 -0.09339754 -0.06185022 0.053590924 -0.06758468
-0.020673707 0.10805248 0.018206373 0.05902973 -0.010879174 0.08273511 0.10359666 -0.054769963
-0.0026298761 0.09721987 0.020293742 0.038616672 -0.07314776 0.019148648 -0.09578292 -0.016040444
-0.10066898 -0.06706698 -0.07547 0.006394312 0.020869642 -0.09469393 -0.071009055 0.037375644
00000000: dcd0 af3d 9cca f83d e2da b3bd e497 dc3d
00000010: 6055 373d e8de f2bd c2b0 8b3d ee3f e03d
00000020: 38d8 88bc 6cd1 113d 084b b8bc d0df 143d
00000030: da65 823d c8bf c6bd 1cc0 8fbd b8a4 b53d
00000040: 04d7 703d 9031 c8bd a831 fd3c 9005 a53c
00000050: 3027 503d b094 38bd a898 a43d e283 873d
00000060: ecf9 18bd 50c9 793c 1811 663d 0650 98bd
00000070: 585d 7e3d 280f f33d a023 323c 04ab 06bd
00000080: f849 8bbd fc34 303d 084a 50bd 00a1 e13d
00000090: 18fd 9dbd 485a 6bbd 40e4 7a3c 1a25 bebd
000000a0: 0061 073d f477 99bd 6089 d7bd be28 fe3d
000000b0: e80e cd3d 62d6 f43d b0e5 c33c 94a6 f5bd
000000c0: f093 c23c eceb 913d c469 ce3d 00e4 7039
000000d0: 188e 4c3d c0a1 7d3b 30d7 433c 3826 96bd
000000e0: 404e c33b f8c1 c33c d21a d0bd 5007 e13d
000000f0: 18f0 bcbd 8ad4 e0bd d426 e23d f437 1c3d
00000100: c8cc 17bd 3822 f63c 10ee 6bbc e071 9b3c
00000110: ba1c adbd e86f abbd c4d8 d93d 9619 b13d
00000120: 58dc c3bd 407f 9a3d 604d b33b 8069 a9ba
00000130: b053 343d 02be ee3d 40b2 b8bb a870 49bd
00000140: 4494 e7bd 3295 ab3d 0ac8 bd3d 161e a1bd
00000150: 14ab 2cbd 6c8f bb3d 20e9 953c 3068 713c
00000160: 78da c5bd 00ee 25bd 4891 923d 7c88 89bd
00000170: c0b5 a8bc 1cef a0bd 0e51 e9bd 106d 2a3d
00000180: f0dd 783d 0658 a53d 84b0 023d 004d 39bd
00000190: 2855 7f3d b810 cfbc 0035 a33a fca1 fbbd
000001a0: b6c4 e93d 949b c33d 5829 da3d 22ab b13d
000001b0: b8eb cabd da53 af3d 6894 dd3c 98ee ab3c
000001c0: dcd6 febd 6042 f53c cc3d 74bd 70b7 efbc
000001d0: 208c f93d 2e51 8d3d cac9 fdbd 008b fd3b
000001e0: 0080 d83a bea5 e93d 3cac 173d e0af c13b
000001f0: 30ba 5bbc 56a9 9abd 90d4 f43c 3089 9cbc
00000200: c86b 183d 42c1 fc3d 603d b5bd 4022 9b3d
00000210: 4419 583d 1073 d9bc 0252 b6bd f0c7 2e3c
00000220: 14ba e83d 407e a03d 001d d1ba 1824 2c3d
00000230: 6086 4bbd 40ad 8f3d 785f 583d b84d 2bbd
00000240: fee4 b43d 103c 1d3d 4453 cb3d de62 d7bd
00000250: 80ae 88bb f03f 603c 1ac2 e6bd 58cc bcbd
00000260: 64c7 a3bd f6ea f23d 1e39 e13d e07f 293c
00000270: 684a 2f3d 241b 663d 0884 5f3d 70fe d23c
00000280: b85a cf3c ce84 ca3d c044 9a3b fa4d 92bd
00000290: 0ced 093d 10d9 a0bc 5878 8abc 28d1 c03c
000002a0: b480 2ebd ba49 8f3d f08a 563c d823 b83c
000002b0: dccf 44bd 586e 693d 00f0 ce3d 20a5 293d
000002c0: 5c58 af3d f055 da3c e4fa ab3d 5829 cf3d
000002d0: 7a75 84bd 60e5 f6bb c227 afbd 0c30 0bbd
000002e0: 78e0 a93c e22d d93d 04c8 c8bd 6a61 f73d
000002f0: 284c d9bd a8b2 283d c44a e83d 6033 053d
00000300: 0a46 c7bd 1893 cfbc 9abf aebd e417 163d
00000310: e4da 03bd e0c3 703c ea2e a93d 60c5 8e3d
00000320: a49b c83d 8819 8cbc 442d 793d 8039 923c
00000330: 984d 90bc 9840 cf3c c032 96bc 3867 a6bd
00000340: 780a 313d 480b 7c3d 248f 6dbd 9088 f83d
00000350: 145c ae3d 982e 283d fccf 723d 40cc 3abd
00000360: 4e7e 853d 8051 483c 6c09 4e3d 5223 f3bd
00000370: dca6 17bd dc0d f13d 1607 eabd 9a67 b0bd
00000380: a0fa fabb fc09 58bd 76c4 c53d 74d1 a23d
00000390: 3647 bfbd a856 7dbd 2882 5b3d d669 8abd
000003a0: e85b a9bc 9e4a dd3d 8825 953c 28c9 713d
000003b0: 903e 32bc 0671 a93d 7c2a d43d 7856 60bd
000003c0: 005a 2cbb 361b c73d 103f a63c 842c 1e3d
000003d0: 7ece 95bd a0dd 9c3c d629 c4bd 4067 83bc
000003e0: 8a2b cebd 6a5a 89bd 0490 9abd 6087 d13b
000003f0: d0f6 aa3c e4ee c1bd 326d 91bd 3417 193d

layer_2.bias_ih f4 [64]
-0.0019840691 0.04786206 -0.000989479 -0.037960254 0.10649096 -0.021727627 0.055392258 -0.04476984
0.030253537 0.072193205 0.008473208 0.11196414 0.15540977 0.19330253 0.18740857 0.16101648
0.17376535 0.048914462 -0.12789729 0.16270089 -0.063362576 -0.09734507 0.028282663 0.019188084
0.026031073 0.018627832 0.19268602 0.034544222 0.07823507 0.03469789 -0.08523459 0.2074404
-0.024382757 -0.02309447 -0.024394432 0.067366414 0.1715027 0.08044804 -0.0064339624 0.16444309
0.15095723 0.20280646 -0.07844869 0.20501003 0.08061397 0.04667539 -0.0008298997 -0.035097994
0.081785835 0.091966614 0.086381026 0.09312852 -0.00763119 0.07665629 -0.10389719 0.017125031
-0.04957805 -0.016087012 -0.0015959684 0.0011684468 0.009312954 0.008845439 0.08406544 0.1816769
00000000: 2807 02bb 020b 443d 68b1 81ba 367c 1bbd
00000010: ef17 da3d 23fe b1bc fee2 623d 9460 37bd
00000020: 44d6 f73c 08da 933d 36d3 0a3c 744d e53d
00000030: bd23 1f3e 19f1 453e 08e8 3f3e 81e1 243e
00000040: 8bef 313e 885a 483d 82f7 02be 109b 263e
00000050: 3dc4 81bd da5c c7bd 0bb1 e73c 5430 9d3c
00000060: 1e3f d53c 6599 983c 7c4f 453e 3e7e 0d3d
00000070: b539 a03d 601f 0e3d 798f aebd 426b 543e
00000080: 59be c7bc 9d30 bdbc d5d6 c7bc 67f7 893d
00000090: 679e 2f3e f1c1 a43d fdd3 d2bb c563 283e
000000a0: 8894 1a3e 7fac 4f3e b5a9 a0bd 26ee 513e
000000b0: f018 a53d b22e 3f3d a08d 59ba eac2 0fbd
000000c0: 557f a73d fe58 bc3d 89e8 b03d 2aba be3d
000000d0: 100f fabb f9fd 9c3d 0dc8 d4bd cb49 8c3c
000000e0: 5a12 4bbd e9c8 83bc d02f d1ba 9226 993a
000000f0: 5c95 183c 76ec 103c 802a ac3d 8209 3a3e

layer_2.bias_hh f4 [64]
-0.116697304 -0.033182733 0.123302214 -0.03812199 -0.09529092 0.06871845 -0.056669734 0.09723864
0.11180385 -0.06785254 0.018986007 0.19692706 0.10292914 0.18519114 -0.019474376 0.0067749615
0.1757959 -0.06651822 -0.121378265 0.12691495 0.01917707 -0.029604886 -0.014540726 -0.069167964
0.024399828 0.1977154 0.21644506 -0.1095979 -0.00084506726 -0.10826482 0.03544087 0.05980836
-0.007988801 0.18310289 0.060195185 -0.037272193 0.14165603 -0.023492612 0.0041937395 0.002337922
0.07871551 0.21463825 -0.10121373 0.031719472 0.16980724 -0.10548154 0.060939305 -0.12702331
-0.08779872 -0.10370365 0.046228804 0.09463292 0.090552695 0.06567427 -0.012561107 -0.11449792
-0.0137552265 0.1679891 -0.010708005 -0.003508325 0.15822107 -0.070641674 0.0148167 0.19430068
00000000: fffe eebd 9eea 07bd df85 fc3d ce25 1cbd
00000010: e327 c3bd 42bc 8c3d 861e 68bd 0d25 c73d
00000020: 6bf9 e43d 46f6 8abd 8b88 9b3c 3fa7 493e
00000030: 83cc d23d bfa2 3d3e ba88 9fbc 7f00 de3b
00000040: d703 343e b43a 88bd 2b95 f8bd fef5 013e
00000050: 3b19 9d3c f285 f2bc 3a3c 6ebc efa7 8dbd
00000060: 26e2 c73c e875 4a3e c6a3 5d3e dd74 e0bd
00000070: 8187 5dba f2b9 ddbd 722a 113d 9cf9 743d
00000080: 76e3 02bc 537f 3b3e 3a8f 763d baaa 18bd
00000090: 470e 113e 9473 c0bc a36b 893b d337 193b
000000a0: 9935 a13d 21ca 5b3e 2549 cfbd 47ec 013d
000000b0: f3e1 2d3e b506 d8bd 7e9b 793d 6612 02be
000000c0: d1cf b3bd 9462 d4bd 6a5a 3d3d e8ce c13d
000000d0: b173 b93d 3b80 863d 1acd 4dbc e37d eabd
000000e0: 9a5d 61bc 5605 2c3e a170 2fbc edeb 65bb
000000f0: b404 223e 95ac 90bd bec1 723c c2f6 463e

layer_3.weight_ih f4 [32, 64]
0.08483561 0.13464402 0.09917661 -0.13404822 0.045986332 -0.056933854 0.15959765 0.05221203
-0.08785789 0.21903542 -0.16383012 -0.031147484 0.0047499724 -0.047022656 0.23009092 0.18573311
0.06349549 0.01595183 -0.05933012 0.17683034 -0.067036346 0.106006265 0.18639618 -0.08797499
0.048866235 0.17653276 0.12239212 -0.13196912 0.2432038 0.17480303 0.037380926 0.16214542
-0.0021359497 0.13518985 0.25076547 0.05945948 0.076633126 0.118475705 0.18857227 0.05563156
0.04111802 0.19868974 0.015183411 0.01934341 0.07866514 -0.039373897 -0.14399502 0.10512896
-0.13425133 -0.12668395 0.11725675 0.24995309 0.08971049 0.15777484 -0.07124564 -0.020731667
0.03392721 0.04714033 0.21611676 0.14594242 -0.0010863786 -0.040348962 -0.00027280353 -0.048431788
-0.060581475 -0.11001631 0.016446302 -0.019281454 -0.13449496 -0.019870663 0.0060685193 0.05343663
-0.13614228 0.13821559 0.061470337 0.07885482 0.0065245377 -0.14620426 0.109103754 0.16985267
-0.021650955 0.08086433 0.08381394 0.10808218 0.12668529 -0.011282617 0.16946828 -0.049822614
-0.020769252 0.0045477897 -0.029260583 -0.1448619 0.054861706 0.09835966 -0.030840818 0.07614674
-0.063886896 -0.08380137 -0.07647121 -0.054384183 -0.04504836 -0.11008771 0.17779967 -0.10559405
-0.06491177 0.073576264 0.18624687 -0.0011404259 0.0023318809 0.11456647 0.0028584544 -0.052158277
-0.024516877 -0.15138339 0.05706989 -0.116930865 0.13508315 -0.073281005 0.12050729 0.11627158
-0.14290127 -0.1512207 -0.17234443 0.122441374 0.015889093 0.082082696 -0.0899352 -0.111894295
0.1239363 0.031543247 -0.11856225 0.06210672 -0.011494287 -0.05232596 0.13055733 -0.096326664
0.10360964 -0.16519168 -0.12442165 0.083626814 -0.052831 0.12217028 -0.11658647 0.095459856
0.0012734141 -0.14025438 -0.10737928 -0.08823757 0.09779868 -0.0028714305 0.06286573 0.10933166
0.081243075 0.027988829 -0.10455824 -0.010777527 0.07330824 0.083670154 0.10769064 -0.060644098
0.020026198 0.11152045 -0.114873745 -0.15189297 0.026885588 -0.05438029 -0.017436111 0.15073107
-0.020460937 0.16507143 0.1283263 -0.17969683 -0.06599314 0.04906904 0.13557869 0.110120274
-0.11592915 0.13031428 -0.021711865 -0.09571029 0.11481217 -0.16179249 0.124999054 0.14340228
0.013769319 0.054791085 -0.10896864 -0.037563123 -0.06992582 -0.041281678 0.049023353 -0.030958885
0.03982772 0.050011195 0.130529 0.16215667 0.052596554 -0.07916486 0.11189116 0.05905796
0.023256712 -0.13992393 -0.06505672 -0.02619312 0.016487485 0.1158103 0.131565 -0.04655891
0.04670056 -0.021686772 -0.023307797 -0.1553704 0.16354707 -0.13505602 -0.07902094 -0.14097223
0.010740691 -0.119174644 -0.11575822 -0.05159559 -0.016417706 -0.058308728 -0.08524344 0.0005814051
-0.051638544 -0.02601879 0.16008273 0.14397912 0.14262821 0.0007590428 0.00877159 -0.14269964
0.12380156 -0.097692624 -0.0071128374 -0.18327898 0.012702552 0.0026332792 -0.021535002 0.15859073
0.00070755836 0.15158756 0.023758061 -0.17640293 0.040695228 -0.18434858 -0.027291708 0.1168615
-0.013799237 -0.13695826 0.14273441 0.17452827 -0.0349401 0.11083288 -0.0011510793 -0.094809
00000000: 4bbe ad3d 1fe0 093e 1b1d cb3d f043 09be
00000010: 2a5c 3c3d 7933 69bd 916d 233e 48dc 553d
00000020: d6ee b3bd d24a 603e 15c3 27be 0229 ffbc
00000030: a8a5 9b3b d49a 40bd f49c 6b3e d230 3e3e
00000040: ec09 823d 6aad 823c 2404 73bd 0313 353e
00000050: 5a4a 89bd d019 d93d a4de 3e3e 3b2c b4bd
00000060: f627 483d 01c5 343e b8a8 fa3d ea22 07be
00000070: 6b0a 793e 91ff 323e be1c 193d 7309 263e
00000080: 4afb 0bbb 356f 0a3e 5564 803e c98b 733d
00000090: d4f1 9c3d 64a3 f23d 1719 413e ebdd 633d
000000a0: 5e6b 283d 5375 4b3e d7c3 783c 1276 9e3c
000000b0: 301b a13d 8646 21bd 6e73 13be da4d d73d
000000c0: 2e79 09be 70b9 01be 4f24 f03d b4f3 7f3e
000000d0: 22ba b73d ba8f 213e 3ce9 91bd 75d5 a9bc
000000e0: 42f7 0a3d 3816 413d b64d 5d3e ee71 153e
000000f0: d164 8eba f444 25bd 1207 8fb9 6960 46bd
00000100: 4824 78bd 3b50 e1bd 65ba 863c 24f4 9dbc
00000110: 0cb9 09be cdc7 a2bc 6eda c63b 5ee0 5a3d
00000120: e268 0bbe 6388 0d3e 52c8 7b3d a37e a13d
00000130: cacb d53b 92b6 15be ca71 df3d dced 2d3e
00000140: 585d b1bc 339c a53d a5a6 ab3d 315a dd3d
00000150: cab9 013e bada 38bc 1889 2d3e cc12 4cbd
00000160: 4724 aabc a005 953b e4b3 efbc ae56 14be
00000170: abb6 603d ca70 c93d e2a5 fcbc d2f2 9b3d
00000180: 22d7 82bd 0da0 abbd f09c 9cbd f3c1 5ebd
00000190: a184 38bd aa75 e1bd 1e11 363e b141 d8bd
000001a0: 76f0 84bd 27af 963d 80b7 3e3e 587a 95ba
000001b0: 78d2 183b d3a1 ea3d e854 3b3b eba3 55bd
000001c0: 9ed7 c8bc 3f04 1bbe 1ec2 693d 7379 efbd
000001d0: 3d53 0a3e 5a14 96bd 87cc f63d cb1f ee3d
000001e0: b654 12be 99d9 1abe 0f7b 30be 8bc2 fa3d
000001f0: d829 823c f91a a83d f22f b8bd d628 e5bd
00000200: 51d2 fd3d 7e33 013d c4d0 f2bd 9e63 7e3d
00000210: 8952 3cbc bf53 56bd d2b0 053e ea46 c5bd
00000220: 4a31 d43d 0228 29be c7d0 febd 8944 ab3d
00000230: 5265 58bd 6934 fa3d e3c4 eebd 7580 c33d
00000240: b0e8 a63a d89e 0fbe abe9 dbbd e6b5 b4bd
00000250: ad4a c83d 9c2e 3cbb bfbf 803d 47e9 df3d
00000260: c562 a63d d448 e53c a122 d6bd 3994 30bc
00000270: a122 963d 425b ab3d e98c dc3d f265 78bd
00000280: fb0d a43c d564 e43d ed42 ebbd d589 1bbe
00000290: 2a3f dc3c debd 5ebd 2dd6 8ebc 3f59 1a3e
000002a0: b29d a7bc 7c08 293e f867 033e 7202 38be
000002b0: 6927 87bd 9efc 483d 24d5 0a3e bd86 e13d
000002c0: 436c edbd 1b71 053e 15dd b1bc c203 c4bd
000002d0: a522 eb3d eeac 25be 81ff ff3d 0cd8 123e
000002e0: b698 613c 9e6c 603d f32a dfbd cadb 19bd
000002f0: 4535 8fbd fa16 29bd b6cc 483d 7d9d fdbc
00000300: 6422 233d 8ad8 4c3d 65a9 053e 660c 263e
00000310: 7c6f 573d 3021 a2bd 3127 e53d c2e6 713d
00000320: dc84 be3c 3848 0fbe 753c 85bd f492 d6bc
00000330: c310 873c f32d ed3d fab8 063e 8eb4 3ebd
00000340: 1649 3f3d 75a8 b1bc feef bebc 6b19 1fbe
00000350: e278 273e 204c 0abe bbd5 a1bd 065b 10be
00000360: b9f9 2f3c d611 f4bd a512 edbd e655 53bd
00000370: 6d7e 86bc 22d5 6ebd 1d94 aebd 7069 183a
00000380: f082 53bd 5c25 d5bc baec 233e 436f 133e
00000390: 210d 123e 80fa 463a b7b6 0f3c db1f 12be
000003a0: ac8b fd3d 1213 c8bd ce12 e9bb 7cad 3bbe
000003b0: 5d1e 503c 1893 2c3b 2c6a b0bc 9c65 223e
000003c0: 707b 393a c539 1b3e 44a0 c23c f8a2 34be
000003d0: 0ab0 263d e0c5 3cbe dc92 dfbc 1555 ef3d
000003e0: 3216 62bc c93e 0cbe f828 123e 8ab7 323e
000003f0: 5a1d 0fbd 59fc e23d d0df 96ba 392b c2bd
