src/pyoptes/optimization/budget_allocation/supervised_learning/trained_nn_states/meta_layer.pth (torch, 93783 bytes, 90 tensors)

layer_1.edge_model.edge_mlp.0.weight f8 [16, 6]
000000 46 53 1d 98 ed 58 03 c0 2a b4 58 43 65 a3 a1 bf
       -2.4184219249677055 -0.03444973418331927
000010 a9 d7 54 f9 46 58 c4 bf 81 ae ab 4c 38 83 d7 3f
       -0.15894400762925656 0.3673840283142696
000020 c9 d7 ef 37 9b c9 fb 3f 15 f6 11 ca 43 c8 ba bf
       1.736720293525183 -0.10461829837182564
000030 32 c4 5c 22 a2 a5 f2 bf ca 78 af d7 10 e3 cf 3f
       -1.1654378263740566 0.249116998019366
000040 56 ab b1 89 29 02 d9 bf 8c 91 dc b4 76 74 ce 3f
       -0.39075697371179297 0.23792918997891055
000050 8f f7 e4 e5 b6 2e f5 3f 6d 0a ed 7f a3 06 d3 3f
       1.323904893898973 0.29728019230620967
000060 2f 01 e9 3b 76 93 f3 bf 41 5c 01 69 9d 53 d3 3f
       -1.223501428627127 0.30197844747948827
000070 ae f1 e5 c1 93 1a e3 bf e4 07 95 f4 5c 34 d6 3f
       -0.5969942843508329 0.3469459904191565
000080 5d 75 42 d2 3e f1 f5 3f 9a 82 3e 12 1f 72 ce 3f
       1.3713978017106776 0.23785770788983457
000090 58 86 e0 61 97 23 61 bf d9 93 b3 20 7d 70 a5 bf
       -0.00209216658460391 -0.041873846284751166
0000a0 93 e9 9f 68 a4 b4 d5 bf 53 31 4d 7b 47 26 d8 bf
       -0.33915052621127834 -0.3773363784901182
0000b0 09 b9 6a fd a8 fe d4 3f 66 65 ba c7 e5 c2 c2 3f
       0.3280432200216557 0.1465728020892058
0000c0 01 7d 2d 54 75 a4 c1 bf 5e 73 dd bf 25 c6 c7 bf
       -0.1378313694976683 -0.18573448055658565
0000d0 9c 50 b7 b6 87 5d c2 bf bf aa 9f fc cd e6 a0 bf
       -0.14347931310351647 -0.03301089962754621
0000e0 57 27 1f 1e c7 f6 df 3f d3 a2 f2 7d 4a 1a c5 3f
       0.49943712178775485 0.16486483716769004
0000f0 9a d9 98 87 3c 50 f7 bf 43 ea 10 92 60 af b7 3f
       -1.457088975597435 0.09251979414049409
000100 d3 30 55 86 e1 e2 ee bf 47 42 ae 6a 42 4a e2 3f
       -0.9651954291998898 0.5715648730857276
000110 a3 68 56 e0 97 83 ee 3f 9e 6f 25 e0 05 4b b0 bf
       0.9535636312096084 -0.0636447593910234
000120 8f 3f 47 9a 7b e2 fa bf 95 1a ce 26 78 88 a1 bf
       -1.6802936579224228 -0.034244303452443926
000130 25 27 db cd 82 53 d8 bf c1 03 62 b1 a2 36 d7 3f
       -0.38009710410243464 0.36270968744798543
000140 4d 86 3b 0f 1d 24 fa 3f 4d 9c f2 32 81 7d b5 bf
       1.6338167758007274 -0.08394629949417372
000150 22 ed 96 8e b6 51 fc bf b1 ee b0 50 88 aa d3 3f
       -1.769949490538075 0.30728347663874006
000160 87 f9 b9 c0 0c 14 df bf 08 f8 d6 9a 0b 44 da 3f
       -0.4855987436384556 0.4104031574350988
000170 17 71 f0 99 e2 79 f3 3f 58 30 10 8b 2c 7a d5 bf
       1.2172571194888115 -0.335581908992713
000180 f6 84 5a 50 a3 da f9 bf d4 52 c3 79 b0 47 b8 3f
       -1.6158784045040284 0.09484389279107158
000190 96 fc 4b af 9b 7e e2 bf 09 38 bf ef 89 39 e2 3f
       -0.5779550956502983 0.569523781066665
0001a0 95 1b f4 7e 08 f8 ee 3f 29 a8 4f 41 72 ee c1 3f
       0.967777488666672 0.14008930386563748
0001b0 72 36 c7 85 0b d2 73 3f b2 db d6 3f 27 6c d3 3f
       0.004838986406367251 0.3034761546545567
0001c0 3c 7d ca d8 3b 89 e9 3f 35 52 f8 13 ff b2 b1 bf
       0.798002170009489 -0.0691375182871717
0001d0 31 cf 5d a9 20 f4 d5 bf c0 26 9f 20 89 89 d0 3f
       -0.34302536525432276 0.2583945101328986
0001e0 6f e9 d3 13 00 cb c2 bf 5f 0d 37 f5 59 85 73 bf
       -0.14682007759240487 -0.004765845678267182
0001f0 b8 dc 6b 1e 76 05 e8 3f 3e 9a 46 1a bc 20 a5 bf
       0.7506666750113231 -0.04126537152051356
000200 01 9d ca 4a 6a 09 cc 3f ec 76 7e ef 2c ad 6d 3f
       0.21903732921530408 0.003622615589803915
000210 1b 35 bc 3b c2 9d 98 bf 41 b0 f0 30 aa 15 b2 3f
       -0.024039301773020143 0.07064307875470012
000220 01 ea 3b 88 1c 67 e8 bf 77 40 bd 6a f8 b9 c9 bf
       -0.7625868473836023 -0.2009878655612771
000230 cf 96 05 95 56 ce e0 bf 02 5a 38 50 b3 10 d2 bf
       -0.5251877699453987 -0.28226931413647105
000240 fe 14 89 14 b0 2a f2 bf 09 88 dc 34 ff c0 d2 3f
       -1.1354218294302991 0.2930295959687333
000250 0f 7a de 71 8a 6f df bf f1 aa c7 c1 06 1f db 3f
       -0.4911829101564828 0.4237687008268685
000260 4a fe 04 39 9c a0 ea 3f c4 0d 15 52 ab d9 c2 3f
       0.8321057428037844 0.14726773746416033
000270 96 41 79 8c a0 29 b6 bf 63 b3 61 c8 86 9d d0 bf
       -0.08657267980129854 -0.2596146542407977
000280 b5 fa a4 d7 c4 ec d1 bf ca 78 ab 52 a7 5e c2 bf
       -0.28007622775104873 -0.14351359879123599
000290 89 32 e1 8b e1 77 a9 bf 71 fd 0d e3 7c e5 b3 bf
       -0.04974274475589364 -0.0777204565365446
0002a0 5f 12 f2 6c f7 2f 20 40 08 f3 3d b6 07 84 e0 bf
       8.093684582280899 -0.5161169585622654
0002b0 89 ff bf 44 7d 33 03 c0 95 ef 1e e0 2d 8e bb 3f
       -2.4001412745564648 0.10763823243809008
0002c0 00 39 65 7b e1 30 0c c0 99 99 c0 b9 60 06 95 bf
       -3.5238675728097633 -0.020532142007277796
0002d0 5d 9a 9e 8c 71 d9 f4 bf de 8b 69 64 ec 81 d1 3f
       -1.3030868046713728 0.27355489545715084
0002e0 84 af 0b f4 c5 1d db bf 87 60 92 de eb ef e1 3f
       -0.4236922152765532 0.5605372759919341
0002f0 75 f2 3e d4 f3 78 ed 3f 7f a5 16 11 a2 16 c5 3f
       0.9210147042682154 0.1647532065810928

layer_1.edge_model.edge_mlp.0.bias f8 [16]
000000 cb 3d 0f 7d 31 00 d9 bf 74 e9 e2 1e 46 59 a4 bf
       -0.3906367989811456 -0.03974360587149564
000010 fe d4 f7 6b 1c 97 c3 bf d2 29 0f 5c 68 06 d1 3f
       -0.15304904243354395 0.2660160922065674
000020 7e 64 6e b0 40 00 d1 3f a8 c9 4e a6 9a bd dd bf
       0.2656404231034414 -0.4646975158786071
000030 7b 75 b3 7a 50 3a cc bf 41 14 b2 b3 af 8d c0 bf
       -0.22052961341152497 -0.12932392381859084
000040 cb b8 06 f0 ab fd de bf b7 d8 6d e8 73 63 d8 bf
       -0.4842328876501482 -0.3810701150718034
000050 61 8f 5a 56 6f fb e1 3f ed aa 89 03 89 d2 dd bf
       0.5619427382084546 -0.46597504945263674
000060 dd ca ba b6 a2 70 c9 bf a2 6b 49 95 d9 c7 cb 3f
       -0.19874986574503498 0.21703643597979033
000070 9c 31 57 48 72 a5 ea 3f 26 b7 5b 64 9a 23 d4 bf
       0.8326960957434042 -0.31467304039584787

layer_1.edge_model.edge_mlp.2.weight f8 [16, 16]
000000 93 5c ef 9d b9 f9 71 bf fc fd 7f 6f 21 1f c0 3f
       -0.004388547006747195 0.1259500307496494
000010 0e 2c a0 11 5c 7f d9 3f 6c 88 56 18 88 cd d4 3f
       0.3983984157682138 0.32504465462455445
000020 94 15 33 46 e9 e8 c6 3f cb 23 dc f1 fd 3b d8 3f
       0.17898288657867722 0.37866161936886716
000030 3b 28 28 9b 6c 47 cf 3f d4 cb 12 15 7c 2e d5 3f
       0.24436719490069145 0.33096220071746285
000040 71 ff 7a 25 1a 66 c2 3f b6 b2 c7 55 32 8c d6 bf
       0.14374090986347768 -0.35230692269287134
000050 ee f0 40 2b 4c c7 c3 bf 78 7e ed 5f fb e5 aa 3f
       -0.15451957809444344 0.05253587289803091
000060 98 f5 fa c3 a8 5f da 3f 21 00 cb bf 75 49 bc 3f
       0.4120885766859259 0.11049591000028204
000070 43 87 a6 12 a1 10 e7 bf 3d 51 07 09 12 6d d7 3f
       -0.7207799305217367 0.3660321319741973
000080 16 e9 9d 7e d3 98 c4 bf 77 fc 3b 6a 38 99 b9 3f
       -0.16091388399565493 0.09999420732127527
000090 63 62 00 a0 d0 ca d0 bf aa 94 fb 81 cc f5 c2 bf
       -0.2623788416399632 -0.14812618586362208
0000a0 26 4e 60 a4 60 cd ca 3f eb 35 d3 b2 cf 9a 83 bf
       0.20939262415105125 -0.009572622914130377
0000b0 8e 4c 48 0e 69 d1 cb bf 2f 4f 27 e8 2b 92 be 3f
       -0.21732819745429705 0.11941790025531128
0000c0 3d 4b 56 61 ef 58 c3 bf df 76 01 8f 9c 67 c8 bf
       -0.1511515832213152 -0.19066197378827263
0000d0 9b b4 c9 b4 44 fd b5 bf a7 9e 70 ff db 5d d3 bf
       -0.08589581884162316 -0.302603721097038
0000e0 2e 1f 67 e1 59 d8 b2 bf 28 9d ec f9 ed 82 cb 3f
       -0.07361375573156856 0.21493315413793224
0000f0 6f ff 5c 69 7e 95 85 bf 60 c5 be cc 4d a6 a4 bf
       -0.010539043035919097 -0.04033129810648961
000100 0d b0 65 1d 60 43 ba 3f b3 64 12 b9 c2 8c 8f bf
       0.10259056775765903 -0.01540519835752927
000110 aa d4 d1 fd 8f b0 b0 bf 3d a8 5c a3 39 b7 d5 bf
       -0.06519412943619565 -0.3393081755954233
000120 4f ab e7 37 4a 89 8c bf 7f c1 81 4c 88 f1 b1 3f
       -0.013933734732707896 0.07009174220889312
000130 4a bb 06 4d e9 76 cf bf 96 3c 45 57 6a 17 ba bf
       -0.24581638585137916 -0.10191979056002007
000140 df 50 2f 9e f9 bc c2 3f 26 1a dd 16 47 09 c6 bf
       0.14639206146114866 -0.17215813270941388
000150 18 0c 75 2e 55 2c c0 3f 78 c1 13 bf 2f c7 8c 3f
       0.12635292786043872 0.014051793116295327
000160 88 a8 a1 19 3a 49 4a 3f 5e 36 64 e6 43 40 c8 bf
       0.0008021863643652575 -0.18946121930678123
000170 cf ad c1 02 fb 83 45 bf 56 a1 d7 cd 1c 91 d1 bf
       -0.000656602443553417 -0.2744819650820508
000180 0d fd f8 a8 61 1b b0 3f 6f c2 d5 b6 63 49 96 bf
       0.06291780829723255 -0.021764333757746387
000190 22 74 46 df e7 4d d6 3f bf 82 97 e0 95 80 d3 3f
       0.34850498966426546 0.30472323353573566
0001a0 5f 14 7f d1 e8 7a c5 3f 35 00 66 62 22 c9 d6 3f
       0.16781339864079123 0.35602626427862855
0001b0 8c 23 ec 67 53 af cb 3f b4 69 c2 94 e1 d1 cb 3f
       0.21628801893555438 0.21734256518977946
0001c0 d6 e5 cb 7a 33 56 db 3f dd ad 86 af eb c4 c9 bf
       0.42713629714816415 -0.20132204123124967
0001d0 19 d8 6f ad c5 2d bd bf ca ca 84 77 50 59 82 3f
       -0.11397967800425625 0.00895941605322061
0001e0 21 00 75 cb 14 cc d4 3f 80 7e e9 0a 80 65 b0 bf
       0.32495612973071003 -0.06404876963051187
0001f0 1f 7b 13 f6 bf a8 e0 bf b1 ae 79 c1 72 19 d7 3f
       -0.520599346749666 0.36092823881220243
000200 e9 23 a2 d7 51 ee d0 bf 73 ad 43 5a 86 f5 a5 bf
       -0.26454587991662365 -0.042888830679511346
000210 ec bb c7 9e 6f be ca bf 80 5c 95 d6 66 7f 81 bf
       -0.2089366460126877 -0.008543780730788209
000220 7f 91 87 2a da ae aa 3f b0 f1 29 b8 5e f3 b4 bf
       0.05211526650581088 -0.08183853145778275
000230 5c aa 75 86 11 75 ae bf 4f 48 25 7e d8 61 be bf
       -0.059486911452798025 -0.11868050651290328
000240 bf 67 f3 2e 69 de cc bf 48 04 47 f6 0d b6 a6 3f
       -0.22553744118232363 0.044357715905342376
000250 72 c5 d3 c2 dc 7d b9 bf 5f 69 f5 a9 64 61 ce bf
       -0.0995767570164128 -0.23734720515023874
000260 ce 62 a2 81 fa 8a d0 bf 26 48 61 70 cd a9 c1 bf
       -0.2584825769386442 -0.1379944609385017
000270 1e af ca e0 25 fc b4 bf df 7c 2a 8f ff 33 da bf
       -0.08197247255401094 -0.4094237230401187
000280 2c c6 95 74 6e 4c c8 3f 00 59 4c a7 fb 6c c7 3f
       0.18983250324849743 0.1830133978734878
000290 c4 0e d1 16 8d 5e b2 3f b7 35 20 66 05 09 d9 3f
       0.07175523573919934 0.3911756036112268
0002a0 05 5b c2 39 c6 b6 c4 3f f3 fe ea 40 2f 54 cb 3f
       0.1618278295543051 0.21350660962888632
0002b0 8a a8 40 42 63 8c 88 3f 85 c4 50 3a 92 a7 d4 3f
       0.01198651834427646 0.32272773451683917
0002c0 08 fd bf 99 86 fa 81 3f 38 76 38 82 b9 1b b3 3f
       0.008778621260715727 0.07464179448330632
0002d0 1a b4 f8 1e 5e d3 99 bf ca f9 3a ef 3d 94 c2 bf
       -0.025220366134977558 -0.1451489847294865
0002e0 c5 40 5c 8c 2d a2 d8 3f 5f f8 9c c7 ca ca a1 bf
       0.3848985548693345 -0.03475030600246564
0002f0 3e 16 35 4f 92 b5 e4 bf 05 31 20 3e 1c 2c c8 3f
       -0.6471644923228224 0.1888461402271632
000300 b0 f9 16 f7 1e ac d0 3f dc f0 ea ef 19 4a 85 bf
       0.2605054295526328 -0.01039524329586821
000310 1d 4d 9d 78 fe 50 a1 3f 44 11 b1 19 41 b6 d9 3f
       0.03382106039375741 0.4017489195723736
000320 b4 3d 15 c3 b8 67 9b 3f 4b f2 e3 dd 75 a8 c9 3f
       0.02676285448734257 0.20045350393765413
000330 2f 53 de 8b dd 6f cf 3f 0b 13 9d 62 d6 ba bf 3f
       0.24560136155619136 0.12394466311986833
000340 1e fd ea e1 b3 ca d6 3f 17 d1 d9 41 b0 a5 cb bf
       0.3561219888906225 -0.21599391188977599
000350 bc 21 85 c5 4d a5 c6 bf 38 cf 1f 00 87 0a a3 3f
       -0.1769196714833593 0.0371896922733001
000360 22 33 16 a9 db 6a d9 3f 00 8c 74 3f 30 6e ca 3f
       0.3971470977056005 0.20648768518830707
000370 66 b3 5a 57 9a 84 d5 bf 36 74 1c 50 40 fc d3 3f
       -0.33621843844121313 0.31227119277338333
000380 32 77 90 f9 81 0d d0 3f 47 1d 4b 4a 69 0b ce 3f
       0.250824445452838 0.23472324493034533
000390 dc 9b 25 0b 72 b2 cd 3f af 0d f0 fc 4d b5 c3 3f
       0.232008223955943 0.1539704785392195
0003a0 bc 1f 29 fe 57 e3 c2 bf 2b c7 0e 46 20 b6 ae 3f
       -0.14756297979533695 0.05998326163479669
0003b0 33 44 56 6d 1e 03 8a bf f5 09 84 a6 77 5c d9 3f
       -0.01270126124544122 0.3962687612658152
0003c0 9d 5b 28 d3 be 36 d0 3f 4e d7 ce 8b cd 0b a5 3f
       0.2533413946234136 0.041105674091723374
0003d0 a9 46 33 3c cb 40 9a 3f ba e5 8c 35 2b 5f ba 3f
       0.025637794064840822 0.10301466042883237
0003e0 44 53 1e c7 c4 55 d1 3f 67 d8 1c c3 2d e9 cd bf
       0.2708599037662689 -0.23367855097757514
0003f0 73 d6 e4 3a 30 5f d7 bf d6 c9 9c 7f 75 67 d2 3f
       -0.3651848387847629 0.2875646349158648
000400 b8 97 4f a7 fb f7 cf bf 61 26 4d 3e 2d d9 c6 3f
       -0.24975534123876542 0.17850270788248948
000410 f6 43 fd e8 f1 94 a0 bf 25 8a 74 99 c9 60 e2 bf
       -0.0323863598738469 -0.574314880101444
000420 b3 09 d3 9b bd cb 9c 3f 2b 9c 8c f3 7a 7b da bf
       0.028120958934559414 -0.41378663810832234
000430 1a db fe ef 5a 7f de bf 12 ae d7 13 01 01 a9 3f
       -0.4765231460291247 0.048835786506824644
000440 2d 8e 7c 7a d8 fe d2 bf 88 f1 83 98 85 93 d3 3f
       -0.29680454217506985 0.30587901968080944
000450 6b b4 95 86 51 a7 eb 3f f7 4d 37 08 da 6a c6 bf
       0.8641746166810099 -0.17513585473226076
000460 0d 95 5e 8f 30 da cc bf 90 c2 42 3a f5 b1 c5 3f
       -0.2254086208387566 0.16949334473385536
000470 64 59 a4 89 98 da cc bf 7a e9 22 56 6e a0 a1 bf
       -0.2254210159378075 -0.03442711640805647
000480 61 18 6f 45 dc fb da 3f be 2c 28 46 fa 33 d2 3f
       0.4216223409715721 0.2844224629522606
000490 51 b3 0f a8 a3 3d d2 3f 75 60 ee cd 6f 30 c3 3f
       0.285012163278954 0.14991567187530888
0004a0 a3 01 13 a4 94 1d a9 bf 55 03 b1 14 c8 a2 d6 3f
       -0.049053807285875516 0.3536853982987414
0004b0 55 35 3e e0 d8 a8 d1 3f 44 81 25 7d c2 65 da 3f
       0.27593061350565523 0.4124609205373597
0004c0 62 e9 6d f6 e3 da cd 3f 67 0c 90 37 5d 73 9c 3f
       0.23324250729258283 0.027783829227712078
0004d0 22 3a b3 9f 2a 82 78 bf 53 cb eb 68 3e 77 bd 3f
       -0.005983511447267749 0.11510076581525412
0004e0 90 22 42 4e d7 0b 87 bf 86 b6 23 52 54 e1 c0 bf
       -0.011253053737406732 -0.13187650690763436
0004f0 04 25 cf 58 7e a1 e4 bf 6f b4 77 31 db c5 65 3f
       -0.644713567214382 0.002657821761877836
000500 39 7b c8 da 1e ee b6 3f 9f e8 86 db 57 53 ba bf
       0.0895709308756353 -0.10283421620889265
000510 3e 92 c6 06 aa c6 c8 bf aa eb 74 a7 f2 16 c5 bf
       -0.19356274920314037 -0.16476281334493353
000520 a2 ac 8f 74 89 31 c4 3f f0 d5 dd cf 93 ef c4 bf
       0.1577617472788449 -0.1635613217328422
000530 48 4a 64 22 c1 57 be bf 06 28 23 05 9c 97 bf 3f
       -0.1185265263523344 0.12340712666915019
000540 b4 33 95 5d 85 4d b6 3f 93 0e 36 d1 60 16 8e 3f
       0.08712037596451588 0.014691120514505307
000550 cc 98 32 42 82 e2 cf bf a9 a0 05 90 38 fb b8 3f
       -0.24910000068957172 0.09758332744752586
000560 08 73 29 36 51 c0 b4 bf e5 f0 42 a7 7d 07 88 3f
       -0.08105952808677952 0.0117330376309543
000570 f3 25 0a 40 b1 8d cd bf d4 51 8a f5 3e de b3 bf
       -0.23088660838065742 -0.07760995382915975
000580 6b 40 6c 71 ba 5d cc 3f 16 3b 07 2c 1d 66 ad bf
       0.22161036051011548 -0.05741969263509909
000590 66 2c 9c 23 5c 34 d9 3f f8 4f 93 0f 97 94 90 bf
       0.3938207957987231 -0.01619182617726264
0005a0 4e 77 27 44 6d 52 ba bf f5 19 f1 4e 55 87 cd 3f
       -0.10282023347778343 0.2306925425966281
0005b0 62 ab 17 35 b6 13 c5 3f 53 ab 57 c6 36 e7 d9 3f
       0.16466405479817597 0.4047371804178301
0005c0 bd 13 41 6f 95 07 b4 3f 25 b1 ea 9c 6f 1c ba bf
       0.07824071851889776 -0.10199639874435158
0005d0 7f bf f1 38 38 38 b3 3f 6e d6 62 b8 c0 04 a9 bf
       0.07507659330599202 -0.0488643860893888
0005e0 36 21 1f 83 d8 11 92 3f 12 bb e4 6d cb 2d bf bf
       0.017646201136615157 -0.12179252083727146
0005f0 f8 72 47 64 bf 45 d7 bf 67 24 01 7b 80 52 d4 3f
       -0.36363205712204616 0.31753551494745696
000600 7c 28 db 22 66 99 be bf 48 ab ce c1 27 43 b9 bf
       -0.11952818251589464 -0.09868095857261239
000610 b8 2a 36 da 5d 06 7b bf 24 ca f5 f4 ce 5e b1 3f
       -0.006597868548292744 0.06785291176292013
000620 c3 89 df 71 fb 54 ca bf d3 f4 96 73 84 16 d2 bf
       -0.2057184511205162 -0.28262435234121347
000630 21 7d 5b 07 dc 27 ce bf cb e8 c4 64 67 23 d1 bf
       -0.2355914150166223 -0.26778588143100696
000640 04 c1 64 31 8e 17 c2 3f 44 f7 c4 0c d3 6d a5 bf
       0.1413438550166647 -0.04185351878048363
000650 fd 12 46 0f 02 19 ca bf 53 4f f7 59 65 87 96 bf
       -0.2038881849840876 -0.022000869384853527
000660 7e bc d5 3c be 9b 9e 3f 51 8a 35 d6 f1 f4 c1 bf
       0.02989098783785637 -0.14028761825018646
000670 9c 1d 87 50 32 12 c6 bf 2f 61 aa af 14 d6 c1 bf
       -0.17243031436940448 -0.13934572770518502
000680 da 48 d9 d4 af ee c6 bf 08 f4 12 59 a9 3f 9c bf
       -0.17915914433485264 -0.027586599408767426
000690 5e 7f d7 08 5b d2 c7 bf 02 15 f2 89 8e e8 bf bf
       -0.18610704356887714 -0.12464228504002864
0006a0 44 e7 14 f3 3c 89 b9 bf 4f 11 1c 44 e4 7c a5 3f
       -0.09975033697710695 0.04196847278038495
0006b0 22 c9 2e 1a b7 04 d6 3f 59 5e 61 ac 0e 06 b4 3f
       0.3440377956095678 0.07821742733482874
0006c0 c2 6c ea 82 5b 83 cb bf 34 73 5c 88 fb f3 bf 3f
       -0.21494621174210776 0.12481662825707646
0006d0 4d c9 3f 20 3f 67 d7 bf fa 40 6b ba ff c4 d7 bf
       -0.3656766714986091 -0.3713988609788569
0006e0 a6 f6 64 d1 8d da 93 bf 45 87 30 a0 bb 1e ce bf
       -0.01938840475599215 -0.2353128940749746
0006f0 76 6c 2d e1 b6 6f da 3f c6 6d a0 52 24 2a cb 3f
       0.41306850423797614 0.21222356829171768
000700 ec bb 31 4a 10 e2 b4 bf 1f eb 55 71 67 a0 cf bf
       -0.08157445727714191 -0.24708264383283393
000710 21 74 66 17 75 5e 9b 3f 41 cf cf 1c a2 7c c1 bf
       0.02672751384089989 -0.1366160050089267
000720 eb 7c e4 ad 34 a4 cc bf 38 0c 5f d5 42 1f d0 bf
       -0.22376116267057652 -0.2519080241874607
000730 f4 7c 74 a2 71 69 a4 3f 4b 67 3d a9 b1 62 b2 3f
       0.03986697300046585 0.07181845075447517
000740 e2 4c 3d 37 6c de 77 3f 54 66 c3 6c ad 4c cc bf
       0.005827353208434279 -0.22109000979144133
000750 89 c7 a4 bb 6f d9 c6 bf a6 ba d7 1a d4 82 b0 3f
       -0.1785106340626579 0.06449628501261859
000760 c3 7b 8f 0f 64 2f b8 3f 0a 5a 2e 63 2c f0 b1 bf
       0.09447312717337213 -0.07007100507176048
000770 a0 8a ab 56 43 94 cb bf f9 7a 4c 28 92 46 b5 bf
       -0.2154621289438028 -0.08310807689529644
000780 65 00 fb 7d 78 88 e1 3f 51 21 d7 e3 58 00 d4 bf
       0.5479090176159046 -0.3125211930278243
000790 43 1e 86 35 41 d6 c6 bf 31 5c 44 20 65 01 d0 bf
       -0.17841353524657863 -0.2500851454837543
0007a0 83 34 f5 ac de 2a 92 3f 74 40 a2 e3 0e 2e e1 bf
       0.01774166041041215 -0.5368723340962007
0007b0 f2 b5 b5 48 09 76 c8 bf a6 62 a7 b5 fd 91 a1 bf
       -0.19110218096049852 -0.03431694834188663
0007c0 08 3a 68 9b 16 3a d4 bf 5d 07 a5 93 95 2d d3 3f
       -0.31604542900541377 0.29965724390432574
0007d0 f4 41 5b b1 8c 9e ed 3f d1 d1 d2 01 c9 fd d1 bf
       0.9256041969293265 -0.2811148183639292
0007e0 6f 58 3c 3b c5 56 ab bf 69 c6 d8 71 91 0e 96 3f
       -0.053396380883143794 0.02153994805684648
0007f0 89 9f 0f 84 44 59 c1 3f e4 b4 22 64 37 21 c8 3f
       0.13553673218052278 0.18851368321830997

layer_1.edge_model.edge_mlp.2.bias f8 [16]
000000 e0 7b 70 99 4a d4 c1 bf d1 06 9e 01 27 8a cb bf
       -0.13929111950071071 -0.21515357569665253
000010 f2 fa bd d4 3c 48 c9 bf b1 47 a1 af a0 52 cb bf
       -0.19751701724813803 -0.2134590966766701
000020 6f 14 77 ec 30 7d bf 3f 88 05 6e a2 d5 fd c7 bf
       0.12300401471209609 -0.187433914481556
000030 df 25 ae bc fb b5 d1 bf 85 02 b6 9b da 17 c0 bf
       -0.276732382066795 -0.12572796443057058
000040 37 56 bc 02 25 54 d9 3f 46 38 09 41 fe 86 ba bf
       0.3957607771602371 -0.10362233245652516
000050 cf 4b 33 ca c3 26 bc bf 22 13 0a b0 c7 be 7b 3f
       -0.10996650396854978 0.006773738889596344
000060 29 0a a0 91 f1 9b ce bf ee 9f 00 ad a1 53 c6 bf
       -0.2391340218601539 -0.17442723224053175
000070 da f2 e1 f0 c8 5e b8 3f 3d f0 f1 4f 32 f7 ce 3f
       0.09519630318568365 0.24191883948867768

layer_1.edge_model.edge_mlp.4.weight f8 [1, 16]
000000 14 99 59 08 6b 10 da 3f bb ef 38 e1 8b 81 81 3f
       0.40725208106449995 0.008547871409170562
000010 26 14 c7 11 02 3f 83 bf 41 cb e5 6a 5d 11 d8 3f
       -0.009397522132426128 0.3760598701402849
000020 7f dc 5e 41 7b 7d 7c 3f 3a 68 61 f3 60 9c ca 3f
       0.006955605951524223 0.20789729961217224
000030 e4 0b 2d 8d 8e 92 d9 3f 81 ea 9c e8 df 2d c9 3f
       0.39957011973109346 0.19671248300604208
000040 d5 45 e5 24 cd 4f ea bf 14 3b 5e 11 44 b8 d6 3f
       -0.822241375028336 0.35499669738867223
000050 46 7c fd ab 1d 8c c1 3f a2 03 68 80 a1 25 d4 3f
       0.13708849809606444 0.3147968057601763
000060 00 54 98 aa 53 c8 a2 bf ce 8f 96 a6 a1 db b8 3f
       -0.0366846223588837 0.09710130993931829
000070 90 39 54 74 34 1b 99 3f 11 d5 38 63 ed 15 e0 bf
       0.024517840957793136 -0.5026766717843733

layer_1.edge_model.edge_mlp.4.bias f8 [1]
000000 64 f0 ad 65 b3 39 bd bf
       -0.11416169388206893

layer_1.node_model.node_mlp_1.0.weight f8 [16, 3]
000000 55 d9 e1 af a2 29 c5 3f d3 83 f7 41 94 c2 d0 3f
       0.16533311450957436 0.2618761676986285
000010 fc 1f 57 f6 58 5f d1 bf 82 04 2d cb 70 bd fb bf
       -0.271444550101023 -1.7337501465374605
000020 20 f1 51 c9 4a 45 ce bf cf df 78 7e 91 e5 de 3f
       -0.23648962812502194 0.4827617392616021
000030 b7 dc d6 f1 10 ce c9 3f aa a5 43 fe c0 87 e8 3f
       0.20160114105758506 0.7665715185259405
000040 27 4c 23 ea ca 60 d3 bf 98 91 54 69 8f 69 be bf
       -0.3027827536108724 -0.11879822083989777
000050 05 84 ba 0a 78 35 ad 3f 2f 7b 49 9a a3 8e cf bf
       0.05704856043781351 -0.24654049905344652
000060 a3 ce f1 13 6c 5b da bf ed 6a b4 80 55 f1 c2 bf
       -0.41182996700011126 -0.14798992905055944
000070 b7 65 9c 26 a5 64 c0 bf b4 bc 10 b9 16 1c f0 bf
       -0.12807144532488987 -1.0068576077572233
000080 f3 43 03 42 09 27 c5 bf 55 34 74 1c 40 38 db 3f
       -0.1652537891700657 0.4253082540388438
000090 08 b9 e9 5f f4 ff f8 bf 0b 79 4c 3a 49 22 d0 3f
       -1.5624889132118955 0.25209265416369026
0000a0 de 6f a7 ac 71 b6 d4 3f 03 f2 af e9 0d 91 ed bf
       0.3236355005335535 -0.9239568294720474
0000b0 b9 15 ba 21 9e 29 e1 3f be 5f e4 e9 f6 d4 e5 3f
       0.5363302859047315 0.6822466438488772
0000c0 6a 95 e8 38 58 6e fc bf b0 a6 c5 7c ec f6 b2 3f
       -1.776939604090638 0.07408025785630445
0000d0 40 bf 6c c7 9a 09 d3 3f 6b fa ab 74 09 45 ef bf
       0.2974612185962435 -0.9771773604150672
0000e0 8c 2f ec 84 f6 33 e2 3f d2 f5 52 4f f4 68 d0 3f
       0.568843135466055 0.25640590425959175
0000f0 8a 70 b9 f0 4a 09 cb bf 7e 24 50 fd 47 47 d5 3f
       -0.2112210917865734 0.3324756597290345
000100 33 ee 07 c0 53 c1 db bf bb ef ab f6 77 bd f4 bf
       -0.4336747527411006 -1.2962569842920704
000110 3f 27 14 1c df 4d a2 bf 91 df 70 9a c7 35 e6 3f
       -0.03575036256559238 0.6940649048255968
000120 91 eb 54 02 30 70 00 c0 24 af c2 60 c1 31 c2 bf
       -2.0547790701070388 -0.14214341377862028
000130 f0 02 e6 ec e1 b0 c2 3f 70 73 35 39 b9 e3 d0 bf
       0.14602302615460117 -0.2638991411857239
000140 8a 76 91 20 97 76 dc bf 5c c7 74 d8 56 d3 d6 bf
       -0.4447381799744582 -0.35664912355706746
000150 b2 59 27 c8 c5 3d f5 bf 50 45 0f 94 d9 20 c5 3f
       -1.327581197596015 0.16506499986148038
000160 58 5f 37 5e e2 73 c0 3f 65 14 d0 6b b4 18 f0 bf
       0.12853650665669636 -1.0060314380109727
000170 4b c1 ea 9c b2 12 d9 3f 31 cc 30 01 7e b1 c8 3f
       0.3917662174599356 0.19291663225303204

layer_1.node_model.node_mlp_1.0.bias f8 [16]
000000 ae 34 f5 73 b1 0c da bf 3c aa 15 ce c2 25 cc bf
       -0.4070247299576505 -0.2199023729584314
000010 27 fa be 02 18 a7 a2 3f 02 ae f2 e5 b7 59 e9 bf
       0.036431074462133055 -0.7922019473239177
000020 00 0b 20 80 e9 70 ce bf 02 fa 93 f0 8f 92 e4 bf
       -0.23782080417739593 -0.6428909014501303
000030 46 01 29 6e 37 0b d2 3f 99 a7 80 30 86 a2 d2 3f
       0.281934602335259 0.2911696885736262
000040 18 0b ce 0f f5 e0 c2 bf 11 ca 11 1c e7 14 a0 3f
       -0.1474901511356499 0.031409475494815216
000050 47 de 24 ee 7e ae e3 bf fd aa 46 71 cc 7c cf bf
       -0.6150507594347311 -0.24599605113083803
000060 74 55 15 4d 9a c1 c1 3f 65 d0 b8 06 3b 6f d3 3f
       0.1387207867034409 0.303663975300202
000070 ea ed b9 78 9b a6 d2 3f f2 2d f1 7a 49 54 bc bf
       0.29141890325237674 -0.11066111804500858

layer_1.node_model.node_mlp_1.2.weight f8 [16, 16]
000000 43 25 9e 3c 93 47 af bf 13 f1 b7 23 49 5c c1 3f
       -0.06109295000994532 0.13562883609837026
000010 e9 9f ed 98 d0 98 e0 bf 47 0c c3 ef b7 c9 d0 3f
       -0.5186541544799158 0.26231192030190126
000020 b0 c1 0a 7f 5c 79 4c bf 0d c2 96 bf 80 62 d2 3f
       -0.0008689595834621613 0.2872621413216912
000030 c2 d0 88 f6 5d ad c3 3f 30 59 5c 69 5e ea b8 3f
       0.15372824228109577 0.09732618400844184
000040 ba 6e a4 ec 78 b8 b5 bf be 58 a8 17 06 a8 d0 3f
       -0.08484607484245546 0.26025535879433537
000050 77 ef 5c 44 02 0e c7 bf fa 09 a6 03 69 5f d9 3f
       -0.18011501634634516 0.39644837719256965
000060 94 f1 a4 00 65 72 a8 bf 70 a6 e5 ba 93 59 a7 bf
       -0.04774776108613135 -0.0456052938123549
000070 e8 e9 f6 f2 8a f8 bc 3f 4f 17 4c bc ef 22 be 3f
       0.11316746169806147 0.11772058817959173
000080 e1 c8 0f cd 1d cc b9 3f 70 27 50 50 18 92 ba 3f
       0.10077081924808652 0.10379173241395079
000090 eb 29 f2 8d fb ec b5 bf 4d 10 a0 22 bd 52 ca bf
       -0.08564731803395602 -0.205649988085613
0000a0 8d 9b ba 09 e4 2c 9f bf 78 6f 46 2d 33 2a b7 3f
       -0.030444682210738306 0.09048766951894816
0000b0 ca c9 c1 d3 21 d2 ca bf 86 0f d9 d2 2a 01 e0 bf
       -0.20953772391983555 -0.5001424902079499
0000c0 33 67 53 1d f7 9c d2 bf ee 54 eb 46 b1 ed d0 bf
       -0.29083040107581154 -0.26450759816846314
0000d0 c6 b9 77 9d 6d bd c2 bf 55 d7 42 61 85 8f a8 bf
       -0.14640588940478788 -0.04796997844952836
0000e0 f7 be 26 49 2e 3f 91 3f b6 91 b7 7e 36 8a d9 bf
       0.01684257813911835 -0.3990608441802367
0000f0 02 5a 50 e5 8c 31 dd bf 43 38 28 e4 d2 36 c9 bf
       -0.4561493148225112 -0.1969855894134885
000100 79 cc b2 44 85 3d ae bf 05 17 c8 1a 67 63 b0 bf
       -0.05906311477283394 -0.06401676563117682
000110 1a 63 2e 12 c1 c8 46 bf 8c 59 ae 16 46 fb c9 bf
       -0.0006953184823600162 -0.2029807673213323
000120 ec a3 0e 6c b7 f5 a3 3f 16 90 07 ff 4c f5 ce bf
       0.0389840430646656 -0.24186098530401584
000130 bc cc 43 8a 33 60 c0 3f 3b b9 9f 08 42 67 cd bf
       0.12793583155835175 -0.2297136823758111
000140 c0 ba ae 95 55 e7 a7 3f 7c f3 ce a2 99 15 d6 bf
       0.04668681575946243 -0.3450683679509934
000150 86 f0 4e 93 5b 58 a1 bf 11 4f 7b 91 93 b7 c0 3f
       -0.03387724087903714 0.13060230830762312
000160 68 bb 8d 9a 4a 79 a9 bf 38 d2 fb cf 94 d0 d5 bf
       -0.04975350510254978 -0.34085579214960005
000170 5c 53 1c f4 a7 25 ce bf 4a 17 7b 60 73 15 c2 bf
       -0.2355241720148581 -0.1412796231363081
000180 f1 f1 34 3a bd 1d dc bf 8b 8a 1f c6 7a 29 a4 3f
       -0.4393151348520226 0.03937896412368954
000190 67 09 26 23 b0 fb d6 bf 9f ea 2c 00 b2 d5 c4 bf
       -0.3591118186233388 -0.16277146347586766
0001a0 db 07 fc 13 d7 4e ba bf ab 00 32 f5 57 2a d0 bf
       -0.10276550519850451 -0.25258444733482105
0001b0 9b 67 c1 90 3a 80 c4 bf 12 84 b0 77 aa 1c c2 3f
       -0.16016323154582043 0.14149981350149737
0001c0 e5 e3 2e 3a 7d 3b da bf dd 4c 08 9d c6 d6 d3 bf
       -0.4098809307284326 -0.30998387656400245
0001d0 a6 22 cc b4 1d 38 c0 bf 88 bf 24 df 0b 76 bc bf
       -0.12671252563474872 -0.11117624471512333
0001e0 03 b4 d3 c4 4a c7 d0 bf 93 88 4b c2 5e eb c4 3f
       -0.2621638223779998 0.16343292700827713
0001f0 68 94 4f 38 e2 ed af 3f ca 76 d5 87 18 fa d0 bf
       0.062361783384212555 -0.2652646376135236
000200 62 ce b5 ee e6 cf cc 3f 67 f8 8a 2b 58 34 75 3f
       0.22509466796656158 0.005176872648631293
000210 1c 21 ac 4a 03 a6 d7 bf 77 01 15 b9 de a4 cd bf
       -0.3695076207373107 -0.2315939334603276
000220 1a 0f 0f fb d9 3a 9f 3f 5d 6d ae af 55 96 a7 3f
       0.030497938106932222 0.04606883782909208
000230 d5 9c 43 2c 4a 73 d1 3f 76 e3 ff 76 0f d3 c6 3f
       0.2726617271677701 0.17831605253720867
000240 a8 49 40 5a cb 87 c9 3f f9 94 83 80 ad 20 d1 3f
       0.19945661455910835 0.2676194911021664
000250 0a b0 6d 84 09 df d9 bf d7 e5 7d d1 d8 c5 d6 3f
       -0.4042381089445831 0.3558256192987676
000260 1f ad eb d2 78 b2 c9 3f 6e cd 9c 1a cd 8b c7 3f
       0.20075903223855904 0.1839538936561484
000270 13 4c cf 21 46 c4 b7 3f 8f 97 d5 3e 56 e5 d2 3f
       0.09283865285333119 0.2952476132980956
000280 6e a6 10 67 16 81 b1 3f 51 76 ad 31 08 b6 d4 3f
       0.06837596908794705 0.3236103520519907
000290 60 f8 3b 2b a8 a4 ca bf 41 36 6e 62 85 11 d4 bf
       -0.20814993010566507 -0.3135693989978315
0002a0 e1 b0 bf 29 99 9c be bf db 43 01 f9 fe 09 d5 3f
       -0.11957700032479891 0.32873510662926514
0002b0 ae da d5 2d ca f0 6e bf eb e5 8c 2b a5 69 d3 3f
       -0.0037769268807850897 0.30332307103125683
0002c0 e2 a1 3d 0d 1e a3 ce 3f 96 97 06 e5 3a 33 d5 3f
       0.23935294767876686 0.3312518345431895
0002d0 0a 7d b6 3d be be e4 bf fc 45 33 b9 21 1d da 3f
       -0.6482840733841908 0.4080280598255681
0002e0 fa 27 0d 88 0a 3d d8 3f d6 8a 48 88 85 c6 bc bf
       0.378725655424773 -0.11240419938307453
0002f0 26 25 f4 ae 81 d9 c8 3f e0 36 75 29 b3 a2 cf 3f
       0.1941377739206384 0.24715270542440404
000300 87 c1 0c fe e8 bb b4 bf d8 a7 ec f6 9e db bc bf
       -0.08099228098286036 -0.1127261498301374
000310 01 fb 08 69 b3 cb c4 3f 4a 60 a3 7c 6e 70 d9 bf
       0.16246645573297516 -0.3974872796220593
000320 92 29 af 3d f8 1f a0 3f 7e 13 7e 70 eb 97 cb 3f
       0.03149390938741016 0.21557372086331478
000330 d3 d4 ea 0c 51 c8 c0 bf 82 80 15 f0 7b f5 a8 bf
       -0.1311131775925448 -0.048747895295265145
000340 49 b6 b1 25 d8 05 d1 bf 28 9b d5 06 6d d1 b2 bf
       -0.2659817092997839 -0.07350808541160048
000350 c5 d9 02 54 bd 45 d9 bf 2f bd 8e 87 3b 87 c9 3f
       -0.3948815651341671 0.199439469518873
000360 6e 17 1f a0 eb 2a a5 3f 37 79 d0 7a ca 2b c4 bf
       0.04134308175666389 -0.1575863933257524
000370 35 34 84 7f 6b 7e b1 3f 0f 26 65 ed 00 b5 b6 3f
       0.06833526480859649 0.08869939609316922
000380 a6 af d3 d7 a6 76 c9 bf 49 2e ab 00 fe da d3 3f
       -0.19893346346304702 0.3102412230043439
000390 ca 6e f8 e8 5d f2 a3 bf 8e 22 b9 29 3d 89 b1 3f
       -0.03895848721387336 0.06850034969932947
0003a0 2c a8 69 d2 2d 3f b4 3f 6a 3a 30 0f c7 5b c1 3f
       0.07908903491048197 0.13561332933064146
0003b0 77 8b 23 23 be 13 b1 3f 27 3d 49 ac 82 0e bd 3f
       0.06670750005609515 0.11350266176417688
0003c0 07 3f f9 94 45 f4 d5 3f 4b 3d 83 c4 77 51 ca 3f
       0.34303416774945145 0.20561120124191698
0003d0 fa 52 81 91 af 23 e0 bf ad cd be 4b bc a4 d6 3f
       -0.504356178464689 0.353804658861203
0003e0 7d 3a 41 d1 86 d0 73 bf 30 64 16 72 0f 0c c0 3f
       -0.004837538366770586 0.12536805220295966
0003f0 1a df 73 92 21 1e 6e 3f 1e d9 0a 9d c7 67 b5 bf
       0.003676477022619096 -0.08361480316202516
000400 b5 05 ff 4d 1c bd ca 3f 89 bb 11 c8 80 bf a3 3f
       0.2088961964455344 0.038570427343862575
000410 77 12 e8 cb cb f1 c3 bf ec f6 55 15 62 17 90 3f
       -0.15581653076528187 0.015714199592813324
000420 fd 6c 6f df 80 53 b2 bf 09 b5 32 a8 fd 72 d2 3f
       -0.0715866609092934 0.28826848435967684
000430 29 fd a1 96 f3 8a 69 bf 85 41 cf e8 31 e7 d0 3f
       -0.003118015059100938 0.264111020424956
000440 fd 23 af 5b 99 72 d0 3f 08 eb d1 0c 2c 95 d3 3f
       0.25699457124261454 0.30597974063827893
000450 a6 7b bf 9a 9d 78 e4 bf 3b 5d 81 b7 11 9c c4 3f
       -0.6397235891744131 0.16101285419675002
000460 cf c5 24 99 ae c2 9b bf 6e 02 af f0 6d 4a cb bf
       -0.02710984048571224 -0.2132089066708604
000470 93 7b 5a 95 be ae bf 3f 80 dc c9 3f 5a bc c5 3f
       0.12376013895344178 0.1698105632274043
000480 d9 9a 52 f7 9b 7d d1 bf b4 3c d6 b4 ce 21 c5 3f
       -0.27329157974820145 0.16509422140049923
000490 78 95 39 6c cc 28 bc 3f ef 42 c2 fe 2d 7a d5 bf
       0.10999753610811591 -0.3355822551612126
0004a0 78 49 13 eb 13 5d b7 bf 79 ea c5 81 87 48 ca bf
       -0.0912640046038059 -0.20533841930940236
0004b0 d4 2e 31 f4 1e 94 b9 bf 72 d2 8d cc 16 97 c5 3f
       -0.09991639577600192 0.16867337215412054
0004c0 fa 26 89 be fd c4 cb bf 62 f6 ad d5 4a 29 e3 bf
       -0.21694919398787943 -0.5987905667713671
0004d0 0d 95 ef 08 ca a9 c5 bf e7 69 4d ef 82 ca e0 bf
       -0.1692440551407021 -0.5247206376910157
0004e0 e4 11 12 94 6e 85 b4 3f de 30 2a b0 78 0a e2 bf
       0.08016100993160752 -0.5637782517165097
0004f0 fc 11 0f 0c 7b 44 d4 bf 78 c1 8c bd 6a 97 d2 bf
       -0.31667972734092564 -0.29049175749516776
000500 62 49 10 b0 a1 b4 cf bf 65 35 40 55 22 09 bf bf
       -0.2476999387441295 -0.12123312550848693
000510 63 a7 ed 90 b0 f8 cd bf 52 53 62 b6 ab c6 9d bf
       -0.23415190769747615 -0.029078181273308808
000520 b3 b3 55 2a 59 02 c8 3f 41 d4 f7 39 bd 70 92 3f
       0.18757166449668503 0.018008190787402126
000530 31 f7 d0 36 4c 74 bd bf 19 fc a7 4e ff 97 76 3f
       -0.11505581224716079 0.005516049665401667
000540 6e 8f 30 19 00 dd c1 bf 20 4f 5a 48 2f 12 a5 3f
       -0.1395568964954878 0.04115436323368571
000550 22 9e 7b 9c f4 f1 b1 3f f9 2c 67 95 bd d3 cf bf
       0.07009819813139775 -0.24864930911130737
000560 f3 a1 03 1d 66 06 c7 bf ee 61 bd fe f1 67 a5 bf
       -0.1798827783270692 -0.041808664652027136
000570 85 1d 2a 57 87 f6 c2 bf 99 7b 0e 32 94 a0 af 3f
       -0.14814845806197866 0.06177199469606549
000580 f1 ad 92 d0 ce d0 a9 3f 40 61 d8 f6 5c dd d8 3f
       0.0504212026220009 0.3885109339330661
000590 9b c1 8c 50 06 e2 dc bf 7f 84 a4 a8 c0 9e b2 bf
       -0.4512954508418489 -0.07273487202884786
0005a0 91 43 21 b0 e9 ee b0 3f 98 f3 44 2e d6 d1 ce 3f
       0.06614552068755432 0.2407787061619302
0005b0 ad f1 bf f6 cf 76 ab bf 63 77 a3 4a a2 12 b7 3f
       -0.05364084136087697 0.09012808153371803
0005c0 b1 c6 7f 64 4d 6d d6 3f 4d 7c 86 cc 6c 7b be 3f
       0.35042128385894517 0.11907081597608844
0005d0 52 03 d8 87 25 2c e1 bf 90 1b ad ce 35 ba d7 3f
       -0.5366389897536499 0.3707403677294048
0005e0 a0 0c 13 60 51 6a d0 3f 37 2a 17 11 15 3e b4 3f
       0.2564891279436754 0.07907230059860458
0005f0 e9 8d b4 c3 df 23 c2 3f a1 fd ad 79 8b e0 81 3f
       0.14171979003832227 0.008729066515796914
000600 95 dc 94 ec 17 71 b3 3f 04 d7 3a 23 30 91 d9 3f
       0.07594441915431312 0.3994865745583953
000610 d7 af d8 6c fe 6c bb bf 57 d4 42 b9 80 60 d4 bf
       -0.10713186414130803 -0.31839006511592544
000620 61 80 07 91 4b dc 9a 3f 74 27 60 ca c6 5a cb 3f
       0.02623098442734351 0.2137077797090644
000630 68 35 6b 13 f8 18 d9 3f 16 92 e6 dd b8 3a d8 3f
       0.3921489896427688 0.3785841147421548
000640 44 5b 7f e1 ff 9b cc 3f c3 c8 0a d0 12 24 96 bf
       0.22351072798366023 -0.021621984432109508
000650 da e5 d6 fe 7b 6b e1 bf c4 e6 79 9a e6 89 d6 3f
       -0.5443706490834146 0.35216679654659466
000660 42 64 07 a3 a8 c3 a5 bf 3e e9 c9 4d 16 76 8d bf
       -0.042508382702813666 -0.014385389565394587
000670 8a 7f a1 1b ff 13 c5 3f 75 42 8e 73 94 bb ca 3f
       0.16467274521982872 0.20884948389404526
000680 89 72 37 df 19 45 c4 3f 3b da d8 ad 93 ce aa 3f
       0.15835879706618908 0.05235730645329225
000690 27 3f 2e 2b 39 99 d5 bf 26 22 0a bb 50 59 cd bf
       -0.33747700898037397 -0.22928818829338232
0006a0 12 41 8c 73 ca 5d c8 bf 73 39 2d a0 20 d2 a2 bf
       -0.19036226884828317 -0.03675939517289608
0006b0 e7 ec 84 17 7f c2 c3 3f ef cf 10 41 c5 95 c5 bf
       0.15437306068802245 -0.16863313366923147
0006c0 2f b1 46 23 29 7e cc bf 80 a4 60 1f d8 91 c2 bf
       -0.22260011885135486 -0.1450758126459597
0006d0 de fe be c1 5a 5a c9 bf e0 5f 2c 76 49 36 8c 3f
       -0.19806990108735695 0.013775419157852242
0006e0 00 f8 52 23 7c 24 c8 3f 34 9c fd 4e 30 2f c9 bf
       0.18861343121346863 -0.19675258500066806
0006f0 74 bf c7 ea 27 0c d0 bf 8c db 19 a9 18 f2 b3 3f
       -0.2507419388557459 0.07791284683649574
000700 53 3b 5c 16 5e dd ca 3f 79 aa 85 6e 3e 9a c8 bf
       0.20988060085115964 -0.19220714947308062
000710 e3 d8 d8 33 4e ad cd bf e2 d6 02 8b 9b 58 c4 bf
       -0.2318513634833784 -0.15895408904696412
000720 fd 37 a4 2b db 5f ce bf c1 51 3d 6a d0 c7 c1 3f
       -0.23730029707843406 0.13891034305073727
000730 95 50 e5 fa 56 ed c2 bf 07 76 0f 3e 16 30 c7 bf
       -0.14786803484696934 -0.1811549952534934
000740 40 d1 2d e6 dc 2a ca bf 2b de 94 bd d4 e1 c7 3f
       -0.2044330715103886 0.1865793157282821
000750 bf 0e 04 be f1 9f b2 bf 4f c2 7f 48 10 71 78 bf
       -0.07275305642184103 -0.0059672008573988375
000760 99 57 08 57 02 a4 a5 bf 11 74 46 23 26 ae cd 3f
       -0.04226691543969636 0.23187710497305195
000770 f9 5a 82 0b 57 d0 b5 3f 69 05 d3 fb 96 74 65 3f
       0.08521026640879005 0.0026190709018868896
000780 f8 65 6c 4f 4f 67 d3 bf bf 7a 77 99 2c bd c1 bf
       -0.3031805301303332 -0.1385856389378741
000790 02 b1 71 94 6a db 7e 3f e0 ee 09 10 c2 1d 9d bf
       0.0075334704662106695 -0.028433830479555833
0007a0 24 d7 bf 00 08 77 c6 bf 9a 19 69 9f 90 70 ce bf
       -0.17550754582014705 -0.2378102091190158
0007b0 e9 9b 5a 54 ba 31 95 bf c9 4d 25 6e 9e 6d cf bf
       -0.020697509192043304 -0.24553280237397093
0007c0 50 1b db 6f 58 34 a3 bf 2c 97 a7 4d 12 24 d0 bf
       -0.03750873914173403 -0.2522016294809528
0007d0 61 58 e3 b4 a7 8b 90 3f 93 c9 93 96 88 94 c6 3f
       0.016157741942912533 0.17640788414389572
0007e0 20 91 ec 35 db 6a c6 3f 7d 13 2b 2a a8 56 ae bf
       0.17513599522602252 -0.059254889628880904
0007f0 18 b2 a1 b4 be 4b a7 bf d6 d6 d1 08 65 4c c3 bf
       -0.04549976305938602 -0.1507688801827302

layer_1.node_model.node_mlp_1.2.bias f8 [16]
000000 c1 28 db ce 41 5d d6 bf 7d 69 9c 28 c0 3e e0 bf
       -0.3494419593886385 -0.5076599877532285
000010 69 3b b5 9e 3b 19 93 bf 8a ce 74 42 5d 56 e1 3f
       -0.01865094333816889 0.541792516515174
000020 d7 17 39 67 03 08 d1 bf e3 79 40 42 65 07 b0 bf
       -0.26611409263966607 -0.06261284701802299
000030 b6 f4 24 ca c9 b5 ab bf c3 d1 34 93 e8 f7 d0 bf
       -0.054121309209656784 -0.2651311338006758
000040 a2 50 c1 b5 df b2 d4 bf ad a8 77 ad 02 02 a0 3f
       -0.3234175944283014 0.031265338587972515
000050 9f e6 90 9e a8 9c d3 bf 5a 21 e0 65 36 ee d2 bf
       -0.3064366863724021 -0.2957893366697327
000060 07 d3 d1 f4 6a 79 d8 bf 51 52 68 af 5a cb c8 3f
       -0.3824107542816794 0.19370587887591964
000070 c1 94 b4 56 b0 c5 b3 bf 8c 0e 2a 8a 32 7d d0 bf
       -0.07723524205046585 -0.2576414441357222
