src/pyoptes/optimization/budget_allocation/supervised_learning/trained_nn_states/Waxman_120_FCN_per_node.pth (torch, 116231 bytes, 10 tensors)

layer_1.weight f4 [128, 120]
000000 54 6d 12 be e8 4d ee bd 7d 81 d3 bd 1d f3 bb bd
       -0.14299518 -0.11635953 -0.10327432 -0.091772296
000010 1d d9 0a bd 4c af 19 bc 6c d2 12 bb 9c 8e cc 3c
       -0.03389846 -0.009380173 -0.0022403253 0.024970345
000020 96 4a a4 3c 2b 7f fa bd b0 2c bc bd 5c 09 90 3c
       0.020055097 -0.122312866 -0.09188211 0.017582588
000030 58 53 b5 3c e2 70 8f bd 84 9e 0b be b2 5e 0b bd
       0.022134468 -0.070039526 -0.13634688 -0.034025855
000040 c7 a9 8e bc 20 5f ea 3c 73 f2 74 bd 23 55 8a 3b
       -0.01741494 0.028609812 -0.05980153 0.004221575
000050 e4 b7 c9 bc 3c 9b a5 3c a3 c1 85 bd 1a af 27 bc
       -0.024623819 0.020215623 -0.06531074 -0.010234619
000060 cc 03 dc bd 1a 4f 0c be c0 9f b0 3c 82 fa c9 bd
       -0.10742912 -0.1370205 0.02156055 -0.09862234
000070 bd 10 95 bd 26 be f9 bd cb 0a 05 bd 6a 70 b8 bd
       -0.07278583 -0.12194471 -0.032480996 -0.09005816
000080 9e e2 cb 3c e5 4e 66 bd 4d f6 fd bd 17 e8 93 bd
       0.024888333 -0.056227583 -0.12400494 -0.07222002
000090 bc 65 02 be 92 a4 18 bc 32 2d 8c bd b2 09 b6 bd
       -0.12734121 -0.00931658 -0.06844558 -0.08888568
0000a0 97 eb 88 bc 51 2a 6a 3c 0f e5 02 be 49 26 5a bd
       -0.0167139 0.014292316 -0.12782691 -0.053259168
0000b0 c4 2a 3c bd bf 5a 82 bd 02 1d 25 bd 6e 21 c5 bc
       -0.045939222 -0.06364965 -0.040310867 -0.024063792
0000c0 f2 8a 2a 3c 38 18 04 bd 55 0a 04 bd 4b 6c 11 be
       0.010409104 -0.03224966 -0.032236416 -0.14201467
0000d0 55 af ac bd 61 b8 bc bd c5 9c 81 bb 40 ea 26 ba
       -0.084318794 -0.09214855 -0.003955456 -0.00063673034
0000e0 b1 c0 95 3c 64 d5 03 be cf e4 f9 bc 64 90 41 bc
       0.018280359 -0.12874371 -0.030504612 -0.011814211
0000f0 1b 88 e9 bd a1 a0 c5 bd 20 e8 aa bd a1 a2 16 be
       -0.11402913 -0.09649778 -0.083450556 -0.14710476
000100 c3 ae fe bd b9 75 ba bc 03 40 32 bc 2c 24 fb bd
       -0.12435677 -0.022761213 -0.010879519 -0.122627586
000110 64 63 76 bd 25 b7 d1 bd f6 5e e2 bd 36 6f f3 3c
       -0.06015338 -0.1024001 -0.110532686 0.029716115
000120 e4 86 b9 bd 7b 9c dc bd 9c 58 a1 ba 2b 69 a7 3c
       -0.090589315 -0.10772034 -0.0012309733 0.02043589
000130 ac 69 d1 bc 3d 13 02 be 0e f1 fa 3c 32 6e c0 3c
       -0.025563084 -0.12702651 0.030632522 0.023490045
000140 3a c2 03 be f0 40 d8 bd 96 ad ef 3c 21 e0 69 bc
       -0.1286706 -0.10559261 0.029257577 -0.014274628
000150 71 1d f8 bd 69 91 3a 3c 4e 4a 04 bd ad fd d6 bd
       -0.121149905 0.011387208 -0.032297425 -0.104976036
000160 ec 44 b9 3c d1 41 14 bd e6 e8 ba bd e6 42 9e bd
       0.022615872 -0.03619558 -0.09126453 -0.077276036
000170 09 6e e4 bd 20 45 4f bd 1a e3 bc bd 58 32 29 3c
       -0.111538 -0.050603032 -0.09223004 0.010326944
000180 cf 19 dd 3c ed dc cb bd 0f 9e fc bd 82 0f dd bc
       0.026989846 -0.099542476 -0.12334835 -0.026984934
000190 8f 52 87 bd db 10 ea bd c9 5a c5 3c ea 27 af 3c
       -0.06607544 -0.11428996 0.024091141 0.021381337
0001a0 f8 cb b7 bb 31 86 12 be 37 95 a8 bd ec 46 55 bc
       -0.0056090318 -0.14309002 -0.082315855 -0.013017397
0001b0 21 a2 b4 3c 61 f7 02 3b 73 83 45 bc 2b 6b 2c bd
       0.022049965 0.0019983875 -0.012055266 -0.04209439
0001c0 2b 42 ed bd 1c 19 4c bd fe 58 10 bb a4 5d 9a bc
       -0.11584886 -0.049828634 -0.00220257 -0.01884348
0001d0 0a 14 8d bd c5 a8 f7 bd d1 e6 7b bd e9 e1 11 be
       -0.06888588 -0.12092737 -0.06149942 -0.14246334
0001e0 88 26 56 bc 1f b8 69 3d d0 e2 e0 3b 38 bc 5c 3c
       -0.01307071 0.057060357 0.0068629757 0.013472609
0001f0 32 46 dd 3c c0 69 45 3d 13 fa 57 bd 72 ba b4 3d
       0.02701101 0.048196554 -0.052728724 0.08824624
000200 bf d1 35 3c ba 45 b8 3d 15 9c b2 3d 4d 5e 43 bd
       0.011097371 0.08997674 0.087211765 -0.047697354
000210 66 59 7b 3c ac 11 57 bd 7c d7 60 3d 30 eb 10 3d
       0.0153411385 -0.052507088 0.054893002 0.035380542
000220 ea 0c 58 bd 61 f9 b8 bd 43 77 73 bd 7a 37 c6 bb
       -0.05274669 -0.0903194 -0.05943991 -0.006049094
000230 be 3e a9 bd 57 31 12 bd 98 24 0b bd c0 f2 36 bd
       -0.0826392 -0.035691585 -0.033970445 -0.0446651
000240 a9 54 6c bd 9d c8 b0 bd f9 72 46 bd 31 82 7d bc
       -0.057697926 -0.08632014 -0.04844949 -0.015472935
000250 48 d5 3f bc e8 16 08 bd 81 91 e6 3c 0c bf 66 3d
       -0.011708565 -0.03322497 0.028145554 0.05633454
000260 de e9 2e bd 1b 55 fa bc dc de 1a 3d 92 0b 95 3d
       -0.042703502 -0.03055816 0.03781019 0.072775975
000270 5c 46 92 bd 61 56 20 bd 97 20 7f 3d 18 7d ee 3b
       -0.07142326 -0.039144877 0.06228694 0.007278096
000280 f3 2a a1 bd e8 38 32 bd 86 48 8f 3d e8 7f f8 bc
       -0.0786952 -0.0435113 0.069962546 -0.030334428
000290 b8 9b 8a bc 7c 0b 83 3d 01 ea 4a bd 50 e8 d1 3a
       -0.016919956 0.06398675 -0.04953957 0.0016014669
0002a0 43 a1 b7 bd 74 e9 45 bd c3 8b a2 bd cf 93 97 bd
       -0.08966305 -0.04831834 -0.07936814 -0.07401239
0002b0 08 e8 7c bd 6d fe 95 3d dc ad 45 3d 6d a2 b9 bd
       -0.06174472 0.073239185 0.04826151 -0.090641834
0002c0 c9 4b ab bd 70 f5 9e bd d8 46 84 3d 77 b7 98 bc
       -0.08364064 -0.07761657 0.06458825 -0.01864217
0002d0 80 13 d7 3c 10 f0 3c 3d c3 75 52 3d a5 3d b1 3d
       0.026254416 0.04612738 0.051381838 0.08654336
0002e0 f1 fe 41 3d d1 7b 11 bd c5 5f f8 3b d8 f1 67 3d
       0.04736227 -0.03551847 0.007579776 0.056627125
0002f0 29 af 60 bd 30 67 7b 3d b4 1c 09 bd 42 79 b7 bd
       -0.054854546 0.061377704 -0.03347464 -0.08958675
000300 e0 9f aa 3c 18 03 9a bd d4 62 f2 3c 7a 1f 33 bd
       0.020828187 -0.07520121 0.02958814 -0.04373119
000310 3a c6 b3 3d e3 18 f7 3c 64 20 55 3d e0 29 d4 3a
       0.08778043 0.030163234 0.052032843 0.0016186796
000320 f6 b4 a3 3c 9e 40 93 3d b4 96 66 bb 20 30 bb bc
       0.01998375 0.07190059 -0.003518504 -0.022850096
000330 f2 b2 32 bd 04 82 0e 3d e1 f7 dc bb a0 fd 93 3d
       -0.043627687 0.03479196 -0.0067434167 0.072261095
000340 95 6b 74 bd 4f 5b 2f bd 3c fb 74 3d f8 ca 31 bc
       -0.05967291 -0.042811688 0.05980991 -0.010851614
000350 90 cd 84 3d 41 ea a1 3c 13 a6 67 3d 02 ee 0f bd
       0.064845204 0.019765021 0.056554865 -0.03513909
000360 4f 86 74 3d 3c 8c 25 3d ae a4 15 3d 94 e7 58 bd
       0.0596984 0.04041694 0.036534004 -0.052955225
000370 22 68 ab 3d 65 64 65 bd c4 56 0b 3d a9 c5 de 3c
       0.08369471 -0.056003947 0.034018293 0.027193861
000380 00 76 df bc 0a 3e 8e 3d e3 c1 cc 3c d0 6a 07 bc
       -0.027277946 0.06945427 0.024994796 -0.008265212
000390 1d 18 b4 bc 18 8e 05 3c c2 e4 91 3d df dc 73 bd
       -0.021984154 0.008151554 0.0712371 -0.05953681
0003a0 50 04 8c bd 98 4b 96 3d 87 1f ba bc 8a fe a0 bd
       -0.0683676 0.07338637 -0.022720112 -0.078610495
0003b0 bf 8e f8 3c 7c 6b c5 bc b0 63 e4 36 41 df 1f bd
       0.030341504 -0.024099104 6.8065347e-06 -0.03903127
0003c0 0c 20 21 3f 0b f0 1b 3f 67 c2 11 3f 11 07 11 3f
       0.62939525 0.6091315 0.5693726 0.5665141
0003d0 c7 b9 32 3f fa 27 2f 3f ce f7 2a 3f b6 75 1a 3f
       0.69814724 0.68420374 0.6678437 0.6033586
0003e0 c1 0e 24 3f 8f 22 1a 3f 4e fa 34 3f 87 e9 35 3f
       0.6408501 0.6020898 0.70694435 0.7105946
0003f0 d3 b5 39 3f f1 15 31 3f db 63 36 3f a2 c5 2f 3f
       0.72543067 0.69174105 0.7124612 0.6866094

layer_1.bias f4 [128]
000000 4c 3e 18 be b9 d1 7c 3d 5e 29 37 3f 20 f8 30 3f
       -0.14867514 0.061723445 0.71547496 0.6912861
000010 b2 93 e8 3c 44 be 20 bd d3 95 92 bb 78 f7 2e bb
       0.02839074 -0.03924395 -0.004473427 -0.0026697796
000020 ac f5 87 bd 90 24 cf bc 12 cb 1c 3f dc d4 7c bd
       -0.06638655 -0.025285989 0.6124736 -0.061726436
000030 a1 3e 07 3c c4 b6 9c bc f0 f0 da 3b 25 36 2f 3f
       0.008254678 -0.019130118 0.006681554 0.68441993
000040 ef c9 21 3c 23 f1 9d bd 0d 66 a1 bd 90 60 86 3c
       0.009874805 -0.07712009 -0.07880793 0.016403466
000050 9b 27 b3 bd 42 27 2f 3f 49 9f b8 3d 08 21 51 3d
       -0.087477885 0.6841928 0.09014756 0.05105689
000060 06 53 19 3f c0 1c c5 ba 31 f2 29 3f c6 4c 0c bd
       0.5989231 -0.0015038475 0.6638518 -0.034252904
000070 6b d3 a4 bd 02 16 8f bd de 45 e9 ba f0 9f 3a 3f
       -0.08048137 -0.069866195 -0.0017797311 0.72900295
000080 c5 d5 f3 3b 56 31 60 3c 3e bb 99 bd 71 55 03 3b
       0.007441255 0.013683638 -0.07506417 0.002003994
000090 f9 9a 07 3b 65 99 c0 bd e4 eb d7 bc 7f f6 01 be
       0.0020691736 -0.09404258 -0.026357599 -0.12691687
0000a0 be bf b6 3d bc 18 9c bc ce 6e 2c 3f 8a 9c 96 bd
       0.08923291 -0.019054763 0.67356575 -0.07354076
0000b0 de 80 23 3f 60 b2 c5 3c e7 cb 39 3f a8 92 87 bd
       0.6386851 0.024132907 0.72576755 -0.06619769
0000c0 65 83 81 bd e2 e1 fc ba be c8 2e 3f 6c 3e 91 3b
       -0.0632389 -0.0019293393 0.6827506 0.00443249
0000d0 b8 de 57 bc b6 64 00 bd bf ef 46 bc 59 1e d4 bc
       -0.013175659 -0.031346045 -0.012142121 -0.025893377
0000e0 1b 3a 1f 3d 2f d6 80 bd 91 b6 72 bd 58 4a 23 3f
       0.038873773 -0.06290852 -0.05925614 0.63785315
0000f0 cb df cb bc fc 56 70 bd 1c 1b 6c bd 3a b7 32 3f
       -0.024886986 -0.058676705 -0.05764304 0.6981083
000100 91 8c 28 3f 70 4c 17 3f e1 d5 26 3d f1 1c 26 bd
       0.6583949 0.5910101 0.040731315 -0.040554944
000110 22 a0 da 3b b4 32 bb bc f0 f1 14 3f af de 0b be
       0.0066719214 -0.022851326 0.5818167 -0.13659166
000120 48 d7 8b bc 00 c1 35 3f a7 21 30 3f 2a cb 1e bd
       -0.017070428 0.7099762 0.6880135 -0.03876797
000130 a1 a8 01 bd 00 ed dd bb 51 b0 3b 3f e6 7b 3c 3f
       -0.031654958 -0.0067726374 0.7331591 0.73626554
000140 ab 92 d3 3c a1 29 ee bc bd c9 85 bd 1e 34 e7 bd
       0.025826773 -0.029072585 -0.06532619 -0.112892374
000150 53 aa bf 3c a4 e5 13 be ec b0 dc bc 95 69 b6 3c
       0.023396647 -0.1444307 -0.026939832 0.022267142
000160 1e 42 c2 3c 67 e0 51 bd 18 b1 13 3f f5 70 13 3f
       0.023713168 -0.051239397 0.576921 0.57594234
000170 a9 e5 8c bd f5 07 2b bd 0f 4a fd 3c 34 4c 83 3d
       -0.06879742 -0.041755635 0.030919103 0.06411019
000180 50 ef e6 bc 66 d8 24 3f ce ab 17 3f 48 51 90 bd
       -0.028190285 0.643927 0.5924653 -0.07046753
000190 85 d1 b3 bd cc c5 1d bd 40 a6 92 bd 3f 00 5d bd
       -0.08780197 -0.038518712 -0.07160616 -0.053955313
0001a0 09 83 57 bc 81 72 38 bd 6b 0f cc bc fb b1 38 3f
       -0.0131538 -0.045031074 -0.024909696 0.72146577
0001b0 b9 46 22 3f ee 33 83 3d d2 df d7 bc 35 8b 0a bd
       0.63389164 0.06406389 -0.026351843 -0.033824164
0001c0 a3 68 34 bd 5c 96 2e 3f fa 5e 92 bd f1 6b b0 bd
       -0.0440451 0.6819818 -0.071470216 -0.08614338
0001d0 3c 75 4d 3d 66 99 04 3d c1 e9 2d 3f 3e e9 e6 bd
       0.05016063 0.032372855 0.67934805 -0.11274956
0001e0 4f 5c 9b bd cf 9e 29 3f e2 1c b4 3c 5a 7f 8b 3d
       -0.07585966 0.6625795 0.021986429 0.068114
0001f0 36 27 7c 3c 2e 22 3b 3f 00 61 aa 3d 5b 78 23 3d
       0.015390208 0.7309903 0.083192825 0.0399097

layer_2.weight f4 [64, 128]
000000 ec 69 67 3d fa fa 15 3d 66 f3 3e 3f b0 1c 3e 3f
       0.0564975 0.036616303 0.74590147 0.74262524
000010 9e 75 17 3d 88 3e c9 bc 51 8b 81 3d c6 94 a9 bd
       0.036977403 -0.02456595 0.063254006 -0.082803294
000020 43 c2 9a 3d c7 d1 16 bd 5a e4 23 3f 11 37 22 3d
       0.07556584 -0.036821153 0.6402031 0.039603297
000030 7b 97 85 3a 16 ad 17 3d d4 c7 6d 3c a7 4f 2d 3f
       0.001019224 0.037030302 0.014512975 0.67699665
000040 82 76 8c 3d db 1e 40 bd 40 4f b1 3d b3 32 67 3d
       0.06858541 -0.046904426 0.08657694 0.056444835
000050 f8 99 04 3d f2 5a 40 3f bc 28 fc 3b 5d 9e 7b 3d
       0.0323734 0.7513877 0.0076952856 0.061430324
000060 b9 20 1d 3f df 1b 5a 3b c3 f0 32 3f 3b 98 d2 bc
       0.61378056 0.0033280773 0.69898623 -0.025707355
000070 60 d3 05 3d da 5a ac bb 0f a1 96 3d 14 84 35 3f
       0.032672286 -0.005259854 0.07354938 0.7090466
000080 56 f6 77 3d 7c 9e dd 3d ac 74 0a 3d f5 74 02 3e
       0.06053766 0.10821244 0.033802673 0.12739928
000090 06 40 87 3d b4 c2 f1 3b 72 ed 77 3d 9a 9f 33 3c
       0.066040084 0.0073779467 0.06052918 0.010963345
0000a0 46 39 22 3c 68 e3 11 bc 08 75 2b 3f 66 05 47 bd
       0.00990135 -0.0089043155 0.6697545 -0.048589133
0000b0 8c b3 32 3f 54 cf b0 bc 01 d6 22 3f 8a 43 9d 3c
       0.69805217 -0.021583237 0.63607794 0.019197244
0000c0 b3 51 ee bc 8c ff a0 bc 24 b3 27 3f a0 8d a8 3d
       -0.029091692 -0.019653104 0.6550772 0.08230138
0000d0 1b a1 d4 bb e4 d8 9f bb af 6b cf bb f7 62 d4 ba
       -0.006488932 -0.0048781503 -0.0063299756 -0.001620381
0000e0 fe be 64 bd 27 67 66 3d 36 d4 2d 3d 6f 27 17 3f
       -0.055846207 0.056250717 0.04243871 0.59044546
0000f0 04 10 e2 3d ba a2 d2 3d f6 bb 13 bd 90 4d 26 3f
       0.11038211 0.10284944 -0.036067925 0.649621
000100 c3 26 3e 3f ea 8c 3d 3f a0 4f 8d bd b0 36 81 3c
       0.74277896 0.7404314 -0.06899953 0.015773147
000110 69 d5 fb 3c b5 e6 aa 3d d0 1a 40 3f 4d 9d f3 3c
       0.03074141 0.08344785 0.7504091 0.029738093
000120 04 b1 9b bc 86 ff 19 3f 15 dd 3d 3f d3 7a 94 3d
       -0.019005306 0.6015552 0.7416547 0.07249989
000130 83 59 eb 3c c8 7b 6d 3c 8d 01 2f 3f 0c 20 3e 3f
       0.028729206 0.014494844 0.6836174 0.7426765
000140 43 a8 d5 bc 4c bf 82 3c f7 24 11 3d 3e d0 10 3e
       -0.02608121 0.015960358 0.035435643 0.14141938
000150 73 10 53 3d 87 bb d9 3c e2 35 93 bd a0 40 0c 3e
       0.05152936 0.026578678 -0.07188012 0.13696527
000160 30 7c f6 bb b4 e9 85 bc 1d 16 2b 3f e5 7b 2d 3f
       -0.0075221285 -0.01634679 0.6683062 0.67767173
000170 ed f1 00 bd 0e df 2b 3d c7 4b 9a bd 49 89 a5 bd
       -0.03148072 0.04196077 -0.07533985 -0.08082826
000180 93 44 02 3e 8c 9a 3a 3f 54 22 27 3f d3 86 87 bd
       0.12721471 0.7289207 0.65286756 -0.066175126
000190 98 b5 a8 bc f0 95 ce bc 6a 6f 33 3d ad 63 a6 3c
       -0.020594403 -0.02521798 0.043807425 0.020311201
0001a0 e8 92 2d 3c e2 fc b1 3b 1f 32 f7 3d a8 34 1e 3f
       0.010594107 0.0054317573 0.12070107 0.617991
0001b0 f7 a3 19 3f d7 a1 5a 3c b6 40 10 3e c5 11 e2 3c
       0.60015815 0.01334425 0.14087185 0.027596364
0001c0 f0 89 3f bb 1e 05 30 3f db da 4e bb 40 39 8a bc
       -0.0029226504 0.6875781 -0.0031563553 -0.016873002
0001d0 28 01 69 3b fc b0 bd bc 3f b5 16 3f 0e 50 48 3b
       0.0035553668 -0.023155682 0.5887031 0.0030565294
0001e0 ad 90 41 3d 46 d2 38 3f e9 61 ee bc 00 01 6f 3c
       0.047257114 0.7219585 -0.029099422 0.014587641
0001f0 2a 47 ac bd 0c 69 1a 3f 08 9b b1 bc 1e c8 1b 3c
       -0.08412011 0.6031654 -0.02168037 0.009508161
000200 85 f0 84 3d 43 94 79 bd 2e f7 40 3d 4a 8e 8f 3d
       0.06491188 -0.06093241 0.04711073 0.07009561
000210 dc 83 c5 3c 15 95 3a bc 57 d0 12 3d 38 83 a0 bd
       0.024110727 -0.011388083 0.03584322 -0.07837528
000220 94 81 82 bd 23 88 4e bd 43 2d 92 3d 70 e0 a7 bd
       -0.06372371 -0.0504228 0.07137539 -0.08197105
000230 b0 e8 20 3b fb a9 8b 3d e2 4d 6b 3d d0 7e d3 bc
       0.0024552755 0.068195306 0.05744732 -0.025817305
000240 01 b6 aa 3d 38 67 0f 3d 78 54 43 bd 7e de ea 3c
       0.08335496 0.035010546 -0.047687978 0.028670546
000250 79 fd 95 3d a4 84 9f bd d4 8e ae 3c 86 aa 7b 3d
       0.07323737 -0.07788971 0.02130834 0.06144192
000260 1d c2 55 bc 22 87 ba 3a 80 59 09 3c 88 e4 af bd
       -0.0130467685 0.0014230947 0.008383155 -0.08588511
000270 68 ef 6e 3a 70 e6 31 3c a8 90 84 3b 61 eb 67 bd
       0.0009114654 0.010858163 0.0040455647 -0.05662096
000280 a3 87 9c 3d e1 6b 8d 3d d3 9d 8a bd 6d 32 71 3d
       0.07643058 0.06905342 -0.06768384 0.05888598
000290 76 99 5e bc 44 ed a0 bc 6d ab 78 bd 81 f1 73 bc
       -0.013586393 -0.019644387 -0.06071036 -0.014889122
0002a0 86 9e 2c bd dc 10 3c 3d f4 7d 39 bd 77 ec ae 3d
       -0.042143367 0.045914516 -0.045286134 0.08541196
0002b0 f0 9e 45 bc 3a 39 82 3d ec 02 76 bd 5c 6f 9e 3c
       -0.012061819 0.06358571 -0.06006138 0.01934021
0002c0 97 9f a5 bd c3 22 38 bd 36 b1 ac 3b ae df 68 3d
       -0.0808708 -0.044955026 0.0052701486 0.056853943
0002d0 5a 0d 38 3d 18 37 07 bd 20 5c 55 3c 86 64 0e 3d
       0.044934608 -0.033011526 0.013022453 0.034763835
0002e0 b3 20 8a 3d d9 a1 98 3d 50 20 0a 3c 69 8c b1 bd
       0.06744518 0.07452745 0.008430555 -0.08669359
0002f0 28 48 bf bc 11 9e 09 3c 0e 2a 9f bd fa a9 c7 bc
       -0.023349836 0.008399502 -0.07771693 -0.024373043
000300 5e 6c ba bc 3b b7 2d bd e0 e8 c0 bc 46 b5 33 3d
       -0.022756752 -0.04241107 -0.023548543 0.043874048
000310 4d bf 72 bd 30 1b 95 bc 22 93 97 bd 22 d5 06 3c
       -0.05926447 -0.01820144 -0.0740111 0.008229526
000320 b1 bb 83 bd a0 98 85 bc 6e 88 21 3d 10 f0 10 bc
       -0.06432284 -0.016308129 0.03943675 -0.008846298
000330 d7 8d e1 3c a9 7b 89 bd 66 3e 09 bd 9c 7d ef 3c
       0.027533455 -0.067130394 -0.033506773 0.0292347
000340 f8 46 85 bd bf 91 b1 3d 32 2e 90 bd 9d 1e 8b 3d
       -0.06507677 0.08670377 -0.07040061 0.067929484
000350 82 0f 97 bd b8 8f f0 3c 27 a5 26 3c e8 da 16 bd
       -0.07376005 0.029365405 0.010171211 -0.03682986
000360 6b b6 68 bd fe 98 98 bd 02 51 ae 3d d0 79 ca bc
       -0.056814592 -0.07451056 0.08511545 -0.024716288
000370 6b 1b ad bd a2 55 e6 3b 01 a4 5a 3d 0a 74 27 3d
       -0.08452495 0.007029251 0.053379063 0.040882148
000380 c5 57 4f bd 78 19 c0 3c d3 77 29 3d ae f1 71 3d
       -0.050620813 0.023449644 0.04137404 0.059068374
000390 49 9a ac 3d a2 56 16 bd 6e f1 fb bc ba 59 30 3d
       0.08427865 -0.036703713 -0.030754771 0.04305432
0003a0 1f 5b 80 3d 6b ad 3b 3d 75 95 88 3d 7d a1 9d bd
       0.0626738 0.04581968 0.06669132 -0.07696817
0003b0 93 66 29 3d 4a 81 b2 3d 16 8a 5d bd 21 e1 23 bd
       0.041357588 0.08716066 -0.054086767 -0.04000962
0003c0 62 f8 af bd ea aa 8a bd 89 63 20 bd 08 6c c1 3b
       -0.08592297 -0.067708805 -0.039157424 0.005902771
0003d0 62 56 55 3c 86 95 52 3d c8 dc 7f bc 6f 3d b0 bd
       0.013021084 0.051412128 -0.015616603 -0.086054675
0003e0 22 64 dd ba 08 25 19 bb 6d 1e aa 3d e5 26 a4 3d
       -0.0016890804 -0.002336802 0.083065845 0.08015231
0003f0 8f 99 83 bc fb a1 a2 bd 14 4c 00 3d e7 d3 9a 3d
       -0.016064433 -0.079410516 0.031322554 0.075599484

layer_2.bias f4 [64]
000000 0b dc 30 3f 3c a8 0e 3d b4 a8 be bd c2 3f 6a bc
       0.6908576 0.03482841 -0.09309521 -0.014297428
000010 18 a5 20 3f 9e 74 80 bd 83 8e 3a 3f fa 7a 1e 3f
       0.62751913 -0.06272243 0.72873706 0.619064
000020 66 7e 92 bd 7b 73 5a bd 09 9d 6c bd 1d 89 1a 3f
       -0.07153015 -0.053332787 -0.057766948 0.6036547
000030 99 8f bd 3b 5e 5c ed bd 88 26 1c 3f 45 59 17 3f
       0.0057849404 -0.11589883 0.60996294 0.5912059
000040 31 64 31 3f 68 8f 27 3f 2a 1f 68 bd 4d 6d 76 bc
       0.69293505 0.65453196 -0.056670345 -0.015040708
000050 d8 6c b7 3c 0b 8d 38 3f 90 67 7c bb c4 aa 18 3f
       0.022390768 0.72090214 -0.0038513876 0.5963557
000060 46 36 62 bd 2a 32 17 3f 50 13 65 bc 99 11 75 bd
       -0.05522754 0.5906092 -0.013981655 -0.059831236
000070 37 37 5a bd 20 0b 4c 3c ad cf fc bd df 53 16 3f
       -0.053275313 0.012453824 -0.123442985 0.5872173
000080 c5 93 dc bd 62 2a 9f bd f8 ec 26 3f 41 34 17 bd
       -0.10770372 -0.07771756 0.65205336 -0.036915068
000090 8e c5 02 bd f5 d6 2d 3f eb 20 2f 3f 50 1a 00 bd
       -0.031926684 0.67906123 0.68409604 -0.031275094
0000a0 48 36 67 bd f4 b8 95 3d 84 78 e1 bd ce 13 ac bd
       -0.05644825 0.07310668 -0.11009315 -0.08402215
0000b0 a8 43 22 3f 06 9c 5a bd 4a 7e 8f 3b 36 e7 6c 3d
       0.63384485 -0.05337145 0.0043790685 0.057837687
0000c0 51 09 a8 bd 2c c1 dc 3c ef c2 30 3f 7f 41 32 3f
       -0.08204902 0.02694758 0.69047445 0.6963119
0000d0 b2 fa 2f 3f f2 98 71 3d 3c 36 30 3f 05 07 82 bd
       0.68741906 0.05898375 0.68832755 -0.06348995
0000e0 c8 2c 5a bd b2 ce dd 3c a8 6c 6c 3c 7f 0c 27 3f
       -0.053265363 0.027076099 0.014430203 0.6525344
0000f0 7c c6 36 3f 27 50 83 3c ac 66 56 bd 39 58 b4 bc
       0.71396613 0.01602943 -0.05234401 -0.022014724

layer_3.weight f4 [32, 64]
000000 39 d4 b4 3a 37 82 66 3d 9f f7 84 3d 0a 2e d9 bd
       0.0013796157 0.056276526 0.064925425 -0.106044844
000010 c0 ea 72 bc 36 ca 83 bd 18 fc 1a be f5 aa de bc
       -0.014826477 -0.06435053 -0.15135229 -0.027181128
000020 31 e8 3e 3d 4e 4b 24 3b 3d 57 4f bd 12 60 0f be
       0.046608154 0.00250693 -0.050620306 -0.14001492
000030 8c c3 e9 3a 30 98 82 bc ad c1 2d be 9f 7b 10 3d
       0.0017834767 -0.01594171 -0.16968413 0.035274144
000040 51 78 0f bc fe a9 1e 3c fd 88 89 3d 7e 88 ce bd
       -0.008756713 0.009684084 0.067155816 -0.100846276
000050 21 dc d9 3c 20 fa c2 bd ec f8 10 bd 7f 9d 86 bc
       0.026594223 -0.09520364 -0.03539364 -0.016432522
000060 9a ca 9f bd ab f3 3b bd 44 5b e4 bd a3 55 48 3d
       -0.07802315 -0.045886677 -0.1115022 0.048909795
000070 ae 7f c7 bd c8 0d a3 3c d1 99 b8 bd cc b5 17 be
       -0.0974115 0.019904032 -0.09013713 -0.14815444
000080 b8 7d a2 bd d0 aa 76 bb 04 10 10 be 94 b0 0e bd
       -0.07934135 -0.0037638433 -0.1406861 -0.034836367
000090 38 54 1c bc ff 50 7c 3d e9 64 a2 3c 26 25 16 be
       -0.009541564 0.06160068 0.019823508 -0.14662609
0000a0 3c bd 2d 3d b0 d2 bc bc 98 ae e5 bd 32 4a df 3d
       0.042416796 -0.023049682 -0.11214942 0.109028235
0000b0 ac c7 10 bd 82 5f bb 3d e8 85 25 3d 32 65 93 bd
       -0.035346672 0.09149076 0.040410906 -0.07197036
0000c0 d9 1d 6c bd 58 0b d0 3d 5e 04 de bd d6 e0 bf bd
       -0.057645652 0.10158414 -0.10840677 -0.09369056
0000d0 66 96 e5 bc 58 e8 0d bd 33 f3 2c 3d b8 af f7 bd
       -0.028025817 -0.03464541 0.04222412 -0.120940626
0000e0 42 2a 57 3c 15 e0 50 bb 7e 00 ac bd 2a 3a 0c 3c
       0.013132634 -0.0031871845 -0.083985314 0.008558789
0000f0 e3 01 e1 bd 76 ce d3 bd bb 52 80 3d fc fc 87 bd
       -0.10986688 -0.10342114 0.062657796 -0.0664005
000100 0e a7 6a 3d 74 e7 da bd 88 2f a4 bc f4 74 56 3d
       0.057288222 -0.106886774 -0.020042196 0.05235763
000110 f8 27 29 3d 12 8a 35 3c a8 7c 4a b8 98 4c 93 bd
       0.041297883 0.011080282 -4.8276648e-05 -0.071923435
000120 1f 65 d5 3d 30 b2 9f bc f1 68 c6 bd 60 62 d1 bd
       0.10419678 -0.019494146 -0.09687985 -0.10223842
000130 88 5e c1 3c f4 89 53 3d 34 5f 3d bd 78 7a e8 bd
       0.023604646 0.051645234 -0.04623337 -0.11351484
000140 28 95 5b 3d ee 83 f9 3d db dc e7 3d 60 73 81 3c
       0.053609043 0.12183367 0.11321422 0.015802085
000150 0c 32 e0 bd eb b1 c7 bd 35 17 3c bd 1a e8 c5 bd
       -0.10947046 -0.09750732 -0.04592057 -0.096634105
000160 10 9e 4b 3c 5c 51 8d 3d 12 c0 f1 bd 3f 82 e9 bd
       0.012427822 0.06900284 -0.11804213 -0.114017956
000170 20 d4 70 3d c1 3f fd bd 98 e0 25 3c 0c c2 8a bd
       0.05879605 -0.12365676 0.010124348 -0.06775293
000180 d9 51 fb 3d 28 a8 82 bd 43 96 95 bc 15 29 5c bb
       0.122714706 -0.063797295 -0.018260127 -0.0033593823
000190 4a 3c 02 bd 77 d0 c6 3d bb 22 91 3d 5c e8 68 bd
       -0.031795777 0.0970773 0.070867024 -0.05686222
0001a0 b3 89 af 3d 10 03 b0 3c 3c 62 26 bc 40 6e b0 bd
       0.08571186 0.021485835 -0.010155257 -0.086147785
0001b0 e8 1e ca bd 68 7e be ba c8 db 24 bb b0 83 73 3c
       -0.09869176 -0.0014533522 -0.0025155414 0.01486294
0001c0 03 aa 38 3d 78 5b c1 3c 5a 1f 8d bd a8 51 ca ba
       0.04508401 0.023603186 -0.068907455 -0.0015435712
0001d0 30 f5 0c bd de c6 c7 3d de 4b b1 3d d2 9d ba bb
       -0.034413517 0.09754728 0.08657049 -0.005695083
0001e0 00 29 13 3d 38 36 8c bc a0 21 6a 3d 84 c3 e3 3d
       0.035927773 -0.017115697 0.057160974 0.11121276
0001f0 68 14 8d 3b 28 68 e5 bd 94 fc f5 bd 5e 82 14 3d
       0.004305411 -0.11201507 -0.12011066 0.03625714
000200 5d 48 2a 3f e0 35 c7 bc 4c 0b d3 bd 87 93 71 3d
       0.6651667 -0.024317682 -0.10304889 0.058978584
000210 73 3b 16 3f 57 49 9d 3d f0 0f 3a 3f 63 2c 1e 3f
       0.5868446 0.07680004 0.7268057 0.6178648
000220 20 84 6a 3d 2e 54 4a bd 7c 5a 47 3d 7d 7a 3a 3f
       0.05725491 -0.049396686 0.048670277 0.7284315
000230 89 76 ae 3d e7 d0 70 3a cf 6e 25 3f 72 dd 36 3f
       0.085187025 0.00091864023 0.64622205 0.7143165
000240 ed 4d 4c 3f 38 7c 30 3f fe 3d f7 bd ce b9 ff bd
       0.79806405 0.6893954 -0.12072371 -0.12486611
000250 43 36 2c bd 24 8c 3c 3f 7b a4 38 bd 39 ec 1e 3f
       -0.042043936 0.7365134 -0.045078736 0.620792
000260 38 2d ff 3c 63 2c 0c 3f 34 be a6 bc fc 2b 91 bd
       0.031149492 0.5475523 -0.020354368 -0.070884675
000270 84 05 63 bd 69 84 7d 3d 03 5e 0a 3d d1 66 34 3f
       -0.055425182 0.061893854 0.033781063 0.70469385
000280 22 52 dc 3c d8 5a 18 bd 02 0b 45 3f f4 97 c2 bd
       0.026894633 -0.03719601 0.7696992 -0.09501639
000290 19 89 8f 3d 1b a2 41 3f 87 30 19 3f 53 38 ef bd
       0.07008571 0.7563798 0.5983967 -0.11680665
0002a0 88 b4 84 bc 28 7a b0 3d 01 17 32 bd 82 ae e4 3d
       -0.016199365 0.086170495 -0.04347897 0.11166097
0002b0 fd 9d 19 3f e9 fe 6f 3d ad 67 cc bd 4e 98 91 bd
       0.60006696 0.05859271 -0.09980712 -0.07109128
0002c0 d1 0b fc bd 0b c4 f8 3d 85 64 2b 3f e2 79 32 3f
       -0.12306941 0.12146767 0.66950256 0.6971723
0002d0 4a 8c 41 3f a4 ca 94 bd ea a2 45 3f 30 b8 fc 3c
       0.7560469 -0.07265213 0.7720171 0.030849546
0002e0 a3 06 f4 bd 11 f3 d8 bc 03 2b d1 bd 44 33 40 3f
       -0.11915328 -0.02648309 -0.10213282 0.75078225
0002f0 1b bf 38 3f 06 43 86 bd 40 7d f9 b9 cd 16 36 3e
       0.72166604 -0.065557525 -0.000475863 0.17782135
000300 e5 89 c7 bd 40 f5 77 bd a1 27 72 3d 46 df a8 bd
       -0.09743098 -0.060536623 0.059119824 -0.08245711
000310 3a 91 c1 bd 1c ec 80 bd 22 d8 77 3c d1 65 2d be
       -0.09451528 -0.06295034 0.015127214 -0.16933371
000320 b4 de d0 bd 5f b9 37 be 63 77 c0 3d 51 22 6b 3d
       -0.10198727 -0.17941807 0.09397771 0.057405774
000330 3e 2c b8 bd 5b f5 ce bb 01 34 67 bd 91 11 be 3c
       -0.089928135 -0.0063158697 -0.05644608 0.023201736
000340 a0 43 c1 3d 5f eb 72 bd 3f 59 7a bd 2c cb 49 3d
       0.094367266 -0.0593065 -0.061120268 0.049266025
000350 a4 df db 3c a9 6f 36 be a4 47 e6 bd 9c 7f 47 bd
       0.026840039 -0.17816032 -0.11244133 -0.048705682
000360 f2 ca 8e 3d f9 cf 0f be af bd cc 3c f8 f0 f7 3c
       0.069723025 -0.14044179 0.024992792 0.03026627
000370 33 97 fd bc 05 a8 ec 3c cc b9 a4 bd a8 be 01 3d
       -0.030955886 0.028888712 -0.080432504 0.031675965
000380 fe ed 15 3d 21 a5 ba 3d e0 13 0d be 88 16 93 3a
       0.03660392 0.09113527 -0.13777113 0.0011221925
000390 c0 7e c4 3c 7f d1 ea 3d 9e 55 b6 3d 23 63 47 3b
       0.02398622 0.114657395 0.08903049 0.003042408
0003a0 db 7c ac bd dc 49 18 bd b7 47 eb bb b8 1f 26 3d
       -0.08422252 -0.037179813 -0.00718018 0.040557593
0003b0 f6 43 87 3c 43 8d 80 3d 68 4a 82 3d 49 45 8b bc
       0.016511898 0.062769435 0.06361848 -0.017000811
0003c0 16 d8 00 3c 8c df 95 3c 0a fd 7c 3d 5d 53 3b 3d
       0.007864019 0.018295072 0.061764754 0.0457338
0003d0 e2 2c 4c 3d 2c 5b 51 3d 48 a6 c2 bd e6 b8 93 bd
       0.04984749 0.05111234 -0.09504372 -0.07213001
0003e0 45 bd 22 3d e7 9e 80 3d c0 de 56 bd 11 89 6f bc
       0.039731283 0.06280308 -0.052458525 -0.0146200815
0003f0 45 48 39 be 32 74 08 be 86 48 9b bd ee 55 20 3d
       -0.18093975 -0.13325575 -0.07582192 0.03914445

layer_3.bias f4 [32]
000000 2a 56 da bc 45 1a b9 3b 90 1b 14 3f ad 5f 19 be
       -0.026652414 0.0056488835 0.5785456 -0.14977904
000010 59 11 1a 3f ba 71 00 3f 36 21 87 bd 77 7d fd bd
       0.6018272 0.5017353 -0.06598131 -0.12377446
000020 25 b6 0a 3f ab 73 0c 3f 85 5f 31 bc 2f d1 b5 bd
       0.5418418 0.54863995 -0.010825996 -0.08877789
000030 05 5b 1a bc cd 40 1d 3f 0c 79 eb 3e 3e e2 87 bb
       -0.009421115 0.61427003 0.4599079 -0.004146843
000040 66 f3 1d be b7 db 26 3f 43 bb c7 3c 36 8c bb 3a
       -0.1542488 0.6517901 0.024381286 0.0014308754
000050 e2 21 e8 3c b2 fb 0c 3c a8 3c dc bc a0 99 47 be
       0.02833647 0.008604931 -0.026884392 -0.19492197
000060 e3 9d 35 3f 4d 47 f7 bd ec e7 92 b9 85 df a6 bd
       0.7094404 -0.120741464 -0.00028020085 -0.08148102
000070 83 2b a0 bd 6c e1 11 3f 01 15 27 3f 8a ff 58 bd
       -0.07820799 0.5698459 0.65266424 -0.052978076

layer_4.weight f4 [16, 32]
000000 5b 5c a5 3d 8f 68 bd 3d db 76 e4 3e 06 51 e3 3d
       0.08074256 0.092484586 0.4462193 0.11099438
000010 8c 10 e2 3e 67 01 3b 3e 92 86 37 bd e4 ff 3b 3e
       0.4415325 0.18262254 -0.04480607 0.18359333
000020 6c a2 8e 3e 55 70 b3 3e 44 a9 16 3e 18 47 f0 3c
       0.27858293 0.3504664 0.14713007 0.029330775
000030 91 c7 88 3d 52 24 bd 3e 18 ae c8 3e dc ce d7 bd
       0.06678689 0.36941773 0.39195323 -0.10537502
000040 8f 06 30 3e 9b 15 34 3e c9 0f 8e bd 6c 92 0a 3d
       0.17190002 0.17586367 -0.069366045 0.033831045
000050 6e 74 5b 3e 4d c2 8e 3d f0 0b a4 bc fd 66 0e 3d
       0.21431133 0.06970654 -0.020025223 0.034766186
000060 cb b2 65 3e 79 62 29 3e 3c fe 58 3e f1 aa 94 3d
       0.22431485 0.1654147 0.21190733 0.07259167
000070 fe 62 9c 3d ce 5c f4 3e ae c8 02 3f 00 3b 69 bc
       0.07636069 0.47727054 0.5108746 -0.014235258
000080 ec 11 dd bd 4b 33 0e be 1f b0 df bd f5 39 1f be
       -0.10794434 -0.13886754 -0.10922264 -0.15549453
000090 48 b4 7b bd c9 46 99 bd b1 a2 6c bd 8c 15 21 bd
       -0.061451226 -0.07484204 -0.057772342 -0.03932719
0000a0 e5 ab 10 be 0f dd aa 3d 3b be e1 3d 80 71 d9 bd
       -0.14128073 0.08342945 0.11022612 -0.106173515
0000b0 be e4 c3 bd cf 13 9d bc cc 45 0a 3d 88 3a 93 bc
       -0.095651135 -0.019174485 0.03375797 -0.017972246
0000c0 b0 74 2d bc 5d c4 e4 3b 95 61 91 bd a8 4a a4 3c
       -0.0105869025 0.006981416 -0.070986904 0.02005513
0000d0 db 07 2b 3e d9 d5 d6 3d f0 47 f6 3c b1 35 d8 bd
       0.16702215 0.10490007 0.0300636 -0.10557116
0000e0 55 dc de bd d4 f2 dd bd a1 0c bc 3d 00 cb 42 bc
       -0.10881869 -0.108373314 0.09182096 -0.011889219
0000f0 45 eb 35 bd a2 7d 19 be 7f 89 9e 3d 9d cc 24 be
       -0.044413824 -0.14989331 0.07741069 -0.16093679
000100 b2 b5 89 bd fb 8b 11 3e 27 8c c6 3d a8 59 88 3d
       -0.06724109 0.14213555 0.09694701 0.066577256
000110 3b 7c 2c be f4 4c 69 3d 8a 4a d3 bd a0 aa 6b 3d
       -0.16844265 0.056958154 -0.103169516 0.057535768
000120 77 1c 89 bc 2d 19 4d be 9b 44 25 bd ca 62 b4 bd
       -0.016737206 -0.20029135 -0.04034863 -0.08807905
000130 58 d5 15 3e 45 c1 24 3d 34 c7 04 be 4c 9a 47 bd
       0.14632165 0.04022338 -0.12966615 -0.048731133
000140 51 47 51 3d 8e 2c 53 be 3c 8e be 3d 3c 77 f7 3d
       0.051093403 -0.20622465 0.09304473 0.12083289
000150 80 16 8c 3c b0 28 7d be 2e 69 a6 3d 46 56 52 be
       0.017100573 -0.24722552 0.0812553 -0.20540723
000160 e2 13 0b 3d b4 5a f3 3d f0 15 cc bc 97 c8 a2 3d
       0.03395451 0.118825346 -0.024912804 0.07948416
000170 63 16 0e be 91 54 96 bd 24 64 f9 bd 41 c3 bb bd
       -0.13875727 -0.073403485 -0.121773034 -0.09168101
000180 1b 79 ee bd 56 ae af bd a5 20 55 be 7c 2d 9e bd
       -0.11644193 -0.08578174 -0.20813234 -0.07723519
000190 48 6e 3f 3d 1d 76 09 be c2 1c f4 bd 31 ce ea bd
       0.04673603 -0.13423963 -0.119195476 -0.11465109
0001a0 40 57 1e 3b 84 32 5e 3d 3e 29 32 be 02 0d 83 3d
       0.0024160892 0.054247394 -0.17398545 0.063989654
0001b0 7d 1f 20 3d 1f d0 c0 bd 30 b5 25 3d da a7 02 be
       0.03909253 -0.09414696 0.040455997 -0.12759343
0001c0 34 46 c7 3c 5b 46 85 3d b4 1b d9 bd da ba 67 bd
       0.024325468 0.0650756 -0.10600987 -0.05657468
0001d0 70 91 0a be 1d 6c a0 3c 83 9d 1d be 5c 7c 78 bd
       -0.13532043 0.019582802 -0.15392117 -0.060665473
0001e0 b7 e0 68 be cc 77 27 be dc 36 56 bd da df c0 bd
       -0.22741972 -0.16354293 -0.05229841 -0.09417696
0001f0 f2 1c 28 be 58 09 3b be 98 a4 58 be 26 2b f5 3d
       -0.16417292 -0.18265283 -0.21156538 0.119711205
000200 13 e1 97 bc 48 4d ca 3c 0f 7a 92 3e 9c f7 b9 bc
       -0.018539941 0.024695054 0.28608748 -0.022701077
000210 1f ff b8 3e 1a c3 82 3e 64 8f 17 3e 56 17 2a bd
       0.36132142 0.25539476 0.14800793 -0.04152616
000220 98 7b 7f 3e 66 46 d5 3d 3f 1f f0 bc ae 86 5c bd
       0.24949491 0.10413818 -0.029311774 -0.053839378
000230 9c 47 c7 bd bd 8b d0 3e a1 7f 9c 3e a4 bd e8 bd
       -0.09730455 0.40731612 0.30566123 -0.11364296
000240 b3 95 6b 3d d5 6a c2 3e 16 ab 4c 3e 4f f0 52 3d
       0.05751581 0.3797213 0.19987139 0.051498707
000250 ec c1 55 bd 2a 06 d6 3c ee bc e4 3d e0 1f 56 bd
       -0.05218689 0.026125986 0.11168848 -0.052276492
000260 47 f0 b0 3e 9f db e9 bd 84 d2 26 bd 05 55 d8 bd
       0.34558317 -0.114188425 -0.040728107 -0.10563091
000270 c3 e2 23 3e 0d 1f b2 3e 25 a0 6c 3e c3 50 e3 3d
       0.16004471 0.34789315 0.23107965 0.110993885
000280 12 9e 19 3d 8d 55 0a be aa 26 2c 3f 1b 89 9e bd
       0.037504263 -0.13509198 0.67246497 -0.077409945
000290 26 da 30 3f 1f 54 2b 3f c1 2c c6 bd 99 cd 63 3d
       0.6908287 0.66925234 -0.09676505 0.055615995
0002a0 19 c0 03 3f 8b 3a 06 3f 64 9e 5a bd 09 b4 07 be
       0.5146499 0.5243308 -0.05337371 -0.13252272
0002b0 82 d0 de bd 0d 0a c0 3e 63 34 36 3f eb eb 0a be
       -0.108796135 0.37507668 0.71173686 -0.13566558
0002c0 4e 9e 29 3d 2d 9d ff 3e f0 48 e0 bd 48 c7 eb 3c
       0.041410737 0.49924603 -0.10951412 0.028781548
0002d0 df 92 26 be 98 12 98 3d cd 1d 21 3e 38 bc 40 3e
       -0.16266964 0.074254215 0.15734024 0.188218
0002e0 8d 26 35 3f 2e 45 37 be 07 79 9d bd db b1 11 be
       0.7076195 -0.17897484 -0.076891 -0.14228003
0002f0 e1 e3 d5 bd ba d8 05 3f 1d ff 14 3f 16 7d 20 3d
       -0.10443855 0.52283823 0.5820177 0.03918179
000300 92 5f fa 3d 88 e8 90 3d fa 82 5f 3f b8 78 62 bd
       0.1222526 0.07075602 0.8730923 -0.055290908
000310 fb 03 25 3f 40 0a 2e 3f 29 34 2a 3e b3 55 1f be
       0.644592 0.6798439 0.1662146 -0.15560035
000320 59 67 54 3f 4b 01 33 3f 11 82 08 bc 04 72 1a be
       0.82970196 0.6992385 -0.0083317915 -0.15082556
000330 8e 09 97 3d 7f c8 79 3f 2c a4 50 3f e0 b2 8b 3b
       0.07374869 0.9757156 0.81500506 0.004263267
000340 9a 7f 25 be ee 64 32 3f df 6f b6 3d b4 72 51 3c
       -0.16161957 0.69685256 0.089080565 0.012783695
000350 e3 f0 d1 bd 76 f4 5e bd 62 2e b0 3d d7 f2 5d bb
       -0.102510236 -0.054432355 0.08602597 -0.0033866668
000360 36 33 7c 3f 5d 36 37 3e 34 c5 e8 3d 31 c1 ea bd
       0.9851564 0.17891832 0.113657385 -0.114626296
000370 2d 0c b1 bc 04 f1 61 3f 2d ff 4f 3f b8 57 64 bd
       -0.021612251 0.88258386 0.8124874 -0.055747718
000380 d0 f7 77 3d 2d f8 b8 3b a9 63 2d 3e 99 38 12 3e
       0.060539067 0.0056448192 0.16932549 0.14279403
000390 4a c8 5f bd 6e 66 15 be cd b1 76 bc 77 d4 17 be
       -0.05463437 -0.14589855 -0.015057039 -0.14827143
0003a0 5d 06 1b be 72 d9 22 be e4 70 62 3d 58 08 ec 3a
       -0.15139146 -0.15903261 0.055283442 0.0018007858
0003b0 f3 ab 15 3c 18 01 98 3c 55 88 ec bd f3 72 13 3e
       0.009135234 0.018555209 -0.11549441 0.14399318
0003c0 87 a6 bb bd 35 d4 33 be 47 3e 2c 3e 19 21 08 be
       -0.09162622 -0.1756142 0.16820632 -0.13293876
0003d0 13 dc 99 bd 58 ca 31 bd 96 fd f4 3d 4c 8c df bd
       -0.07512679 -0.04340586 0.1196243 -0.109154314
0003e0 4b 4a ed bd 9d 6b b2 bd a4 c0 a7 3d 94 32 23 be
       -0.11586436 -0.08711932 0.0819104 -0.15937263
0003f0 96 ad 8d 3d 02 42 a1 bd bb b2 00 be aa 14 d8 3d
       0.069178745 -0.07873918 -0.1256818 0.10550816

layer_4.bias f4 [16]
000000 d8 71 04 3f 99 21 a7 bc 4d 35 51 be 1b bc 21 bd
       0.5173621 -0.020401763 -0.20430489 -0.039486032
000010 88 95 c0 3e 6f 71 13 3f 4e c9 39 3f 98 b2 04 bd
       0.37614083 0.5759496 0.7257279 -0.032396883
000020 37 79 c7 bc ac 6e ef bd ad d6 17 be c1 0e 10 3f
       -0.024349792 -0.11691031 -0.14827986 0.5627251
000030 65 5a ee 3e f1 2c 94 bc 54 05 ec 3e 95 48 87 bd
       0.4655334 -0.018087836 0.46097815 -0.06605641

layer_5.weight f4 [120, 16]
000000 3f 7c 1e 3e 97 e4 8c 3e 6c 97 e7 bc b1 a7 6c 3e
       0.15477084 0.2751815 -0.028270446 0.23110844
000010 7e ab c2 3e 08 0a 16 3f ab f7 fe 3d 80 a9 0e 3e
       0.38021463 0.58609056 0.12449583 0.13931847
000020 a0 af f3 3a 2e 7f 5d be 18 79 31 be bc 69 9a 3e
       0.0018591769 -0.21630546 -0.1733135 0.30158794
000030 94 26 7b 3e 1f 50 d9 bd eb c7 08 3e bf ec 8e 3c
       0.24526435 -0.10610985 0.13357513 0.017446874
000040 df 64 2f bc c8 d0 2c 3e 80 e7 9d 3e c9 af ba 3d
       -0.010705202 0.16876519 0.30840683 0.091155596
000050 e6 13 a0 ba 37 19 52 3e 92 59 e5 bc 20 e7 e3 bc
       -0.0012212961 0.20517431 -0.027996812 -0.02782017
000060 48 43 2c 3e e8 70 04 bd ec ff f1 bd 0a b7 b2 bd
       0.16822541 -0.03233424 -0.11816391 -0.08726318
000070 94 86 32 be 0f 44 4a 3e 96 18 0f 3e e5 5a 7e bd
       -0.1743415 0.19752525 0.13974223 -0.062098403
000080 ee 34 21 3e 2d a8 89 be e8 e4 55 3e 35 83 17 bd
       0.15742847 -0.2688612 0.20888102 -0.036990363
000090 4a 8f 68 be 94 57 a2 bd 74 e6 ed bd dc 28 3e be
       -0.2271091 -0.079268605 -0.11616221 -0.18570274
0000a0 59 19 1d 3e 04 ce 45 3e 1c ec 4c 3e 5d 9e 7d 3d
       0.153417 0.1931687 0.20011944 0.061918605
0000b0 b0 d1 20 3e ab 14 0e 3e 6f 20 56 3d 87 27 88 3e
       0.1570499 0.13875072 0.052277025 0.26592657
0000c0 3e bf 23 be 3a 09 6d bd 13 1a d3 3d b8 9d 4b 3e
       -0.15990922 -0.057870127 0.10307708 0.19884384
0000d0 4b 2b 25 be a0 56 db bd cb ad 5c 3e 18 c1 10 3c
       -0.16129796 -0.10709882 0.21550672 0.0088351
0000e0 29 d9 dd bd ec 30 d0 3d a7 29 1a be 37 0d 02 be
       -0.10832436 0.10165581 -0.15054952 -0.12700354
0000f0 be 22 3b 3e 4a 3a b5 bd b4 60 36 bd 1c 49 93 bd
       0.18274972 -0.088490084 -0.044525817 -0.07191679
000100 6b bc 52 be c7 0a 38 3d a4 89 8c 3e b9 d3 96 3b
       -0.20579688 0.044932153 0.2744876 0.004602876
000110 5d ad 3a 3e b0 65 10 3e 7d de 2c bd 78 87 b3 bd
       0.18230195 0.1410129 -0.04220437 -0.08766073
000120 73 f7 8c 3e 88 10 f6 bd 52 f7 44 be d2 99 89 3d
       0.2753254 -0.12014872 -0.1923497 0.06718792
000130 54 8d 86 3d 04 69 eb bd 5f a2 4e be 11 38 a1 bd
       0.06569925 -0.114946395 -0.20179127 -0.07872022
000140 0f 25 ec 3d 5d fe 3f 3e 88 8e 15 3e f3 8d ea 3d
       0.11530506 0.18749376 0.14605153 0.11452856
000150 43 09 28 3e 5f 15 3c bd a7 a5 ba 3d 80 eb 51 3d
       0.16409783 -0.04591882 0.09113627 0.05124998
000160 15 00 e3 bd c8 7b 1e be 96 27 16 3e 8e e1 90 bd
       -0.11084 -0.15476906 0.14663538 -0.07074271
000170 83 a1 39 be 35 09 e6 3c 24 9a 27 ba 48 b5 42 3e
       -0.18128018 0.028080562 -0.0006393513 0.19014466
000180 e0 39 50 3f f6 43 27 3f 2a 43 7b bd db e8 72 3d
       0.8133831 0.65338075 -0.06134335 0.0593041
000190 08 18 61 3f fd 84 28 3f 4b 14 1b 3f 09 c1 26 3e
       0.87927294 0.65827924 0.6057784 0.16284575
0001a0 50 00 5c 3e 8c d6 7a 3e e0 55 42 3e 75 de 46 3f
       0.21484494 0.24495906 0.18978071 0.7768319
0001b0 d7 73 24 3f 18 b1 8b 3e 0b a8 a3 3e d7 e7 fd bd
       0.6423926 0.2728355 0.31964144 -0.123977356
0001c0 98 4b 23 be c7 db a0 bc 45 a7 b7 3c a2 63 db 3d
       -0.15946805 -0.019636048 0.022418628 0.10712363
0001d0 4b 6f 52 3e 56 fe 1f be 7b ba 3f bd 3b 67 75 be
       0.20550267 -0.15624365 -0.0468087 -0.2396516
0001e0 50 fd 7a 3e 8e 03 bd 3d 64 47 69 bd bb be 3f 3e
       0.24510694 0.09229194 -0.05695285 0.18725102
0001f0 78 59 dc 3d c9 d8 25 bd d8 14 2a be 40 0f 02 3e
       0.10759252 -0.040489946 -0.16609514 0.1270113
000200 9e 3a 4c 3d 0a 95 73 be 4a e2 15 be 49 c3 5b 3d
       0.04986059 -0.23787323 -0.14637104 0.053653035
000210 d8 67 5e 3d a4 27 87 be 4d 03 f9 3d 5b 66 52 3d
       0.054298252 -0.2639743 0.12158833 0.051367145
000220 57 cb 27 be 0e 12 61 3e fd 20 14 3e 03 30 d2 3d
       -0.16386162 0.21979544 0.14465709 0.10263064
000230 08 88 7b bd 43 4a ac bd 10 28 57 3c d7 da 8b 3e
       -0.061409026 -0.08412602 0.01313211 0.273154
000240 e2 92 93 bd 1d c5 57 3e 63 28 2b be d7 bd 0a 3e
       -0.0720575 0.21071286 -0.16714625 0.1354898
000250 aa aa a9 3d ca 07 44 3c e1 33 11 3e 87 9b f8 bc
       0.08284505 0.011964748 0.14179946 -0.030347599
000260 80 ab 5f 3e cc aa d9 bd 04 5e 42 3e 69 fd fc bd
       0.21842766 -0.1062828 0.18981177 -0.12353022
000270 f2 a6 e9 3d 2b 21 81 3e 26 80 57 be 35 8c 09 be
       0.114087954 0.25220618 -0.21044978 -0.13432391
000280 4b 34 88 3e d3 cb 11 3e b1 04 d6 bd b6 33 91 3e
       0.26602396 0.14237909 -0.104501136 0.28359765
000290 aa 60 a0 3e ed c5 ab 3e 0f a6 2c bd d2 08 70 3e
       0.3132375 0.33549443 -0.042150553 0.23440865
0002a0 17 f3 b9 bd 58 08 4d 3e 61 d4 6c be 47 44 6f 3e
       -0.09079569 0.20022714 -0.23127891 0.2336589
0002b0 96 cb c9 3d d2 d4 8a 3e 4b c6 1f be ee 07 2c bd
       0.09853284 0.27115494 -0.15602987 -0.04199975
0002c0 87 97 25 be 5d 44 62 3d d0 72 64 3e 0e d4 bf 3d
       -0.16171084 0.055240978 0.22309422 0.09366618
0002d0 96 55 d5 3b ac 08 a5 bc d2 f0 c9 bd eb 61 7a be
       0.006510447 -0.020145737 -0.09860386 -0.24451415
0002e0 c7 3f 49 3e 05 e6 7b be 3c 6e 01 3e 82 59 64 3d
       0.19653235 -0.24599464 0.12639707 0.055749424
0002f0 2b f4 ba 3d e7 74 d5 3d e0 a7 0e 3e 81 8a e3 3d
       0.091286026 0.10422688 0.13931227 0.11110402
000300 05 d2 4f bc 2d af 75 3d ac 64 40 bc f6 b1 ff bd
       -0.01268435 0.059981514 -0.011742752 -0.12485115
000310 9e bb 88 ba 80 b6 c6 bd 2c cc b7 3d 53 59 20 3e
       -0.0010431891 -0.09702778 0.089744896 0.15659074
000320 be d3 ac bc 48 8e ab 3b 18 95 52 3e 27 35 a5 3d
       -0.02109706 0.005235467 0.20564687 0.08066779
000330 43 a3 fe bd a3 12 0f be b5 59 45 bb 2b f2 82 3e
       -0.124334835 -0.13971953 -0.0030113284 0.25575384
000340 07 0b 82 bd 4b 08 10 be 22 f9 23 be 77 6c 08 3e
       -0.063497595 -0.14065664 -0.16013005 0.13322626
000350 c0 19 f4 3d 4b dd 00 be 67 9a 04 3e 26 02 30 3e
       0.11918974 -0.12584417 0.12949525 0.1718832
000360 1e bc 61 bd de 9d 51 3e 81 58 71 3c 46 5b 3c 3d
       -0.055111043 0.20470378 0.014730574 0.045985483
000370 28 22 da 3d 8d a6 88 3d 94 4a ab be be b6 0a be
       0.10651046 0.06672392 -0.33455336 -0.13546273
000380 d7 8d 95 bd 14 4f 4e 3e 28 8e 1a 3d eb 34 06 3e
       -0.073024444 0.20147353 0.037733227 0.13106124
000390 15 f2 a0 3b 7a a2 f0 3d a4 b7 27 bd c0 7e 48 3c
       0.004911671 0.1174974 -0.040946618 0.012237251
0003a0 2d 39 7f 3e 10 06 ab bd 0a 2f 15 3e 2a ca 30 bd
       0.24924155 -0.08350766 0.14568725 -0.04316155
0003b0 c2 95 a6 3e 73 00 f1 3d 51 f8 77 3e 80 31 45 3e
       0.3253613 0.11767664 0.24215819 0.19257164
0003c0 09 8e bf 3d 58 57 b4 3d 8d 4c 14 be 62 d8 ac 3d
       0.09353263 0.08805722 -0.14482327 0.08439709
0003d0 65 5f 97 bd 1c 5a ce 3d cc ea f6 bd 7a 78 0b be
       -0.07391242 0.10075781 -0.12056503 -0.13620177
0003e0 da d8 74 3d 6c a9 ee 3d e6 50 60 3d ad 45 19 bd
       0.05977712 0.116534084 0.05476465 -0.037419964
0003f0 b5 8c 7a 3c 70 5a ef 3d 9d 70 d2 3d 7b 61 b0 3d
       0.015292336 0.116871715 0.102753855 0.08612343

layer_5.bias f4 [120]
000000 ce 88 53 3e 70 52 8f 3e 62 01 8f 3e 75 d9 58 bb
       0.20657656 0.27992582 0.27930743 -0.00330886
000010 a6 72 84 3e 9d 78 7d be bf fb d0 3e 67 6c fd bc
       0.2586872 -0.24753042 0.40817067 -0.03093548
000020 65 86 ee bc 4d 72 9f 3e d8 02 e2 3e 37 84 95 3c
       -0.029116819 0.31141892 0.44142795 0.018251522
000030 8f 7e 1a 3e 9d f2 f8 bd 19 c3 0d 3f db 2a 24 3e
       0.15087341 -0.1215565 0.5537582 0.16031973
000040 c6 87 9e 3e e5 3b 84 3e a1 77 dc bc 1b a2 89 3d
       0.30962962 0.25826946 -0.026912512 0.06720372
000050 66 e6 01 be 08 be 27 3d 84 4d d2 bd 3e 71 97 bb
       -0.12685546 0.040952712 -0.10268691 -0.004621654
000060 5d 97 99 3e c0 25 36 bc 73 91 9b 3e 7b 05 0a 3d
       0.29998294 -0.011117399 0.30384406 0.033696633
000070 a1 68 d8 3d 2d b2 8b 3e a4 17 25 be 68 b4 46 3e
       0.105668314 0.27284375 -0.161223 0.19404757
000080 a6 61 6c 3e 16 56 55 bd df 08 ee bd b6 70 56 bd
       0.23084125 -0.05208405 -0.11622786 -0.052353583
000090 68 15 ae 3d d6 9a fa bd 49 36 e7 3e af ff 8e 3d
       0.08500177 -0.12236564 0.45158604 0.069823615
0000a0 9e f2 50 3e 56 21 81 39 71 4f 94 3e 61 8c 2a 3f
       0.20405051 0.00024629635 0.2896686 0.6662045
0000b0 65 88 b5 3e ee e0 12 3e 6d 92 06 be d3 a6 cf 3f
       0.35455623 0.14343616 -0.13141795 1.6222786
0000c0 76 c8 b5 3d 73 59 89 3e cc e3 39 3e 44 ed ce 3d
       0.088761255 0.26826057 0.18153304 0.101038486
0000d0 ae 0a 9a 3e f8 40 5a 3e e6 4d a7 3e b3 f9 c1 3c
       0.30086273 0.21313846 0.3267662 0.023678636
0000e0 cb 64 c6 3e d4 9b 97 bc be b5 b1 3e ab ae 83 bc
       0.38748774 -0.018506922 0.3470897 -0.0160745
0000f0 7a 35 19 bd 3c d8 c1 3e cb 6e 9c ba 79 e3 65 3e
       -0.037404515 0.37860286 -0.0011934874 0.22450055
000100 2c d2 41 3e 9b a8 bf 3e 95 2b f4 3d fd ae 42 3e
       0.1892783 0.37433323 0.11922375 0.19012065
000110 ba eb fb 3f 8f 39 17 bc 0a c0 e4 3d 86 2e 81 3d
       1.9681313 -0.009230032 0.11169441 0.06307702
000120 cb 2a 32 3e b9 9d 23 3d f2 6d 50 3e 57 12 1f be
       0.17399137 0.039945338 0.20354441 -0.1553434
000130 a4 35 c2 3b ac e3 1b bd 24 7d a7 3e ce 35 34 3e
       0.0059268046 -0.03805892 0.32712662 0.1759865
000140 7a 67 f5 3d f0 dd 54 3e 79 6a 25 3c 20 04 d5 3d
       0.11982627 0.20787787 0.010096186 0.104011774
000150 5a 3d fc bd fc a7 ec 3d 52 12 cd bd 85 d2 9a 3c
       -0.123163894 0.11555478 -0.1001326 0.018899212
000160 fb 02 9f 3e c7 a7 25 3e 21 b9 ee 3d 3f ad 85 3e
       0.3105696 0.16177283 0.11656404 0.2610874
000170 31 9b 93 3c e7 c8 42 3e 53 ea b7 3e ed ef 39 3d
       0.018018337 0.1902195 0.35920963 0.045394827
000180 06 b1 cd bc c8 10 12 be 5d 23 54 3e 3a 89 f4 bc
       -0.025108825 -0.14264214 0.20716615 -0.029850591
000190 d4 33 82 3e ba 62 f9 3d e5 63 62 3d 7e 8a 67 3e
       0.25430167 0.12177034 0.055271048 0.22611424
0001a0 17 18 c4 bd ec 49 bc 3d cd 85 b8 3c 27 95 0e 3e
       -0.09574907 0.09193787 0.022524739 0.13924085
0001b0 19 28 8b 3e 0d 99 9d 3e 4a 98 e2 bc d5 be 52 3e
       0.2717903 0.3078083 -0.027660508 0.20580609
0001c0 c9 93 38 3d 2c 2a c8 3c 2d 9b cc 3b b9 dd df 3d
       0.045062814 0.024434172 0.0062440843 0.10930962
0001d0 a9 46 8c 3e 32 70 71 be 18 d4 0e 3c e1 e6 73 3d
       0.2739766 -0.23577955 0.008717559 0.059546355
