src/pyoptes/optimization/budget_allocation/supervised_learning/trained_nn_states/waxman_120_sci.pth (torch, 198383 bytes, 17 tensors)

layer_1.weight_ih f4 [128, 120]
0.15027823 0.13160434 -0.07361866 0.15654737 0.17503336 0.10671561 0.13963903 0.13768595
0.113000125 0.1567745 0.062110476 0.06039135 0.012420896 0.029078195 0.115557365 0.027102709
0.043223877 0.06939612 0.14001648 0.11157238 0.16274713 0.11853525 0.08543814 0.16074531
0.10605531 0.13205686 0.13931856 -0.3196657 0.08734624 0.11379732 0.032297067 0.09234477
0.038617272 0.10741858 0.17290014 0.15827285 0.11733326 0.15933113 0.14964332 0.040863644
0.14083606 0.11891861 0.12351154 0.09670864 0.15343514 0.029151123 0.011217186 0.09038958
0.08437847 -0.24654834 0.11137638 0.0474783 0.09068462 -0.080185294 0.0112884715 0.08921881
0.060787577 0.08374372 0.08881449 0.15985973 0.13207294 0.110769436 0.15658212 0.17564346
0.033175446 0.022698946 0.0117479805 0.077846356 0.09081539 0.12551956 0.061263785 0.06582734
0.19008341 0.1183157 0.1631751 0.14450422 0.035396904 0.17128511 0.01596775 0.1048079
0.104109816 0.09999589 0.11835887 -0.06972116 0.110144846 0.056215785 0.15790482 0.091092765
-0.25218692 0.12862916 0.037628885 0.10045137 0.05542742 0.11107807 0.066207245 0.09647723
0.070559666 0.14798163 0.0480273 0.06807975 0.04523094 0.10874246 0.0979986 0.0251307
0.11751889 0.12070351 0.07047057 0.035218492 0.057944555 0.036064897 0.24215484 0.1356794
0.06239955 0.13882665 0.11393368 0.11896387 -0.09123566 0.10164756 0.13048682 0.116779
-0.03663345 0.18793812 -0.22008228 0.11515458 0.10393371 0.077372305 0.021519018 0.021088487
-0.0030347174 -0.050498333 0.14225948 -0.08631844 0.07539653 0.09343826 0.047799613 0.16490184
-0.14838521 -0.010626318 0.10439288 0.1510347 -0.006324052 0.0664175 -0.15367237 0.03469842
-0.18634194 0.09417937 0.037147358 0.118567795 0.001813899 0.037646074 -0.012193724 -0.2944492
0.048315093 -0.10144709 -0.49960774 0.11025268 0.23477565 0.07383791 0.09335499 -0.37615973
0.11301194 -0.31714746 0.22710252 0.20016107 0.049334478 0.024915308 0.13536699 0.07831723
0.15584128 0.08278699 0.18779112 -0.067851245 0.06641374 0.22150524 0.13570262 0.11477743
0.13766189 0.09273615 0.1099649 0.016988307 -0.027848361 0.1685743 0.018568788 0.04095552
0.06244783 0.09298634 -0.004490178 0.027706938 0.089815326 -0.120224655 0.12344236 0.12845308
0.0063173026 -0.008008405 0.3290764 0.10262907 -0.44354632 -0.10598758 -0.09655671 -0.025695516
-0.024572289 0.011097042 -0.11254285 -0.28657344 0.13207698 0.12222449 -0.08225994 0.15423423
-0.12346886 0.14971323 -0.024125798 0.07170671 -0.38418955 0.017277379 0.15891309 0.039682757
0.077954575 0.14449392 -0.024191838 -0.17795338 0.12921873 0.16942078 0.11802127 0.15576692
-0.0046026367 -0.009001052 -0.28050104 0.09774607 0.19700657 0.09869535 0.13326146 -0.26165044
0.07578024 0.103452854 0.13683619 -0.147003 0.13351229 0.12070066 0.13217063 0.24070157
0.11295914 0.20072588 0.14809895 0.11046417 0.112406164 0.15463865 0.18196177 0.0998936
0.19922061 0.17434537 0.14617994 0.13515522 0.12220336 0.17045797 0.2015851 0.2486648
00000000: 89e2 193e 4ac3 063e 61c5 96bd f44d 203e
00000010: f23b 333e b78d da3d 89fd 0e3e 8cfd 0c3e
00000020: 9c6c e73d 7f89 203e 8e67 7e3d ec5c 773d
00000030: 0481 4b3c 6535 ee3c 57a9 ec3d 8006 de3c
00000040: 850b 313d 8e1f 8e3d 7b60 0f3e 0f80 e43d
00000050: 2fa7 263e 9cc2 f23d 31fa ae3d 6b9a 243e
00000060: 8733 d93d ea39 073e 86a9 0e3e 39ab a3be
00000070: 96e2 b23d 920e e93d ee49 043d 411f bd3d
00000080: 252d 1e3d 46fe db3d bc0c 313e 4712 223e
00000090: 6c4c f03d b327 233e 193c 193e a360 273d
000000a0: 5437 103e 9a8b f33d 9ef3 fc3d 2e0f c63d
000000b0: 1a1e 1d3e 56ce ee3c 4ac8 373c 2c1e b93d
000000c0: 9fce ac3d 2b77 7cbe 4d19 e43d 9b78 423d
000000d0: dcb8 b93d 3038 a4bd 48f3 383c 5ab8 b63d
000000e0: 65fc 783d d481 ab3d 5fe4 b53d 45b2 233e
000000f0: 213e 073e 16db e23d 1057 203e e1db 333e
00000100: fae2 073d 24f3 b93c 9a7a 403c e96d 9f3d
00000110: 6bfd b93d 3388 003e bcef 7a3d 7cd0 863d
00000120: 3aa5 423e 804f f23d 6017 273e eaf8 133e
00000130: 58fc 103d 5d65 2f3e cdce 823c 86a5 d63d
00000140: 8737 d53d a5ca cc3d 2366 f23d f8c9 8ebd
00000150: 9f93 e13d 8642 663d cdb1 213e d88e ba3d
00000160: a51e 81be 5db7 033e bf20 1a3d 73b9 cd3d
00000170: dd07 633d e67c e33d aa97 873d db95 c53d
00000180: 9681 903d 7f88 173e 46b8 443d 656d 8b3d
00000190: 1444 393d 5eb4 de3d 7db3 c83d e6de cd3c
000001a0: bead f03d 6733 f73d e052 903d 4441 103d
000001b0: 4557 6d3d c9b8 133d 70f7 773e 8aef 0a3e
000001c0: ac96 7f3d 9328 0e3e 1056 e93d 54a3 f33d
000001d0: c3d9 babd 992c d03d 569e 053e d429 ef3d
000001e0: f50c 16bd da72 403e 405d 61be 2ad6 eb3d
000001f0: 32db d43d 5f75 9e3d a748 b03c c3c1 ac3c
00000200: 1ce2 46bb 57d7 4ebd 78ac 113e b9c7 b0bd
00000210: 7f69 9a3d 8f5c bf3d 87c9 433d 07dc 283e
00000220: 4bf2 17be 021a 2ebc efcb d53d d7a8 1a3e
00000230: fe39 cfbb e605 883d 4a5c 1dbe ee1f 0e3d
00000240: 6cd0 3ebe 1de1 c03d d427 183d acd3 f23d
00000250: 5ac0 ed3a c532 1a3d 2fc8 47bc 0cc2 96be
00000260: 0ce6 453d 7ec3 cfbd 96cc ffbe 28cc e13d
00000270: 0769 703e 5538 973d e730 bf3d 0298 c0be
00000280: ce72 e73d 2761 a2be 908d 683e 06f7 4c3e
00000290: f312 4a3d 301b cc3c a59d 0a3e c964 a03d
000002a0: db94 1f3e 3a8c a93d 514c 403e 98f5 8abd
000002b0: ed03 883d 45d2 623e a1f5 0a3e 6e10 eb3d
000002c0: 3df7 0c3e 73ec bd3d 4735 e13d 102b 8b3c
000002d0: 3f22 e4bc be9e 2c3e 921d 983c fac0 273d
000002e0: 4cc9 7f3d 9f6f be3d 5822 93bb a9f9 e23c
000002f0: 19f1 b73d 5838 f6bd 59cf fc3d 3489 033e
00000300: 6001 cf3b af35 03bc b47c a83e 312f d23d
00000310: 8118 e3be 0410 d9bd 86bf c5bd 677f d2bc
00000320: d34b c9bc 5ed0 353c de7c e6bd c1b9 92be
00000330: 303f 073e d550 fa3d e677 a8bd 94ef 1d3e
00000340: 3edd fcbd 6d4e 193e 77a3 c5bc f8da 923d
00000350: 7eb4 c4be 4a89 8d3c 1dba 223e 638a 223d
00000360: a6a6 9f3d 37f6 133e f62d c6bc 6939 36be
00000370: ea51 043e a47c 2d3e 23b5 f13d 5d81 1f3e
00000380: b7d1 96bb 2679 13bc d59d 8fbe 172f c83d
00000390: 17bc 493e ca20 ca3d b175 083e 0cf7 85be
000003a0: ac32 9b3d 17df d33d c91e 0c3e f487 16be
000003b0: 72b7 083e e831 f73d bd57 073e 797a 763e
000003c0: 1f57 e73d 168b 4d3e 40a7 173e 0a3b e23d
000003d0: 3435 e63d 9859 1e3e 3054 3a3e 0495 cc3d
000003e0: 7d00 4c3e 9887 323e 32b0 153e 2166 0a3e
000003f0: c145 fa3d 898c 2e3e 536c 4e3e fca1 7e3e

layer_1.weight_hh f4 [128, 128]
-0.041022032 0.06102411 0.037829928 0.0682217 -0.039704528 -0.03955314 0.007612309 -0.046049763
0.0639241 0.055824134 -0.057170693 -0.046461727 0.050868988 0.047007687 0.062439814 -0.056386385
-0.030111326 0.053687647 -0.035385985 -0.04466075 0.011809555 0.0054755504 0.0633899 0.018490879
-0.037917458 0.04033737 -0.03196294 -0.040708736 0.05869501 -0.015469436 -0.0051550143 0.04526535
-0.06276268 0.004991698 0.054981813 0.027677352 0.029508963 -0.0064655407 0.067055084 -0.04368176
0.06563785 -0.055602256 -0.05150092 0.011989668 -0.023714934 -0.05557123 -0.060009133 0.06471813
-0.0054957005 -0.058617275 0.07058082 0.035260204 0.03971372 -0.01062355 0.0557154 -0.03628002
0.036694944 0.003501831 0.06847298 0.06511159 0.061682478 -0.028726358 0.05909034 -0.067311704
0.055951644 -0.058827337 -0.026266895 -0.033343717 -0.020735705 0.00987731 0.046330553 -0.009660994
0.062431276 0.048929047 -0.018034391 -0.02824246 -0.063316986 0.042713244 0.00037924296 -0.04536924
0.06080847 -0.0011237401 -0.06424615 -0.007851379 0.040146068 -0.06919847 -0.0024936714 0.037611693
-0.0050532855 -0.063102454 0.00085942406 0.031848446 0.023011824 0.046917118 -0.06520295 0.017699236
0.011888174 0.008815928 -0.017224 -0.056916524 0.051740967 -0.007999095 0.03992385 0.021757647
-0.03605051 0.0596154 -0.06945581 -0.02875836 -0.037288774 0.06742498 -0.009157272 -0.014375015
-0.053850755 -0.007473941 -0.026775217 -0.059548426 0.03835359 0.016393758 0.0073156846 0.069016404
-0.06140085 -0.06684692 0.064628534 0.017364604 -0.055286825 0.06951053 0.009943894 -0.042835683
0.026022056 -0.01941947 0.014848322 0.032652248 -0.05156472 -0.034034863 0.045393135 0.056730684
0.04488432 -0.040277027 0.045700945 -0.049239393 0.055413723 0.010198157 0.055129442 0.0033129544
0.0052956967 0.022371741 -0.0004728246 0.02890338 0.024989603 -0.012417452 0.028031457 0.0042760363
-0.01210514 0.070891865 -0.04425599 0.034585133 0.060049046 -0.051365133 -0.050451458 -0.05789382
-0.028286532 0.06790675 -0.0017884024 0.0209803 0.05139852 0.009463662 -0.07057823 0.0476811
-0.01778648 0.01115192 -0.040288217 0.017048012 0.023506982 0.014895415 -0.038998812 -0.04736518
-0.06677117 0.043762725 0.02232408 0.03225137 -0.044266153 -0.06501439 0.0440513 0.0360398
0.05511364 0.020808032 -0.019640082 -0.04589723 0.041785233 -0.026148621 0.0011807573 0.05580463
-0.008032115 -0.0677723 -0.0035607747 -0.015350234 0.023877766 0.04174445 -0.0020846052 0.0041495273
-0.0054075546 -0.047608763 0.027729586 -0.059508607 -0.042647228 -0.055182952 -0.06462679 0.057680395
-0.00061118044 0.025933404 0.066874266 -0.044913232 -0.012576846 -0.05448111 0.01348811 -0.01692164
0.016403921 0.0040416233 -0.05384592 0.053732317 -0.046071954 -0.052378982 0.033261854 -0.027534368
0.02937694 0.06597697 0.008287674 -0.012801619 0.057609975 -0.050362956 0.022270765 -0.05041755
0.05101726 -0.0048639216 0.057187214 -0.045335222 0.06598684 0.026264092 0.045665607 0.041201837
-0.013224019 -0.012945836 -0.048625432 0.009849076 -0.07085777 0.037786752 -0.052736107 -0.0101288
-0.043766387 -0.06452087 -0.053195577 -0.03336769 0.023385108 0.0617448 0.022845581 -0.011758261
00000000: b806 28bd 6bf4 793d 8ef3 1a3d d2b7 8b3d
00000010: 37a1 22bd 7902 22bd ad70 f93b ad9e 3cbd
00000020: a3ea 823d d9a7 643d d12b 6abd a74e 3ebd
00000030: 005c 503d 228b 403d e4c0 7f3d 69f5 66bd
00000040: 07ac f6bc 94e7 5b3d e5f0 10bd 31ee 36bd
00000050: dd7c 413c 3f6c b33b 90d2 813d 2f7a 973c
00000060: 564f 1bbd cc38 253d 92eb 02bd 34be 26bd
00000070: 2e6a 703d 8473 7dbc 65eb a8bb 2968 393d
00000080: b889 80bd 6691 a33b 9c34 613d 9dbb e23c
00000090: c8bc f13c e3dc d3bb 2d54 893d a5eb 32bd
000000a0: 236d 863d 31bf 63bd a1f2 52bd 5070 443c
000000b0: d245 c2bc a89e 63bd 23cc 75bd f08a 843d
000000c0: 4715 b4bb ab18 70bd ad8c 903d 016d 103d
000000d0: dbaa 223d 660e 2ebc d535 643d 5c9a 14bd
000000e0: 704d 163d fa7e 653b 903b 8c3d 3a59 853d
000000f0: c4a6 7c3d 8a53 ebbc b608 723d b8da 89bd
00000100: 8d2d 653d eff4 70bd ac2d d7bc 6c93 08bd
00000110: eddd a9bc 71d4 213c 1bc5 3d3d 2549 1ebc
00000120: f0b7 7f3d d369 483d dcbc 93bc bb5c e7bc
00000130: 56ac 81bd 15f4 2e3d 21d5 c639 19d5 39bd
00000140: 4d12 793d 764a 93ba 7c93 83bd 12a3 00bc
00000150: 3470 243d edb7 8dbd dd6c 23bb b80e 1a3d
00000160: 0896 a5bb dc3b 81bd f94a 613a 8473 023d
00000170: 4b83 bc3c 2a2c 403d 2089 85bd fdfd 903c
00000180: 9ec6 423c af70 103c 5919 8dbc 4d21 69bd
00000190: 56ee 533d a30e 03bc 3187 233d 183d b23c
000001a0: b3a9 13bd 472f 743d d93e 8ebd a796 ebbc
000001b0: 1dbc 18bd 1c16 8a3d 6208 16bc 2f85 6bbc
000001c0: 9c92 5cbd f6e7 f4bb b357 dbbc 0de9 73bd
000001d0: a718 1d3d 344c 863c 69b8 ef3b 7958 8d3d
000001e0: 757f 7bbd 0ae7 88bd f75b 843d 3740 8e3c
000001f0: 7074 62bd 895b 8e3d b7eb 223c 7874 2fbd
00000200: 352c d53c 9515 9fbc 6046 733c 5dbe 053d
00000210: 8735 53bd 2468 0bbd 27ee 393d 6f5e 683d
00000220: 9fd8 373d 86f9 24bd ea30 3b3d 3faf 49bd
00000230: 80f9 623d 2c16 273c 69cf 613d 271e 593b
00000240: 8687 ad3b f144 b73c 72e5 f7b9 c8c6 ec3c
00000250: ffb6 cc3c 9272 4bbc 3aa2 e53c fe1d 8c3b
00000260: a354 46bc c12f 913d c545 35bd 24a9 0d3d
00000270: fdf5 753d 3f64 52bd 30a6 4ebd 1222 6dbd
00000280: 28b9 e7bc b212 8b3d d468 eaba e1de ab3c
00000290: 4187 523d 7a0d 1b3c 528b 90bd 424d 433d
000002a0: f4b4 91bc 8bb6 363c 4205 25bd 46a8 8b3c
000002b0: b791 c03c e60b 743c 38bd 1fbd fe01 42bd
000002c0: 53bf 88bd 8b40 333d fde0 b63c 031a 043d
000002d0: 6d50 35bd 4426 85bd 236f 343d 789e 133d
000002e0: d7be 613d 9b75 aa3c 3de4 a0bc bcfe 3bbd
000002f0: fe26 2b3d a235 d6bc a4c3 9a3a 6593 643d
00000300: 2299 03bc 34cc 8abd e35b 69bb 8c7f 7bbc
00000310: 4e9b c33c 3afc 2a3d df9d 08bb c2f8 873b
00000320: db31 b1bb 6801 43bd 2829 e33c 4cbf 73bd
00000330: dcae 2ebd 8507 62bd 0d5b 84bd 4742 6c3d
00000340: a037 20ba 4a72 d43c 60f5 883d f0f6 37bd
00000350: 1e0f 4ebc 9627 5fbd 3cfd 5c3c 409f 8abc
00000360: 8461 863c 986f 843b 8a8d 5cbd 6b16 5c3d
00000370: f2b5 3cbd 588b 56bd 953d 083d c18f e1bc
00000380: e9a7 f03c ef1e 873d 06c9 073c e2bd 51bc
00000390: 70f8 6b3d 6349 4ebd 2e71 b63c a282 4ebd
000003a0: 79f7 503d 8861 9fbb 243d 6a3d 6db1 39bd
000003b0: 1c24 873d cb27 d73c dc0b 3b3d 42c3 283d
000003c0: 8ea9 58bc c61a 54bc 762b 47bd 055e 213c
000003d0: e11d 91bd 48c6 1a3d d101 58bd 44f3 25bc
000003e0: 6244 33bd 8523 84bd 9be3 59bd 8fac 08bd
000003f0: 2092 bf3c 1ee8 7c3d a826 bb3c b9a5 40bc

layer_1.bias_ih f4 [128]
0.09296724 0.06465331 0.21259174 0.12444339 0.17708534 0.23702173 0.14308576 0.13168935
0.23685738 0.105759 0.03686715 0.09752903 0.2022472 0.02770468 0.062303223 0.1506008
0.10310145 -0.031454172 0.1331595 0.1600297 0.15860163 0.17272808 0.14196354 0.18776439
0.17981786 0.11887315 0.10859919 0.10172358 0.18128611 0.23328395 0.06460488 0.19946425
0.17343292 0.14160839 0.23039718 0.19198048 0.19904369 0.044666905 0.16058563 0.16931503
0.1496092 0.16554023 0.15638171 -0.02148907 0.13444975 0.0122492 0.169314 0.09056819
0.21807243 0.22055474 0.09891906 0.13534944 0.18208513 0.16258286 0.104716204 0.13704093
0.16017763 0.1031203 0.21949042 0.13872373 0.10312027 0.09678147 0.079040915 0.13638747
0.17126639 0.06778527 0.12101753 0.100663185 0.0949632 0.18640195 0.18507653 0.0032083113
0.11530055 0.14445914 0.21030585 0.10358282 0.12429227 0.09406542 0.14974879 0.21599029
0.12959391 0.21280871 0.16454948 0.0011656744 0.19653313 0.06350557 0.16648933 0.19695699
0.20924999 0.11406166 0.10348249 0.18851744 0.1508971 0.14135098 0.12558007 0.033462
0.18996622 0.08079607 -0.006789821 0.10451199 0.2395672 0.11344595 0.09169485 0.0853181
0.121117726 0.03367137 0.16483888 0.08845095 0.18979512 0.11567411 0.23038971 0.17091377
0.12930079 0.22960503 0.12817736 0.02069695 0.11241956 0.0942794 0.11219717 -0.01402304
0.21039097 0.12138475 0.16933139 0.077861115 0.16626088 0.11027724 0.15312904 0.12553892
00000000: 9c65 be3d f468 843d a6b1 593e 2ddc fe3d
00000010: dc55 353e d3b5 723e 1385 123e 93d9 063e
00000020: be8a 723e 2d98 d83d 0202 173d 4dbd c73d
00000030: e419 4f3e edf4 e23c aa31 7f3d 1937 1a3e
00000040: da26 d33d 17d6 00bd f75a 083e d3de 233e
00000050: 7768 223e a1df 303e e45e 113e 4f45 403e
00000060: 2c22 383e c473 f33d 4169 de3d 7454 d03d
00000070: 11a3 393e fde1 6e3e 904f 843d 5b40 4c3e
00000080: 6698 313e ca01 113e 3ded 6b3e 8896 443e
00000090: 1cd2 4b3e a5f4 363d 8f70 243e eb60 2d3e
000000a0: 2733 193e 6183 293e 8722 203e d909 b0bc
000000b0: 32ad 093e deb0 483c a660 2d3e d17b b93d
000000c0: 614e 5f3e 1ad9 613e 1396 ca3d 0b99 0a3e
000000d0: 8674 3a3e 1f7c 263e 7375 d63d 7554 0c3e
000000e0: 9b05 243e bc30 d33d 19c2 603e 980d 0e3e
000000f0: b830 d33d 5d35 c63d 34e0 a13d 28a9 0b3e
00000100: 7560 2f3e 01d3 8a3d 0ad8 f73d 8028 ce3d
00000110: 117c c23d 27e0 3e3e b484 3d3e 8842 523b
00000120: b222 ec3d 19ed 133e 6b5a 573e 3b23 d43d
00000130: f28c fe3d 5fa5 c03d bf57 193e 8f2c 5d3e
00000140: 44b4 043e 87ea 593e a97f 283e 8bc9 983a
00000150: fb3f 493e 350f 823d 2e7c 2a3e 18af 493e
00000160: a145 563e 2999 e93d a1ee d33d b70a 413e
00000170: c584 1a3e 50be 103e 1098 003e 730f 093d
00000180: 8186 423e 6978 a53d 267d debb 620a d63d
00000190: 1b51 753e 5a56 e83d 82ca bb3d 42bb ae3d
000001a0: 920c f83d feea 093d 86cb 283e c625 b53d
000001b0: a759 423e 8ce6 ec3d 48eb 6b3e 0504 2f3e
000001c0: 6d67 043e 951d 6b3e ed40 033e a68c a93c
000001d0: 3a3c e63d 8f15 c13d a1c7 e53d e5c0 65bc
000001e0: bb70 573e 9198 f83d 3565 2d3e a675 9f3d
000001f0: 4b40 2a3e 09d9 e13d dccd 1c3e 468d 003e

layer_1.bias_hh f4 [128]
0.10300779 -0.03156107 0.21602793 0.09793244 0.13329853 0.2138328 0.15584502 0.122601405
0.109944455 0.14340399 0.10074853 0.12891972 0.10496842 0.039382063 0.0015393501 0.14034782
0.21994786 -0.02904394 0.19784936 0.17668326 0.16416743 0.15661551 0.084835336 0.13613603
0.109793834 0.127409 0.19196123 0.09817601 0.097913645 0.15648142 0.10588429 0.15436989
0.16549802 0.07743776 0.1962062 0.20861065 0.18647735 0.07001414 0.08965197 0.13905877
0.1561286 0.23138544 0.13844593 0.026472934 0.22137447 0.0017005632 0.19271015 0.19447993
0.099381536 0.1036416 0.18106157 0.08643501 0.20007329 0.123412274 0.21880932 0.11443721
0.07912406 0.11401864 0.12856828 0.03152476 0.14714009 0.009290593 0.07579449 0.1652784
0.1495524 0.07699473 0.09699682 0.100656815 0.02091181 0.20661138 0.13063554 0.036929935
0.19000344 0.21229619 0.23061468 0.11545104 0.14752859 0.09799522 0.15834506 0.21112885
0.14790553 0.10815224 0.14698471 0.08696463 0.12452096 0.119222485 0.20166579 0.18775314
0.15565668 0.13516405 0.03294909 0.11304638 0.123332985 0.051931538 0.1433813 -0.02257529
0.21221896 0.06886277 0.08202131 0.19372629 0.13364293 0.1044104 0.024979906 0.09280255
0.22512491 -0.01732888 0.12531793 0.13751055 0.17588952 0.17282969 0.22435917 0.11779279
0.11369331 0.19997655 0.090495534 -0.015977591 0.13350832 0.15141359 0.15655695 -0.002619808
0.14109235 0.10872699 0.13422377 0.0591621 0.2080939 0.124581665 0.09697501 0.1661096
00000000: c0f5 d23d 2e46 01bd 6d36 5d3e ce90 c83d
00000010: 697f 083e fcf6 5a3e d695 1f3e 7216 fb3d
00000020: 8f2a e13d 7fd8 123e 3f55 ce3d 8803 043e
00000030: aff9 d63d 164f 213d 05c4 c93a 57b7 0f3e
00000040: 033a 613e 8fed edbc 0699 4a3e 75ec 343e
00000050: 821b 283e d15f 203e 26be ad3d 3e67 0b3e
00000060: 97db e03d 8177 023e 7c91 443e 8110 c93d
00000070: f386 c83d aa3c 203e ddd9 d83d 2413 1e3e
00000080: 5078 293e b097 9e3d 47ea 483e 089e 553e
00000090: ebf3 3e3e 9363 8f3d 749b b73d 6c65 0e3e
000000a0: 2de0 1f3e 4ef0 6c3e c5c4 0d3e c4dd d83c
000000b0: fdaf 623e 6fe5 de3a cf55 453e bf25 473e
000000c0: 8c88 cb3d 0c42 d43d 3468 393e d704 b13d
000000d0: 03e0 4c3e 93bf fc3d 8d0f 603e 0e5e ea3d
000000e0: cc0b a23d 9b82 e93d 67a7 033e 1b20 013d
000000f0: e4ab 163e 9237 183c 243a 9b3d be3e 293e
00000100: 4424 193e 6aaf 9d3d 45a6 c63d 2925 ce3d
00000110: 3f4f ab3c ef91 533e 53c5 053e d843 173d
00000120: 4390 423e 2c64 593e 4126 6c3e 9871 ec3d
00000130: bc11 173e b8b1 c83d 3525 223e 2932 583e
00000140: 8c74 173e ec7e dd3d 2983 163e 831a b23d
00000150: d804 ff3d eb2a f43d 7a81 4e3e 5c42 403e
00000160: 7764 1f3e 7268 0a3e a0f5 063d dc84 e73d
00000170: 0196 fc3d 2ab6 543d 8cd2 123e d1ef b8bc
00000180: ed4f 593e ed07 8d3d cafa a73d 2f60 463e
00000190: b1d9 083e 1fd5 d53d a9a2 cc3c 430f be3d
000001a0: 2587 663e 4cf5 8dbc 5853 003e 91cf 0c3e
000001b0: 621c 343e 44fa 303e 69be 653e 593d f13d
000001c0: 0ad8 e83d a7c6 4c3e b955 b93d 70e3 82bc
000001d0: 68b6 083e 2a0c 1b3e 7750 203e 16b1 2bbb
000001e0: 837a 103e 42ac de3d f571 093e f553 723d
000001f0: 9116 553e ac24 ff3d d69a c63d a318 2a3e

layer_2.weight_ih f4 [64, 128]
-0.08682663 -0.045503378 -0.051805258 -0.059134267 -0.033039425 -0.07915102 0.07829671 0.04710422
-0.03776904 0.050157245 -0.038115256 -0.012452415 0.05603039 -0.033561714 -0.037218563 -0.07012842
-0.07088897 -0.04204661 -0.03613951 0.08887268 0.02433936 -0.08871352 0.05236061 0.016114432
0.015292588 0.006118835 0.080447346 -0.047921285 -0.067232184 -0.065677725 0.033458974 -0.061658368
-0.0697205 -0.08263326 -0.032431386 0.0056949113 -0.0062163365 -0.024693208 -0.07901627 0.06833595
0.065850906 -0.03988032 0.025509339 -0.041901253 0.016267803 -0.023849731 0.097659856 -0.0022995889
-0.049327828 0.03403658 0.025790637 -0.07167093 -0.09038541 -0.022495527 0.017611057 0.034044985
0.03969657 -0.04388134 -0.093082204 0.09133682 0.0035975028 0.088446155 0.06516593 -0.09003479
-0.051543467 -0.02304877 0.037822507 -0.06420487 0.08474453 0.06583232 -0.08022803 0.06789213
0.06958552 -0.032667987 -0.019888904 -0.044942517 -0.051708132 0.08278305 -0.078432605 -0.08616151
-0.03459631 -0.051653057 -0.089398496 0.009766964 -0.032484256 -0.058046833 0.056718297 0.0029952533
-0.06663026 0.0141637325 -0.055660605 0.029689193 -0.006196173 -0.016331729 -0.10346317 -0.028274646
0.03368046 -0.050285406 0.04197266 -0.059024725 -0.099750325 0.07596731 0.032111473 -0.032203868
0.064691104 -0.0801003 -0.008989506 0.059964765 -0.095457986 -0.002936283 -0.046872318 -0.07440019
0.06462514 -0.031165436 0.07641633 -0.027785856 -0.044695593 0.052178983 -0.003705935 0.03015038
0.071872644 -0.04003353 0.005969714 0.038402766 -0.026179345 -0.06716573 -0.03045979 0.03918563
0.052039087 0.23079447 0.10965018 0.1347484 0.20821488 0.1515915 0.15284088 0.1294452
0.11085371 0.13020347 0.5589199 0.058714785 0.16422233 0.5465006 0.5836312 0.1184671
0.032671023 0.46893346 0.074476674 0.039041303 0.13584246 0.20577921 0.16578071 0.04822574
0.20422654 0.16995792 0.057368167 0.21310271 0.054810446 0.053787053 0.60113436 0.14885935
0.14274673 0.14409561 0.20746416 0.052360505 0.19627552 0.7737621 0.1708619 0.064964905
0.15285859 0.043135613 0.80793494 0.11528662 0.06932991 0.5679627 0.024291117 0.17465997
0.119630344 0.11578316 0.10786943 0.024382906 0.051138956 0.03255655 0.107721694 0.21862358
0.15499973 0.055558834 0.08729745 0.5774893 0.076257996 0.0355777 0.071958944 0.17441544
0.078229375 0.624474 0.011199756 0.13290688 0.16246589 0.122885935 0.19265053 0.6609654
0.058591247 0.17344654 0.06260164 0.0631779 0.035597276 0.08380754 0.18617454 0.16016868
0.14080225 0.12937894 0.074666046 0.81735814 0.064391576 -0.014313564 0.05874704 0.15286891
0.06480615 0.16552733 0.033637457 0.14441502 0.1006616 0.09751339 0.19412352 0.75262123
0.043764025 0.11053791 0.68299955 0.095922425 0.032299932 0.16806889 0.62456113 0.17953035
0.19781722 0.27594528 0.06495973 0.032369822 0.15113154 0.047499068 0.21551286 0.1885563
0.03925895 0.039233755 0.17269729 0.66133934 0.14664936 0.09827241 0.02662328 0.8122994
0.09520777 0.19653475 0.07267602 0.02412048 0.18749991 0.12980069 0.19550975 0.13487238
00000000: 29d2 b1bd c061 3abd c031 54bd c636 72bd
00000010: 5954 07bd ee19 a2bd 075a a03d 5bf0 403d
00000020: b5b3 1abd af71 4d3d be1e 1cbd 3705 4cbc
00000030: 1f80 653d 0278 09bd 7e72 18bd 7d9f 8fbd
00000040: 3c2e 91bd 1139 2cbd 0607 14bd e102 b63d
00000050: 5663 c73c 6faf b5bd 1478 563d 6a02 843c
00000060: c38d 7a3c 8280 c83b 94c1 a43d 1c49 44bd
00000070: 07b1 89bd 0b82 86bd 470c 093d 7c8d 7cbd
00000080: 9fc9 8ebd a03b a9bd c6d6 04bd 619c ba3b
00000090: 69b2 cbbb 6949 cabc 48d3 a1bd b8f3 8b3d
000000a0: d7dc 863d 8c59 23bd f6f8 d03c a6a0 2bbd
000000b0: 0e44 853c 8360 c3bc e401 c83d b3b4 16bb
000000c0: fa0b 4abd f169 0b3d e346 d33c 35c8 92bd
000000d0: fc1b b9bd 8a48 b8bc 1045 903c c172 0b3d
000000e0: df98 223d ecbc 33bd e2a1 bebd cc0e bb3d
000000f0: 15c4 6b3b 4223 b53d b775 853d 2964 b8bd
00000100: 3e1f 53bd c6d0 bcbc c6eb 1a3d d87d 83bd
00000110: 8a8e ad3d 18d3 863d 984e a4bd 070b 8b3d
00000120: da82 8e3d dece 05bd 0eee a2bc a515 38bd
00000130: e8cb 53bd 298a a93d 46a1 a0bd 7275 b0bd
00000140: dcb4 0dbd 2892 53bd 8f16 b7bd 9e05 203c
00000150: 360e 05bd 84c2 6dbd 7251 683d 034c 443b
00000160: 7275 88bd 000f 683c 60fc 63bd c036 f33c
00000170: 4409 cbbb 1eca 85bc 80e4 d3bd 3ba0 e7bc
00000180: 86f4 093d 12f8 4dbd 86eb 2b3d e9c3 71bd
00000190: e649 ccbd c094 9b3d 5287 033d 34e8 03bd
000001a0: c57c 843d a00b a4bd b948 13bc 9d9d 753d
000001b0: 7a7f c3bd a76e 40bb 30fd 3fbd 205f 98bd
000001c0: 2f5a 843d a84e ffbc 2a80 9c3d 2a9f e3bc
000001d0: ba12 37bd a1b9 553d 46df 72bb eefd f63c
000001e0: f731 933d 33fa 23bd 979d c33b 384c 1d3d
000001f0: 1176 d6bc 308e 89bd cf86 f9bc 1c81 203d
00000200: f026 553d 6355 6c3e 4690 e03d 7cfb 093e
00000210: 4836 553e cd3a 1b3e 5282 1c3e 488d 043e
00000220: 4507 e33d 0f54 053e 6015 0f3f ea7e 703d
00000230: e629 283e 77e7 0b3f db68 153f e19e f23d
00000240: 0dd2 053d 0c18 f03e 3a87 983d c6e9 1f3d
00000250: 491a 0b3e c9b7 523e 6bc2 293e 5b88 453d
00000260: c320 513e 7309 2e3e e2fa 6a3d 9937 5a3e
00000270: eb80 603d d04f 5c3d f1e3 193f 966e 183e
00000280: 332c 123e cd8d 133e 7c71 543e f877 563d
00000290: 73fc 483e 4615 463f 6cf6 2e3e 520c 853d
000002a0: f686 1c3e f8ae 303d d3d4 4e3f 641b ec3d
000002b0: d7fc 8d3d 0166 113f 2afe c63c 10da 323e
000002c0: c100 f53d b91f ed3d a6ea dc3d a9be c73c
000002d0: 1577 513d 045a 053d 319d dc3d dcde 5f3e
000002e0: 40b8 1e3e a991 633d 01c9 b23d 57d6 133f
000002f0: 272d 9c3d ecb9 113d 365f 933d f699 323e
00000300: b936 a03d 87dd 1f3f 2e7f 373c be18 083e
00000310: 755d 263e 9fab fb3d 2e46 453e 0735 293f
00000320: 60fd 6f3d f89b 313e 4a35 803d 6a63 813d
00000330: 73ce 113d 4aa3 ab3d 8aa4 3e3e 4203 243e
00000340: 772e 103e ea7b 043e 83ea 983d 623e 513f
00000350: bbdf 833d 7083 6abc bca0 703d ab89 1c3e
00000360: 16b9 843d ff7f 293e 6ec7 093d 88e1 133e
00000370: ab27 ce3d 1ab5 c73d 51c8 463e c9ab 403f
00000380: e841 333d b361 e23d 0fd9 2e3f fa72 c43d
00000390: ef4c 043d 401a 2c3e 3de3 1f3f ced6 373e
000003a0: 9990 4a3e b348 8d3e 9b09 853d 3896 043d
000003b0: 3ac2 1a3e 628e 423d 67af 5c3e e714 413e
000003c0: fecd 203d 93b3 203d 8fd7 303e 894d 293f
000003d0: 402b 163e 0c43 c93d 1119 da3c daf2 4f3f
000003e0: 4bfc c23d 6840 493e 2ad7 943d 5098 c53c
000003f0: faff 3f3e 79ea 043e b533 483e fc1b 0a3e

layer_2.weight_hh f4 [64, 64]
0.07262721 -0.053678505 -0.083771415 -0.054601733 -0.08582547 0.036178067 0.04953243 -0.03222855
-0.0007573261 -0.06490462 -0.0037856505 0.04409142 -0.007841991 -0.084332585 -0.07546956 -0.07594012
0.02473404 0.029915065 -0.07886699 0.057202403 0.06886711 0.021108236 -0.08218797 0.028494725
0.07166842 -0.04601522 0.09346315 0.08686765 0.023508286 0.056528796 -0.03585298 -0.082993865
-0.07808865 0.012390455 -0.04585062 0.06376065 -0.037449367 0.05574287 -0.08826943 -0.056419145
-0.09827586 -0.07291782 0.033672836 0.02344942 0.020489445 0.04242664 -0.010039166 -0.028144646
0.08108931 0.049706347 -0.032579627 -0.01755031 -0.04446054 -0.040867683 -0.03816074 0.099652536
-0.019110773 -0.09523446 -0.08665036 0.08196863 0.023970563 -0.054473236 -0.088565126 0.07076386
-9.543555e-05 0.016826618 -0.05351158 0.010779477 0.0022694776 0.03820483 -0.0068873554 -0.04958143
0.035869345 0.08553226 0.044282217 -0.03266051 -0.086555384 0.005441844 0.061302032 0.074623
-0.044617634 0.008959403 0.08843972 -0.025543654 0.088741966 0.09404316 -0.036390293 0.001054797
0.041250203 0.007058288 9.2956e-05 0.0449725 -0.089580156 0.063309826 -0.027281057 -0.03631837
0.030184288 -0.0688993 -0.097010694 -0.078404576 -0.09285131 0.057109736 0.054188002 -0.04188576
-0.0004506502 0.072649784 0.011201744 0.09577116 -0.012768113 -0.06548693 0.019854004 0.024705322
-0.04286641 0.08999116 0.028049953 -0.07910477 0.092084825 0.07913955 0.06970936 -0.049020294
-0.09634906 -0.04581107 -0.033058554 0.043484095 0.0881406 0.034409452 0.0073190685 0.051867425
0.008918249 0.08411197 -0.060787685 -0.035382874 -0.0371321 -0.08660309 -0.07744978 0.053639535
0.08131806 -0.095371194 -0.07145025 -0.021937035 -0.01462533 0.039343428 0.03065757 -0.0046195355
0.10044602 0.01821912 0.049619187 -0.010001082 -0.07965153 -0.07452132 -0.0011426989 0.0039084847
-0.03189707 -0.0645603 -0.0335777 0.036307376 -0.00087876996 0.028584795 0.0038674138 0.046887916
0.02553424 -0.053156514 0.018106118 -0.031925645 -0.016258951 0.001802793 0.086496614 0.058410667
0.039637107 -0.03233542 -0.039708633 0.0854277 0.060066383 0.033929434 -0.0063738376 -0.076181926
0.065405145 -0.012369778 0.08825981 -0.028910242 -0.09262441 -0.052252244 -0.06310188 -0.024511708
0.06355482 -0.070078805 0.012208035 -0.068644196 0.007542818 0.08032272 0.045124587 0.097421974
-0.045409128 -0.0771071 5.503084e-05 0.0025273918 -0.07789368 0.02465072 0.049915966 0.04462436
-0.017447371 0.08328928 -0.08966657 -0.0890776 0.03092631 -0.06835361 -0.013253423 -0.09252154
0.042237908 -0.0226667 0.068183504 -0.041538242 0.07197651 0.0021852248 -0.063894086 -0.045927126
0.048373446 0.007032542 0.06894502 0.020920882 0.028130943 0.04899921 -0.099936895 0.036500625
0.035544597 -0.0030153403 0.07984575 0.09877614 -0.0023520524 0.09844264 -0.09848221 -0.03767691
0.04128088 -0.0005765691 0.06298568 -0.070770435 0.017078448 0.077600114 -0.04031505 0.081530444
-0.063933246 0.04953299 -0.019213378 -0.044194557 -0.048134107 -0.020779511 -0.029963635 -0.06306547
0.08634332 0.054603115 0.06402757 -0.03792522 0.05893218 -0.051760316 -0.09267672 0.03286239
00000000: 93bd 943d fedd 5bbd 5990 abbd 11a6 5fbd
00000010: 44c5 afbd 742f 143d 84e2 4a3d 1602 04bd
00000020: 4b87 46ba b7ec 84bd ad18 78bb 3499 343d
00000030: b27b 00bc 90b6 acbd c98f 9abd 7e86 9bbd
00000040: 0b9f ca3c 7010 f53c 0485 a1bd 114d 6a3d
00000050: 330a 8d3d 2eeb ac3c 2b52 a8bd c56d e93c
00000060: e5c6 923d 757a 3cbd 9c69 bf3d abe7 b13d
00000070: 7394 c03c bd8a 673d 93da 12bd b0f8 a9bd
00000080: f1ec 9fbd 5601 4b3c dccd 3bbd f294 823d
00000090: 8264 19bd a352 643d 9ac6 b4bd c317 67bd
000000a0: db44 c9bd f055 95bd 87ec 093d 0019 c03c
000000b0: 7bd9 a73c 8ec7 2d3d 507b 24bc 9a8f e6bc
000000c0: 2712 a63d e298 4b3d 3772 05bd abc5 8fbc
000000d0: 411c 36bd df64 27bd 704e 1cbd a116 cc3d
000000e0: 328e 9cbc 490a c3bd be75 b1bd 2bdf a73d
000000f0: ea5d c43c 541f 5fbd a261 b5bd a5ec 903d
00000100: 9224 c8b8 fad7 893c f52e 5bbd 679c 303c
00000110: 84bb 143b ab7c 1c3d 53af e1bb e615 4bbd
00000120: bceb 123d 8a2b af3d 4561 353d 07c7 05bd
00000130: f343 b1bd 7f51 b23b d717 7b3d f2d3 983d
00000140: fbc0 36bd 76ca 123c e21f b53d ed40 d1bc
00000150: 59be b53d b399 c03d fd0d 15bd 1d41 8a3a
00000160: f9f5 283d 3649 e73b 5ff1 c238 1635 383d
00000170: cd75 b7bd 95a8 813d 867c dfbc 92c2 14bd
00000180: 0a45 f73c 141b 8dbd 8bad c6bd 9492 a0bd
00000190: d428 bebd e6eb 693d 3df4 5d3d 6790 2bbd
000001a0: 3f45 ecb9 69c9 943d 8587 373c ac23 c43d
000001b0: 5931 51bc 031e 86bd dda4 a23c d162 ca3c
000001c0: b094 2fbd 494d b83d 04c9 e53c af01 a2bd
000001d0: f896 bc3d eb13 a23d c8c3 8e3d 81c9 48bd
000001e0: a852 c5bd 63a4 3bbd 6868 07bd 611c 323d
000001f0: 0f83 b43d edf0 0c3d ccd4 ef3b f072 543d
00000200: d91d 123c e642 ac3d 82fc 78bd a2ed 10bd
00000210: d417 18bd f65c b1bd fe9d 9ebd 21b5 5b3d
00000220: 158a a63d f951 c3bd 8254 92bd 4cb5 b3bc
00000230: 159f 6fbc 9326 213d 9625 fb3c 795f 97bb
00000240: a5b6 cd3d 4440 953c 7d3d 4b3d 94db 23bc
00000250: 5720 a3bd a29e 98bd 9dc6 95ba bf12 803b
00000260: 81a6 02bd 3138 84bd c588 09bd 0bb7 143d
00000270: 415d 66ba a92a ea3c 7074 7d3b 8b0d 403d
00000280: 2f2d d13c a5ba 59bd 4853 943c 77c4 02bd
00000290: 7e31 85bc b24b ec3a 2325 b13d 0640 6f3d
000002a0: 855a 223d 2572 04bd 85a5 22bd b8f4 ae3d
000002b0: 2b08 763d 97f9 0a3d a0db d0bb 4505 9cbd
000002c0: 22f3 853d 9caa 4abc 8fc1 b43d 2cd5 ecbc
000002d0: deb1 bdbd 7306 56bd 8f3b 81bd c7cc c8bc
000002e0: 0829 823d 7a85 8fbd 3604 483c 5495 8cbd
000002f0: be29 f73b 3d80 a43d 8fd4 383d 2c85 c73d
00000300: ecfe 39bd 54ea 9dbd ead0 6638 99a2 253b
00000310: b986 9fbd 4ff0 c93c af74 4c3d 08c8 363d
00000320: caed 8ebc 9293 aa3d 1ba3 b7bd 516e b6bd
00000330: 2c59 fd3c fafc 8bbd e324 59bc ef7b bdbd
00000340: a801 2d3d 84af b9bc cba3 8b3d 0124 2abd
00000350: 6c68 933d fd35 0f3b e7da 82bd 151e 3cbd
00000360: 3c23 463d 3d71 e63b 0c33 8d3d 4562 ab3c
00000370: dd72 e63c 65b3 483d b7ab ccbd ae81 153d
00000380: 3697 113d 049d 45bb 2b86 a33d 254b ca3d
00000390: e424 1abb 4b9c c93d 0ab1 c9bd 1b53 1abd
000003a0: 2416 293d e624 17ba a3fe 803d 17f0 90bd
000003b0: 1ae8 8b3c cfec 9e3d 6521 25bd 6ff9 a63d
000003c0: 6fef 82bd 1be3 4a3d 6065 9dbc 5a05 35bd
000003d0: 4528 45bd cb39 aabc 4c76 f5bc 7828 81bd
000003e0: c4d4 b03d 84a7 5f3d e320 833d 7a57 1bbd
000003f0: df62 713d a002 54bd 4bcd bdbd b79a 063d

layer_2.bias_ih f4 [64]
-0.07797089 0.089794315 0.008319532 0.10871331 0.11994151 -0.019607391 0.2081527 0.10606325
0.12835342 0.24403706 -0.108825125 0.20989344 0.26100287 0.08863665 0.13411395 -0.040353473
0.11746386 0.14495492 0.23994796 0.15017934 0.0787431 0.20058373 0.21929501 -0.07409939
0.17035298 0.07581479 0.022983052 0.11084773 0.229585 0.15645692 -0.03086729 0.2727047
0.26440626 0.09602204 -0.069657035 -0.09823829 -0.10769239 0.022487124 -0.09785158 0.14121665
0.17613034 0.123405814 0.17334269 0.009178468 0.17009453 0.21644193 0.15463287 0.14790161
0.010152585 0.13699654 0.04244325 0.16207352 0.11991734 0.020264667 -0.027665647 0.02192983
0.2774971 0.19951244 0.12276268 0.13961777 0.24802427 0.22120795 -0.069819696 0.16089618
00000000: 34af 9fbd 15e6 b73d a54e 083c 15a5 de3d
00000010: e5a3 f53d ae9f a0bc fb25 553e b037 d93d
00000020: 146f 033e dae4 793e b5df debd 4eee 563e
00000030: 2ba2 853e 2287 b53d 2b55 093e af49 25bd
00000040: e490 f03d 106f 143e ebb4 753e 9dc8 193e
00000050: 1044 a13d d265 4d3e df8e 603e 6cc1 97bd
00000060: 0371 2e3e c944 9b3d f446 bc3c 2204 e33d
00000070: 5518 6b3e 3e36 203e 66dd fcbc f39f 8b3e
00000080: 4260 873e 34a7 c43d 59a8 8ebd 2831 c9bd
00000090: d48d dcbd eb36 b83c 6966 c8bd 199b 103e
000000a0: 835b 343e 30bc fc3d bf80 313e 4961 163c
000000b0: 432d 2e3e f4a2 5d3e 1458 1e3e 8573 173e
000000c0: 0757 263c d248 0c3e f9d8 2d3d 9af6 253e
000000d0: 3997 f53d 1602 a63c 11a3 e2bc 30a6 b33c
000000e0: 1a14 8e3e fd4c 4c3e 006b fb3d f6f7 0e3e
000000f0: 13fa 7d3e 5684 623e a1fd 8ebd f8c1 243e

layer_2.bias_hh f4 [64]
0.09619338 0.24540074 0.057773136 0.103826925 0.25145397 -0.072587684 0.12046957 0.18568033
0.27068308 0.08075987 -0.054215916 0.09749082 0.23758204 0.0672484 0.13306178 -0.06159786
0.21379893 0.10806285 0.10970304 0.046426352 0.031106694 0.05343255 0.21960764 -0.0054723914
0.18144917 0.07543368 0.1325758 0.08889892 0.23691435 0.16033244 0.013418661 0.26101515
0.27340993 0.18332529 0.06825457 -0.08539591 0.005536087 0.0060364 0.0560672 0.2220581
0.17189199 0.1890851 0.17686896 0.05945853 0.20198591 0.16231936 0.123282716 0.22542794
0.06837827 0.21663196 0.057664596 0.11211478 0.02953662 0.017943949 -0.047976453 -0.047499575
0.22181591 0.20828876 0.19871505 0.07489497 0.23467371 0.22358963 0.007654821 0.24404366
00000000: 0901 c53d 554a 7b3e 86a3 6c3d 36a3 d43d
00000010: 93be 803e daa8 94bd c0b8 f63d fc22 3e3e
00000020: f996 8a3e 6e65 a53d 8211 5ebd 44a9 c73d
00000030: b548 733e 87b9 893d 5941 083e 0a4e 7cbd
00000040: 1bee 5a3e 0e50 dd3d fdab e03d 8f29 3e3d
00000050: 77d3 fe3c 17dc 5a3d d3e0 603e bf51 b3bb
00000060: d0cd 393e f97c 9a3d f3c1 073e a310 b63d
00000070: ad99 723e 302e 243e f2d9 5b3c c7a3 853e
00000080: 63fc 8b3e a0b9 3b3e 0dc9 8b3d 0de4 aebd
00000090: 1068 b53b fecc c53b b8a6 653d 3363 633e
000000a0: 7404 303e 869f 413e 231d 353e ca8a 733d
000000b0: 65d5 4e3e 0c37 263e a67b fc3d 95d6 663e
000000c0: e809 8c3d c5d4 5d3e b631 6c3d 6f9c e53d
000000d0: c8f6 f13c 30ff 923c f582 44bd ea8e 42bd
000000e0: b623 633e a649 553e f57b 4b3e 8962 993d
000000f0: 4e4e 703e aef4 643e 4bd5 fa3b 95e6 793e

layer_3.weight_ih f4 [32, 64]
0.07899957 -0.039917063 0.07883462 -0.10335399 0.041933935 0.030581307 -0.09433837 0.044284485
0.0012418249 -0.14429553 0.10632422 -0.14904507 -0.15695149 0.031239953 -0.07682142 0.11448689
0.12725659 0.026630152 -0.0611586 -0.12820625 -0.008752166 0.014037733 -0.026136436 -0.08804897
0.07804065 -0.07610988 -0.02107982 0.03847634 -0.117996216 -0.086228915 -0.11609004 -0.10114784
0.020480372 0.093660645 0.030574923 -0.05950075 0.037888527 -0.11547568 -0.003170441 0.09653322
0.117720656 -0.012409299 -0.13726528 0.13120843 0.10995548 -0.08259709 -0.10473048 0.011184454
0.046816185 -0.078133225 -0.14399648 0.013888997 -0.12343781 0.10524491 -0.06950447 -0.13033976
-0.0104255695 -0.040856283 -0.08960452 0.068666965 0.12465365 0.019899353 0.13203704 0.06805344
-0.04664134 0.19578001 -0.07052022 0.076155476 0.055982802 -0.06330628 -0.010049219 0.19877332
0.011664815 0.1332576 -0.11393633 0.0059909252 0.11333934 -0.032645036 0.023774298 -0.07162862
0.20066953 0.17158338 0.03723098 0.24239747 -0.09481273 0.03341079 0.03944956 -0.004945501
0.1440984 0.09113992 0.0018932831 0.038330182 0.08723773 0.11716939 -0.046077985 0.006201213
0.19251005 0.04929652 0.1572839 0.1521673 -0.03229806 0.024661288 0.05313543 0.16295116
0.06994707 0.23770475 0.0967756 -0.06640931 0.21305844 0.19651708 0.15778217 0.079170175
-0.00754232 0.11544676 0.079024695 0.18739086 0.06356369 0.0036458364 0.0820847 -0.021319984
0.25475815 0.047432378 0.13993669 0.06430994 0.0036295077 0.19347833 0.10879078 0.22134084
0.053901024 -0.12132873 0.12811288 -0.025157811 0.033571422 -0.028774388 -0.07500967 0.030961972
-0.023523299 -0.08106814 -0.13450056 0.09951308 -0.09012758 0.11794763 0.0076083704 -0.024509301
-0.0011951172 0.09737048 0.109751776 -0.07869786 -0.011920152 0.124701545 0.065679595 -0.014664468
-0.09502549 -0.13271159 0.069711626 -0.11163051 0.12659742 -0.11533943 -0.051023744 0.025878798
-0.15592077 0.050731655 0.11782009 -0.118290834 0.008686467 0.0065288283 0.06345493 0.039220203
-0.14951786 -0.10975488 -0.04003145 -0.08188618 -0.028595619 0.107034266 0.00381324 -0.1119608
0.13242495 0.11431746 -0.12777299 0.012344162 0.09787425 -0.09110288 0.040787727 0.1061788
-0.13638689 -0.038314503 0.024905438 -0.058513567 -0.14899157 -0.03719558 -0.09776479 -0.008685496
-0.061102636 -0.10966416 -0.013318881 -0.12523948 0.038111176 0.057359785 0.04893697 -0.020668965
-0.102129884 0.11059143 0.06217801 0.09916475 -0.10661049 -0.091535226 0.0502044 -0.11664558
0.07636435 -0.11648154 -0.12274914 0.028528625 0.07826003 -0.1220512 -0.07583616 0.0711717
-0.11969609 0.04602788 0.11038228 -0.009541155 0.124441974 -0.09096522 -0.046704605 -0.04184888
-0.0032022803 -0.06735039 -0.08914411 0.06890837 -0.040530704 -0.073607 0.11235165 0.040333707
-0.03006493 -0.11431821 -0.06962908 -0.045053978 -0.11882302 -0.05536697 -0.06267384 0.01796368
0.10471591 0.051467504 -0.0047748885 -0.052662518 0.0038567078 0.09030614 -0.11498772 -0.08961088
0.10958137 -0.021345373 0.034422886 0.13118927 -0.14030844 0.105097234 0.12485622 -0.14118196
00000000: 87ca a13d 1380 23bd 0c74 a13d 42ab d3bd
00000010: ebc2 2b3d a685 fa3c 7a34 c1bd a663 353d
00000020: bbc4 a23a 35c2 13be 83c0 d93d 459f 18be
00000030: e4b7 20be eeea ff3c 8c54 9dbd 1a78 ea3d
00000040: 8d4f 023e 7a27 da3c 7181 7abd 8048 03be
00000050: 3f65 0fbc 85fe 653c 141c d6bc 0553 b4bd
00000060: c7d3 9f3d 7fdf 9bbd 96af acbc 5e99 1d3d
00000070: 00a8 f1bd c998 b0bd 9dc0 edbd 9926 cfbd
00000080: 74c6 a73c 27d1 bf3d 4378 fa3c 0fb7 73bd
00000090: 0031 1b3d 837e ecbd 2cc7 4fbb 35b3 c53d
000000a0: 8717 f13d 5f50 4bbc 458f 0cbe 815b 063e
000000b0: 5730 e13d aa28 a9bd ef7c d6bd 003f 373c
000000c0: 54c2 3f3d 5004 a0bd d073 13be ad8e 633c
000000d0: f6cc fcbd a58a d73d 5c58 8ebd c977 05be
000000e0: 02d0 2abc eb58 27bd 9382 b7bd 44a1 8c3d
000000f0: 6a4a ff3d f803 a33c b834 073e 9a5f 8b3d
00000100: fd0a 3fbd 8e7a 483e e86c 90bd 67f7 9b3d
00000110: 394e 653d b9a6 81bd 7ba5 24bc 3c8b 4b3e
00000120: c81d 3f3c ae74 083e 7357 e9bd 864f c43b
00000130: 751e e83d cdb6 05bd 51c2 c23c 07b2 92bd
00000140: 507c 4d3e 8eb3 2f3e 837f 183d 0b37 783e
00000150: 2d2d c2bd c1d9 083d dd95 213d df0d a2bb
00000160: 888e 133e 91a7 ba3d 0a28 f83a 1c00 1d3d
00000170: b2a9 b23d 81f6 ef3d 45bc 3cbd 8c33 cb3b
00000180: 5b21 453e 26eb 493d 080f 213e bfd1 1b3e
00000190: f84a 04bd 7806 ca3c 89a4 593d abdc 263e
000001a0: 6940 8f3d e068 733e 4932 c63d 9b01 88bd
000001b0: fe2b 5a3e c63b 493e a691 213e f923 a23d
000001c0: 9125 f7bb 5a6f ec3d b3d7 a13d 64e3 3f3e
000001d0: ae2d 823d fcee 6e3b 061c a83d 3fa7 aebc
000001e0: a96f 823e 7448 423d 904b 0f3e eeb4 833d
000001f0: 09dd 6d3b 2f1f 463e b3cd de3d 2ca7 623e
00000200: 52c7 5c3d 327b f8bd 0630 033e c117 cebc
00000210: 3082 093d 44b8 ebbc ab9e 99bd f6a3 fd3c
00000220: efb3 c0bc 0e07 a6bd 84ba 09be 84cd cb3d
00000230: cf94 b8bd 878e f13d a34f f93b bbc7 c8bc
00000240: 7ba5 9cba 2d6a c73d 8ac5 e03d 582c a1bd
00000250: be4c 43bc 8663 ff3d 0683 863d 3d43 70bc
00000260: b99c c2bd 8ce5 07be f8c4 8e3d 899e e4bd
00000270: c1a2 013e 1437 ecbd 46fe 50bd c6ff d33c
00000280: b2a9 1fbe ffcb 4f3d a94b f13d 7742 f2bd
00000290: af51 0e3c c8ef d53b a9f4 813d 5da5 203d
000002a0: 361b 19be 2bc7 e0bd 05f8 23bd f1b3 a7bd
000002b0: 5c41 eabc c834 db3d 8de7 793b b44b e5bd
000002c0: 689a 073e 461f ea3d ecd6 02be 2b3f 4a3c
000002d0: 4b72 c83d 2694 babd 0811 273d 4574 d93d
000002e0: 01a9 0bbe abef 1cbd 7d06 cc3c ecab 6fbd
000002f0: 3f91 18be 645a 18bd e838 c8bd 9c4d 0ebc
00000300: c246 7abd 9a97 e0bd 7037 5abc c73e 00be
00000310: 771a 1c3d 18f2 6a3d 2272 483d f651 a9bc
00000320: 7929 d1bd c27d e23d 5eae 7e3d e316 cb3d
00000330: 9a56 dabd d276 bbbd 21a3 4d3d e1e3 eebd
00000340: ea64 9c3d e08d eebd e763 fbbd ddb4 e93c
00000350: cb46 a03d fbf5 f9bd fd4f 9bbd 78c2 913d
00000360: 3923 f5bd bb87 3c3d 1b10 e23d 8152 1cbc
00000370: 6fdb fe3d f94b babd 544d 3fbd bb69 2bbd
00000380: 59dd 51bb 00ef 89bd 3091 b6bd d51f 8d3d
00000390: 8603 26bd 44bf 96bd 9f18 e63d f534 253d
000003a0: ba4a f6bc aa1f eabd b199 8ebd 858a 38bd
000003b0: 7c59 f3bd 7ac8 62bd 245b 80bd 9128 933c
000003c0: 4c75 d63d 97cf 523d ab76 9cbb a7b4 57bd
000003d0: d2c0 7c3b 6df2 b83d af7e ebbd e985 b7bd
000003e0: 336c e03d 7edc aebc 03ff 0c3d 7b56 063e
000003f0: 04ad 0fbe 383d d73d 9eb4 ff3d 0192 10be

layer_3.weight_hh f4 [32, 32]
-0.04329431 -0.067450434 -0.09489473 0.0897604 -0.04045953 0.13583967 -0.03380362 0.11719794
-0.07272709 0.124257796 0.06101701 0.044097587 0.012042483 0.07381259 -0.116030775 0.13360947
0.061359953 -0.07824291 -0.0921756 0.05427846 0.085598804 -0.09562522 -0.12781167 0.042584516
-0.12205869 0.13728894 -0.02647746 -0.025413025 0.09906775 0.063204944 0.08779295 0.12353943
-0.046264824 0.0814869 0.12640853 -0.02176705 0.022092752 -0.0040779253 -0.07218455 -0.10475718
-0.13600425 -0.006210505 0.13281862 0.01415838 0.021704035 0.040748373 0.11259545 -0.005009332
0.0927891 0.071755655 -0.03974249 0.013332899 0.045540735 0.05546663 0.13558286 0.09395837
-0.0062353 -0.036457274 0.110827886 -0.025737377 -0.10932617 0.0801904 0.09004371 -0.10124016
0.09213074 -0.084921755 0.0018616415 0.080256335 -0.04656109 0.0602136 0.06549133 0.12081574
-0.08861808 0.057789706 -0.035770465 -0.037356555 0.038716294 -0.019110978 -0.060250804 -0.015978886
-0.082135946 -0.109001234 -0.12634602 0.122896664 0.06863473 -0.013733902 0.13949886 -0.021868046
0.06567162 -0.13539372 -0.02398214 0.11939637 0.08646986 -0.12528504 0.06596564 -0.12559408
-0.070645995 -0.033349995 -0.02820244 0.09456075 -0.054945525 0.079335436 0.09652514 -0.056605496
-0.11553176 0.05063092 -0.03879886 0.13605197 0.057628296 0.037409943 -0.10336536 -0.113122106
0.010142434 -0.021594554 -0.12612821 -0.008843816 -0.11255306 -0.08605083 0.088629074 0.09868474
-0.06008071 0.046161816 0.03610472 -0.091710985 0.04355804 -0.01834064 0.030319294 -0.009176197
-0.07674699 0.07990309 -0.055658605 0.049561784 0.076257 0.13108265 -0.09627384 -0.011035166
0.0023799087 0.013817937 0.06596172 0.049098607 0.027683424 -0.040802553 0.1238669 0.048149135
0.13193712 0.09080397 -0.05082707 0.0017281009 -0.102342024 0.03206177 -0.019077774 -0.120132595
-0.13503453 0.073652126 -0.11313704 0.09191673 -0.061196223 0.011083285 -0.08760315 0.10779354
-0.028826376 0.119722955 -0.051991668 0.12584221 0.13569695 0.060827594 -0.005477297 -0.085656635
-0.039312553 -0.07251485 -0.011989182 0.03160306 -0.0038016918 -0.11821739 0.11466795 -0.1398421
-0.01908974 0.11078145 -0.024941763 -0.122364886 -0.017935725 0.08224315 0.035490327 -0.061628714
0.03509522 0.016678046 -0.06263911 -0.0032843172 -0.05416452 -0.070770666 0.055421047 -0.028504407
0.116378896 -0.09063878 0.05557686 0.02490389 -0.10351023 -0.10240377 0.13660668 0.10466987
0.10641476 0.051286045 0.002102841 -0.1311124 -0.006280732 -0.084058024 -0.04643765 -0.04389605
0.0018710194 -0.072545074 0.07027774 0.11765941 -0.10822626 -0.1172517 0.074645214 -0.0930012
0.055492893 -0.07926396 -0.08790836 0.11909566 -0.050080657 0.004270907 -0.040281836 0.0255713
0.0738398 -0.05068079 0.10827311 0.06394731 0.018519262 -0.12582162 -0.121756636 0.12627476
0.0065206476 0.08053688 0.043955605 -0.049802538 0.11977387 0.13096973 0.032058273 0.13070445
0.04033246 0.020920215 0.03165844 -0.080952056 -0.13057509 -0.00026644458 -0.017278805 0.051772777
0.12754336 -0.039267577 0.06932888 -0.051420085 0.010868358 0.11651704 -0.013536629 -0.050685477
00000000: 6055 31bd 7423 8abd 2b58 c2bd 4dd4 b73d
00000010: e4b8 25bd 8e19 0b3e aa75 0abd 7905 f03d
00000020: f1f1 94bd df7a fe3d f9ec 793d ac9f 343d
00000030: d64d 453c 0e2b 973d 8ba1 edbd ecd0 083e
00000040: 9354 7b3d d23d a0bd 90c6 bcbd 1753 5e3d
00000050: 6d4e af3d 28d7 c3bd 10e1 02be 1a6d 2e3d
00000060: e8f9 f9bd 7995 0c3e 42e7 d8bc fa2e d0bc
00000070: 08e4 ca3d 9871 813d cacc b33d 3e02 fd3d
00000080: 2f80 3dbd 9be2 a63d 3d71 013e d050 b2bc
00000090: dcfb b43c 1ea0 85bb 7ed5 93bd ef8a d6bd
000000a0: b344 0bbe 7e81 cbbb 9b01 083e 8df8 673c
000000b0: a9cc b13c c4e7 263d 7198 e63d 5325 a4bb
000000c0: 3608 be3d a1f4 923d 05c9 22bd 3b72 5a3c
000000d0: ec88 3a3d fa30 633d 3cd6 0a3e 3f6d c03d
000000e0: 7d51 ccbb 3954 15bd bbf9 e23d 31d7 d2bc
000000f0: 66e6 dfbd dd3a a43d d668 b83d 0057 cfbd
00000100: 0baf bc3d 75eb adbd 5302 f43a 6f5d a43d
00000110: d7b6 3ebd 89a2 763d 5220 863d 3e6e f73d
00000120: 657d b5bd e6b4 6c3d 0d84 12bd 3003 19bd
00000130: fa94 1e3d a08e 9cbc 8cc9 76bd 27e6 82bc
00000140: e436 a8bd 0a3c dfbd da60 01be 3fb1 fb3d
00000150: 5e90 8c3d 2904 61bc cad8 0e3e 9e24 b3bc
00000160: d87e 863d a7a4 0abe 3176 c4bc 1686 f43d
00000170: 1c17 b13d b94a 00be fe18 873d bc9b 00be
00000180: d9ae 90bd 019a 08bd ce08 e7bc 11a9 c13d
00000190: 8f0e 61bd 9e7a a23d f9ae c53d 2adb 67bd
000001a0: ea9b ecbd 5e62 4f3d 8eeb 1ebd 3551 0b3e
000001b0: a60b 6c3d 2b3b 193d 38b1 d3bd 90ac e7bd
000001c0: 742c 263c 10e7 b0bc c127 01be a7e5 10bc
000001d0: 3882 e6bd 6b3b b0bd 2983 b53d 3a1b ca3d
000001e0: 3117 76bd 2c14 3d3d 8be2 133d f8d2 bbbd
000001f0: ea69 323d 1c3f 96bc 2b60 f83c c357 16bc
00000200: 872d 9dbd 3ba4 a33d 47fa 63bd 4c01 4b3d
00000210: a12c 9c3d 883a 063e 382b c5bd d7cc 34bc
00000220: 3ef8 1b3b a164 623c f016 873d 9f1b 493d
00000230: 59c8 e23c 9420 27bd eead fd3d 0738 453d
00000240: 861a 073e 6ff7 b93d 0c30 50bd 7281 e23a
00000250: b298 d1bd 3453 033d fe48 9cbc 1408 f6bd
00000260: 7e46 0abe edd6 963d 64b4 e7bd d73e bc3d
00000270: e4a8 7abd ab96 353c 4869 b3bd dcc2 dc3d
00000280: 4b25 ecbc 4f31 f53d 37f5 54bd c8dc 003e
00000290: 24f4 0a3e 5b26 793d e67a b3bb bf6c afbd
000002a0: 3306 21bd aa82 94bd 466e 44bc 3672 013d
000002b0: ce25 79bb f51b f2bd 08d7 ea3d c432 0fbe
000002c0: 1662 9cbc 63e1 e23d ab52 ccbc 719a fabd
000002d0: f1ed 92bc 196f a83d 4e5e 113d 646e 7cbd
000002e0: 01c0 0f3d 66a0 883c ef48 80bd b33d 57bb
000002f0: 9edb 5dbd 36f0 90bd 2e01 633d 1382 e9bc
00000300: 0f58 ee3d d3a0 b9bd 90a4 633d 3e03 cc3c
00000310: 2cfd d3bd 11b9 d1bd 9fe2 0b3e 285d d63d
00000320: fbef d93d 5111 523d d1cf 093b 5442 06be
00000330: 99ce cdbb 9d26 acbd 6835 3ebd 58cc 33bd
00000340: fe3c f53a 8392 94bd c7ed 8f3d 6bf7 f03d
00000350: bba5 ddbd a921 f0bd 97df 983d 6a77 bebd
00000360: 844c 633d 2555 a2bd 4c09 b4bd 6de8 f33d
00000370: 6021 4dbd f7f2 8b3b 91fe 24bd e77a d13c
00000380: 5239 973d a996 4fbd 4bbe dd3d cff6 823d
00000390: b5b5 973c 62d7 00be 8b5b f9bd 2c4e 013e
000003a0: 28ab d53b 85f0 a43d cb0a 343d bffd 4bbd
000003b0: 014c f53d ee1c 063e 894f 033d 63d7 053e
000003c0: a633 253d df60 ab3c 48ac 013d 31ca a5bd
000003d0: 7ab5 05be 96b1 8bb9 488c 8dbc b10f 543d
000003e0: ba9a 023e 0ad7 20bd 4dfc 8d3d de9d 52bd
000003f0: 3311 323c 7ca0 ee3d bdc8 5dbc 939b 4fbd

layer_3.bias_ih f4 [32]
0.08026259 0.06866755 -0.057374883 0.06124994 -0.030571135 0.14094625 0.29510027 -0.07756414
-0.0014336518 -0.054289337 0.13127466 -0.11418015 0.320476 0.077771105 0.050985 0.17366804
0.07833491 0.036301978 0.023829855 -0.07285716 -0.050094474 -0.033854384 0.29580122 0.31568858
0.18909095 -0.102250025 0.09544447 0.22605726 0.031484302 0.08314727 0.04271136 0.17284347
00000000: b660 a43d 93a1 8c3d ed01 6bbd 38e1 7a3d
00000010: 5170 fabc 3754 103e 6217 973e f3d9 9ebd
00000020: 5fe9 bbba 7f5e 5ebd dd6c 063e 48d7 e9bd
00000030: 6e15 a43e 7546 9f3d a6d5 503d 09d6 313e
00000040: 0e6e a03d 62b1 143d d436 c33c 2236 95bd
00000050: dd2f 4dbd e5aa 0abd 4273 973e efa1 a13e
00000060: 0fa1 413e 7668 d1bd 6478 c33d 8e7b 673e
00000070: aff5 003d 1e49 aa3d 1bf2 2e3d e1fd 303e

layer_3.bias_hh f4 [32]
-0.03142636 0.09225972 -0.06981548 -0.10942245 0.08111146 0.2787852 0.27849555 -0.005334054
0.07974499 -0.022051193 0.0585126 0.12822674 0.22765261 0.2594715 0.32234478 0.12941432
0.10292608 0.023153337 -0.082990535 0.0701381 0.057162732 0.084733196 0.21870416 0.30653286
0.03682323 -0.045662507 0.030879237 0.20553857 0.26899683 0.02900462 0.104514204 0.23567963
00000000: edb8 00bd aaf2 bc3d 6bfb 8ebd e118 e0bd
00000010: c41d a63d efbc 8e3e f896 8e3e 4ac9 aebb
00000020: 5751 a33d b4a4 b4bc e8aa 6f3d df4d 033e
00000030: c41d 693e 73d9 843e 600a a53e 3085 043e
00000040: e9ca d23d 11ac bd3c f1f6 a9bd 90a4 8f3d
00000050: 7823 6a3d 9988 ad3d fcf3 5f3e e0f1 9c3e
00000060: f5d3 163d 9c08 3bbd 74f6 fc3c b478 523e
00000070: f4b9 893e 199b ed3c 8b0b d63d 0056 713e
