src/pyoptes/optimization/budget_allocation/supervised_learning/trained_nn_states/wx_120_FCN_per_node.pth (torch, 176007 bytes, 10 tensors)

layer_1.weight f4 [128, 120]
0	0xbc2ce1f8	-0.010551922
1	0x3d917345	0.07102064
2	0x3df94efa	0.12173267
3	0xbd1a84ff	-0.03772449
4	0x3d54e21c	0.051973447
5	0x3c97042b	0.018434605
6	0x3e07b9c6	0.1325446
7	0xbcbc928b	-0.023019096
8	0x3b9cf56d	0.004789999
9	0x3e019a8d	0.12656613
10	0x3dcb8e55	0.09939257
11	0x3a9fc8c7	0.0012190574
12	0x3dee491f	0.116350405
13	0x3cf66531	0.030077549
14	0x3dbdfc88	0.09276682
15	0x3c73d499	0.01488223
16	0x3cdb748e	0.026788976
17	0x3d0ee34c	0.034884736
18	0xbd0a5554	-0.03377278
19	0x3e0deede	0.13860652
20	0x3d1b15e8	0.03786269
21	0xbba35d20	-0.0049854666
22	0x3dfc8929	0.12330849
23	0x3dc4c563	0.09607961
24	0x3d980aa9	0.07423908
25	0x3dbab82e	0.09117161
26	0x3dc665a3	0.096873544
27	0x3e0ac20d	0.13550587
28	0x3e0ef13e	0.13959214
29	0x3dbaa38a	0.09113224
30	0x3d901b7f	0.070364945
31	0x3df9a576	0.12189762
32	0xbd2cb293	-0.04216249
33	0xbcd10348	-0.02551426
34	0x3da3c33d	0.07996223
35	0xbc331764	-0.01093087
36	0x3c362d4d	0.011119199
37	0x3dfd677a	0.12373252
38	0x3e0b7816	0.13620028
39	0x3d5d4d53	0.05402882
40	0x3d27b4a4	0.040943757
41	0x3c288b92	0.010287182
42	0x3d874f3d	0.066069104
43	0x3db66bb7	0.08907264
44	0x3d0173ed	0.031604696
45	0x3d3916ee	0.045187883
46	0x3d3d7163	0.046250712
47	0x3cd8795a	0.026425052
48	0xbcf16a6d	-0.029469693
49	0x3c830b6b	0.015996655
50	0x3e0d271a	0.13784447
51	0xbba4803b	-0.005020169
52	0xbcd4eded	-0.025992358
53	0x3dc85996	0.09782712
54	0x3c8d686e	0.01726171
55	0x3daf8639	0.08570523
56	0x3d991065	0.0747383
57	0x3dbeb454	0.093117386
58	0x3dd300e9	0.10302908
59	0x3da996be	0.08280705
60	0xbc792cb3	-0.015208411
61	0x3cbc785a	0.023006607
62	0x3dc0aea4	0.0940831
63	0x3dbb9d8b	0.09160908
64	0x3e12e554	0.14345294
65	0x3d4ec53b	0.050481062
66	0x3d20069f	0.039068814
67	0xbad516f3	-0.001625745
68	0x3c9fa6c7	0.019488705
69	0x3e0664d4	0.131244
70	0x3d738296	0.05945071
71	0xbb30ba32	-0.002696645
72	0x3df2d74b	0.1185747
73	0xbcc542ad	-0.024079645
74	0x3d3c5f49	0.04598931
75	0x3d55a554	0.052159622
76	0x3daaf6ae	0.08347832
77	0x3dd17092	0.10226549
78	0x3df05cb7	0.11736434
79	0x3de0c91a	0.10975857
80	0x3d78a1ef	0.060701307
81	0x3dde574a	0.10856493
82	0xbcd76396	-0.026292603
83	0xbd045596	-0.032308184
84	0xbc006bd2	-0.007838206
85	0xbcc91000	-0.024543762
86	0x3d36f3b9	0.044666026
87	0x3de4e0ec	0.11175713
88	0x3bc3b9e0	0.0059730858
89	0x3dbdfdf2	0.09276952
90	0x3e123904	0.14279562
91	0x3dd0b462	0.10190655
92	0xbc4269d2	-0.01186605
93	0x3c718017	0.014740012
94	0xbc4e2eac	-0.01258437
95	0x3c0020dd	0.007820335
96	0xbc73f901	-0.01489091
97	0x3cfbbd48	0.030729905
98	0x3da2d2ce	0.07950364
99	0x3cbb101d	0.022834832
100	0x3da8ddaf	0.08245408
101	0x3d2af387	0.041736152
102	0x3e1fc85f	0.1560378
103	0x3e0be984	0.13663298
104	0x3d1c3acf	0.03814202
105	0x3db48766	0.08814888
106	0x3db2a76f	0.08723342
107	0x3dcb6c44	0.099327594
108	0xbca228ad	-0.019794786
109	0x3d944027	0.072387986
110	0x3c946c0a	0.018117923
111	0x3d7e4b97	0.062083807
112	0xbc7f2d95	-0.015574832
113	0x3ded6caf	0.115929954
114	0xbce3b106	-0.027794372
115	0x3e0224ac	0.12709302
116	0x3ceb2e01	0.02870846
117	0x3c43d824	0.011953387
118	0x3d1ede7e	0.038786404
119	0x3df571e5	0.11984614
120	0xbcd4f728	-0.02599676
121	0x3d17f70c	0.037100837
122	0x3d6f2920	0.05838883
123	0x3b9a54b4	0.0047098044
124	0x3db11c52	0.0864798
125	0x3d060a97	0.032724943
126	0x3c22fd4c	0.009948086
127	0x3df77850	0.12083495
128	0x3cf30ae8	0.029668286
129	0x3dd20b12	0.10256018
130	0x3d90a42f	0.070625655
131	0x3dd0a101	0.10186959
132	0x3db454e9	0.08805258
133	0x3d9775e1	0.073955305
134	0x3d3e6a68	0.046488196
135	0x3cbd6b68	0.023122504
136	0xbd348789	-0.04407457
137	0xbba23073	-0.0049496233
138	0xbd481f37	-0.048857894
139	0x3dfa40d0	0.12219393
140	0x3d4da829	0.0502092
141	0x3b92afc9	0.0044765216
142	0x3df330dc	0.118745536
143	0x3db8d8f2	0.09025754
144	0x3b0c7a98	0.0021435376
145	0x3c0550d8	0.00813695
146	0xbad516a4	-0.0016257358
147	0x3dd1b16f	0.10238921
148	0x3de9bf4e	0.114134416
149	0x3d4f1842	0.050560243
150	0x3d52637d	0.05136441
151	0xbb4747ac	-0.003040771
152	0xbd35456a	-0.04425565
153	0xbda176eb	-0.0788401
154	0xbd8c2c28	-0.0684436
155	0x3d26494d	0.04059725
156	0x3dbe6d1e	0.09298156
157	0x3d944c02	0.0724106
158	0x3de0275e	0.10945009
159	0x3dec2157	0.115297966
160	0x3c7b370d	0.015332949
161	0xbd43894d	-0.047738362
162	0x3d96b2c1	0.07358313
163	0x3ce09f8d	0.02741983
164	0x3c4b7260	0.012417406
165	0x3db1ebc2	0.08687545
166	0x3d7c7be8	0.061641604
167	0xbd5d4b0f	-0.05402666
168	0xbcb25864	-0.021770664
169	0xbb911d08	-0.0044285096
170	0x3d015981	0.0315795
171	0xbd93220c	-0.07184228
172	0x3c801cf8	0.015638813
173	0x3dd84d1b	0.10561582
174	0xbc9d4a24	-0.019200392
175	0x3d97f8a1	0.07420469
176	0x3d21df1e	0.03951942
177	0x3d5a4d63	0.053296458
178	0xbd8f04a8	-0.0698331
179	0x3de35a53	0.11101212
180	0x3d9e08fc	0.077165574
181	0x3d98cbb3	0.074607275
182	0x3d8a680c	0.067581266
183	0x3dcb889d	0.09938166
184	0xbcbd7528	-0.023127154
185	0xbd05d7e0	-0.032676578
186	0x3d37a3ff	0.044834133
187	0x3dee0c21	0.11623407
188	0x3d39cd21	0.04536164
189	0x3d70b38c	0.05876498
190	0xbd0f22b3	-0.0349452
191	0x3cb75dc2	0.022383574
192	0xba11afc7	-0.0005557504
193	0x3b51d92e	0.0032020318
194	0x3d43478c	0.047675654
195	0x3d991377	0.07474416
196	0xbcdf4561	-0.027254762
197	0x3cad44cd	0.02115097
198	0xbc850e60	-0.016242206
199	0xbd0374a7	-0.03209367
200	0xba8457e2	-0.0010096992
201	0x3db4ef4d	0.088347055
202	0x3dcbbdf8	0.09948343
203	0xbda0a474	-0.07843867
204	0x3e02b037	0.12762533
205	0x3d013caa	0.031551994
206	0x3e01d6ea	0.1267964
207	0x3b5d871f	0.0033802462
208	0xbb7f410b	-0.003894868
209	0x3dd2aa02	0.10286333
210	0x3ded58fa	0.115892366
211	0x3da12591	0.07868493
212	0x3c4b7cb9	0.012419873
213	0x3d8d3995	0.068957485
214	0xbbf40274	-0.0074465815
215	0xbd957f8d	-0.07299719
216	0x3d13a4b9	0.036045764
217	0x3d9795c7	0.07401615
218	0x3dd09897	0.10185354
219	0x3ba173a3	0.004927115
220	0xbb59783b	-0.0033183235
221	0x3d71896d	0.05896895
222	0x3e14eeb2	0.1454418
223	0x3a10bcc7	0.0005521294
224	0x3e07662d	0.1322257
225	0x3dee1b97	0.11626356
226	0x3d2d41fc	0.042299256
227	0x3afc0cd1	0.0019229894
228	0x3cf09422	0.02936751
229	0x3dd0b951	0.10191596
230	0xb9e7c67a	-0.0004420763
231	0x3d909b3c	0.070608586
232	0x3d9053b8	0.07047218
233	0xbd2f38fc	-0.042778954
234	0xbc07aeb3	-0.008281398
235	0xbcaa681f	-0.020801602
236	0xbd760532	-0.06006355
237	0x3ae96593	0.0017806761
238	0xbd58ab6c	-0.052897856
239	0xbd322835	-0.043495376
240	0xbbd47c29	-0.0064845276
241	0x3d0fdf09	0.035124812
242	0x3d099ca5	0.033596653
243	0x3dc8c1bc	0.09802577
244	0x3c782b75	0.01514708
245	0x3dc78218	0.0974161
246	0x3e0c64e8	0.13710368
247	0x3d0397b1	0.032127086
248	0x3e024c92	0.12724522
249	0x3e11f5a5	0.14253862
250	0x3ca0bdd5	0.019621769
251	0x3df55c37	0.11980479
252	0x3b695f06	0.0035609617
253	0x3dea0af4	0.114278704
254	0x3bd7171d	0.0065640346
255	0x3d4157df	0.04720294

layer_1.bias f4 [128]
0	0x3e174cdf	0.14775418
1	0x3d022492	0.031773157
2	0x3b58e90f	0.0033097898
3	0x3cf330c1	0.029686334
4	0x3d4fcacb	0.050730508
5	0x3dc00fa9	0.09377987
6	0x3dbb77f6	0.0915374
7	0x3dc07c9d	0.09398768
8	0x3dd912d8	0.10599297
9	0x3cff8ab2	0.031194065
10	0x3dda25ee	0.10651766
11	0x3d0d0242	0.03442598
12	0x3dee0ddf	0.116237395
13	0x3daa401f	0.083130114
14	0xbcc5c1e0	-0.024140298
15	0x3d47ab32	0.04874725
16	0xbb801f83	-0.0039100065
17	0x3d41bcfa	0.047299363
18	0xbc769de0	-0.015052289
19	0x3dbbc821	0.09169031
20	0x3e1f7ab5	0.15574153
21	0x3bf9a61d	0.007618679
22	0x3d3101f2	0.043214746
23	0xbcf4df7a	-0.029891718
24	0x3d90e3d6	0.07074706
25	0xbccca280	-0.02497983
26	0x3d3f98b0	0.046776474
27	0x3df2c89c	0.118546695
28	0x3c606175	0.013695111
29	0x3d318a67	0.04334488
30	0x3da8457d	0.08216379
31	0x3d423d57	0.04742178
32	0x3c8d71ab	0.017266115
33	0x3d9de7d4	0.07710233
34	0x3dbc13c5	0.09183458
35	0x3da73903	0.08165171
36	0x3d869fda	0.06573458
37	0xbd640fca	-0.05567912
38	0x3d7f8ce7	0.062390234
39	0x3db013fb	0.08597561
40	0x3d11c39d	0.035586942
41	0x3dc264aa	0.094918564
42	0x3e026b18	0.12736166
43	0x3d4e855f	0.05042016
44	0x3c952352	0.018205319
45	0x3d7d9e67	0.061918642
46	0x3e1bb4c4	0.15205675
47	0xbd0534c8	-0.03252104
48	0x3e0e92c8	0.1392318
49	0xbc4639c5	-0.012098734
50	0xbc702306	-0.014656788
51	0xbd2e2b1f	-0.042521592
52	0x3d153c2f	0.03643435
53	0x3d800ea2	0.06252791
54	0x3e041611	0.12899043
55	0x3ccd24ac	0.0250419
56	0x3de95b3a	0.11394353
57	0x3d9ed3eb	0.07755264
58	0x3dde7885	0.10862831
59	0xbda3119d	-0.07962344
60	0x3dbaebda	0.09127016
61	0x3c6c87c7	0.014436669
62	0xbd31cd65	-0.04340877
63	0x3cb5cdb6	0.022192817
64	0x3e05c394	0.13062888
65	0x3dc08843	0.0940099
66	0xbbb99b5f	-0.0056642736
67	0x3db3560f	0.08756649
68	0x3d817f40	0.06323099
69	0x3cb8e4ab	0.022569975
70	0x3dd2249c	0.10260889
71	0x3e068978	0.13138378
72	0x3d18c7de	0.037299983
73	0xbc731041	-0.014835418
74	0xbbe6a729	-0.00703897
75	0xbbad67d9	-0.0052919206
76	0x3d55c8e7	0.05219355
77	0xbcd243a2	-0.025667015
78	0x3d8dd3cf	0.06925165
79	0x3c1c1f96	0.009529015
80	0xbcae3367	-0.021264745
81	0x3e0e0643	0.13869576
82	0x3daed89f	0.08537411
83	0x3d39e819	0.04538736
84	0x3cf6b4dd	0.03011554
85	0xbc317552	-0.010831194
86	0xbcd3a339	-0.025834667
87	0x3de5b24d	0.11215649
88	0x3c8d72bb	0.017266622
89	0x3d0d4701	0.034491543
90	0x3ddbcf75	0.10732929
91	0xbc8523fb	-0.016252508
92	0x3d18fbb6	0.037349425
93	0x3e1cd83f	0.15316866
94	0x3d2ddf59	0.04244933
95	0x3ddee3cb	0.10883292
96	0x3d5800de	0.052735202
97	0xbd3443c6	-0.044009946
98	0xbd67f77e	-0.05663251
99	0x3d43a02e	0.04776018
100	0xb9051a3c	-0.00012693641
101	0x3e1518be	0.1456022
102	0x3e19b48c	0.1501028
103	0x3d3c8a90	0.04603058
104	0xbdb89005	-0.090118445
105	0x3dbd87f4	0.092544466
106	0xbdb5019e	-0.08838199
107	0x3d03d441	0.032184843
108	0x3d69fef4	0.057127908
109	0x3d024298	0.03180179
110	0x3c32156f	0.010869368
111	0x3e026256	0.12732825
112	0x3cfa7534	0.030573465
113	0x3d1db2af	0.038500484
114	0xbc2bb36d	-0.01047979
115	0x3dc92025	0.09820584
116	0x3d25f873	0.040520143
117	0x3db1b129	0.08676369
118	0x3e12b482	0.14326671
119	0x3d5269a6	0.051370285
120	0xbc4d18fa	-0.012518162
121	0x3d437938	0.047723025
122	0xbc910a70	-0.017705172
123	0xbcbc0408	-0.022951141
124	0x3d1a01de	0.037599437
125	0xbc962cc8	-0.0183319
126	0x3e13ab7c	0.14420885
127	0x3ce6b96b	0.028164586

layer_2.weight f4 [128, 128]
0	0x3e0e1274	0.13874227
1	0xbaecae6f	-0.0018057356
2	0x3cde4854	0.027134098
3	0x3e3f32c4	0.1867171
4	0x3dc4338a	0.09580143
5	0x3d7d680f	0.061866816
6	0x3e0b5b2a	0.13608995
7	0x3d21b3d8	0.039478153
8	0x393d8f0a	0.00018077731
9	0x3c0e69e2	0.008692237
10	0x3e0bb8ac	0.13644665
11	0x3cdb6d01	0.026785376
12	0x3dfd1840	0.12358141
13	0x3de9451c	0.11390135
14	0x3e617eb0	0.22020984
15	0x3d7f0255	0.062258083
16	0x3dcb54c4	0.09928277
17	0x3d359259	0.04432902
18	0xbb73f2b7	-0.0037223527
19	0x3d92505c	0.071442336
20	0x3d36ba2e	0.04461115
21	0x3c648758	0.013948284
22	0x3c87be60	0.01657027
23	0x3e0c5f77	0.13708292
24	0x3e3c4708	0.18386471
25	0xbb73a8e2	-0.003717952
26	0x3d0caf37	0.034346785
27	0x3de1f923	0.11033847
28	0x3e836f23	0.25670728
29	0x3df39dd3	0.11895337
30	0x3e9156e7	0.28386614
31	0x3df2ab19	0.118490405
32	0x3cfa4791	0.030551704
33	0x3d12de0b	0.035856288
34	0x3e0072b1	0.12543751
35	0x3ce4b233	0.027917003
36	0x3d7bdbf8	0.061489075
37	0x3c60dbc3	0.01372427
38	0x3d38751e	0.045033567
39	0x3e0b7a6b	0.13620917
40	0xbc05a7a7	-0.008157647
41	0x3dbd95a6	0.09257059
42	0x3d2f9e81	0.04287577
43	0xbc6c9109	-0.014438876
44	0xbc045d3c	-0.008078869
45	0x3dd9d4d4	0.10636297
46	0x3e1ad7c1	0.15121366
47	0x3d92d1e3	0.07168939
48	0x3d6402a8	0.055666596
49	0x3da69c52	0.081352845
50	0x3e0c87fb	0.13723747
51	0x3c67b7a2	0.014142903
52	0x3d1cb034	0.038253978
53	0x3c43c53b	0.011948879
54	0x3c3b0587	0.011414892
55	0x3df2826e	0.11841284
56	0x3de9f152	0.11422981
57	0x3dd33e87	0.103146605
58	0x3dec44ab	0.11536535
59	0x3d0d99dc	0.03457056
60	0x3e19e5b2	0.15029028
61	0x3cabaf20	0.02095753
62	0x3d8a3e0b	0.06750115
63	0x3d834779	0.06410117
64	0xbc5fe1e9	-0.013664701
65	0x3cbec436	0.02328692
66	0xbbee341d	-0.007269396
67	0x3e979b66	0.29610747
68	0x3d09cd8e	0.033643298
69	0x3d963133	0.07333603
70	0x3cb8a94a	0.02254166
71	0x3d8f4e13	0.06997313
72	0x3e2881e4	0.164558
73	0x3e12fb0f	0.14353584
74	0x3cb22063	0.021743959
75	0x3cae0b5a	0.021245647
76	0x3da6c804	0.08143619
77	0x3dfa49d4	0.12221113
78	0x3d996b4d	0.07491169
79	0x3e91ee19	0.28501967
80	0x3dc7a6b6	0.097485945
81	0x3c542b28	0.012949742
82	0x3d5163d7	0.051120605
83	0x3dee0719	0.116224475
84	0xbc92f88b	-0.01794078
85	0x3cb1023b	0.021607509
86	0x3e1e7229	0.15473236
87	0x3d197c40	0.03747201
88	0x3a7c00a9	0.00096131355
89	0xbc1b5844	-0.009481493
90	0x3df6ba87	0.12047296
91	0x3d161088	0.03663686
92	0x3cd121d8	0.025528833
93	0xbb470c8d	-0.003037247
94	0x3d5b0596	0.053472124
95	0x3cd1a9d5	0.025593678
96	0x3da6caec	0.08144173
97	0x3e2722a4	0.16321808
98	0x3ce667c9	0.02812566
99	0x3db3839f	0.08765339
100	0x3dfe5d4d	0.124201395
101	0x3ce14dc0	0.027502894
102	0x3dfbaf3f	0.12289285
103	0x3ddfc9e4	0.109271795
104	0x3e1358e9	0.14389385
105	0x3d857956	0.065172836
106	0x3eaf9698	0.3429458
107	0x3e0b78f3	0.13620357
108	0x3e18e3be	0.14930627
109	0x3d838a7a	0.06422897
110	0xbcb0a595	-0.02156333
111	0x3d6721a8	0.05642858
112	0x3d4e2f04	0.050337806
113	0x3dd1aefb	0.10238453
114	0x3d733d6f	0.05938476
115	0x3cebd665	0.028788755
116	0x3e0b90f0	0.13629508
117	0x3c44518b	0.011982332
118	0x3a1db73d	0.00060163793
119	0x3de80a76	0.1133012
120	0x3ca06b52	0.019582424
121	0x3ce0fdcd	0.027464772
122	0x3ce8b5bc	0.02840697
123	0x3d54d2b3	0.05195875
124	0x3db0c0e7	0.08630543
125	0x3da355d1	0.079753526
126	0xbc88644d	-0.01664939
127	0xbc6a4a2d	-0.014299911
128	0x3d427ac3	0.047480356
129	0x3d9f8a29	0.07790024
130	0x3d8296a5	0.063763894
131	0x3dd929f9	0.10603709
132	0x3dfc2583	0.12311842
133	0x3daa0191	0.0830108
134	0x3dffb3e3	0.124854825
135	0xbcb7ecdb	-0.022451809
136	0x3d5f4809	0.054512057
137	0x3dd9a2d5	0.10626761
138	0x3e136d01	0.1439705
139	0x3c72cd65	0.014819478
140	0x3d352906	0.044228576
141	0x3d364cac	0.044506714
142	0x3e932bd3	0.28744373
143	0x3c68f9c0	0.014219701
144	0x3d7bb373	0.061450433
145	0x3c0d21ef	0.008614047
146	0x3d19f317	0.037585344
147	0x3d1989f4	0.037485078
148	0x3df2d804	0.11857608
149	0x3ca43f26	0.020049643
150	0xba92b163	-0.0011191781
151	0xbbce5b1b	-0.0062974817
152	0x3eab2f7d	0.33434668
153	0x3e015a7b	0.12632172
154	0x3d8ef6bd	0.06980655
155	0x3d562a2e	0.05228632
156	0x3e84f5fc	0.2596892
157	0x3de21e8f	0.11040985
158	0x3e240575	0.16017707
159	0x3d9de7b1	0.07710207
160	0x3bf1c7ad	0.0073785395
161	0x3c29453f	0.010331451
162	0x3de10a18	0.10988253
163	0x3e0aa9a4	0.13541275
164	0x3ce884b8	0.028383598
165	0xbc543b24	-0.012953553
166	0x3cf90d2d	0.03040179
167	0xbd257889	-0.040398154
168	0x3e06b7bc	0.13156027
169	0xbc8f387f	-0.017482994
170	0x3e13f9b4	0.14450723
171	0x3c348dfc	0.01102018
172	0x3dfcde10	0.123470426
173	0x3c717a55	0.014738639
174	0x3d6f6318	0.058444113
175	0xbd3559ae	-0.04427498
176	0x3dc97b88	0.09838015
177	0xbc8b8f71	-0.017036172
178	0xbcba02b5	-0.022706369
179	0x3c8d4184	0.017243154
180	0xbca0d549	-0.019632952
181	0x3d9bfdf4	0.07616797
182	0x37866d82	1.6025038e-05
183	0x3e1c3dbd	0.15257926
184	0x3d3b76c7	0.04576757
185	0xbc93ba95	-0.018033305
186	0x3debd1c8	0.11514622
187	0x3d79416d	0.06085341
188	0x3dbbc2b2	0.091679946
189	0x3de1ace4	0.110193044
190	0x3e0f685d	0.14004655
191	0xbcf47f4d	-0.029845858
192	0x3e0a58b6	0.13510403
193	0x3bc5a804	0.006031992
194	0xbce82717	-0.028338952
195	0x3e192099	0.14953841
196	0xbb11d0c2	-0.0022249673
197	0x3c74abee	0.014933569
198	0x3cc7459b	0.024325183
199	0x3dda20c7	0.10650783
200	0x3db76012	0.08953871
201	0x3dc3b38b	0.095557295
202	0x3dc86403	0.09784701
203	0x3e0d30ec	0.13788193
204	0x3d24033e	0.040042154
205	0xbbc1b676	-0.0059116436
206	0x3d93c061	0.07214428
207	0x3e017cb1	0.12645222
208	0x3de800d8	0.11328286
209	0xbca81282	-0.020516638
210	0x3d222c0b	0.039592784
211	0x3d003f47	0.031310346
212	0x3dcbf232	0.099583045
213	0x3c4a07b2	0.012330936
214	0x3da23c49	0.07921655
215	0x3da91532	0.08255996
216	0x3cf466da	0.0298342
217	0xbcfd0746	-0.030887257
218	0x3dcbef73	0.09957781
219	0x3d8d8856	0.0691077
220	0x3dbb45fd	0.091442086
221	0x3de792d9	0.11307306
222	0x3d8137df	0.06309485
223	0x3d355bdc	0.044277057
224	0x3cd90ab2	0.026494358
225	0xbc823bfe	-0.015897747
226	0x3e00e0f5	0.12585814
227	0x3d4ebd2e	0.050473385
228	0x3e10aa9b	0.14127581
229	0x3aa39c38	0.001248247
230	0x3cfb99c5	0.030712971
231	0xbcf46ccc	-0.029837035
232	0x3ce00800	0.027347565
233	0xbd1c1364	-0.03810443
234	0x3e9be7e7	0.30450365
235	0x3da03636	0.0782284
236	0x3e07a905	0.1324807
237	0x3d8f5520	0.06998658
238	0x3bc2486d	0.005929044
239	0x3dbd1d31	0.092340834
240	0x3d4aad03	0.049481403
241	0xbc4e4878	-0.01259052
242	0x3cfdb899	0.030971812
243	0x3d43c98e	0.04779964
244	0x3cfd374f	0.030910162
245	0x3db4c1f5	0.08826057
246	0x3a608e8c	0.0008566163
247	0x3da00a74	0.07814494
248	0x3e0245cd	0.1272194
249	0xbce86b8a	-0.028371591
250	0x3dcec3b8	0.10095924
251	0xbd304542	-0.0430348
252	0x3e156499	0.14589156
253	0x3da57d1a	0.08080502
254	0x3d9360f1	0.071962245
255	0x3cbf5dd3	0.023360169

layer_2.bias f4 [128]
0	0x3be6f1f7	0.0070478874
1	0x3d4ef7f4	0.050529435
2	0xbc93d1b0	-0.018044323
3	0xbd07adc2	-0.033124693
4	0x3e04265a	0.12905255
5	0x3e137b80	0.1440258
6	0xbd0d2003	-0.034454357
7	0x3dda29c2	0.10652496
8	0x3de43dd2	0.11144604
9	0x3d6ab0ee	0.05729764
10	0x3df78b61	0.12087131
11	0x3ce7bd27	0.028288437
12	0x3dc529e8	0.096271336
13	0x39bd15f2	0.0003606524
14	0x3ce92f58	0.028464958
15	0x3c90b78f	0.017665653
16	0x3dea64bc	0.11444995
17	0x3cdfcc2f	0.027319042
18	0x3d0e83a5	0.034793515
19	0x3c5921a2	0.013252648
20	0x3d4a172d	0.04933851
21	0xbc68f44b	-0.0142184
22	0xbc77c425	-0.015122448
23	0x3e1b38df	0.15158413
24	0xbd32ee86	-0.043684505
25	0x3d6f7d41	0.05846906
26	0xbd98dd5e	-0.074640974
27	0x3d454034	0.048156932
28	0x3d8bbb64	0.06822851
29	0xbc5cc852	-0.013475494
30	0xbdcf93b4	-0.10135594
31	0x3e0e31eb	0.1388623
32	0x3df49b00	0.119436264
33	0xbc366675	-0.011132826
34	0x3de17a73	0.110096835
35	0x3bbad82c	0.005702039
36	0x3e0650e0	0.13116789
37	0x3d14f657	0.03636774
38	0x3e083230	0.13300395
39	0x3d91363f	0.07090425
40	0x3c19d45e	0.009389011
41	0x3df404c0	0.119149685
42	0xbbad95f9	-0.005297419
43	0x3dbcf9bd	0.09227321
44	0xbdaf769b	-0.08567544
45	0xbc5d0787	-0.013490564
46	0x3e0d9262	0.13825372
47	0xba0a6d01	-0.0005280525
48	0x3df0d580	0.11759472
49	0x3bf00114	0.0073243473
50	0x3dd914a3	0.10599639
51	0xbcc84a70	-0.024449557
52	0x3d63f432	0.055652805
53	0x3d936284	0.07196525
54	0x3d95a0e3	0.07306077
55	0x3ca46bf0	0.020071
56	0x3c546f79	0.01296603
57	0xbc50afc5	-0.012737219
58	0x3de5fdf2	0.11230077
59	0x3d88d9e7	0.066821866
60	0x3dadfcd8	0.08495492
61	0x3d9b84ee	0.07593714
62	0x3d59f594	0.053212717
63	0x3e00bca9	0.12571968
64	0x3e2136ec	0.15743607
65	0x3de9f885	0.114243545
66	0x3d0be57b	0.034154397
67	0x3ce8937a	0.028390635
68	0xbc537743	-0.012906852
69	0xbd02128a	-0.03175596
70	0x3cec2790	0.028827459
71	0x3ce2df01	0.027694227
72	0x3dab2ca7	0.08358126
73	0xbd47a6bf	-0.048743006
74	0x3cac9059	0.021064924
75	0x3dba92cb	0.0911003
76	0xbbc94314	-0.0061420295
77	0xbcd2a849	-0.02571501
78	0x3da4e2dc	0.080510825
79	0xbd8ec7f3	-0.06971731
80	0x3ddcf2d9	0.10788507
81	0x3cd0e4f6	0.025499802
82	0x3d6a1e13	0.057157587
83	0x3dc8971e	0.09794448
84	0xbbec01b3	-0.007202351
85	0x3d8aa356	0.06769435
86	0x3cfec67c	0.031100504
87	0xbc891573	-0.01673386
88	0x3d906108	0.07049757
89	0xbb3cbda2	-0.0028799553
90	0x3d40d8d8	0.0470818
91	0x3e0233d0	0.12715077
92	0x3e112052	0.14172485
93	0x3de58749	0.11207444
94	0xbcb88971	-0.022526475
95	0x3de94168	0.113894284
96	0x3d54a7e3	0.05191792
97	0x3dc34965	0.09535483
98	0x3d3497dc	0.044090137
99	0xbdc79ee5	-0.097471036
100	0x3de235da	0.110454276
101	0x3d1437e5	0.036186118
102	0x3d0f735e	0.035022132
103	0x3d36579f	0.044517156
104	0x3bf6361e	0.0075137755
105	0x3db6f602	0.08933641
106	0xbd8f7bc6	-0.0700603
107	0xbc8d94e2	-0.017282907
108	0x3e00192e	0.12509605
109	0x3cd4c600	0.02597332
110	0x3d891a54	0.06694475
111	0xbc8ff164	-0.017571159
112	0xbc8403a6	-0.016115021
113	0x3db04fe7	0.0860899
114	0x3c935a95	0.017987529
115	0x3d603fe1	0.05474842
116	0x3e05311b	0.13007013
117	0x3d5a084f	0.05323058
118	0x3e22333f	0.15839861
119	0x3e108a33	0.14115219
120	0xbbe58ddc	-0.0070054363
121	0x3d5169da	0.05112634
122	0x3deebe45	0.11657385
123	0x3d994325	0.0748351
124	0x3db50b2c	0.088400215
125	0x3e0c9fb8	0.13732803
126	0x3d44ade7	0.04801741
127	0x3d2b585f	0.041832324

layer_3.weight f4 [64, 128]
0	0xbdaeab14	-0.08528724
1	0xbd47da25	-0.048792023
2	0xbd5a3026	-0.053268574
3	0xbc08cba3	-0.008349332
4	0xbcc3a61a	-0.023882914
5	0xbda70597	-0.08155363
6	0x3d107542	0.035268076
7	0xbd4065d0	-0.046972096
8	0x3c84ae9e	0.016196545
9	0x3d89b095	0.067231335
10	0xbd8cbf09	-0.068723746
11	0xbb5949ea	-0.0033155628
12	0x3c1d9dcb	0.00962014
13	0x3cd6f8c3	0.026241666
14	0xbc6c2b59	-0.014414632
15	0x3d60ab92	0.054851122
16	0x3c8d34b2	0.017237041
17	0x3d3d5bca	0.046230115
18	0xbd9a3e34	-0.075313956
19	0xbd291909	-0.04128364
20	0xbd2ecb16	-0.042674147
21	0xbd688403	-0.05676652
22	0x3d1a5d16	0.03768643
23	0xbd30a896	-0.043129526
24	0xbd83c2eb	-0.06433662
25	0xbd874b61	-0.06606174
26	0x3b76f9a0	0.003768541
27	0x3da27cb5	0.07933942
28	0x3d9f035a	0.07764311
29	0xbc7334d2	-0.014844136
30	0x3cb2d844	0.02183164
31	0x3be8260f	0.007084615
32	0xbcb19f8d	-0.021682525
33	0xbaa7f7c5	-0.001281493
34	0x3d117949	0.035516057
35	0x3cc3cdb4	0.023901798
36	0x3d978fb4	0.07400456
37	0x3da4139d	0.080115534
38	0xbd4d1d86	-0.050076984
39	0xbd735b62	-0.05941332
40	0x3d242da6	0.040082596
41	0xbc0ebf61	-0.0087126205
42	0xbc8b564c	-0.017008923
43	0x3d304ad8	0.043040127
44	0xbd90ea06	-0.070758864
45	0xbd6ea93b	-0.05826686
46	0x3cd5bbb9	0.02609049
47	0xbda57e25	-0.08080701
48	0xbd8a6c8c	-0.06758985
49	0xbd7bcc3f	-0.06147408
50	0xbbd96ccf	-0.0066352854
51	0xbd45b423	-0.048267495
52	0x3d9faffa	0.07797237
53	0xbccbb704	-0.024867542
54	0x3ba353fe	0.004984378
55	0x3d69255d	0.056920398
56	0xbce5340f	-0.027978925
57	0xbd6267f6	-0.055274926
58	0xbca952d0	-0.02066937
59	0x3d806680	0.0626955
60	0x3d4350e9	0.047684584
61	0xba85e204	-0.0010214453
62	0x3cbbc40f	0.022920636
63	0xbdba0323	-0.090826295
64	0x3c50948c	0.012730729
65	0x3d22f75d	0.039786685
66	0x3d490496	0.04907664
67	0x3d69eb8f	0.05710941
68	0x3c040598	0.008057974
69	0x3d04f94e	0.032464318
70	0x3cc48170	0.023987502
71	0xbd3d52d1	-0.046221558
72	0x3b35f806	0.0027766242
73	0x3d9d7dab	0.07689985
74	0xbd89c894	-0.0672771
75	0xbd6b2725	-0.057410378
76	0xbce8a4af	-0.02839884
77	0x3d502b76	0.050822698
78	0x3d606a09	0.054788623
79	0x3daae573	0.08344545
80	0xbd7705f9	-0.06030843
81	0x3daab541	0.08335353
82	0xbbfcd443	-0.0077157333
83	0x3cb7813c	0.022400491
84	0xbd5afd2f	-0.05346411
85	0x3d018d83	0.031629097
86	0xbd6d678c	-0.057960078
87	0xbceda72e	-0.029010382
88	0xbc8f32a4	-0.017480202
89	0x3d1c04f5	0.038090665
90	0x3da8155e	0.082072005
91	0xbc1fed3b	-0.00976115
92	0x3d641911	0.055687968
93	0xbd6e22d6	-0.05813869
94	0x3d0615a1	0.03273547
95	0xbd855339	-0.06510014
96	0xbd91bbd8	-0.071159065
97	0xbd9c9745	-0.0764604
98	0x3b53223c	0.003221645
99	0x3d721f32	0.05911178
100	0xbdaeb930	-0.085314155
101	0xbce700bd	-0.028198594
102	0x3b6e2de3	0.0036343269
103	0xbda037e2	-0.07823159
104	0x3d932ebe	0.0718665
105	0x3d9a9178	0.07547277
106	0xbd5ccd95	-0.053906996
107	0xbcc87614	-0.024470367
108	0xbc265bc0	-0.010153711
109	0x3cfd5d97	0.030928416
110	0xbd665594	-0.056233957
111	0xbc4b9725	-0.012426172
112	0xbb981257	-0.004640858
113	0xbd6dc953	-0.058053326
114	0xbd8e7097	-0.069550686
115	0xbd36b12b	-0.044602554
116	0x3c29141f	0.010319739
117	0xbc8b1691	-0.016978534
118	0x3d7a778d	0.06114917
119	0xbcbfca1f	-0.023411809
120	0x3d9f0a60	0.07765651
121	0x3d2c548a	0.04207281
122	0x3d91897b	0.071063004
123	0x3d206d0b	0.03916649
124	0x3d954e2d	0.072903015
125	0xbcfc2d4f	-0.030783324
126	0xbcc8a6b3	-0.02449355
127	0xbdb60c53	-0.088890694
128	0x3e0bf068	0.13665926
129	0x3dcabcbe	0.09899281
130	0xbd8f2172	-0.06988801
131	0xbdcb5a68	-0.09929353
132	0x3dd6099e	0.10451053
133	0x3dc21df4	0.09478369
134	0x3d64f6c0	0.05589938
135	0x3c7fac34	0.015605021
136	0x3d84daf8	0.064870775
137	0xbbe76bbf	-0.007062405
138	0x3dc84cbc	0.09780261
139	0xbdbdb504	-0.092630416
140	0x3cf2e943	0.029652243
141	0x3d3dd619	0.046346758
142	0x3d5f2f65	0.05448856
143	0x3dd79e4c	0.105282396
144	0x3de9f16c	0.11423001
145	0xbca621f5	-0.020279864
146	0xbd138691	-0.036017004
147	0x3d8a1f53	0.06744256
148	0x3db01156	0.085970566
149	0x3d9e0ed9	0.07717676
150	0xbdaa834d	-0.08325825
151	0x3e052147	0.13000976
152	0xbc17f3b0	-0.009274408
153	0x3e040b07	0.12894832
154	0x3cbd0e80	0.023078203
155	0x3df1ef21	0.11813188
156	0x3da4ba2d	0.08043323
157	0x3d2b8d7b	0.041882973
158	0x3d66ca36	0.056345187
159	0x3c8e8fa0	0.01740247
160	0x3dc5eaae	0.09663902
161	0x3cadae8b	0.021201393
162	0x3dd5e785	0.104445495
163	0x3d724fb7	0.059158053
164	0x3db105a1	0.08643652
165	0xbcd2eb64	-0.025747009
166	0x3e0f3491	0.13984896
167	0x3d9acc3d	0.075584866
168	0x3d2b7b14	0.041865423
169	0x3de9e745	0.11421064
170	0xbb53e25f	-0.0032330973
171	0x3dfbb412	0.12290205
172	0x3c90c484	0.017671831
173	0x3e06ec86	0.13176164
174	0xbc3df485	-0.0115939425
175	0x3dc90d0f	0.09816944
176	0x3d80d388	0.062903464
177	0x3cee73f2	0.029108021
178	0x3e0a33f4	0.13496381
179	0x3d93f427	0.07224303
180	0x3e03c15d	0.12866731
181	0xbd6dfd14	-0.058102682
182	0x3d1bdd72	0.038052984
183	0x3d5faec9	0.054610047
184	0x3de45876	0.11149685
185	0x3ce5740c	0.028009437
186	0x3db6b2a9	0.089207955
187	0x3de1a4f3	0.1101779
188	0x3bf4dd62	0.00747268
189	0x3dda068f	0.10645782
190	0x3e0594a0	0.13044977
191	0xbc3e80c1	-0.011627377
192	0xbcee02b5	-0.029054025
193	0x3dd79879	0.10527129
194	0x3d36472c	0.04450147
195	0x3d54aa70	0.051920354
196	0x3d2c20af	0.042023357
197	0xbd058215	-0.03259476
198	0xbccb39b0	-0.024807781
199	0x3dfa3dab	0.122187935
200	0xbcbbda86	-0.022931349
201	0x3daedf79	0.08538718
202	0x3cce772c	0.02520331
203	0xbc298da9	-0.010348716
204	0x3d1dbc53	0.038509678
205	0x3d4d8189	0.050172362
206	0x3d14be99	0.03631458
207	0x3d804f4f	0.06265127
208	0x3da2256e	0.079172954
209	0x3d6a6a28	0.057230145
210	0x3de51608	0.11185843
211	0x3dd61023	0.104522966
212	0x3c6a5536	0.014302542
213	0xbb6b7345	-0.003592686
214	0x3d844680	0.06458759
215	0xbcd25e61	-0.025679769
216	0x3dcbc80b	0.099502645
217	0x3dfa4b11	0.12221349
218	0x3e0bc323	0.13648658
219	0xbd0536bc	-0.032522902
220	0x3e11be33	0.14232711
221	0x3dad3329	0.08457024
222	0xbd0bac3c	-0.034099802
223	0x3d3a3e58	0.045469612
224	0x3da288e1	0.07936264
225	0x3d8e99f3	0.06962957
226	0x3c2178a2	0.009855421
227	0xbd892e0d	-0.066982366
228	0xbce36bd3	-0.027761376
229	0x3d125763	0.03572787
230	0x3dedc741	0.1161027
231	0x3c29296d	0.010324818
232	0x3cb9447c	0.022615664
233	0x3dcb84a5	0.09937409
234	0xbd50ad9d	-0.05094682
235	0xbccabf5a	-0.024749447
236	0x3cfe88a8	0.031071022
237	0x3dec0684	0.1152468
238	0x3d5697c1	0.052390818
239	0x3dcf050a	0.10108383
240	0x3db704d5	0.089364685
241	0x3dfe8287	0.1242724
242	0x3de546a0	0.11195111
243	0x3ddef565	0.10886649
244	0xbca79443	-0.020456439
245	0xbcc910ae	-0.024544086
246	0xbcd9761a	-0.026545573
247	0x3c43794d	0.011930776
248	0x3ceee0b1	0.029159876
249	0xbc124ab4	-0.008928943
250	0x3dcc8fe7	0.09988385
251	0x3d9ece09	0.07754142
252	0x3d81f7b6	0.06346075
253	0x3e0b1447	0.13581954
254	0x3e0911d9	0.13385715
255	0x3c2af835	0.010435154

layer_3.bias f4 [64]
0	0xbca4cf03	-0.020118242
1	0x3d6ba990	0.057534754
2	0xbd90b18b	-0.07065114
3	0xbd006814	-0.031349257
4	0x3d5eb065	0.05436744
5	0x3c1566ed	0.009118778
6	0x3c902c45	0.017599234
7	0x3e065d1b	0.13121454
8	0xbcc38f0f	-0.023871927
9	0xbc8bcfaf	-0.017066805
10	0x3b97451f	0.004616394
11	0x3cd9b497	0.02657537
12	0xbd4d8022	-0.050171025
13	0x3cdb5235	0.026772598
14	0xbcc1cd1a	-0.02365737
15	0xbd13b0b5	-0.036057193
16	0x3c6e2e70	0.014537439
17	0x3de7cb88	0.113181174
18	0x3d0387bb	0.032111865
19	0x3d2689ec	0.040658876
20	0xbdab20ff	-0.08355903
21	0x3d39298f	0.04520565
22	0x3d7e3e49	0.06207112
23	0x3cfc145f	0.030771432
24	0x3d869ff2	0.06573476
25	0x3ceac735	0.028659442
26	0xbd880dcc	-0.066432565
27	0x3cfae17c	0.030625097
28	0xbdaa748e	-0.08323012
29	0xbcdf5bf4	-0.027265526
30	0xbdad1fac	-0.084533066
31	0x3d623530	0.055226505
32	0xbc287748	-0.010282345
33	0xbb83a808	-0.0040178336
34	0x3d888c30	0.06667364
35	0x3e217226	0.157662
36	0xbd61a2cc	-0.055086896
37	0x3c1543c8	0.009110399
38	0x3e0617d5	0.13095029
39	0x3df089e1	0.11745048
40	0xbc06440a	-0.008194933
41	0x3c405c8f	0.011740818
42	0x3d43a976	0.047769032
43	0x3bfd17f1	0.0077238013
44	0x3df050d6	0.11734168
45	0xbbcef7e0	-0.00631617
46	0xbd9c7e87	-0.07641321
47	0xbd005e97	-0.031340208
48	0x3dad5e75	0.08465282
49	0xbdb5172a	-0.08842309
50	0xbd52d183	-0.051469337
51	0xbd2ba8d7	-0.041909065
52	0xbc8d6fdb	-0.01726525
53	0x3d4ad3c1	0.04951835
54	0xbd9b29b2	-0.07576312
55	0x3d3a2def	0.045453962
56	0x3d90d17f	0.07071208
57	0x3b36677a	0.0027832673
58	0x3dce9978	0.100878656
59	0x3c820878	0.015873179
60	0x3db5920c	0.08865747
61	0x3db61f14	0.088926464
62	0x3d20e83b	0.039283972
63	0xbd90da58	-0.07072896

layer_4.weight f4 [16, 64]
0	0x3c0c1ca6	0.008551752
1	0x3d660295	0.056154806
2	0xbdf571c2	-0.11984588
3	0x3dd189d2	0.10231365
4	0x3dce3115	0.100679554
5	0xbd3fd0eb	-0.0468301
6	0xbd409397	-0.047015753
7	0x3dfb7dce	0.12279855
8	0x3dc18d24	0.094507486
9	0xbda0fddc	-0.0786092
10	0x3d875312	0.06607641
11	0xbdebef08	-0.11520201
12	0x3b514590	0.0031932332
13	0xbd9b7f34	-0.075926214
14	0x3b94d974	0.004542524
15	0xbd6fd1de	-0.058549754
16	0xbde09be6	-0.10967235
17	0x3dccceed	0.100004055
18	0xbd33ecb6	-0.043926917
19	0x3d1fc438	0.03900549
20	0xbdb01912	-0.08598532
21	0x3d0b2ac3	0.033976328
22	0x3d943a4e	0.07237683
23	0x3d75e61b	0.0600339
24	0x3d17f707	0.037100818
25	0x3c2ec819	0.010667824
26	0xbc793568	-0.015210487
27	0xbdb65141	-0.08902217
28	0xbde736b8	-0.11289734
29	0x3dfa0ad6	0.12209098
30	0x3da3d588	0.07999712
31	0x3e089898	0.1333946
32	0x3d9c5ab2	0.07634486
33	0x3d2b1834	0.04177113
34	0x3dc55eb0	0.09637201
35	0x3df8e925	0.12153844
36	0xbd08cc5f	-0.03339803
37	0x3dddb258	0.10825032
38	0xbc863da3	-0.016386813
39	0xbd82a799	-0.06379623
40	0x3e1d8be6	0.15385398
41	0x3cd4cfef	0.025978057
42	0x3de24c78	0.110497415
43	0x3e0302db	0.12794058
44	0x3e1346dc	0.143825
45	0xbdd55996	-0.10417478
46	0xbda03040	-0.07821703
47	0x3db5bed8	0.08874291
48	0xbd55ac78	-0.052166432
49	0x3d7745dc	0.060369357
50	0x3d0004b6	0.031254493
51	0x3cfedad8	0.031110212
52	0x3e0e4539	0.13893594
53	0x3e0dd1f1	0.13849618
54	0x3dd5ca00	0.10438919
55	0xbc174f98	-0.009235285
56	0x3dd01d8a	0.10161884
57	0x3d32e071	0.043671075
58	0x3c2cf79b	0.010557081
59	0x3dc480a4	0.09594849
60	0x3d983e02	0.07433702
61	0xbc3e2d3a	-0.011607463
62	0x3d972d6c	0.073817104
63	0x3d4d0084	0.05004932
64	0xbcc447f7	-0.023960097
65	0xbd05cc08	-0.032665282
66	0xbdaba394	-0.083808094
67	0x3dc1158e	0.09427939
68	0xbda2f9dc	-0.07957813
69	0x3dc1d32c	0.09464106
70	0x3c6c9340	0.014439404
71	0x3c49a269	0.012306788
72	0x3dd0b9ff	0.10191726
73	0x3db08dfd	0.08620832
74	0x3d9e1d35	0.077204145
75	0x3d93f4aa	0.072244
76	0x3c805de0	0.015669763
77	0x3d5239bf	0.051324602
78	0xbd98c122	-0.07458712
79	0x3d1f19e4	0.03884305
80	0xbd4c8621	-0.049932603
81	0xbc39fa12	-0.011351125
82	0x3d274b15	0.04084309
83	0x3deaea9f	0.11470532
84	0xbd3ca320	-0.046054006
85	0xbc9cc634	-0.01913748
86	0xbda1cbd1	-0.07900203
87	0x3d010a8a	0.03150419
88	0xbd5b12bf	-0.053484675
89	0xbda3d56b	-0.079996906
90	0xbda58e52	-0.08083786
91	0x3cb964ad	0.022631014
92	0xbceb3108	-0.028709903
93	0xbda7d00c	-0.08193979
94	0xbd1ee920	-0.038796544
95	0xbde72ad0	-0.11287463
96	0x3d901ec4	0.07037118
97	0x3d891f20	0.0669539
98	0x3dad67de	0.08467077
99	0x3c9c906c	0.019111834
100	0xbdf625fe	-0.12018965
101	0xbdc2123c	-0.09476134
102	0xbced0a97	-0.028935714
103	0x3c188d52	0.009311037
104	0xbbb61c80	-0.0055575967
105	0x3da8e2f2	0.082464114
106	0x3d4f5d34	0.050625995
107	0xbc43057b	-0.011903162
108	0xbddc1fa3	-0.10748222
109	0x3da17f12	0.07885565
110	0x3d3531c0	0.0442369
111	0xbd5abbb0	-0.05340165
112	0xbd941a06	-0.07231526
113	0x3ccffb58	0.025388405
114	0xbda97185	-0.08273605
115	0x3c89b9f8	0.01681231
116	0xbba5c0a8	-0.005058367
117	0xbdbc4b99	-0.091941066
118	0xbdccb3aa	-0.09995206
119	0x3a96a622	0.0011493603
120	0xbd4ba713	-0.04971988
121	0x3daa16df	0.083051436
122	0x3cf59049	0.029976027
123	0xbd880722	-0.066419855
124	0x3c6e1e6a	0.014533618
125	0x3d095cf5	0.033535916
126	0xbb542772	-0.0032372144
127	0xbcc1c720	-0.02365452
128	0x3d924813	0.07142653
129	0xbc7bad40	-0.01536113
130	0x3dc11f20	0.09429765
131	0xbdaeebc6	-0.08541064
132	0x3e2bdd64	0.16783673
133	0x3c7c0417	0.0153818345
134	0x3e0902cd	0.13379975
135	0xbca85696	-0.0205491
136	0xbd66bd04	-0.056332603
137	0x3c11bac0	0.008894622
138	0x3e03d38e	0.1287367
139	0xbce79ad3	-0.028272068
140	0xbdf7baea	-0.12096198
141	0x3d83a571	0.0642804
142	0x3ce933a3	0.028467005
143	0x3e0c1cf4	0.1368292
144	0xbdc0b82e	-0.094101295
145	0x3c98e857	0.018665476
146	0x3dd2a9f7	0.102863245
147	0x3d034354	0.03204663
148	0x3accb790	0.0015618671
149	0xbc3457c0	-0.011007249
150	0x3d9bf56f	0.07615172
151	0x3d654130	0.05597037
152	0xbb03108c	-0.0019998876
153	0x3b31bde0	0.002712123
154	0xbde8ed08	-0.11373335
155	0x3e097b03	0.13425831
156	0xbd467558	-0.04845175
157	0xbd7b3ebc	-0.061339125
158	0x3d930b7c	0.07179925
159	0xbd099854	-0.033592537
160	0xbc6a49a0	-0.01429978
161	0xbd8fb72a	-0.07017358
162	0x3e29208e	0.16516325
163	0x3c894a03	0.016758924
164	0x3d9a9374	0.07547656
165	0xba6edb80	-0.00091116875
166	0x3e23047d	0.15919681
167	0x3e29a75b	0.16567747
168	0x3e14147d	0.1446094
169	0xbb940d70	-0.0045182034
170	0xbd864c4c	-0.06557521
171	0x3ccd8f2f	0.02509269
172	0x3e0689b9	0.13138475
173	0x3d965378	0.07340139
174	0xbd864cdc	-0.065576285
175	0x3ca51658	0.020152256
176	0xbda5de5f	-0.080990545
177	0xbd5d6f9a	-0.05406151
178	0xbd4f0f5d	-0.05055176
179	0xbca62a00	-0.020283699
180	0xbd9b4515	-0.07581536
181	0x3d5d060a	0.053960837
182	0xbdafa051	-0.085755
183	0xbd42fade	-0.047602527
184	0x3dc00889	0.09376628
185	0x3dd6663e	0.1046872
186	0x3dc057c9	0.09391744
187	0x3d6d253a	0.05789683
188	0xbd1231a8	-0.035691887
189	0x3d2315a9	0.03981558
190	0x3cf78bf0	0.030218095
191	0xbd1bdc3c	-0.03805183
192	0xbd13f283	-0.03611995
193	0x3e05e5f2	0.13075998
194	0xbc941908	-0.018078342
195	0xbde6e3fd	-0.11273954
196	0xbd848e48	-0.064724505
197	0xbdc3077f	-0.09522914
198	0x3d8ceb76	0.06880848
199	0x3d92f407	0.07175451
200	0x3bd49577	0.006487544
201	0xbd4f9238	-0.050676554
202	0x3ca923e8	0.020647004
203	0xbce6f48f	-0.028192786
204	0x3c989cf0	0.018629521
205	0x3d19707a	0.03746078
206	0x3e1acc64	0.15117031
207	0x3deed501	0.11661721
208	0xbc3e0bc3	-0.011599484
209	0x3cc8b5b2	0.024500702
210	0xba762bca	-0.00093906804
211	0xbd8d7120	-0.069063425
212	0xbc9b71d0	-0.018975168
213	0x3a9e8bfd	0.0012096163
214	0xbd38251d	-0.04495727
215	0xbdb60155	-0.08886973
216	0x3d27964d	0.040914822
217	0xbb7c49a5	-0.0038496044
218	0xbd667e40	-0.056272745
219	0x3cee142c	0.029062353
220	0xbcc87110	-0.024467975
221	0xbcba9350	-0.022775322
222	0x3da9f6d4	0.08299032
223	0xbc88b8b3	-0.016689634
224	0x3d6cb324	0.05778803
225	0xbd2b51dc	-0.041826114
226	0x3d4db8b1	0.050224964
227	0x3de5bfa6	0.11218195
228	0x3dc9cf3d	0.09853981
229	0xbd38046c	-0.044926092
230	0x3cf93ead	0.030425394
231	0x3e1a1592	0.15047291
232	0x3db74e71	0.089505084
233	0x3d9205b6	0.071299955
234	0xbd974afd	-0.0738735
235	0x3ce39719	0.02778201
236	0xbc608720	-0.013704091
237	0xbd8329c8	-0.064044535
238	0xbda10240	-0.07861757
239	0x3d21d9fc	0.039514527
240	0xbcff9f32	-0.03120384
241	0xbd394c86	-0.045238994
242	0xbd87b5dc	-0.06626484
243	0x3dda93dc	0.10672733
244	0xbc65427c	-0.013992902
245	0xbcc852d2	-0.024453554
246	0xbd99ad8e	-0.07503806
247	0x3d693bbe	0.05694174
248	0xbd667d69	-0.056271944
249	0x3aaf39fc	0.0013368721
250	0x3cc65ad5	0.024213234
251	0x3e19f13f	0.15033434
252	0x3dbb1b63	0.09136083
253	0xbda57e25	-0.08080701
254	0x3c27d1d6	0.0102429
255	0xbe00f8e6	-0.12594947

layer_4.bias f4 [16]
0	0x3c01e219	0.007927441
1	0xbbff0926	-0.007783073
2	0x3bb50049	0.0055237156
3	0x3dbc65d8	0.09199113
4	0x3cc5f775	0.024165848
5	0xbd6f6b47	-0.058451917
6	0xbdc15861	-0.09440685
7	0x3d0cdbf4	0.03438945
8	0x3d0496cb	0.03237037
9	0x3ccd7ada	0.025082994
10	0xbbb24775	-0.0054406472
11	0x3d9c368f	0.07627594
12	0x3d6e0d41	0.05811811
13	0x3d8a2478	0.06745237
14	0xbd8b0a56	-0.06789081
15	0x3dda9a86	0.10674004

layer_5.weight f4 [120, 16]
0	0x3e87f273	0.26552162
1	0x3e68e164	0.2274223
2	0x3e1f9b30	0.15586543
3	0x3d3744db	0.0447434
4	0xbc367de4	-0.011138413
5	0x3d69cb6f	0.057078775
6	0xbdc60cb3	-0.09670391
7	0xbe394b31	-0.1809509
8	0x3d58f55c	0.052968368
9	0xbd444282	-0.04791499
10	0x3dc93a01	0.098255165
11	0xbcd04f0e	-0.025428321
12	0x3ddbaa37	0.10725825
13	0xbda8af09	-0.0823651
14	0x3e900b43	0.28133592
15	0xbcd08dba	-0.025458205
16	0xbd8d2d3d	-0.06893394
17	0xbe03dde3	-0.12877612
18	0xbd0d779c	-0.034537897
19	0x3e25c91e	0.16190001
20	0xbd9517d9	-0.07279939
21	0xbda25c90	-0.07927811
22	0xbd9bea39	-0.07613034
23	0x3e826206	0.2546541
24	0x3d96f23b	0.073704205
25	0xbdf332e9	-0.11874945
26	0xbd0bcb25	-0.03412928
27	0xbd97999a	-0.07402344
28	0x3e3f4c4c	0.18681449
29	0xbcab569b	-0.02091532
30	0x3e4773ae	0.19477722
31	0x3e188112	0.14892986
32	0xbcb9ac7d	-0.022665257
33	0xbdb04a7c	-0.08607957
34	0x3e3c395c	0.18381256
35	0xbde71d4e	-0.11284886
36	0x3de42965	0.11140708
37	0xbdd8fa44	-0.105946094
38	0xbe2732ab	-0.16327922
39	0x3e004993	0.12528066
40	0x3d08be53	0.033384632
41	0xbe7c3106	-0.24628076
42	0x3e2cd303	0.1687737
43	0x3e3c1a8b	0.183695
44	0xbdd2d413	-0.10294356
45	0x3d365134	0.044511035
46	0xbd95ec83	-0.07320502
47	0x3e39434e	0.18092081
48	0xbe0df63b	-0.1386346
49	0x3e6a31be	0.22870538
50	0x3ca6ebc8	0.020376101
51	0x3e4c9231	0.19977643
52	0x3e086e4b	0.13323323
53	0xbc9fa521	-0.01948792
54	0xbe02f51c	-0.12788814
55	0x3d26169e	0.040548913
56	0x3dc23a61	0.09483791
57	0x3d64c58d	0.05585246
58	0x3e8101e8	0.25196767
59	0xbe030f53	-0.12798814
60	0xbe6a73a1	-0.22895671
61	0xbc62f46e	-0.013852222
62	0xbd10c712	-0.0353461
63	0xbe348b5c	-0.17631286
64	0xbd301246	-0.042986177
65	0xbde43772	-0.11143388
66	0xbd9c05ed	-0.07618318
67	0x3e74efb3	0.23919563
68	0xbd283b75	-0.041072328
69	0xbe29f95f	-0.16599034
70	0x3e4c6dcb	0.19963758
71	0xbc84203b	-0.01612865
72	0xbcdeacc5	-0.027181992
73	0xb9847d79	-0.00025270486
74	0xbe14020d	-0.14453907
75	0xbdf4602f	-0.11932408
76	0xbe2a5477	-0.16633783
77	0x3e6f80f9	0.23389043
78	0xbddab479	-0.10678954
79	0x3d99da8d	0.075123884
80	0xbe700a35	-0.23441394
81	0x3e670779	0.22561444
82	0x3e0bdac9	0.13657679
83	0x3e4028d8	0.1876558
84	0x3c82154f	0.015879301
85	0x3d04e974	0.0324492
86	0xbe0e5438	-0.13899314
87	0xbd67653f	-0.05649304
88	0xbc553e4c	-0.013015341
89	0xba64d696	-0.00087294856
90	0x3d328102	0.043580063
91	0x3e072400	0.13197327
92	0x3c8752b1	0.016518923
93	0xbd2127d6	-0.03934463
94	0xbd2afff9	-0.04174802
95	0x3d94adbf	0.07259702
96	0x3eb9b24b	0.3626884
97	0xbd0066f8	-0.0313482
98	0x3ec3f973	0.38276252
99	0x3e7c1eb1	0.24621083
100	0xbcc64b6b	-0.024205884
101	0x3e5a0cc5	0.21293934
102	0x3eb20e4d	0.34776536
103	0x3e86c9ff	0.26325986
104	0x3d9c9d03	0.07647135
105	0x3e7b214b	0.24524419
106	0x3d17102d	0.03688066
107	0xbd8d17f7	-0.068893366
108	0x3d9f2ba2	0.07771994
109	0x3da540ff	0.08069038
110	0x3d6f1081	0.05836535
111	0x3d51cd77	0.051221337
112	0xbd110f81	-0.035415176
113	0xbd63e3e8	-0.05563727
114	0xbdb981cc	-0.0905796
115	0xbda1357d	-0.0787153
116	0x3da78d15	0.08181206
117	0xbe1493c0	-0.14509487
118	0x3e83731b	0.25673756
119	0x3dedf280	0.11618519
120	0xbbfc0e6d	-0.0076921494
121	0xbd2fa78d	-0.0428844
122	0xbdfd7b3e	-0.12377022
123	0xbd57feaf	-0.05273312
124	0x3dbc5c4e	0.09197293
125	0x3e221138	0.15826881
126	0x3e480451	0.19532897
127	0x39b8a9c7	0.0003522171
128	0xbc3e9716	-0.011632701
129	0xbe580bc8	-0.21098244
130	0x3e02596c	0.12729424
131	0x3e2209ab	0.15824
132	0x3e4c435b	0.19947569
133	0x3e3b02fb	0.18262856
134	0xbcee5073	-0.029091096
135	0x3e47b23b	0.19501583
136	0xbe346415	-0.17616303
137	0xbe4ade66	-0.19811401
138	0xbe2681f8	-0.16260517
139	0xbddce06a	-0.10784991
140	0xbe13c6d1	-0.14431311
141	0x3d09a1eb	0.033601683
142	0x3e70cfbe	0.23516747
143	0x3e2376e0	0.15963316
144	0xbe22bd8c	-0.15892619
145	0xbcabd68f	-0.020976333
146	0xbd8ffa59	-0.07030172
147	0x3e7f5043	0.24932961
148	0x3e547e3b	0.20751278
149	0x3daabb8b	0.08336552
150	0xbe30d747	-0.17269622
151	0x3e61b254	0.22040683
152	0x3dcfc8bf	0.10145711
153	0x3daf9ff0	0.085754275
154	0xbc86fad1	-0.01647702
155	0xbd903c61	-0.07042766
156	0xbe3be6e7	-0.18349801
157	0xbe184e18	-0.1487354
158	0xbd6df573	-0.058095407
159	0x3dfc6956	0.12324779
160	0x3e2baee3	0.16765933
161	0xbe71d197	-0.23615108
162	0x3de142a5	0.109990396
163	0xbdfad7dd	-0.12248204
164	0x3d4e45b4	0.050359443
165	0xbe625128	-0.22101271
166	0xbd026d83	-0.03184272
167	0x3e281b65	0.164167
168	0xbe6cecb5	-0.23137172
169	0x3e343fd0	0.17602468
170	0xbda96b5f	-0.082724325
171	0x3e041f6f	0.12902616
172	0xbda2b3a7	-0.07944422
173	0x3a85a508	0.0010196278
174	0x3e800fba	0.25011998
175	0xbe612c29	-0.21989502
176	0x3e0e0423	0.13868766
177	0xbb957e6e	-0.0045621907
178	0xbdcc1b03	-0.099660896
179	0xbc5cb756	-0.013471445
180	0xbd82ecc3	-0.06392815
181	0x3dfc4251	0.12317336
182	0xbe87be97	-0.26512596
183	0xbe86250d	-0.26200143
184	0x3c6a1ecb	0.014289568
185	0x3e2aa9a1	0.16666271
186	0xbd189c5b	-0.037258487
187	0x3de69523	0.11258914
188	0x3c91c2be	0.017793056
189	0xbd297b02	-0.041377075
190	0xbe5f67e3	-0.21816973
191	0xbd7c12f9	-0.06154153
192	0x3e05f748	0.13082612
193	0x3d73bbc4	0.05950524
194	0x3d1cb463	0.038257968
195	0xbe929af0	-0.28633833
196	0x3d966f06	0.07345395
197	0xbc057304	-0.008145098
198	0xbddae581	-0.10688306
199	0x3e4c0e97	0.1992744
200	0x3e3a6010	0.18200707
201	0x3da4758e	0.08030234
202	0xbe5805d9	-0.2109598
203	0xbe599b4c	-0.21250647
204	0xbd269d29	-0.040677223
205	0xbcac4eba	-0.021033634
206	0x3dc0a2ae	0.09406029
207	0xbdc783a3	-0.097419046
208	0xbe069394	-0.13142234
209	0xbe670962	-0.22562173
210	0x3e24c0a2	0.16089109
211	0x3de2d7e4	0.11076334
212	0xbc91521b	-0.017739346
213	0xbe58b925	-0.21164377
214	0x3e00b649	0.12569536
215	0x3e827ac9	0.25484303
216	0xbcc1eb8e	-0.023671892
217	0xbe4ce77c	-0.2001018
218	0x3c7c76d0	0.0154091865
219	0xbc6bd6e6	-0.0143944975
220	0xbe0ffa7d	-0.14060397
221	0x3c8eb4cd	0.017420197
222	0x3c7745f9	0.015092366
223	0x3dad2c58	0.084557235
224	0x3d4b469a	0.049627878
225	0xbe297785	-0.165495
226	0xbdf4cb47	-0.119528346
227	0x3e0ed68b	0.13949029
228	0x3e6836ff	0.2267723
229	0xbdb16125	-0.08661107
230	0xbd8d1631	-0.06888998
231	0x3d1eb203	0.038743984
232	0x3d9e9e7c	0.07745072
233	0xbe246980	-0.1605587
234	0xbe46106b	-0.193422
235	0xbd185cc7	-0.037197854
236	0x3e3e9644	0.1861201
237	0x3e67dc14	0.22642547
238	0x3e02305b	0.12713759
239	0xbe138e02	-0.1440964
240	0xbcc894ac	-0.024484955
241	0xbe11cf9f	-0.14239357
242	0xbe124dba	-0.14287463
243	0xbd837028	-0.064178765
244	0x3e251b87	0.16123782
245	0xbe04f512	-0.12984112
246	0x3df6e1df	0.120548
247	0x3e4b5165	0.19855268
248	0xbd8a7c80	-0.06762028
249	0x3d55f3b5	0.05223437
250	0xbe0177db	-0.12643377
251	0x3d81f063	0.06344678
252	0xbe35d0ee	-0.17755482
253	0x3e061430	0.13093638
254	0x3e26987d	0.16269107
255	0xbd793a90	-0.060846865

layer_5.bias f4 [120]
0	0x3dba2a48	0.09090096
1	0x3e604b91	0.21903826
2	0x3c6c5131	0.014423654
3	0x3dbfef36	0.09371798
4	0x3e99306c	0.29919755
5	0xbe59b065	-0.21258695
6	0x3d8c8ac7	0.06862407
7	0x3ddb4e95	0.10708348
8	0x3e89621b	0.2683266
9	0x3c84fe2a	0.016234476
10	0xbdc6c324	-0.09705189
11	0x3e0a79c0	0.13523006
12	0xbe4bb397	-0.19892727
13	0x3e5e83cd	0.21729966
14	0x3defd77a	0.11711021
15	0x3e31a9ab	0.1734988
16	0xbe60624a	-0.21912494
17	0xbe0413b6	-0.12898144
18	0xbe239a6c	-0.15976876
19	0xbb97ef64	-0.004636692
20	0xbe6e0248	-0.23243058
21	0xbe2f3034	-0.17108232
22	0x3c96d262	0.018410865
23	0x3daa7ae6	0.08324222
24	0x3e829383	0.25503168
25	0x3dcd124c	0.100132555
26	0x3e253d0d	0.1613657
27	0xbb62f363	-0.0034629933
28	0x3df2fe88	0.11864954
29	0x3d90d6e4	0.07072237
30	0x3dc0e6e0	0.09419036
31	0xbd6db700	-0.05803585
32	0xbe299824	-0.16561943
33	0xbe347240	-0.17621708
34	0x3e526e33	0.2054985
35	0xbe458b95	-0.19291528
36	0x3cc49369	0.023996072
37	0x3e61da5d	0.22055955
38	0x3e2a3e09	0.16625227
39	0x3e179a32	0.14804915
40	0xbe539d64	-0.20665509
41	0x3e3b7154	0.1830495
42	0xbd50bb45	-0.050959844
43	0xbdd1ef1b	-0.10250684
44	0x3df60048	0.120117724
45	0x3e637a1f	0.22214554
46	0x3e904570	0.28177977
47	0x3e7673a4	0.24067551
48	0x3e00f73a	0.1259431
49	0xbe26a734	-0.1627472
50	0xbe05141f	-0.12995957
51	0xbdbb8b56	-0.091574356
52	0xbe1e1b15	-0.15440018
53	0x3e3b7a1b	0.18308298
54	0xbdf7419b	-0.1207306
55	0x3cd2910c	0.02570393
56	0xbd05cfd2	-0.032668896
57	0xbe07f15d	-0.13275667
58	0xbdf20064	-0.11816481
59	0x3e3f3ad7	0.1867479
60	0xbe699a83	-0.22812848
61	0xbd03e4c4	-0.03220059
62	0x3d98c1db	0.0745885
63	0xbe1229a0	-0.14273691
64	0x3dd5741b	0.10422536
65	0xbdb537f8	-0.08848566
66	0x3e52bba0	0.20579386
67	0x3e6bc066	0.23022613
68	0x3ed6c27d	0.41945258
69	0x3da40a9a	0.080098346
70	0x3c0d371e	0.008619098
71	0x3cc4addf	0.02400869
72	0xbc91584f	-0.017742304
73	0x3d7e312e	0.06205862
74	0x3e2f5694	0.1712287
75	0xbe415a89	-0.18882193
76	0x3d5b958c	0.053609416
77	0x3dde70a0	0.10861325
78	0xbbeea61b	-0.007282985
79	0xbde18ea2	-0.11013533
80	0xbdc2c771	-0.09510697
81	0xbe33a46a	-0.17543188
82	0x3d8b5595	0.06803433
83	0x3e89ed7c	0.26939
84	0x3e12733a	0.14301768
85	0xbe358ea6	-0.17730197
86	0xbe7ec9b8	-0.24881637
87	0x3e7239cc	0.2365486
88	0x3e90a362	0.2824965
89	0x3ddc5c62	0.10759808
90	0x3d6e8c52	0.05823929
91	0xbdcc4840	-0.09974718
92	0x3d87be41	0.06628085
93	0xbe498436	-0.1967934
94	0x3e106242	0.14099982
95	0x3d0ff416	0.035144888
96	0xbe7513f2	-0.2393339
97	0xbd9b6524	-0.075876504
98	0xbd6aab75	-0.05729242
99	0xbe299290	-0.16559815
100	0x3e73ba3a	0.23801509
101	0xbd93e77a	-0.07221885
102	0xbd9c3814	-0.076278836
103	0xbd648ee4	-0.055800334
104	0x3e0197e8	0.12655604
105	0x3e5ef7c1	0.21774198
106	0x3dfe4754	0.124159485
107	0x3e009baf	0.12559389
108	0x3da3c621	0.079967745
109	0x3e832cbd	0.2562007
110	0xbe5d1def	-0.2159345
111	0x3df37cd6	0.11889045
112	0xbe413f6d	-0.18871851
113	0x3e04f457	0.12983833
114	0x3c85ace4	0.016317792
115	0xbe4fda38	-0.20298088
116	0x3dde65cc	0.1085926
117	0x3e2b0eab	0.16704814
118	0x3e81cd90	0.25352144
119	0x3db2756d	0.087138034
