src/pyoptes/optimization/budget_allocation/supervised_learning/trained_nn_states/wx_120_RNN_per_node.pth (torch, 206447 bytes, 18 tensors)

layer_1.weight_ih f4 [128, 120]
000000 08 19 f4 3e 20 2e b1 3e e8 47 b6 3e 3e f3 3b 3e
       0.47675347 0.34605503 0.35601735 0.18354508
000010 0f 53 06 3f e1 81 ec 3e 8a 22 b9 3e 9b e1 d8 3e
       0.5247049 0.4619284 0.36159164 0.42359623
000020 33 95 ff 3e 71 48 cf 3e f8 2b be 3e 68 03 da 3e
       0.49918517 0.40484956 0.3714292 0.42580724
000030 63 2b 0a 3f 75 c8 04 3f ed e2 ba 3e c7 32 02 3f
       0.5397245 0.51868373 0.36501256 0.5085873
000040 de b3 81 3e 46 fc e1 3e b8 71 6e 3e 3d d3 0b 3f
       0.2533254 0.44137782 0.23285568 0.546192
000050 73 04 aa 3e 5d 60 a2 3e ba 1f 77 3e fc 8e e1 3e
       0.3320652 0.31714144 0.24133196 0.440544
000060 5f 89 f8 3e d6 b1 b9 3e 85 d1 ff 3e 76 b9 b5 3e
       0.48542306 0.3626849 0.49964538 0.35493058
000070 c3 e7 c2 3e fe 0b e7 3e 4e 21 e2 3e 92 92 c4 3e
       0.38067445 0.45126337 0.44166034 0.38393074
000080 b1 e9 f4 3e ad 5e e4 3e 1c 99 ba 3e c5 d5 db 3e
       0.47834542 0.44603482 0.36444938 0.4293653
000090 2b b8 f4 3e 99 b6 d9 3e 02 90 04 3f b9 8a a6 3e
       0.4779676 0.42522123 0.5178224 0.32527712
0000a0 ba a9 ae 3e c6 e8 d1 3e f8 ed bc 3e f1 03 f2 3e
       0.34113866 0.40997905 0.36900306 0.47268632
0000b0 1e 9f f8 3e 8f 32 01 3f 89 1b da 3e 25 67 c4 3e
       0.48558897 0.5046777 0.42599133 0.38359943
0000c0 04 f0 b2 3e d3 7a bd 3e 3c 8b e8 3e a4 d6 a0 3e
       0.34948742 0.3700777 0.45418727 0.31413758
0000d0 5d 05 c9 3e ce 16 b7 3e 9c 9d ea 3e 40 51 9e 3e
       0.39261904 0.35759586 0.4582337 0.30921364
0000e0 f2 20 d6 3e 92 60 af 3e 4a 8e af 3e a3 8b e2 3e
       0.4182201 0.34253365 0.34288245 0.4424716
0000f0 b6 4d c8 3e 5e 60 be 3e 58 25 fb 3e 7b f3 fd 3e
       0.3912179 0.37182897 0.4905193 0.49599823
000100 29 df a7 3e 81 82 f3 3e 29 b9 d5 3e 6e 62 bb 3e
       0.32787445 0.47560504 0.41742828 0.36598533
000110 d6 f9 bd 3e aa a7 d6 3e 25 a5 b0 3e 37 9c f2 3e
       0.37104672 0.41924793 0.34500995 0.47384807
000120 ac c2 f1 3e af db d2 3e d9 54 cc 3e 22 75 10 3f
       0.47218835 0.4118323 0.39908484 0.5642873
000130 44 65 01 3f c5 01 f2 3e ec 82 f5 3e 24 1f 07 3f
       0.50545144 0.47266975 0.47951448 0.5278189
000140 a7 ec 03 3f e8 2b c3 3e 80 ee c1 3e d6 50 a7 3e
       0.5153298 0.38119435 0.37877274 0.3267886
000150 82 1f ae 3e 71 1f bc 3e 53 fd 99 3e 68 ff c2 3e
       0.34008414 0.36742738 0.30076084 0.38085485
000160 54 f8 bb 3e 02 82 d4 3e 99 07 ab 3e 26 cd d5 3e
       0.36712897 0.41505438 0.33404234 0.41758078
000170 4f a3 e3 3e b7 d8 90 3e 01 f8 d8 3e 88 75 e9 3e
       0.44460532 0.2829034 0.42376712 0.45597482
000180 8c 3c a1 3e b7 96 c7 3e 0d bc d8 3e d9 4e 7c 3e
       0.31491506 0.38982174 0.4233097 0.24639453
000190 26 3b e5 3e f6 c8 f0 3e 7b af eb 3e 36 92 cc 3e
       0.4477169 0.4702832 0.46032318 0.399553
0001a0 08 59 c8 3e e3 b1 e2 3e 9a e8 f7 3e 77 f8 bc 3e
       0.39130425 0.44276342 0.48419648 0.36908314
0001b0 ea 51 fd 3e e6 dd f3 3e 6d 71 f4 3e ad d0 05 3f
       0.49476558 0.47630233 0.47742787 0.5227154
0001c0 d3 8a d8 3e 70 7d 91 3e 11 40 de 3e 92 15 ac 3e
       0.42293414 0.28416014 0.43408254 0.33610207
0001d0 d9 a3 ce 3e 21 06 cd 3e 80 b1 c3 3e 3d e8 e2 3e
       0.4035938 0.40043738 0.3822136 0.4431781
0001e0 ba b1 c1 3e 5d 35 b1 3e 58 c8 bc 3e ab d9 85 3e
       0.37830907 0.34611025 0.368716 0.2614263
0001f0 b7 54 ca 3e 96 e1 f3 3e 87 40 cb 3e 8e c1 af 3e
       0.39517757 0.47633046 0.39697668 0.34327358
000200 97 b4 a4 3e 1a f2 e4 3e 04 92 cc 3e 16 b5 ba 3e
       0.3216903 0.4471596 0.3995515 0.36466283
000210 25 14 0a 3f 07 48 d1 3e f0 00 97 3e 9e e2 fd 3e
       0.5393699 0.40875265 0.29492903 0.49586958
000220 04 05 b0 3e ac 49 c2 3e 38 b0 6d 3e 09 d5 d2 3e
       0.34378827 0.37946832 0.23211753 0.41178158
000230 5a 6d c9 3e 4b 8e a0 3e 70 d4 c0 3e da 6c b8 3e
       0.3934124 0.3135856 0.37662077 0.36020547
000240 09 96 a0 3e be 6b d5 3e f0 00 e7 3e 6b af c8 3e
       0.31364468 0.41683763 0.45117903 0.39196333
000250 e2 8f aa 3e 88 6a cf 3e a3 9f c3 3e d9 65 c6 3e
       0.333129 0.40510964 0.3820773 0.3874958
000260 02 ec b8 3e a3 63 f4 3e 3c 4e c0 3e c9 81 d7 3e
       0.3611756 0.47732267 0.37559688 0.42091206
000270 7a 6a ac 3e e3 c3 f3 3e 4f 72 d1 3e e3 08 a1 3e
       0.33674985 0.47610387 0.40907523 0.31452093
000280 2f 76 b2 3e 69 50 8f 3e 34 b7 ce 3e 99 4c e5 3e
       0.34855792 0.27991036 0.40374148 0.44785002
000290 8a c7 a4 3e 06 e7 aa 3e 8b 24 e9 3e d7 88 f1 3e
       0.32183486 0.33379382 0.45535693 0.47174713
0002a0 bc d8 c8 3e 65 cc b8 3e 3e 1b ec 3e 1d 8f b9 3e
       0.39227855 0.3609344 0.46114534 0.36242
0002b0 f6 57 a8 3e b8 54 cd 3e 00 30 c7 3e cb 49 a2 3e
       0.3287961 0.40103698 0.3890381 0.31696925
0002c0 16 32 df 3e e2 4f 92 3e a7 5f f4 3e 54 f0 04 3f
       0.435929 0.2857657 0.47729227 0.5192921
0002d0 14 cb f0 3e 67 16 bd 3e 59 bb cb 3e d2 c5 9c 3e
       0.47029936 0.36931154 0.39791372 0.30619675
0002e0 86 29 a9 3e 75 fd e6 3e 3e d9 c5 3e 71 2f fb 3e
       0.33039492 0.45115247 0.38642305 0.49059632
0002f0 f4 e3 d5 3e 50 86 9a 3e 8a 83 f4 3e be aa d9 3e
       0.41775477 0.30180597 0.47756606 0.42513078
000300 6e 0c c0 3e 85 bd aa 3e a5 af f0 3e 02 f8 bf 3e
       0.37509483 0.33347717 0.47009006 0.37493902
000310 72 35 e3 3e d9 c9 b7 3e fa 33 e7 3e ea fb bf 3e
       0.44376713 0.35896185 0.45156842 0.37496883
000320 36 2b e9 3e 93 6f ae 3e 06 83 c3 3e 87 fb 7a 3e
       0.4554078 0.340695 0.381859 0.24510013
000330 d9 59 8d 3e a2 f3 e8 3e 58 cf d5 3e 38 c0 f3 3e
       0.2760761 0.45498377 0.41759753 0.4760759
000340 17 d5 cf 3e d3 e4 ee 3e 98 50 af 3e 6d f7 e7 3e
       0.40592262 0.46658954 0.34241176 0.45305958
000350 32 0c cb 3e 49 de 8b 3e 3f db ca 3e d5 03 aa 3e
       0.39657742 0.27318028 0.39620396 0.3320605
000360 af 77 e8 3e 4b 88 97 3e 38 a9 ce 3e 22 f4 8c 3e
       0.4540381 0.2959617 0.4036348 0.2753001
000370 46 a2 ad 3e 1e f8 ef 3e 79 de ba 3e a9 f4 ce 3e
       0.33912867 0.46868986 0.36497858 0.40421036
000380 76 58 dd 3e 25 81 cf 3e 94 bd b5 3e 96 1c c0 3e
       0.43231553 0.40528217 0.354962 0.3752181
000390 32 07 01 3f 2a 4b e9 3e 4f fa a2 3e 3f e6 e3 3e
       0.50401604 0.45565158 0.31831595 0.445116
0003a0 86 8f 9e 3e d2 59 8f 3e 8b 59 eb 3e 7c 73 c8 3e
       0.30968875 0.27998215 0.45966753 0.39150608
0003b0 5c 42 ec 3e de 1e cc 3e 1e 08 06 3f 7d f2 b7 3e
       0.46144378 0.398673 0.52356136 0.3592719
0003c0 22 44 d2 3e 48 22 fa 3e 6b 7f af 3e 5a ea 8d 3e
       0.41067606 0.4885428 0.342769 0.2771786
0003d0 40 ee 03 3f cd a0 cb 3e c4 db d7 3e 96 f7 c0 3e
       0.51535416 0.3977112 0.42159855 0.37688893
0003e0 e3 84 fc 3e d1 20 da 3e 3a 9b c9 3e d9 24 d1 3e
       0.49320135 0.42603162 0.3937624 0.40848425
0003f0 8d 6d 08 3f bc 99 d5 3e bf aa a7 3e 56 1c be 3e
       0.5329216 0.41718853 0.32747456 0.37130994

layer_1.weight_hh f4 [128, 128]
000000 9f 4b a9 bd 24 56 e5 bc 08 85 96 bc ca fa 50 3d
       -0.08266377 -0.027995177 -0.018373981 0.05102042
000010 c0 87 12 3c 3e 0a 84 bd 40 19 f2 ba a6 16 7a 3d
       0.008943498 -0.06447266 -0.001847066 0.061056755
000020 a0 9b 9b bc 3e 2e 76 3d af 29 11 bd f8 80 82 3c
       -0.018995106 0.060102694 -0.035440143 0.015930638
000030 0a 40 4d 3d 10 d0 d3 3c ec b5 b2 3c f4 1b bf 3c
       0.0501099 0.025856048 0.021815263 0.023328759
000040 99 68 b2 3d f8 26 df 3c ae ee 09 3d 93 c6 a3 bd
       0.08711357 0.027240261 0.03367489 -0.079968594
000050 da ef 5b 3d f0 4f 6b 3c 15 cc 74 bd e8 af 8e bd
       0.053695537 0.01436232 -0.05976494 -0.06967145
000060 04 36 b8 3c f6 6d 46 3d d4 b7 ab bc d4 7f a3 3c
       0.022486694 0.04844471 -0.02096168 0.019958414
000070 c8 4b 2b ba 90 64 c0 3c 0c df 87 3c 08 ae 5c bb
       -0.00065344246 0.023485452 0.01658585 -0.0033673067
000080 ba 93 08 3d 88 b9 93 bd 3e 48 62 3d 8a 02 7d bd
       0.033344008 -0.07213122 0.055244677 -0.06177
000090 19 c6 3d bd ad fa 22 bd bc f9 09 3d e8 3f ae bd
       -0.0463315 -0.039789844 0.03368543 -0.08508283
0000a0 11 52 96 3d 9e 11 08 3d f1 8b ae 3d 08 30 9a bd
       0.07339872 0.033219926 0.085227855 -0.075286925
0000b0 c2 55 63 3d 9e 7d 2b 3d 10 57 31 bc 79 65 87 3d
       0.055501707 0.041867845 -0.01082398 0.06611151
0000c0 e0 f0 18 bd 4e a3 f9 bc 4c f5 1f bd 28 c8 da 3c
       -0.03733909 -0.030473378 -0.039052293 0.02670677
0000d0 30 09 e3 bc 5c 44 a0 3c 42 b7 0a bd a5 70 a7 3d
       -0.027714342 0.019563846 -0.033866175 0.08175782
0000e0 56 6c 8e bd 06 11 46 3d e2 59 7a 3d d2 83 b1 bd
       -0.06954257 0.04835608 0.061120875 -0.08667721
0000f0 de 64 4e 3d c3 95 25 bd 70 3f 94 ba 68 78 ae bc
       0.050389163 -0.040426027 -0.001131041 -0.021297649
000100 da 04 74 3d f9 27 9e 3d 4b 89 a1 bd bf 05 2b bd
       0.05957494 0.07722468 -0.07887515 -0.041753527
000110 de fd 50 bd b2 55 a1 bd c0 bd 70 3c 18 99 23 3c
       -0.051023357 -0.07877673 0.014693677 0.009985231
000120 c6 bd e9 bc 40 22 77 bd 6e 2f 47 bd 10 9f 82 bc
       -0.028532874 -0.060335398 -0.048629217 -0.015944988
000130 7e d0 50 3d 8f ab a8 3d 10 0d 06 3d e2 01 28 bd
       0.050980084 0.08235847 0.0327273 -0.04101742
000140 48 d7 1b 3c 1b fb 16 bd cb 29 a5 3d f3 6d 88 3d
       0.009511776 -0.036860567 0.08064612 0.06661596
000150 16 33 9c bd c7 e7 9e 3d fb 45 af 3d 93 da ac 3d
       -0.07626931 0.07759052 0.085582696 0.08440127
000160 aa e6 42 3d 78 73 dc bb f6 a1 69 3d a7 9c 8f 3d
       0.04758326 -0.006727632 0.057039224 0.07012301
000170 45 e1 3b bd 8e 7b 2b 3d 7e 12 0f bd 4e 74 2e 3d
       -0.04586913 0.041865878 -0.034929745 0.042591386
000180 5a f6 79 3d f1 19 77 bd 34 a8 82 bc 0f 0e 68 bd
       0.061025955 -0.060327474 -0.015949346 -0.056654032
000190 7e 32 94 bd 85 19 85 3d 32 1c 6b 3d d7 c0 8a 3d
       -0.07236193 0.06499008 0.057399936 0.067750625
0001a0 12 71 6c bd 37 58 a4 3d 4e 8b da bc 40 b9 6b 3c
       -0.05772502 0.08024638 -0.026677754 0.014387429
0001b0 d1 80 2e bd 2f 15 b3 bd 3e 1c d6 bc ed 14 b2 3d
       -0.042603318 -0.08744275 -0.026136514 0.086953975
0001c0 fc 2d b0 3c 0e d3 29 3d 00 91 07 3d c0 c6 80 bd
       0.021506302 0.041461043 0.033097267 -0.062879086
0001d0 74 c7 0c 3d f8 f2 49 3a 17 6d a8 bd 63 2c 85 bd
       0.0343699 0.00077037467 -0.08223932 -0.06502607
0001e0 09 a8 9b 3d 00 81 70 3b 72 b2 a6 bd 10 b5 31 bd
       0.076004095 0.0036697984 -0.081395045 -0.043385565
0001f0 c8 98 9e 3a cc e6 7e bd 9e fd 17 3d 30 be 02 3c
       0.0012099976 -0.062231824 0.037107103 0.007979915
000200 92 18 52 3d 43 e5 a9 3d f8 f9 c2 3a 24 2d 2a bd
       0.051292963 0.08295681 0.0014875522 -0.041546956
000210 30 15 3a bc b2 8d e5 bc 3e b4 28 3d 10 ca ca bc
       -0.011357591 -0.028021667 0.041187517 -0.024754554
000220 5e 2c 5a 3d 98 cb 95 3c a0 f7 30 bb b6 dc 4e 3d
       0.053264968 0.018285558 -0.0027003065 0.050503455
000230 d8 e3 07 3d d5 c6 ae bd 31 ca a3 3d ef 27 74 bd
       0.033176273 -0.08534018 0.07997549 -0.059608396
000240 40 15 f0 3a 0c 4e a0 bd 48 ef 0b 3c da 37 72 3d
       0.001831688 -0.07827386 0.008540936 0.059135295
000250 56 42 a7 bd 10 ba 21 bc c3 bc 88 3d 32 95 ac bd
       -0.081669495 -0.009871021 0.066766284 -0.08426894
000260 60 bf db 3c 2a 57 21 3d 96 b8 14 3d a4 a5 86 bc
       0.026824653 0.039389767 0.036308847 -0.016436405
000270 36 25 80 bd fa 87 5b 3d 6c 8e f1 bc 2a e3 45 3d
       -0.062570974 0.053596474 -0.029486857 0.048312344
000280 9e 8f 9c bd 73 d3 90 3d 0d 25 aa 3d 3d 32 6a bd
       -0.0764458 0.07071581 0.08307848 -0.057176817
000290 6c cd 86 3c 92 ba 2d 3d 1e c5 50 3d da 83 52 3d
       0.016455375 0.042414255 0.050969236 0.051395275
0002a0 94 ba 13 bd 16 15 a8 bd 9c d9 ae bc e7 d8 af 3d
       -0.036066607 -0.08207147 -0.021343999 0.08586293
0002b0 70 c7 70 bd 70 80 fe 3c 62 35 3c bd 88 52 e6 3b
       -0.05878395 0.031067103 -0.045949347 0.0070288815
0002c0 c0 9c b9 bb 0c d3 ec 3c b3 ac 49 bd a7 58 a7 bd
       -0.005664438 0.028909229 -0.049236964 -0.08171206
0002d0 74 49 12 3d 1e cc 75 3d 88 f0 0d bc 30 e5 a0 bc
       0.03571458 0.060009114 -0.008663304 -0.019640535
0002e0 f5 1b a8 3d c1 ac 87 3d fa 6b 03 bd 60 4f 06 bc
       0.082084574 0.06624747 -0.032085396 -0.008197635
0002f0 48 9e fd 3c 90 16 9b 3b 41 2a 89 3d 42 7f f7 bc
       0.030959263 0.0047329143 0.066975124 -0.030212048
000300 49 cb 5c bd fc f5 87 bc f0 e6 3d bc 38 db 0b 3b
       -0.053904805 -0.016596787 -0.011590704 0.0021340381
000310 e0 50 93 bd 56 9e a1 bd 89 cb 8c 3d 25 a8 b2 3d
       -0.0719316 -0.07891528 0.06874759 0.08723477
000320 f6 69 1d 3d a9 a4 9e bd d6 ee 93 bd fc d7 41 bd
       0.03843113 -0.0774625 -0.07223289 -0.04732512
000330 d4 70 9a 3c 25 15 a1 3d c2 a7 2f bd e4 a9 b5 bc
       0.018852629 0.07865361 -0.042884596 -0.022175737
000340 f8 ca c3 3a 31 8e 1a bd dc f6 ac 3c 3d c8 14 bd
       0.0014937809 -0.03773326 0.021113805 -0.036323775
000350 bc d0 e1 bc 80 fe 6e ba 10 28 86 3c 63 d6 8f 3d
       -0.027565353 -0.0009116903 0.016376525 0.07023313
000360 ee 45 77 3d 88 2b 39 bc f8 d7 20 bc 39 0a a0 bd
       0.060369425 -0.011301883 -0.009817116 -0.0781445
000370 28 b3 0c 3d 6a eb 3f 3d 2a 5a 31 3d d6 1a 8c bd
       0.034350544 0.046855368 0.043298878 -0.06841056
000380 80 40 dc 3c bc 74 87 bc 5a e9 34 bd c2 15 7b 3d
       0.026886225 -0.016535155 -0.044167854 0.061300047
000390 64 d6 14 3d 4a 9d 50 3d 04 6e ec bc 73 16 8e 3d
       0.03633727 0.050931253 -0.028861053 0.069378756
0003a0 86 05 27 3d ad bb 79 bd 87 63 80 3d e3 c1 a4 3d
       0.040776752 -0.060969997 0.06268983 0.080447935
0003b0 f0 3f a4 bc 68 9d 64 bb f0 61 c2 3c 4c b3 ad bc
       -0.020050019 -0.003488386 0.02372834 -0.02120366
0003c0 8b df a5 3d 5e 74 7c bd 20 73 b4 3b 60 d6 9c 3c
       0.08099278 -0.061634414 0.005506888 0.01914519
0003d0 ba 85 86 bd 08 63 62 bd bb 4e a2 3d 31 9d 8a 3d
       -0.06568475 -0.055270225 0.07925173 0.06768263
0003e0 ca 81 6e 3d 76 16 2a 3d a8 d8 8c 3b ce fb 9c bd
       0.058229245 0.041525327 0.0042982884 -0.076652154
0003f0 1a 80 fe bc 5b ae a6 3d 73 ae a0 bd a7 eb 96 3d
       -0.031066943 0.081387244 -0.078457735 0.07369166

layer_1.bias_ih f4 [128]
000000 2e 56 f9 3e 00 07 b9 3e 56 5d c4 3e 46 aa d4 3e
       0.48698562 0.36138153 0.3835246 0.41536158
000010 95 3d 03 3f 76 a4 b6 3e 20 5e fd 3e 26 70 eb 3e
       0.5126584 0.3567235 0.49485874 0.45984
000020 a7 f9 d6 3e 26 91 bc 3e 28 cd e2 3e 43 84 f7 3e
       0.41987345 0.3682949 0.44297147 0.48343095
000030 9d fc 05 3f dd cd f8 3e b5 a6 d4 3e ed 84 dd 3e
       0.5233858 0.4859456 0.41533437 0.43265477
000040 ad ae f0 3e d3 7a f0 3e 78 26 d5 3e 23 59 ee 3e
       0.47008267 0.46968707 0.41630912 0.4655238
000050 e1 8b fa 3e bc 71 db 3e 64 c4 02 3f 07 73 df 3e
       0.48934844 0.4286021 0.5108092 0.43642446
000060 b4 ad c2 3e 21 fa f2 3e 86 d1 c2 3e 0c df 0b 3f
       0.3802315 0.47456458 0.3805048 0.5463722
000070 74 d3 e9 3e 4b 39 d9 3e 09 f2 ce 3e 6a e1 d0 3e
       0.45669138 0.42426524 0.40419033 0.40796977
000080 32 f1 bb 3e c3 28 dc 3e 11 4e db 3e e3 70 c8 3e
       0.36707455 0.4299985 0.42832997 0.39148626
000090 8e f2 dd 3e 2c 08 e7 3e 38 db d4 3e 60 35 cc 3e
       0.43349117 0.45123422 0.415735 0.39884472
0000a0 60 1e fd 3e 9f 75 e5 3e 23 98 01 3f fa 99 ee 3e
       0.49437237 0.448163 0.5062277 0.4660185
0000b0 27 1e ba 3e 99 d0 db 3e 8e cd 00 3f ed 2d fd 3e
       0.3635113 0.42932585 0.5031365 0.494491
0000c0 45 84 00 3f e0 0f f8 3e 20 3a e4 3e a2 a8 00 3f
       0.5020183 0.48449612 0.44575596 0.50257313
0000d0 5c 07 02 3f 1a 72 07 3f 57 2e 02 3f 51 8b f0 3e
       0.5079248 0.5290848 0.5085196 0.4698129
0000e0 4a 88 df 3e d7 95 cb 3e 96 94 bd 3e 8f f0 e3 3e
       0.43658668 0.39762756 0.37027425 0.4451947
0000f0 16 98 d4 3e 30 13 ca 3e 01 ea 00 3f 67 58 08 3f
       0.41522282 0.39467764 0.5035706 0.5325989
000100 01 77 ea 3e fa bc e1 3e 8f f2 c5 3e 91 37 00 3f
       0.45793918 0.4408949 0.3866162 0.5008479
000110 6d 83 fd 3e 2d 76 cf 3e 63 2e d1 3e f9 40 bc 3e
       0.49514332 0.40519848 0.40855703 0.3676832
000120 1e d1 f5 3e 35 cf cd 3e 60 dc d9 3e bc 11 e9 3e
       0.48011106 0.4019715 0.42550945 0.45521343
000130 1b bc c2 3e ce 80 d2 3e 8a 8b 01 3f eb c6 c8 3e
       0.38034138 0.41113895 0.50603545 0.39214262
000140 aa 1e f8 3e 15 de db 3e 0c 91 06 3f 47 03 fa 3e
       0.48460895 0.42942873 0.52565074 0.48830625
000150 13 73 c5 3e d8 c1 e5 3e 7a 55 ea 3e 09 fd e8 3e
       0.38564357 0.44874454 0.45768338 0.4550555
000160 dc 6c f2 3e 08 a5 ee 3e ff e3 eb 3e b4 48 f6 3e
       0.47348678 0.46610284 0.46072385 0.48102343
000170 44 b1 c5 3e d5 e9 fc 3e ae d2 06 3f a0 33 05 3f
       0.38611805 0.4939715 0.5266522 0.520319
000180 63 90 ef 3e 3a 2b e8 3e 95 f7 0b 3f 1b db c3 3e
       0.46789846 0.4534548 0.54674655 0.38253102
000190 af f7 c4 3e b3 9c f3 3e 96 a1 d9 3e 61 96 c6 3e
       0.38470218 0.4758049 0.42506093 0.38786605
0001a0 f0 9f c9 3e 93 5f 06 3f 2c 52 f6 3e 25 82 f7 3e
       0.39379835 0.52489585 0.48109567 0.4834148
0001b0 84 7d cf 3e 2f 8b f7 3e e4 36 06 3f 32 b9 db 3e
       0.40525448 0.48348376 0.52427506 0.4291473
0001c0 36 c0 08 3f a2 7a bb 3e 65 74 c3 3e fb 47 07 3f
       0.5341829 0.36617 0.3817474 0.5284421
0001d0 73 44 03 3f c4 64 b0 3e 16 1a 06 3f c0 d0 f8 3e
       0.5127632 0.34451878 0.52383554 0.48596764
0001e0 3e 50 0b 3f 74 6e 09 3f 42 07 de 3e 09 6d de 3e
       0.54419315 0.53684163 0.43364912 0.43442562
0001f0 22 a1 06 3f ae 1c e7 3e 32 03 ec 3e 7f 37 c4 3e
       0.5258962 0.45139068 0.46096188 0.3832359

layer_1.bias_hh f4 [128]
000000 a3 5d f7 3e 19 1c fd 3e 86 65 03 3f 7c 52 03 3f
       0.48313627 0.494355 0.5132679 0.51297736
000010 63 12 c2 3e 64 7e bb 3e bf 69 e3 3e 5c ca da 3e
       0.37904653 0.36619866 0.44416615 0.42732513
000020 3a 44 ef 3e 97 f9 e6 3e 8b 53 df 3e 94 8b bf 3e
       0.4673174 0.45112297 0.43618426 0.37411177
000030 6a 42 d8 3e d8 d7 c9 3e f4 75 c3 3e 1c 77 db 3e
       0.4223817 0.39422488 0.3817593 0.4286431
000040 94 81 b2 3e b1 1a d1 3e fd 22 05 3f 5b 17 de 3e
       0.34864485 0.40840676 0.5200651 0.43377194
000050 69 5a e3 3e 0c a2 00 3f a3 fb fa 3e 3e 7e d0 3e
       0.44404915 0.50247264 0.4902011 0.40721315
000060 00 9a a9 3e d5 c8 d7 3e 16 7b ed 3e 56 f2 c6 3e
       0.33125305 0.4214541 0.4638297 0.38856763
000070 1d 32 05 3f 8d 33 cf 3e 5d eb d3 3e e0 01 c5 3e
       0.5202959 0.40469018 0.41390505 0.38477993
000080 46 5a d5 3e 3f cb e1 3e 40 b0 f7 3e 2c 49 cf 3e
       0.41670436 0.44100377 0.48376656 0.40485513
000090 eb e8 ce 3e ea 46 bf 3e 40 a9 e1 3e 60 85 00 3f
       0.40412077 0.3735879 0.4407444 0.50203514
0000a0 b9 77 c0 3e 8b 5f dc 3e 24 f2 cf 3e f8 67 00 3f
       0.3759134 0.43041644 0.40614426 0.50158644
0000b0 e6 8b b9 3e ec 02 e3 3e 9f eb de 3e 62 e5 f2 3e
       0.36239547 0.44338167 0.4353914 0.4744063
0000c0 df 6a d5 3e 5c a8 00 3f 00 e1 cb 3e 20 25 e7 3e
       0.416831 0.50256896 0.398201 0.45145512
0000d0 73 ac ff 3e a5 2a 0c 3f ef 28 e2 3e 0f fc d3 3e
       0.49936256 0.5475257 0.44171855 0.41403243
0000e0 5a 66 c4 3e d9 98 00 3f 11 c7 ea 3e 37 ff d0 3e
       0.38359338 0.50233227 0.45855 0.40819713
0000f0 68 c7 c1 3e f0 51 c4 3e 9c e9 c5 3e 4d f9 ed 3e
       0.37847447 0.38343763 0.38654792 0.46479264
000100 2e 55 ed 3e bc f1 d3 3e ef df e8 3e 22 be ff 3e
       0.4635405 0.41395366 0.45483348 0.49949747
000110 7d e0 e0 3e 89 47 07 3f 58 52 c8 3e ac b8 de 3e
       0.4392127 0.5284353 0.39125323 0.43500268
000120 6f 39 ed 3e 26 6f ea 3e 3a 95 04 3f cd 27 c5 3e
       0.4633288 0.45787925 0.517902 0.38506928
000130 6b 14 e1 3e b8 4b e4 3e 8b f2 08 3f 4f d5 e1 3e
       0.4396089 0.4458902 0.5349509 0.44108054
000140 f7 26 e1 3e 3f 72 fc 3e b0 9e c7 3e 74 c8 ff 3e
       0.4397504 0.49305913 0.38988256 0.4995762
000150 31 11 ca 3e 89 58 03 3f e4 f6 bd 3e 59 f3 bf 3e
       0.3946624 0.5130697 0.37102425 0.37490347
000160 b1 12 c6 3e 1d fa d1 3e 3b 26 d9 3e 85 7a c7 3e
       0.38686135 0.41011134 0.4241198 0.38960662
000170 05 bd d9 3e d4 89 fa 3e 80 d5 cf 3e f7 55 d2 3e
       0.42527023 0.4893328 0.40592575 0.4108121
000180 a3 bb 0d 3f d9 ea d7 3e 76 13 f3 3e c9 9d d2 3e
       0.55364436 0.42171362 0.47475785 0.41136006
000190 15 be c1 3e a7 fe d4 3e 1b 50 fd 3e 04 ca dc 3e
       0.37840334 0.41600534 0.49475178 0.43122876
0001a0 17 50 d3 3e 71 58 f6 3e 85 02 c8 3e 7e e8 0d 3f
       0.4127204 0.4811435 0.39064422 0.5543288
0001b0 70 9a 05 3f 98 14 e2 3e 6a bf 08 3f 62 c0 cb 3e
       0.5218878 0.44156337 0.53417075 0.39795214
0001c0 ff 83 0c 3f 12 9c ec 3e fd f6 cc 3e 32 fd be 3e
       0.5488891 0.46212822 0.40032187 0.37302548
0001d0 6c 41 d5 3e 08 c2 be 3e 52 3d 0c 3f 40 23 e1 3e
       0.41651475 0.3725741 0.5478107 0.43972206
0001e0 12 30 04 3f 28 95 d6 3e c1 dd c9 3e de b4 06 3f
       0.5163585 0.41910672 0.39426997 0.5261973
0001f0 19 b8 dc 3e ce 0f af 3e f3 5e e1 3e cd bd e1 3e
       0.43109205 0.34191746 0.44017753 0.4409012

layer_2.weight_ih f4 [64, 128]
000000 53 03 23 3d ab 6e b9 3d 43 58 07 be 3a ba f0 3c
       0.039798092 0.09054311 -0.13217263 0.029385675
000010 0d 57 c5 bd d5 c1 e0 3d ee 18 06 3d ed d6 d7 bc
       -0.09635744 0.109744705 0.03273862 -0.026347602
000020 2a f6 ed bd 4a 59 a3 3d 53 59 ba bd 25 18 be 3d
       -0.11619218 0.07976015 -0.090990685 0.09281949
000030 44 77 d4 3d 99 fe a6 bc 29 ba 41 3d ce 11 28 3d
       0.103743106 -0.020385073 0.047296677 0.041032605
000040 27 cd 4e bd b4 42 d4 bd 34 df f4 bd e1 50 3e 3d
       -0.050488617 -0.10364285 -0.11956635 0.04646385
000050 e7 9d 43 3d cb c9 9f bd f0 57 42 ba 62 08 cf bd
       0.04775801 -0.07802161 -0.00074136164 -0.10109021
000060 c5 24 ed bd bc d9 6e bd 86 d0 8b 3c a6 c9 3d bd
       -0.11579279 -0.058313116 0.017067205 -0.046334885
000070 23 39 7a bd 9a ff 2e 3d bf 6f a4 bd 1a ae 95 3d
       -0.061089646 0.04272423 -0.080291264 0.07308598
000080 c0 32 93 3d df 48 2b 3d 62 05 80 3d e2 fe ab 3d
       0.07187414 0.041817542 0.06251027 0.083982244
000090 9f 50 f8 bd 38 34 0a bc 83 9f 70 bc fd 66 09 be
       -0.12124752 -0.0084353015 -0.014686468 -0.13418193
0000a0 7b d1 88 bd f4 0f 7e 3c a0 c5 39 3d 65 98 8c 3c
       -0.0668058 0.015506733 0.045354486 0.017162511
0000b0 eb 57 a3 3b 73 0b b6 3d 54 e9 14 3d 65 df a0 bd
       0.004984846 0.088889025 0.03635533 -0.07855109
0000c0 0f c6 48 bd 58 7a 98 3c e1 2d 0c bd 47 5d d6 3d
       -0.04901701 0.018613026 -0.03422344 0.1046701
0000d0 2a 7b 9c 3c b5 c6 10 be 25 65 33 3b 05 9a 73 3d
       0.019101698 -0.141383 0.002737352 0.059473056
0000e0 f0 a6 22 3c a5 c6 85 bc 60 d1 58 bc 86 4a 00 3c
       0.009927496 -0.016330073 -0.013233513 0.007830268
0000f0 b7 43 88 3d 72 55 a0 bd 6f c1 dc bd e4 fa 22 3d
       0.066535406 -0.078287974 -0.10779082 0.03979005
000100 75 4c cd 3d 2b 81 b1 bb 8b 14 0e be e1 5b 9e 3d
       0.10024349 -0.0054170093 -0.13875024 0.07732368
000110 c1 f8 91 3d 2e 2a e6 bd 15 c8 4c 3d b7 e0 ce bd
       0.07127524 -0.11238514 0.0499955 -0.10101455
000120 e8 8e 8a bd e2 a5 27 3c d3 9e d7 3d f2 92 e5 bd
       -0.067655385 0.010232421 0.1052834 -0.11209668
000130 2f d1 5c 3d 37 8a 5a 3c 14 af 7c bd 87 1a 11 3c
       0.05391043 0.013338617 -0.061690405 0.008856422
000140 4a d0 0f be f3 cf 8a 3c 46 99 05 be cc 6b 15 bd
       -0.140443 0.016944861 -0.1304675 -0.036479756
000150 02 6a 82 3d d1 07 c4 bc 3b fd 08 be 4c 40 8d 3d
       0.06367876 -0.023929508 -0.1337785 0.06897029
000160 00 b8 97 bd e0 3e 61 bd fd 56 8d 3d dc 6c b7 bd
       -0.07408142 -0.054991603 0.06901357 -0.0895631
000170 90 e8 48 3d 13 b5 ae 3d e2 1e 11 3c b7 d0 8f bd
       0.049049914 0.08530631 0.008857461 -0.07022231
000180 f2 5a 9d 3d 18 a9 a3 3d 67 db 81 3d 46 35 92 3d
       0.07683362 0.079912364 0.06340676 0.07139067
000190 d0 98 66 3d 60 6c 82 bd 49 1e 88 3d 20 00 90 bc
       0.056298077 -0.06368327 0.066464014 -0.017578185
0001a0 ee ff b2 bd 40 39 e2 bd d0 5e e3 bc 1d 9d d6 bd
       -0.08740221 -0.11046076 -0.027755171 -0.10479186
0001b0 74 6f bf 3d 70 d0 f3 bc 1a a3 c2 3d 77 89 f2 3b
       0.0934743 -0.029762477 0.095037654 0.007401641
0001c0 4c 6d 27 3c 3f 19 ad bb 66 fe 9d bd 44 7c 5b 3c
       0.0102189295 -0.0052825506 -0.07714538 0.013396326
0001d0 18 be 86 bd af 11 14 bd c9 57 f0 bc 79 8c fa bc
       -0.06579226 -0.036149677 -0.029338734 -0.03058456
0001e0 25 a1 17 3b b4 5d e2 ba a1 07 d5 3c 57 b0 e2 3d
       0.002313682 -0.0017270357 0.026004614 0.110687904
0001f0 c7 ba 5c 3d 2d 6d 4e bd 07 a1 de bd e6 14 23 3d
       0.053889062 -0.050397087 -0.10870557 0.039814852
000200 77 70 bf 3e 60 a7 d6 3e 9b 9a c5 3e e8 4a d1 3e
       0.3739049 0.41924572 0.38594517 0.4087746
000210 c0 a7 de 3e ed 0e e0 3e dd 80 f0 3e 1a a7 06 3f
       0.43487358 0.43761387 0.46973315 0.52598727
000220 43 31 cf 3e 32 6c b0 3e 02 8f ff 3e e8 13 e5 3e
       0.4046727 0.34457546 0.49913794 0.4474175
000230 2a ac 01 3f 88 5f cd 3e 1a 51 f8 3e af 7e ef 3e
       0.50653327 0.40111947 0.48499376 0.4677634
000240 04 07 f1 3e ee c6 0f 3f a5 b1 c3 3e 00 bf c0 3e
       0.47075665 0.5616292 0.3822147 0.3764572
000250 c3 4b bd 3e fb c5 eb 3e ef 84 b8 3e 29 47 e9 3e
       0.36971864 0.46049485 0.3603892 0.45562103
000260 56 86 fc 3e 15 e2 09 3f f6 81 e5 3e 87 94 f9 3e
       0.4932124 0.538606 0.44825715 0.4874613
000270 d8 1b ad 3e 3e 6d 04 3f c7 58 f2 3e 27 8e 09 3f
       0.33810306 0.5172919 0.47333357 0.5373253
000280 89 01 ed 3e 30 ee b7 3e 0b 74 01 3f 10 9f ba 3e
       0.46290234 0.3592391 0.5056769 0.3644948
000290 a0 f4 08 3f 70 3a d0 3e 05 98 e4 3e 8a 9f 0a 3f
       0.5349827 0.40669584 0.44647232 0.5414969
0002a0 84 b0 b4 3e 8b 65 e3 3e 34 f6 ed 3e 7c fa 12 3f
       0.3529092 0.4441341 0.464769 0.5741346
0002b0 40 37 0b 3f 38 c4 f9 3e e1 b6 f9 3e 1c c5 b6 3e
       0.5438118 0.48782516 0.48772338 0.35697258
0002c0 53 75 e8 3e 52 10 e2 3e 42 8e d4 3e 7b 27 ea 3e
       0.4540201 0.44153076 0.41514784 0.45733246
0002d0 e0 7d fe 3e 9f 61 e3 3e 57 01 f3 3e 41 c3 e9 3e
       0.4970541 0.44410416 0.4746196 0.4565678
0002e0 9d 3f de 3e 52 12 d0 3e 06 18 d3 3e 47 34 f0 3e
       0.43407908 0.40638977 0.41229266 0.46914884
0002f0 47 bc c7 3e 0d 6d 09 3f 59 d3 f0 3e 83 c1 07 3f
       0.39010832 0.53682023 0.47036245 0.5302965
000300 de 0b bf 3e fa 03 ba 3e 44 de b3 3e b0 54 d9 3e
       0.3731374 0.3633116 0.35130513 0.42447424
000310 45 b3 d5 3e 42 ce b6 3e d2 59 18 3f 8d 0f fd 3e
       0.41738334 0.35704237 0.59512055 0.49425927
000320 eb b6 09 3f 5d b8 fc 3e b0 2b de 3e 60 bc c7 3e
       0.53794736 0.49359408 0.43392706 0.39010906
000330 d8 e5 19 3f 3d 9a eb 3e 1a aa f5 3e c1 04 bb 3e
       0.6011634 0.46016112 0.4798134 0.36527064
000340 97 ed e7 3e 70 9a da 3e 18 0d e0 3e eb 69 c6 3e
       0.45298454 0.4269595 0.4375999 0.38752684
000350 cc 25 01 3f c0 2d de 3e 44 1d c0 3e 4e 56 01 3f
       0.504483 0.4339428 0.37522328 0.50522316
000360 9d c5 06 3f 0c 1e ef 3e b1 87 11 3f d8 13 07 3f
       0.52645284 0.4670261 0.56847674 0.52764654
000370 71 7c e0 3e d9 01 18 3f 36 a5 03 3f 2e 45 de 3e
       0.4384494 0.5937782 0.51423967 0.43412155
000380 26 8e 01 3f 95 7e df 3e a0 b6 fb 3e a2 bf dd 3e
       0.50607526 0.43651262 0.4916277 0.43310267
000390 be 45 ee 3e 53 09 fb 3e a6 57 0e 3f 03 f8 01 3f
       0.46537584 0.4903055 0.5560249 0.5076906
0003a0 3a c7 f4 3e 84 0f 13 3f a7 1a 08 3f 1b fc 0c 3f
       0.47808248 0.5744555 0.5316567 0.5507218
0003b0 1b 68 b2 3e 9f 20 c3 3e 73 95 e1 3e 84 a9 ec 3e
       0.3484505 0.38110825 0.44059333 0.4622308
0003c0 60 3b bb 3e 54 7c ba 3e 56 07 fa 3e 12 3c cc 3e
       0.36568737 0.3642298 0.48833722 0.3988958
0003d0 16 44 ad 3e 21 75 08 3f 39 8f e0 3e 5b d8 01 3f
       0.33841008 0.53303725 0.4385927 0.5072076
0003e0 75 db bb 3e b4 d7 f7 3e 08 76 0b 3f 90 e9 04 3f
       0.3669087 0.48406756 0.54476976 0.5191889
0003f0 34 77 db 3e f8 e0 05 3f 20 dc f2 3e 5a 91 e4 3e
       0.42864382 0.522964 0.47433567 0.44642144

layer_2.weight_hh f4 [64, 64]
000000 08 d3 e4 3c b2 e2 c5 3d 20 2c 5e 3d 10 56 9d bb
       0.027932659 0.09662379 0.0542413 -0.004801519
000010 e0 4a af bb d4 e2 92 bd 88 27 0d 3d 14 98 d6 bd
       -0.005349502 -0.0717217 0.034461528 -0.10478225
000020 da c8 e3 3d 28 01 30 bd 00 a7 9c bd f4 ca 9a bd
       0.11122294 -0.042969853 -0.0764904 -0.075582415
000030 60 c3 37 3b 98 1a 8b bb 72 a6 ee bd b0 42 f7 3c
       0.0028040037 -0.0042451136 -0.11652841 0.030183166
000040 b8 1e 16 3d 50 54 3b 3c b6 28 f2 bd 30 89 60 3d
       0.03665039 0.011433676 -0.11824171 0.054818332
000050 26 14 c4 bd 3e 1b d3 bd 70 37 93 3b d0 a0 da bd
       -0.095741555 -0.103079304 0.0044926926 -0.10675204
000060 c0 ee 3e bd 70 e4 9d bc e4 f3 d5 3d 78 c2 92 bd
       -0.04661441 -0.019273967 0.10446909 -0.07165998
000070 f0 0d 06 bd f0 a4 fd bc e2 48 f1 bd f2 6a c6 3d
       -0.032728136 -0.030962437 -0.117814794 0.09688367
000080 9c 3d e6 bd e8 fd da 3d b0 7a a7 3c e4 8b 74 3d
       -0.1124222 0.1069296 0.020444244 0.059703723
000090 98 a8 db bd 64 7b 3c 3d 74 64 d2 bd 00 d4 10 3d
       -0.10725516 0.046016112 -0.10273066 0.03535843
0000a0 d0 5d 10 bc c8 a3 72 bd 96 b0 ae bd a0 68 98 bd
       -0.008811429 -0.059238225 -0.08529775 -0.07441831
0000b0 fc a6 e7 bd 16 29 92 3d e0 4a 22 3d c2 a8 df bd
       -0.113111466 0.07136743 0.039622188 -0.1092086
0000c0 f4 c3 16 3d dc 8a 95 bd 34 39 3e bd 5a 27 b5 3d
       0.03680797 -0.07301876 -0.046441272 0.08845396
0000d0 26 91 be 3d c8 95 96 bc 6a c0 fa bd d0 87 d5 bd
       0.093050286 -0.018381968 -0.12243731 -0.10426295
0000e0 68 61 f6 bd b8 c6 0a bc ea 14 c8 3d 6e bc cc bd
       -0.120302975 -0.00847023 0.09769614 -0.099968776
0000f0 16 59 8e 3d 40 69 70 bd 3c 34 ef bd 80 90 af bb
       0.069505855 -0.058694124 -0.11679885 -0.005357802
000100 9a fc fb 3d e8 d8 85 bd 2a 2d 85 3d d4 91 0d bd
       0.12304039 -0.06535512 0.06502755 -0.0345629
000110 18 95 e4 3c a4 74 c5 3d 3c f6 c9 bd b0 6c d0 bb
       0.027903125 0.09641388 -0.098614186 -0.006360613
000120 ce 0e 91 3d f8 14 99 bc 68 6b 24 bc 50 43 b9 bc
       0.07082902 -0.018686756 -0.010035373 -0.022615105
000130 a0 df 57 3c b0 92 bc bd 60 0c ef bb a4 fb ee bd
       0.013175875 -0.09207666 -0.0072951764 -0.116690904
000140 68 e4 0f 3d a0 11 8c 3c 00 e1 74 bc 9c bf 7b 3d
       0.035129935 0.017098248 -0.014946222 0.06146203
000150 a4 48 c4 3d 00 55 ee 3d 88 0d 5f 3c e8 7b a5 3b
       0.095841676 0.11637306 0.013614066 0.005050171
000160 0e 19 d1 bd 1c 89 9d bd 20 e4 ba bb d8 7b 9c bd
       -0.10209857 -0.07692167 -0.005703464 -0.07640809
000170 8e f2 9f bd ac e4 ee 3d 72 f2 aa 3d 82 d6 b4 3d
       -0.078099355 0.116647094 0.08347024 0.088299766
000180 30 b3 ca 3d 64 71 7d 3d a8 e0 47 3d e2 a5 bb bd
       0.098974586 0.061875716 0.048798233 -0.09162499
000190 c0 8e da 3c f0 1a d9 3b 18 4a b8 bc ec d1 19 bd
       0.026679397 0.0066255257 -0.022496268 -0.037553713
0001a0 88 86 d4 bd b0 ec e3 bc 90 59 16 3c 50 5b bd 3d
       -0.10377222 -0.027822822 0.009176627 0.09245932
0001b0 ba ba b5 bd e8 e0 fb 3c 70 91 11 3d 72 3b a8 3d
       -0.08873506 0.030746892 0.03553909 0.08214463
0001c0 aa 31 a5 3d 12 19 b5 bd 28 73 a6 3d ee 0c fc 3d
       0.08066113 -0.088426724 0.08127433 0.12307154
0001d0 08 5b ae bc c6 e6 cc bd 1a b0 cf bd 0c ea ba bd
       -0.021283641 -0.10004954 -0.101410106 -0.09126672
0001e0 c4 4c de bd 68 11 dd bc e0 79 cd bd ce 51 d3 3d
       -0.10854486 -0.026985839 -0.100330114 0.103183374
0001f0 20 c6 98 bc fc 26 26 3d 50 54 c7 bd 14 8b 5f bd
       -0.01864916 0.040564522 -0.09732878 -0.054575995
000200 00 32 ff bd 42 c2 a2 bd 78 a3 73 bd d4 8e f0 bd
       -0.124607086 -0.07947208 -0.059482068 -0.11745992
000210 98 5f 8e bc c8 23 27 bd 20 da 93 bc 98 69 b4 3d
       -0.017379567 -0.040805608 -0.018048346 0.08809203
000220 60 63 b0 bd 38 e4 0b bc 34 8e 4e bd 58 b5 58 3d
       -0.08612704 -0.008538298 -0.050428584 0.052907318
000230 a4 fe bf 3d ec 2d 3b 3d 98 14 98 3d f8 23 3e 3c
       0.09374741 0.04569809 0.07425803 0.011605255
000240 74 d9 ec bd 08 cd 26 3d a0 a4 7c 3d 9a 8f a9 3d
       -0.115649134 0.040722877 0.061680436 0.08279343
000250 70 e8 96 3c fa 57 f6 3d 0e c9 c4 3d 10 7d 40 bd
       0.018421382 0.12028499 0.09608661 -0.04699427
000260 9a be 94 bd 88 d3 5e bd f8 b0 ca bd 1a 84 86 bd
       -0.07262917 -0.05440095 -0.09897035 -0.06568165
000270 98 e8 fc 3d 8e 40 f4 3d 38 33 82 bc 30 7c c6 3d
       0.12349051 0.11926375 -0.015893564 0.09691656
000280 a8 4b 80 3d ec 31 30 bd 58 94 43 3c 68 a3 ae bc
       0.0626443 -0.04301636 0.011937223 -0.021318153
000290 70 b2 b2 3c aa 30 da bd e8 84 70 bd 64 b8 8d 3d
       0.021813601 -0.10653813 -0.0587205 0.06919935
0002a0 84 fe 7c 3d fa 21 9e 3d 06 34 95 bd 5c 42 76 3d
       0.061766163 0.07721324 -0.07285313 0.06012188
0002b0 0c 8a 4d 3d b0 21 17 bc e6 21 b3 bd 58 cb a1 bd
       0.05018048 -0.00922434 -0.087467 -0.07900113
0002c0 30 1c b8 bd c6 a2 cf bd f0 f0 3b 3d ec c2 bc bd
       -0.08989751 -0.101384684 0.045884073 -0.09216866
0002d0 80 76 9e 3c 4c 73 ec bd a0 48 36 bc 4e 2d 85 bd
       0.019343615 -0.11545429 -0.011125714 -0.06502782
0002e0 ec b1 4f 3d 54 14 27 bd c8 07 f1 3c d0 8e f0 3d
       0.05070679 -0.04079087 0.029422656 0.11745989
0002f0 6e c8 f4 bd c8 66 73 3d 80 21 f8 b9 e4 ea d4 bd
       -0.119522914 0.05942419 -0.00047327206 -0.10396364
000300 20 b2 c9 bc 38 db fa bd 22 a8 c1 3d 08 b3 46 bd
       -0.02462107 -0.12248844 0.09455897 -0.04851058
000310 88 65 b8 bc 78 69 db 3c 38 cc d0 3d 8a d5 97 bd
       -0.022509351 0.02678369 0.10195202 -0.07413776
000320 84 cd 9a 3d 7c 80 c1 3d 70 5e b2 3c dc 09 09 bd
       0.0755873 0.094483346 0.021773547 -0.03345667
000330 1a 5b a7 3d da 77 de bd be f0 c2 3d e8 f7 31 bd
       0.08171673 -0.108627036 0.09518574 -0.043449312
000340 ba 16 a2 bd 00 23 76 bd d8 99 d5 bd d8 1a 03 bb
       -0.07914491 -0.060091972 -0.10429734 -0.0020005014
000350 18 78 03 3a 7c 7f b0 3d 4e c6 a7 bd f8 e6 12 3d
       0.0005015149 0.08618066 -0.081921205 0.0358648
000360 90 cb a2 bc aa a7 dc bd 38 30 d2 3c 5a e9 94 bd
       -0.019872457 -0.10774167 0.025657758 -0.07271071
000370 dc b0 3e 3d 50 46 56 bd ca 11 c5 bd 80 6c 6c 3d
       0.046555385 -0.05231315 -0.096225336 0.05772066
000380 48 67 6e 3d 58 ba 70 3d 96 74 f4 bd 18 7a 3c 3c
       0.058203965 0.05877146 -0.119362995 0.011503719
000390 fc 6f 82 3d 20 c6 d1 3d d4 17 ad bd 44 5a a9 bd
       0.063690156 0.102428675 -0.084518105 -0.0826917
0003a0 90 65 7d bd 98 67 87 ba c4 7c 2a 3d 5a a0 e7 3d
       -0.061864436 -0.0010330556 0.041622892 0.113098815
0003b0 6e d4 db 3d b4 f6 c8 bd 2c 0f 83 bd f4 44 67 bd
       0.10733877 -0.0981268 -0.06399378 -0.056462243
0003c0 52 5a f2 3d 82 8f ba bd b6 6e b4 bd 8c 3a 20 3d
       0.118336335 -0.09109403 -0.08810179 0.039118335
0003d0 60 44 59 3d d2 19 89 bd e0 91 17 3c 50 86 b3 bd
       0.053043723 -0.06694378 0.009251088 -0.087658525
0003e0 78 44 8f 3c 9c f2 07 bd 06 e4 c4 3d 06 2e bf bd
       0.017488703 -0.033190355 0.096138045 -0.0933495
0003f0 20 e9 dd 3c 08 c8 de bc 1c 1f 43 bd 64 04 dd 3d
       0.027088702 -0.027194992 -0.04763709 0.10791853

layer_2.bias_ih f4 [64]
000000 9f ad 86 3c 9f 33 de 3e 2f 1c ec 3e bb ad d5 3e
       0.01644021 0.4339876 0.46115252 0.41734108
000010 e3 74 fa 3e 62 b7 d7 3e d6 bf 25 bd c3 3d 9e 3e
       0.48917302 0.42132097 -0.040466152 0.30906495
000020 78 d8 8c 3e 05 c6 bb bd 0f 3e 84 3e d4 cc 9d 3e
       0.27508903 -0.091686286 0.25828597 0.30820334
000030 0f 21 96 3e 94 26 df 3d b2 6c 9d 3e 42 65 1d bd
       0.29322097 0.1089603 0.3074699 -0.038426645
000040 bc 69 ab 3d ab 76 69 3d ca 5b ca 3e b4 4e 9b 3e
       0.083697766 0.056997936 0.39523154 0.30333483
000050 5e e0 7a 3d ac 5a 04 be e5 34 87 3e 59 38 f2 3e
       0.06124913 -0.12925214 0.26407543 0.47308615
000060 04 cd da 3e 54 74 ca bd 08 9d d1 3e fc fd 9c 3e
       0.4273454 -0.09885469 0.40940118 0.30662525
000070 44 32 9e bd dc 2a dc bd 83 67 bd 3e 85 a0 d4 bd
       -0.07724431 -0.10750362 0.36993036 -0.10382179
000080 32 69 96 3e 95 0d 79 3e 5b 44 a4 bd 32 15 d3 3e
       0.29377133 0.24321587 -0.0802085 0.41227108
000090 69 b8 67 bd 3f 1b 67 3e 53 82 32 bb c4 bb 4b bd
       -0.05657235 0.22568987 -0.0027238324 -0.049739614
0000a0 27 14 b9 3e 85 a7 cf bd 29 5a 92 3e 64 ce b3 3e
       0.36148188 -0.10139374 0.28584412 0.351184
0000b0 d2 11 eb 3e 69 25 cd 3e 56 b4 06 be 83 c4 ba 3e
       0.45912033 0.40067604 -0.1315473 0.36478052
0000c0 16 8f e2 3e 32 52 01 bc 4e 7e a7 3c 5c 9b d7 3e
       0.4424979 -0.007893132 0.020445969 0.42110717
0000d0 b0 0d ab 3e 10 6e 99 3e c0 6c 9a 3e bb f2 a4 3e
       0.3340888 0.29966784 0.30161095 0.3221644
0000e0 ef e2 85 3e 08 27 a6 3e 86 1b ca 3e 34 98 d0 3e
       0.261497 0.32451653 0.39474124 0.40741122
0000f0 2e 50 96 3e bc 7c 44 3d a4 e8 ee 3e b1 50 c4 3d
       0.29358047 0.04797052 0.46661866 0.09585703

layer_2.bias_hh f4 [64]
000000 dc 78 fd bd 85 17 9e 3e e2 4f d4 3e 23 eb df 3e
       -0.12376568 0.3087732 0.41467196 0.43734083
000010 dd c7 f2 3e 61 b8 92 3e 4e d9 8f bc 90 79 bd 3e
       0.4741811 0.28656295 -0.017559674 0.37006807
000020 ae 54 82 3e b9 89 cb 3d 5d 94 56 3e 47 5d 95 3e
       0.2545523 0.09938378 0.20955034 0.29172727
000030 c9 be d1 3e 34 0a 4f 3d e5 08 f7 3e 90 bd f0 bc
       0.4096587 0.05054684 0.48248973 -0.029387265
000040 6d 24 41 3d 25 73 0b be 84 ee ee 3e ce 0e d2 3e
       0.04715388 -0.13618143 0.46666348 0.4102692
000050 24 d0 79 3b 2b 96 86 bd 43 ff af 3e 3a 83 85 3e
       0.0038118446 -0.06571611 0.34374437 0.2607668
000060 00 d6 8b 3e 23 ae d5 bd d9 55 d7 3e c2 7c de 3e
       0.27311707 -0.104336046 0.42057684 0.43454558
000070 c3 21 ff bb 34 8f c0 bd ef 72 ad 3e ae e4 d9 bc
       -0.007786007 -0.09402314 0.3387675 -0.0265983
000080 99 73 d5 3e 79 fb e0 3e f2 c9 af 3c fd 6d 80 3e
       0.41689757 0.43941858 0.0214586 0.25083914
000090 22 a8 f5 bd 1e 76 ab 3e 01 f4 a3 bd 7b 3d 23 3d
       -0.119949594 0.33488554 -0.080055244 0.039853554
0000a0 0d df 8d 3e bd ae 66 3c 28 13 df 3e 7b de db 3e
       0.27709237 0.014079747 0.43569303 0.42943177
0000b0 b3 f6 87 3e fb 45 d2 3e 14 fe f4 bd e5 cd 97 3e
       0.26555404 0.41069016 -0.11962524 0.29649273
0000c0 55 7e 86 3e 04 08 14 3d 81 6b 3f bc 39 ca ca 3e
       0.2626826 0.036140457 -0.011683346 0.3960741
0000d0 73 06 59 3e 4e f6 bb 3e c3 db 9d 3e 4e ba e8 3e
       0.21193866 0.36711353 0.30831727 0.4545464
0000e0 d9 e0 97 3e 94 da c0 3e 18 75 d0 3e 21 00 e5 3e
       0.29663733 0.37666762 0.40714335 0.4472666
0000f0 e2 f6 d3 3e 55 b2 2b bd 23 41 83 3e a4 03 02 be
       0.41399294 -0.041918118 0.25635633 -0.12696701

layer_3.weight_ih f4 [32, 64]
000000 84 4d f2 bd 48 e1 b3 3e 3c 52 b2 3e b3 5b ba 3e
       -0.11831191 0.35132813 0.34828365 0.36398086
000010 ef 1f a6 3e 2a 07 d1 3e 1e be ad 3d 26 f2 02 3f
       0.32446238 0.40825778 0.084835276 0.5115074
000020 81 0a ea 3e 8b 05 2a 3e 2b df ef 3e a3 59 ca 3e
       0.4571114 0.16603677 0.4684995 0.39521512
000030 6d 3c eb 3e d5 34 57 3d 37 34 cf 3e 3c f0 10 bd
       0.4594454 0.05254062 0.40469524 -0.035385355
000040 27 31 09 be 1f 68 3f 3d 8f 1c dc 3e bb cc b7 3e
       -0.13397656 0.046730157 0.42990538 0.35898384
000050 e5 b1 33 3d 12 27 1f 3e 7a ea 74 3e e1 0d fc 3e
       0.043870825 0.15542248 0.2391757 0.4922934
000060 0a 91 b2 3e 15 5c 21 be c7 9c d3 3e 89 54 ec 3e
       0.3487628 -0.15757783 0.4133055 0.46158245
000070 92 de 41 3d 83 f7 89 bd 88 7d d1 3e 5b a3 09 3e
       0.0473314 -0.06736662 0.40916085 0.13441221
000080 b3 f9 c8 3e a4 63 f1 3e 09 c7 07 be 94 64 cf 3e
       0.39253005 0.47146332 -0.1325952 0.40506423
000090 78 6c 1a bd 41 1d b1 3e 5b c1 b6 3d 1a 54 9f bd
       -0.0377011 0.3459263 0.089235984 -0.07779713
0000a0 5b 90 7e 3e e8 e7 03 be 05 05 85 3e 02 54 c9 3e
       0.24859755 -0.12881434 0.25980392 0.39321905
0000b0 e6 55 09 3f 52 75 e9 3e a4 54 3c 3d 81 f6 05 3f
       0.53646696 0.4559732 0.045979157 0.5232926
0000c0 65 4f 89 3e c3 81 83 3d e2 2b 79 3d 03 98 7d 3e
       0.26818386 0.064212345 0.060832866 0.24765019
0000d0 cf 13 ad 3e dd d9 6f 3e f4 5c bf 3e 60 d2 d4 3e
       0.33804175 0.23422952 0.37375605 0.41566753
0000e0 64 8c b9 3e 24 8a 5e 3e 28 82 f8 3e 7b fa d1 3e
       0.36239922 0.21732384 0.485368 0.41011414
0000f0 f9 0e 9b 3e ce 8f 35 3e 80 3e ec 3e 64 8c b7 bd
       0.3028486 0.17730638 0.46141434 -0.08962324
000100 39 67 b4 bd 00 20 05 3f 47 2c 82 3e 27 78 8a 3e
       -0.08808751 0.52001953 0.25424406 0.27044794
000110 b3 0c e2 3e 86 68 a7 3e a8 64 59 bc 1f 79 ac 3e
       0.44150314 0.32696933 -0.013268627 0.33686158
000120 22 33 9f 3e bd 0a 0c be 35 39 99 3e ea d4 93 3e
       0.310937 -0.13675971 0.29926458 0.28873378
000130 da 0e 0a 3f 4b 6d ab bd d4 1e 0a 3f 91 29 1e be
       0.5392891 -0.08370455 0.5395329 -0.15445544
000140 00 4d 1c bd 39 aa 96 bd c3 03 b7 3e 5a 66 5f 3e
       -0.03815937 -0.07356686 0.35745057 0.21816388
000150 1c 22 c4 3d 5f e1 dd 3d 03 20 d3 3e a6 43 7f 3e
       0.09576818 0.10834002 0.4123536 0.2492815
000160 80 af cd 3e 7f 55 b4 bd 19 49 b7 3e fe 66 c8 3e
       0.40172958 -0.088053696 0.35797957 0.39141077
000170 fd b0 ad bc d5 2e 0a 3e 11 4a a1 3e e0 91 bb bd
       -0.021202559 0.13494428 0.3150182 -0.09158683
000180 50 76 a8 3e ac 37 84 3e 09 c2 c3 bd 03 43 a2 3e
       0.32902765 0.25823724 -0.09558494 0.3169175
000190 8a 5b ce 3d 40 1f fd 3e b3 5c f2 3d 51 d3 15 3e
       0.100760534 0.49437904 0.11834087 0.14631392
0001a0 80 68 c9 3e e7 77 d8 3d 7d 5a ac 3e 67 15 a5 3e
       0.3933754 0.105697446 0.33662787 0.3224289
0001b0 68 9d 04 3f ea 9f 0d 3f e9 3a 02 3e 2f e2 cf 3e
       0.5180268 0.55322134 0.12717785 0.40602252
0001c0 f9 31 d5 3e ca 5a db bb 5e 46 87 bd 7a c1 07 3f
       0.4163969 -0.0066941725 -0.06605218 0.53029597
0001d0 69 fe 00 3f 6a 08 b7 3e 24 f9 bf 3e b1 c5 65 3e
       0.503882 0.35748607 0.37494767 0.22438695
0001e0 ad eb c1 3e 75 67 8a 3e 17 6f 07 3f b3 5b 06 3f
       0.3787512 0.27032056 0.52903885 0.5248367
0001f0 bb 4a 9c 3e 02 c1 fa bd 13 35 e4 3e 97 53 23 3e
       0.30525765 -0.122438446 0.44571742 0.15949856
000200 1e f8 29 be f1 7f 2c be 31 1a cb bd fc c4 57 bd
       -0.16598555 -0.16845681 -0.09917105 -0.052678093
000210 f0 eb c4 bd 82 c6 b3 3d e8 95 61 bd 7d c2 55 3d
       -0.09615314 0.08778097 -0.055074602 0.05218743
000220 95 7c 93 bd e8 a8 41 3d 1c 88 f3 3d 35 2a b1 3d
       -0.072014965 0.047280222 0.11891195 0.086506285
000230 f6 0c 04 be 27 57 7e 3d 33 95 d3 bc 41 c3 07 be
       -0.12895569 0.062094834 -0.02582798 -0.13258077
000240 a1 07 9b bd 44 3a 07 3e ba 3a dc bd 98 a7 c7 3c
       -0.075698145 0.1320582 -0.10753389 0.024371907
000250 a7 9a 3a 3c fb 3d 17 be 49 5f 1d 3e 34 10 25 be
       0.011389411 -0.14769737 0.1536838 -0.16119462
000260 81 05 ae 3d 52 b6 fb 3d 57 e7 c5 3d c1 48 6e 3d
       0.084971435 0.12290634 0.09663265 0.058174852
000270 4d 5d 03 3e 2f f9 20 be 88 51 84 3d 76 42 36 be
       0.1282856 -0.15720056 0.06460863 -0.1779879
000280 6c a2 cb 3d 79 58 66 bc e9 b1 c3 3c 12 ae 76 3c
       0.09943089 -0.014059179 0.023888545 0.01505615
000290 52 c2 bd 3d e8 08 cc bd 81 63 3b 3d 96 f7 88 3c
       0.09265579 -0.09962636 0.04574919 0.01671962
0002a0 62 df 2d be 40 6f 8d 39 b5 b7 95 bd 14 b6 84 bd
       -0.16979745 0.00026976503 -0.0731043 -0.06480041
0002b0 40 96 c3 bd 93 f6 22 be d3 55 06 3e 1d 08 bb 3d
       -0.09550142 -0.15914373 0.13118677 0.09132407
0002c0 7e 27 57 bd 8c 03 5b 3c b6 6e 8f bd 31 a9 cc bd
       -0.052527897 0.013367545 -0.07003538 -0.09993208
0002d0 e5 cb 29 bd 66 07 b8 bd d2 41 b8 bd da cb 29 be
       -0.041454215 -0.08985786 -0.08996929 -0.1658167
0002e0 5b 45 08 be 75 0b 2b 3d e8 0c 04 3e e8 13 0c be
       -0.13307707 0.041758973 0.12895548 -0.13679469
0002f0 19 1d ec bc 6d 21 ec 3d 34 ca 77 3d e9 b4 fc bd
       -0.028822469 0.11529813 0.06049557 -0.123391934
000300 b2 77 3d 3e c8 ab de 3e 88 ec 0b 3f b2 47 1a 3f
       0.18502691 0.43490434 0.54657793 0.6026565
000310 09 0c c5 3e 6b dc d5 3e f6 2f de bd e2 4f 21 3f
       0.38485745 0.41769728 -0.108489916 0.63012516
000320 a0 bc d9 3e 3c f0 2b 3e b9 b0 1c 3f f4 3d 01 3f
       0.42526722 0.16790861 0.6120716 0.5048516
000330 ad 2f 09 3f 60 99 31 bd 4c ea c8 3e 88 3f 08 3d
       0.5358837 -0.04335916 0.39241254 0.033263713
000340 28 c0 13 be 34 e4 20 be 47 d2 cf 3e b5 9f d1 3e
       -0.1442877 -0.15712053 0.40590116 0.4094216
000350 2d c4 1c 3d 40 b0 70 bd 1b b2 0d 3f a4 3c db 3e
       0.038273025 -0.058761835 0.5534989 0.42819703
000360 2e 32 05 3f 4d db c2 3d ed d7 de 3e f9 05 1d 3f
       0.52029693 0.095144846 0.43524113 0.6133724
000370 dd cb ad bd 2f d5 62 bb b5 f9 ee 3e c6 20 15 3e
       -0.084861495 -0.003461193 0.46674886 0.14563283
000380 12 e0 dc 3e a2 b3 18 3f 02 07 7b 3d 94 e0 9e 3e
       0.43139702 0.596491 0.06128598 0.31030715
000390 57 2b 78 3d c6 40 18 3f 9a 4c eb bc 8d d1 c6 bc
       0.060588207 0.59473836 -0.02872305 -0.024269843
0003a0 f5 b2 06 3f 38 6b 15 3e ed 02 dc 3e ad 7e e7 3e
       0.52616817 0.14591682 0.42970982 0.45213833
0003b0 29 02 fb 3e b7 3d 03 3f cb a3 92 bd 08 d6 19 3f
       0.49025086 0.51266044 -0.07160147 0.6009221
0003c0 61 d6 14 3f d9 bb 24 3d ed e7 eb 3d 9f d3 f1 3e
       0.58139616 0.040218208 0.11518846 0.47231767
0003d0 5d bb 0f 3f 9a c3 19 3f b6 d0 0a 3f b6 46 0a 3f
       0.5614527 0.6006409 0.5422472 0.54014146
0003e0 cd db 98 3e 12 61 0a 3f e1 0c ff 3e 85 76 02 3f
       0.29855195 0.5405437 0.49814513 0.50962096
0003f0 e6 05 e1 3e 8b 65 cf 3d bd 86 1d 3f 21 60 bf 3d
       0.43949813 0.1012679 0.6153372 0.09344507
