src/pyoptes/optimization/budget_allocation/supervised_learning/trained_nn_states/wx_120_FCN_per_node.pth (torch, 176007 bytes, 10 tensors)

layer_1.weight f4 [128, 120]
0	0x3dd4083c	0.10353133
1	0x3d690c98	0.056896776
2	0xbcac31e5	-0.021019885
3	0x3cdfd985	0.027325401
4	0xbc381f57	-0.011237941
5	0x3d12c70e	0.035834365
6	0xbcbcf4e4	-0.023065992
7	0x3e0e2930	0.138829
8	0x3dad04d6	0.08448188
9	0x3ddb646c	0.10712513
10	0x3e08deaa	0.1336619
11	0x3e0312fd	0.12800212
12	0xba20c20d	-0.00061324314
13	0x3d749512	0.059712477
14	0x3da40d4d	0.080103494
15	0xbd135f5d	-0.035979617
16	0xbceaa4a1	-0.028642954
17	0x3e031938	0.12802589
18	0xbe10335f	-0.14082097
19	0xbc24859a	-0.010041619
20	0x3d9b8240	0.075932026
21	0x3cae2088	0.021255746
22	0x3bdebc66	0.006797361
23	0x3deb9c51	0.11504424
24	0x3e019cdb	0.12657492
25	0x3dd4d756	0.103926346
26	0xbbe4e21e	-0.006984963
27	0x3cd2354f	0.025660185
28	0xbd668f78	-0.056289166
29	0xbdfdefcc	-0.12399253
30	0x3d8a5df6	0.06756203
31	0x3d454488	0.04816106
32	0x3d222423	0.039585244
33	0x3e042a6f	0.12906812
34	0xbcf44b13	-0.029820954
35	0x3dd79a18	0.10527438
36	0xbc4eaea5	-0.012614881
37	0x3ce7df85	0.028304825
38	0x3dfce40f	0.12348186
39	0xbd2c9d74	-0.042142347
40	0xbb91c6ae	-0.0044487333
41	0xbca2cfdd	-0.019874508
42	0xbd6c5cf7	-0.057705846
43	0x3b04a83a	0.0020241872
44	0x3dfc91c5	0.12332491
45	0x3dd68ec9	0.10476453
46	0x3d0a843f	0.033817526
47	0x3dbd1307	0.09232145
48	0x3d94773b	0.07249304
49	0xbd1a004e	-0.037597947
50	0xbd238ff4	-0.039932206
51	0x3dcd17c1	0.10014296
52	0x3d16176e	0.036643438
53	0x3d515cdf	0.05111396
54	0x3d6c6883	0.057716858
55	0x3da9f9a3	0.082995676
56	0xbd80e9a9	-0.06294567
57	0x3dd9923b	0.106235944
58	0x3dbe6419	0.09296436
59	0x3daf867f	0.08570575
60	0x3dd924ee	0.10602747
61	0xbca77759	-0.020442652
62	0x3d24a2f3	0.040194463
63	0x3d3bf7b2	0.045890518
64	0x3e0760ca	0.13220516
65	0xbd1c1f3f	-0.038115736
66	0x3cebb754	0.028773941
67	0xbd2ccc25	-0.042186875
68	0x3df16b3d	0.11788032
69	0x3d5ae78c	0.053443477
70	0x3d2dd40c	0.04243855
71	0xbc8e9850	-0.017406613
72	0xbd69e5b4	-0.057103828
73	0x3e019e59	0.12658061
74	0x3dbbb783	0.091658615
75	0xbb4ef53d	-0.003157928
76	0x3c96583d	0.018352622
77	0x3db94693	0.09046664
78	0x3d9461e6	0.07245235
79	0x3d89cfc9	0.06729085
80	0x3d10b294	0.035326555
81	0x3dc070e9	0.09396536
82	0x3dbc09bd	0.09181545
83	0x3d798ae4	0.060923472
84	0x3c87d772	0.016582225
85	0x3d4ce7c4	0.050025716
86	0xbdec070f	-0.11524784
87	0x3e040247	0.12891494
88	0x3ddddc5c	0.10833046
89	0x3e0d1f4e	0.13781473
90	0x3da30033	0.079590224
91	0xbcdc1cbf	-0.026869176
92	0xbc734db8	-0.014850073
93	0x3d0ef51b	0.03490172
94	0xbd4c9193	-0.049943518
95	0xbc12eb3f	-0.00896722
96	0x3bbbdf0c	0.0057333764
97	0xbbde4e4c	-0.006784236
98	0x3dc015a9	0.09379131
99	0x3dccb1c7	0.09994846
100	0x3df3e774	0.119093806
101	0x3dca1b2e	0.09868465
102	0x3d1ec2cf	0.038760003
103	0xbdb7f341	-0.08981944
104	0xbda9eaeb	-0.0829676
105	0x3d570deb	0.052503508
106	0xbd2be4f0	-0.04196638
107	0xbd5ebcf9	-0.054379437
108	0xbca362ae	-0.019944515
109	0xbd86be5b	-0.06579276
110	0x3d70494e	0.05866366
111	0xbc8051ba	-0.01566397
112	0xbdbde485	-0.09272102
113	0x3d19f5eb	0.03758804
114	0x3de1f40a	0.11032875
115	0x3d94463f	0.07239961
116	0x3d028631	0.031866256
117	0x3d6f0fd5	0.058364708
118	0xbd64b23a	-0.055834033
119	0x3d52371d	0.05132209
120	0x3dec9f2e	0.115537986
121	0x3cac3e48	0.021025792
122	0xbbe9114b	-0.007112657
123	0x3d627a74	0.05529256
124	0x3c519b12	0.012793319
125	0x3daacb56	0.083395645
126	0x3d46fc16	0.04858025
127	0x3dadaf3c	0.08480689
128	0xba4425d4	-0.00074824435
129	0x3dec1801	0.11528016
130	0x3e17aebd	0.14812751
131	0x3da02cc0	0.078210354
132	0xbd0f813a	-0.03503535
133	0x3da0a6ce	0.078443155
134	0x3e149584	0.1451016
135	0xbb0aa70f	-0.0021156704
136	0x3d25cb6e	0.04047721
137	0x3cd21f76	0.025649767
138	0x3d4b6a2d	0.049661804
139	0x3d291365	0.04127826
140	0x3cefdd24	0.029280253
141	0x3d5e0b4e	0.05421
142	0x3db8b7e2	0.09019448
143	0x3dffa1fe	0.124820694
144	0x3aaae9aa	0.0013039608
145	0x3da23279	0.07919783
146	0x3e112ccf	0.1417725
147	0x3d4aa9e8	0.04947844
148	0x3d99ce6c	0.07510075
149	0x3ddf8f7a	0.10916038
150	0xbc25f10a	-0.010128269
151	0xbdcadd81	-0.0990553
152	0x3d39f6c3	0.045401346
153	0x3d9b6f69	0.07589609
154	0x3cd7db1a	0.026349593
155	0x3dc22643	0.09479954
156	0x3db46c71	0.08809746
157	0x3ddf980f	0.10917675
158	0xbd0fb683	-0.035086166
159	0x3e173de5	0.14769705
160	0x3d51c78a	0.051215686
161	0x3e06a476	0.13148674
162	0x3d8dd79f	0.06925892
163	0x3d5a1a0f	0.053247508
164	0x3d27d56b	0.040975016
165	0x3c5a3c50	0.013320044
166	0x3d5068b5	0.050881106
167	0x3da66217	0.08124178
168	0x3d0ee8bf	0.034889933
169	0x3d283446	0.041065477
170	0x3dec2851	0.11531127
171	0x3e0ae15d	0.13562532
172	0x3db7ad64	0.089686185
173	0x3bf71aae	0.0075410223
174	0x3da8519d	0.082186915
175	0x3dc18896	0.0944988
176	0x3dea5746	0.11442427
177	0x3debb3fc	0.11508939
178	0x3d892820	0.06697106
179	0xba210b04	-0.0006143304
180	0x3d0fbad1	0.03509027
181	0x3d3bccf7	0.045849767
182	0x3de2a3b6	0.11066382
183	0xbc78909e	-0.015171198
184	0x3e1c76da	0.15279713
185	0x3de63dfc	0.11242291
186	0x3cdfaf69	0.027305322
187	0x3da3466b	0.079724155
188	0x3de7b618	0.113140285
189	0x3d2c80b0	0.042114913
190	0x3dbdc6b7	0.092664175
191	0x3e179a32	0.14804915
192	0xbc1cff8d	-0.009582412
193	0x3d02a809	0.031898532
194	0xbc6538f7	-0.013990632
195	0x3c88ab09	0.016683118
196	0x3d884b56	0.06654994
197	0x3cb9dfe8	0.022689775
198	0x3dce304e	0.10067807
199	0x3e1a913e	0.15094468
200	0x3e19cc5e	0.15019366
201	0x3d9fbe28	0.07799941
202	0x3dc8d891	0.09806932
203	0x3df1c1af	0.1180452
204	0xbd74b4f1	-0.05974287
205	0xbc36e455	-0.011162837
206	0x3df0f1c3	0.117648624
207	0x3da58330	0.08081663
208	0x3d1ed910	0.038781226
209	0xbb19f4bb	-0.0023491818
210	0x3d4482b4	0.04797621
211	0x3ddc538c	0.10758123
212	0x3e128e3a	0.14312068
213	0xbcad03c6	-0.021119963
214	0x3e00b02b	0.12567203
215	0x3d8389be	0.064227566
216	0xbc51b2d0	-0.01279898
217	0x3daa2ad3	0.08308949
218	0x3caf6036	0.021408182
219	0x3d616fc3	0.055038225
220	0x3a9595cb	0.001141244
221	0x3d5c41aa	0.05377356
222	0x3d82f37c	0.06394097
223	0x3de4196d	0.11137662
224	0x3e17ce1a	0.14824715
225	0x3d0aee99	0.03391895
226	0x3d528a5d	0.051401485
227	0x3d79d220	0.060991406
228	0x3d87dfe5	0.06634501
229	0xbb72e26d	-0.003706123
230	0x3cc7958e	0.024363305
231	0x3d3b5ceb	0.04574291
232	0x3d6ac9db	0.05732141
233	0xbca95a9d	-0.02067309
234	0x3e1f4598	0.15553892
235	0x3cb30dce	0.021857169
236	0xbca9da8d	-0.020734096
237	0xbd739441	-0.059467558
238	0x3e20552f	0.15657495
239	0x3dc94bc1	0.09828902
240	0x3da25874	0.07927027
241	0xbb982300	-0.004642844
242	0x3d724d64	0.059155837
243	0x3d8d972c	0.06913599
244	0x3d924930	0.07142866
245	0xbcb2c2f8	-0.021821484
246	0xbaeed0c9	-0.0018220182
247	0x3db73ee8	0.08947545
248	0x3e1df08f	0.15423797
249	0x3d217216	0.03941544
250	0x3df01696	0.11723058
251	0x3c9be9e6	0.01903243
252	0x3dd81ffc	0.105529755
253	0x3e07e8b6	0.13272366
254	0x3d4ed2b3	0.050493907
255	0xbac2693f	-0.0014832391

layer_1.bias f4 [128]
0	0x3d5bd9da	0.053674556
1	0x3d785866	0.06063118
2	0x3d23d8d7	0.040001716
3	0x3e08c574	0.13356572
4	0xbca6f56f	-0.020380704
5	0x3ddd953e	0.10819481
6	0x3c1ae97f	0.009455084
7	0x3d4ca0e9	0.049958143
8	0x3d2f650a	0.042820968
9	0x3ddb66ba	0.10712953
10	0x3d0cef50	0.034407914
11	0x3e2138d8	0.1574434
12	0xbc28510b	-0.010273228
13	0x3d775e7f	0.060392853
14	0x3dd3383b	0.103134595
15	0xbd096d30	-0.033551395
16	0x3de7d2bb	0.113194905
17	0x3d72b173	0.05925126
18	0xbc41ff6e	-0.011840684
19	0x3e1d799d	0.15378423
20	0xbc90c3ae	-0.017671432
21	0x3b51c046	0.0032005473
22	0x3dfb4c99	0.12270469
23	0x3e00b568	0.12569201
24	0x3e1d947a	0.1538867
25	0x3d6ff875	0.058586556
26	0x3df81de1	0.12115074
27	0xbd7232ee	-0.0591306
28	0x3dd25939	0.10270924
29	0xbbce9962	-0.0063049057
30	0x3d94446f	0.07239615
31	0x3c26f0d7	0.010189257
32	0x3d8682c9	0.06567914
33	0x3d2f614d	0.042817403
34	0xbcb1c45c	-0.021700077
35	0x3d8b9437	0.06815379
36	0x3e1b31cd	0.15155716
37	0x3dd6bf5e	0.10485719
38	0x3db32df7	0.087490015
39	0x3debc8ec	0.11512932
40	0xbc63d3c0	-0.013905466
41	0x3d8701f2	0.06592168
42	0x3c891ece	0.016738322
43	0x3db3e2b2	0.08783473
44	0x3df4cae6	0.11952762
45	0x3d48b2f9	0.048998807
46	0xbc19c721	-0.009385855
47	0xbd28a236	-0.04117032
48	0x3d9197c3	0.071090244
49	0x3c9b4260	0.018952549
50	0x3e0112fe	0.12604901
51	0x3d807888	0.062729895
52	0x3db0fe91	0.08642305
53	0x3d0721e2	0.032991298
54	0x3da410dc	0.08011028
55	0x3d1ad210	0.037797987
56	0xbb009da8	-0.001962522
57	0x3d35ed67	0.044415858
58	0x3d5c2eff	0.053755756
59	0xbd617343	-0.055041563
60	0x3e000a38	0.12503898
61	0x3cd089b5	0.025456289
62	0xbace6be0	-0.0015748702
63	0x3bd698d9	0.0065489826
64	0x3dd467b0	0.10371339
65	0x3d0aec5c	0.033916816
66	0xbbdbef5e	-0.0067118844
67	0x3c956f99	0.01824169
68	0x3c2f49c4	0.010698739
69	0x3d90a267	0.07062226
70	0x3b6a8780	0.003578633
71	0x3deb7088	0.11496073
72	0x3d3250bc	0.043534026
73	0x3ddae982	0.10689069
74	0x3d6bf726	0.057608746
75	0x3cc5e504	0.024157055
76	0x3d530b71	0.051524583
77	0xbd07de03	-0.03317071
78	0x3df11c2a	0.1177295
79	0xbd155aa3	-0.03646339
80	0x3d1c8ce4	0.0382203
81	0xbcc22ade	-0.023702081
82	0x3e05fc40	0.13084507
83	0x3d99536d	0.07486615
84	0x3e179634	0.14803392
85	0x3d39feb7	0.04540893
86	0xbc28e9be	-0.010309635
87	0x3cfb8d00	0.030706882
88	0x3da24a1c	0.079242915
89	0x3de0eb72	0.10982408
90	0xbd25405a	-0.040344574
91	0xbd030029	-0.031982575
92	0x3d457ffa	0.04821775
93	0x3e09a4d5	0.13441785
94	0xbb1ff8d0	-0.0024409778
95	0x3d3eb93d	0.046563376
96	0x3c235254	0.009968359
97	0x3dd87bd9	0.10570497
98	0x3d3f450f	0.04669672
99	0x3e0ad6b1	0.13558461
100	0xbd391a1c	-0.045190915
101	0x3d92e920	0.07173371
102	0x3d6fdd43	0.05856062
103	0x3d534b9c	0.05158578
104	0x3d0bec6e	0.034161024
105	0x3cfee11c	0.0311132
106	0xbc7413ab	-0.014897267
107	0x3db75b9e	0.089530215
108	0x3e0c437c	0.13697618
109	0x3ddcc341	0.10779429
110	0x3d192f52	0.037398644
111	0x3b1cb588	0.0023911912
112	0x3d929287	0.07156854
113	0x3de37979	0.111071534
114	0x3da09593	0.07841029
115	0xbd7e6e2e	-0.062116794
116	0x3da6ae16	0.08138673
117	0x3dbbd985	0.09172348
118	0x3ac8b1d2	0.0015311784
119	0x3c31e81f	0.010858565
120	0xbc85325b	-0.016259363
121	0x3e07d197	0.13263546
122	0x3c9ac029	0.018890457
123	0x3e2161da	0.15759984
124	0x3ded2436	0.11579172
125	0xbd224246	-0.039613985
126	0x3d9b97f8	0.07597345
127	0x3e0bd307	0.1365472

layer_2.weight f4 [128, 128]
0	0x3d212acc	0.039347455
1	0x3c9ff361	0.019525232
2	0x3e0a2cb0	0.1349361
3	0x3cbaf419	0.022821473
4	0x3e116dcb	0.14202039
5	0x3d5e47ef	0.05426782
6	0x3d8a0a3b	0.067402326
7	0x3bb6f1b8	0.0055830143
8	0x3de6507d	0.11245821
9	0x3d728ca6	0.059216164
10	0x3d54f8db	0.05199514
11	0x3e143e02	0.14476779
12	0x3d9f6d9e	0.0778458
13	0xbc187a3b	-0.009306486
14	0x3da459df	0.08024954
15	0x3ee3d46b	0.44498
16	0x3e18693a	0.14883891
17	0x3e1cca3e	0.15311524
18	0x3e0b4e8d	0.13604183
19	0x3dd7a66d	0.1052979
20	0x3bcdf3d4	0.00628517
21	0x3da48080	0.08032322
22	0x3de4929c	0.11160776
23	0x3d0b8571	0.034062807
24	0x3dc55429	0.09635193
25	0x3d7089d6	0.0587252
26	0x3e15d5ba	0.14632311
27	0x3cb774f1	0.02239463
28	0x3df7b194	0.12094417
29	0x3c6130ad	0.013744515
30	0x3e12c4ab	0.14332835
31	0x3af318f4	0.0018546865
32	0x3dfcf385	0.12351135
33	0xbc57ac86	-0.013163691
34	0x3d81df1f	0.06341385
35	0x3dbc9564	0.092081815
36	0x3ce79ee9	0.028274016
37	0x3ddbd4f4	0.10733977
38	0x3dc4aa07	0.09602743
39	0x3da66030	0.08123815
40	0x3d96ce81	0.07363606
41	0x3dcc0c89	0.099633284
42	0x3d54b8a7	0.05193391
43	0x3db98f33	0.09060516
44	0x3af40212	0.001861634
45	0x3d8ae478	0.06781858
46	0x3d822093	0.06353869
47	0x3de7dbd3	0.11321225
48	0x3dec556d	0.11539731
49	0x3dd3a993	0.10335078
50	0x3d2e559d	0.042562116
51	0x3de1ff34	0.11035004
52	0x3df3b886	0.119004294
53	0xbc1ab8dc	-0.009443488
54	0xba515dac	-0.00079866755
55	0x3cf64e7e	0.030066725
56	0x3d0fa793	0.03507192
57	0x3d8fd78b	0.070235334
58	0xbaddc4b2	-0.0016919582
59	0x3d161c0c	0.03664784
60	0xbc1b3eec	-0.009475451
61	0x3c85d94d	0.016338969
62	0x3e1949ab	0.14969508
63	0x3c9e78b2	0.019344661
64	0x3d5b8983	0.05359794
65	0x3d880e94	0.066434056
66	0xbc24e445	-0.010064189
67	0x3d5c5e54	0.053800896
68	0x3d402b78	0.046916455
69	0x3d8c668b	0.06855496
70	0x3d703cf7	0.05865189
71	0xbc0a0890	-0.008424893
72	0x3d0bd1b5	0.03413554
73	0xbc6c15b8	-0.014409475
74	0x3d98029b	0.07422372
75	0x3e005a2f	0.12534402
76	0x3dfe03d7	0.12403076
77	0x3d18e8e3	0.037331473
78	0x3d91482a	0.07093842
79	0x3ec39b91	0.38204625
80	0x3eb9364c	0.36174238
81	0xbb43d639	-0.0029882325
82	0x3b6aaa69	0.0035807139
83	0x3dd50b4e	0.10402547
84	0x3e0147f8	0.1262511
85	0xbcad4ef4	-0.021155812
86	0x3df6035f	0.12012362
87	0x3da191b6	0.0788912
88	0x3d482be5	0.048869986
89	0xbc82bc79	-0.015959011
90	0xbb8e6044	-0.004344972
91	0x3d566d8e	0.052350573
92	0x3e08d179	0.13361157
93	0x3d0a6454	0.033787087
94	0x3d6f47b5	0.058417995
95	0x3e138ffa	0.14410391
96	0xb7e10fa0	-2.6829366e-05
97	0x3e0d32d6	0.13788924
98	0x3cb70e36	0.022345643
99	0x3d358e78	0.044325322
100	0x3e89800f	0.26855513
101	0x3cb1b01c	0.02169042
102	0xbbbf0164	-0.005829023
103	0xbc0db7c1	-0.008649767
104	0x3e09a963	0.13443522
105	0x3d225230	0.03962916
106	0x3e029c70	0.12754989
107	0x3e03ad63	0.1285911
108	0x3da24e49	0.07925088
109	0xbc8cf517	-0.017206712
110	0x3dfa0ab9	0.122090764
111	0xbc69f7ac	-0.014280241
112	0xbc49dffd	-0.012321469
113	0x3d40a634	0.047033504
114	0x3e18d6c9	0.14925684
115	0x3db68e53	0.08913865
116	0x3e0e2636	0.13881764
117	0x3df64900	0.120256424
118	0xbc59d2c3	-0.013294878
119	0x3cf53341	0.029931666
120	0x3d92e502	0.07172586
121	0x3a251b1c	0.000629829
122	0x3d8fefcf	0.07028162
123	0x3dd55a35	0.10417596
124	0x3e06a1e9	0.13147701
125	0x3cb6fab7	0.022336347
126	0x3de472f1	0.11154736
127	0xbc228274	-0.009918798
128	0x3e142278	0.14466274
129	0x3d174596	0.036931597
130	0x3d8301f5	0.06396858
131	0x3c88f19f	0.016716776
132	0x3ddfcf28	0.10928184
133	0x3cb5c602	0.022189144
134	0x3a8219b9	0.0009925879
135	0x3d21ea5e	0.03953015
136	0x3e05059a	0.12990418
137	0xbd07fbfb	-0.03319929
138	0x3c19b860	0.009382337
139	0x3dff9fe5	0.12481669
140	0x3e04563e	0.12923524
141	0x3d0ec3af	0.034854587
142	0x3dcacd1b	0.09902402
143	0x3ed1bcc4	0.4096433
144	0xbcf898ba	-0.030346263
145	0xbb8b8a96	-0.004258464
146	0x3d385b18	0.04500875
147	0x3d6d967c	0.05800484
148	0xbc58400a	-0.013198862
149	0x3e11caf4	0.14237577
150	0x3d4078e4	0.04699029
151	0x3d6f2c38	0.05839178
152	0x3d2e2818	0.042518705
153	0xbccb817e	-0.02484202
154	0x3d6d6e6b	0.05796663
155	0x3d0b1319	0.03395376
156	0x3e0ee39b	0.13954012
157	0x3de231ec	0.11044678
158	0x3de9b8b8	0.114121854
159	0x3e0e35e5	0.13887747
160	0x3e10f71b	0.14156763
161	0x3da9b749	0.08286912
162	0xbcb377f4	-0.021907784
163	0x3e086fad	0.13323851
164	0x3de014fc	0.109415025
165	0x3d97d676	0.07413952
166	0x3cb2cdc5	0.021826634
167	0x3d91b186	0.07113938
168	0xbc98af39	-0.01863824
169	0x3d4597aa	0.04824034
170	0x3d776f59	0.060408924
171	0xbd16dcc8	-0.036831647
172	0x3cc22f02	0.023704056
173	0x3dc22737	0.09480136
174	0xbcc19399	-0.02362995
175	0x3de8e201	0.11371232
176	0x3d5dd75d	0.054160465
177	0x3dadde4c	0.084896654
178	0x3afb5bf3	0.0019177183
179	0x3deb05b4	0.11475697
180	0x3cecc03f	0.028900264
181	0x3daf293b	0.08552786
182	0x3d87922f	0.06619679
183	0xba90ec0d	-0.0011056677
184	0x3d9d2e1d	0.07674811
185	0x3e04f6f2	0.12984827
186	0x3e169973	0.14706974
187	0x3e0720ca	0.13196102
188	0x3dc004bc	0.09375903
189	0x3d7af6b1	0.06127042
190	0x3d767916	0.06017407
191	0x3cbb0dda	0.022833753
192	0x3d2817b6	0.041038238
193	0x3db5ba00	0.08873367
194	0xbcc3999c	-0.023876958
195	0x3d274ffe	0.04084777
196	0xbc090324	-0.008362565
197	0x3d7f444d	0.062320996
198	0x3dbad007	0.09121709
199	0x3d8d9cb0	0.069146514
200	0x3dd601bd	0.1044955
201	0x3ce7c402	0.028291706
202	0x3dd3ac79	0.10335631
203	0x3d9919d2	0.07475628
204	0x3dd43b51	0.10362876
205	0x3de96767	0.113966756
206	0x3d809709	0.06278808
207	0x3ea7ab82	0.32748038
208	0x3e9c7383	0.30556878
209	0x3dca0d1b	0.09865781
210	0xbbecbfea	-0.0072250264
211	0x3d0977ff	0.033561703
212	0x3dc6dbad	0.097098686
213	0x3d4ae7d6	0.049537502
214	0x3d889919	0.06669826
215	0x3cd16f85	0.025565872
216	0x3cb33ce2	0.021879617
217	0x3c0a5f97	0.008445642
218	0xbcce5d84	-0.025191076
219	0x3d536d44	0.051617876
220	0x3c8a7079	0.016899334
221	0x3e05068e	0.12990782
222	0xbceccb6e	-0.028905597
223	0x3d19624b	0.037447255
224	0x3d8f35a5	0.06992654
225	0x3c4429a6	0.01197282
226	0x3dac2f0f	0.08407413
227	0xbcde2bae	-0.027120437
228	0x3eadb2e1	0.33925536
229	0x3d9bffbd	0.076171376
230	0x3cc9e808	0.024646774
231	0xbd049cb2	-0.032376
232	0x3d0b8b6f	0.03406852
233	0x3dfdff2e	0.12402187
234	0x3d7b3676	0.061331235
235	0xbcdd5069	-0.027015882
236	0x3cff496a	0.031162936
237	0x3d028b90	0.03187138
238	0x3d75aa21	0.0599767
239	0xbd08ac77	-0.0333676
240	0x3dab9193	0.083773755
241	0x3c8c0f12	0.01709703
242	0x3e039f91	0.12853839
243	0x3cdc4ae1	0.026891174
244	0x3bef33a4	0.007299857
245	0x3ca008ab	0.019535383
246	0x3bfd2f8f	0.0077266167
247	0x3d87e414	0.06635299
248	0x3cbdf1a1	0.023186507
249	0x3df058b2	0.11735667
250	0x3deb5266	0.11490326
251	0x3d9b4e1a	0.07583256
252	0x3d42de9f	0.04757559
253	0x3dce7ecc	0.10082778
254	0xbca473fd	-0.020074839
255	0x3d175fdf	0.036956664

layer_2.bias f4 [128]
0	0x3dfbea57	0.12300556
1	0x3de38de9	0.111110516
2	0x3de162da	0.110051826
3	0xbc850574	-0.016237952
4	0x3d637734	0.055533603
5	0x3cefdf8a	0.029281396
6	0xbd62a57d	-0.055333603
7	0xbc623cea	-0.013808468
8	0x3dabcc07	0.083885245
9	0x3b8447a2	0.0040368596
10	0x3e0ba480	0.1363697
11	0x3e203ed8	0.15648973
12	0xbc3523af	-0.011055871
13	0x3dc9710e	0.098360166
14	0xbc7ab84b	-0.015302728
15	0xbdd0d7b6	-0.101973936
16	0xbd1d5084	-0.038406864
17	0x3de3397e	0.1109495
18	0x3e016cbe	0.12639138
19	0x3dccc3b5	0.09998266
20	0xbc5c58b2	-0.013448881
21	0xbdc71fe6	-0.09722881
22	0x3e1ad0ea	0.15118757
23	0x3dd553b0	0.10416353
24	0x3dd13cbf	0.102166645
25	0x3dcd36a8	0.100201905
26	0x3e02ed23	0.12785773
27	0xbc661d24	-0.014045034
28	0x3dcb9f4a	0.09942491
29	0x3d69e756	0.057105385
30	0x3de836e4	0.113385946
31	0x3c69349e	0.014233736
32	0x3e0090ea	0.1255528
33	0x3d87ede7	0.06637173
34	0x3d8389f9	0.064228006
35	0xbb9f3e65	-0.004859733
36	0x3cff3cf4	0.031156994
37	0x3d945a37	0.072437696
38	0x3bc41f28	0.0059851594
39	0x3d4eb7ff	0.05046844
40	0x3e027111	0.12738444
41	0x3c665129	0.014057436
42	0x39519fc2	0.00019991308
43	0xbd32697b	-0.043557625
44	0x3d99ad78	0.0750379
45	0x3dc1a836	0.09455912
46	0xbd588b7b	-0.052867394
47	0x3d1dde79	0.038542245
48	0x3d29701b	0.041366678
49	0xbb5a8673	-0.0033344298
50	0x3ca778ae	0.020443287
51	0x3dccf681	0.100079544
52	0x3a9edb0b	0.0012119723
53	0x3c5cf0d5	0.013485153
54	0x3c7bb421	0.01536277
55	0x3ddbfb28	0.10741264
56	0x3da67a73	0.08128824
57	0x3e254012	0.16137722
58	0x3d27d780	0.040977
59	0xbd635024	-0.05549635
60	0xbbabb93d	-0.005240588
61	0x3c8906b6	0.016726833
62	0x3e10f13b	0.14154522
63	0x3ddc8096	0.10766713
64	0x3e0b0ec0	0.13579845
65	0x3c802cc7	0.015646352
66	0x3d85eecf	0.0653969
67	0x3c8198b2	0.015819881
68	0xb9e7de6c	-0.0004422547
69	0x3cbc9495	0.023020068
70	0xbd2ac895	-0.041695196
71	0x3d33f9d4	0.043939427
72	0x3e0a3bc6	0.13499364
73	0x3c9bfa88	0.019040361
74	0x3c82b49e	0.015955266
75	0x3cf04f6d	0.029334748
76	0x3d95438f	0.072882764
77	0xbc70f176	-0.014706006
78	0x3df7fbc7	0.121085696
79	0x3c9ca335	0.019120792
80	0xbd51355f	-0.05107629
81	0x3cef654c	0.029223107
82	0x3d0e8c57	0.034801807
83	0x3dfee38b	0.12445744
84	0x3e01f09f	0.12689446
85	0x3dcc3ba7	0.09972315
86	0x3deccd17	0.11562555
87	0x3dffb5c9	0.12485845
88	0x3dcba47f	0.099434845
89	0x3d8917ba	0.066939786
90	0xbccfa066	-0.025345039
91	0x3ddb2b9b	0.107016765
92	0xba50095f	-0.0007935967
93	0x3db064e7	0.086129956
94	0x3d0a529d	0.033770192
95	0x3c49398d	0.012281788
96	0x3d3b55b0	0.045736015
97	0x3cb5286c	0.022114001
98	0x3e24d9ca	0.16098705
99	0x3dceea79	0.10103316
100	0xbdcd7e9f	-0.10033917
101	0x3d536d1c	0.051617727
102	0xbda39391	-0.079871304
103	0x3a4008f8	0.0007325555
104	0x3ce83cf4	0.028349377
105	0x3da78043	0.08178761
106	0x3d35bfe8	0.04437247
107	0x3daefdac	0.08544478
108	0x3cb7ab7a	0.022420634
109	0x3da0fd3d	0.07860801
110	0x3df96898	0.12178153
111	0xbd11d835	-0.03560658
112	0x3dba034b	0.09082659
113	0xbc128a4b	-0.008944104
114	0x3d9c8926	0.076433465
115	0xbc94e03c	-0.01817333
116	0x3e01d015	0.12677033
117	0x3c2c2a0b	0.010508071
118	0xbccbe8e3	-0.024891322
119	0x3daf2ae9	0.08553106
120	0x3cc116ff	0.023570536
121	0x3c090501	0.008363009
122	0x3e05adef	0.13054632
123	0x3d026598	0.03183517
124	0x3e192477	0.14955316
125	0x3dd7f707	0.105451636
126	0x3df66caf	0.120324485
127	0x3daf8ae1	0.08571411

layer_3.weight f4 [64, 128]
0	0xbce88eb5	-0.02838836
1	0x3d5e35c4	0.054250494
2	0x3d9a9d12	0.0754949
3	0xbd4c9d3d	-0.04995464
4	0x3dc92521	0.09821535
5	0x3da4f684	0.080548316
6	0x3d7f129a	0.0622736
7	0xbcc1ef84	-0.02367378
8	0xbd880293	-0.06641116
9	0xba0360a4	-0.0005011654
10	0xbd0a65a2	-0.03378833
11	0x3df027ce	0.11726342
12	0x3ac31c1d	0.0014885698
13	0x3d93cbc8	0.072166026
14	0x3defcf04	0.11709407
15	0xbcb1ecd4	-0.021719374
16	0x3d6d3bdd	0.05791842
17	0x3d1f6b62	0.038920768
18	0x3db75697	0.089520626
19	0x3c0e9a1e	0.008703737
20	0xbb61f73c	-0.0034479639
21	0x3dacdf31	0.08441008
22	0x3db37b35	0.08763734
23	0x3d117a23	0.03551687
24	0x3d9d1ae3	0.07671144
25	0xbd480484	-0.04883243
26	0xbc4aca10	-0.012377277
27	0xbd6251c2	-0.05525375
28	0x3d127ef5	0.035765607
29	0x3da7c90e	0.08192645
30	0x3c59eb34	0.013300706
31	0x3d11550a	0.03548149
32	0x3ae743be	0.001764409
33	0x3bd713eb	0.0065636537
34	0xbd509644	-0.050924554
35	0xbd02ec9e	-0.031963937
36	0x3d7cc31a	0.0617095
37	0x3cfee6f8	0.031115994
38	0xbc4d099e	-0.0125145
39	0x3de4db3f	0.111746304
40	0x3bb49bbe	0.00551173
41	0x3dda1117	0.10647791
42	0x3dcc0a93	0.09962954
43	0xbc8e5115	-0.017372647
44	0x3d1b5006	0.037918113
45	0x3d0b244e	0.03397017
46	0xbd940b42	-0.0722871
47	0xbd346447	-0.044040944
48	0xbcc83dee	-0.024443593
49	0x3c8ecdc7	0.017432107
50	0xbd1e571d	-0.038657296
51	0xbcf5f131	-0.030022236
52	0xbc0dad33	-0.008647251
53	0x3d58d0bf	0.05293345
54	0xbd21ebf0	-0.03953165
55	0x3dc9ed90	0.098597646
56	0x3c83e4a7	0.01610024
57	0x3d301fdd	0.042999137
58	0x3d85a1c5	0.06524996
59	0x3d4e5a6e	0.05037921
60	0x3dbdb35d	0.092627265
61	0x3cf3aaef	0.029744593
62	0x3c273f01	0.010207892
63	0x3db75c2c	0.08953127
64	0x3dc74e15	0.0973169
65	0x3dddb958	0.10826367
66	0x3dad4142	0.084597126
67	0xbcc8b05c	-0.024498157
68	0x3d83335c	0.064062804
69	0x3c0deada	0.00866195
70	0xbc350355	-0.011048158
71	0x3d7990d9	0.060929153
72	0xbd58a796	-0.052894197
73	0xbc66f643	-0.014096799
74	0x3ca46a44	0.020070203
75	0x3cc56533	0.024096107
76	0x3db4f4b7	0.08835738
77	0x3cb5217e	0.022110697
78	0xbd3e7546	-0.04649856
79	0xbbdfb2ac	-0.0068267193
80	0xbdae4821	-0.08509851
81	0x3c130214	0.008972663
82	0x3c50b0f0	0.012737498
83	0x3db2ac32	0.0872425
84	0x3ddf8152	0.10913338
85	0x3d8d135f	0.0688846
86	0xbc1ee236	-0.009697488
87	0x3ddeaf5d	0.10873292
88	0x3db579c6	0.08861117
89	0xba7409fc	-0.0009309349
90	0x3d38760f	0.045034464
91	0x3bc67567	0.006056476
92	0xbcb0e6a9	-0.021594362
93	0x3d4ea5f3	0.05045123
94	0xbcfd6ad1	-0.030934723
95	0x3d99b476	0.07505123
96	0xbd230d94	-0.03980787
97	0x3c7512df	0.0149581125
98	0xbc6daf03	-0.014507058
99	0x3dddd5db	0.10831805
100	0x3dad1be8	0.08452588
101	0xbd2e80d2	-0.04260332
102	0x3d9a2e6d	0.07528386
103	0x3dbf2019	0.09332294
104	0x3c3cab91	0.011515514
105	0x3d94363e	0.072369084
106	0x3db7e40a	0.08979042
107	0x3bbaa676	0.005696113
108	0xbd8c80fd	-0.0686054
109	0x3de558ce	0.11198579
110	0xbb81d51b	-0.0039621717
111	0x3d4cbf5a	0.049987175
112	0x3d933c88	0.0718928
113	0x3dd6e303	0.10492518
114	0xbd482e1e	-0.048872106
115	0x3c20daed	0.009817821
116	0xbcb841d1	-0.022492321
117	0xbbcac2d1	-0.0061877747
118	0x3dd2249f	0.10260891
119	0x3dc7ab45	0.09749464
120	0x3d652b85	0.055949707
121	0x3d8bf9e0	0.06834769
122	0x3da313eb	0.079627834
123	0x3d3200a6	0.04345765
124	0xbb6722d1	-0.0035268555
125	0xbd16f7b0	-0.036857307
126	0x3d4581cc	0.048219487
127	0x3d6a08b7	0.057137217
128	0x3cca4b49	0.024694102
129	0xbd89243a	-0.06696363
130	0x3da15d6b	0.07879146
131	0x3c93a418	0.018022582
132	0xbd37c4b1	-0.044865314
133	0x3d1a9fe4	0.03775014
134	0xbd1d1753	-0.03835232
135	0x3d241822	0.040062077
136	0x3dafc893	0.08583178
137	0xbd91210f	-0.070863836
138	0xbd9384cb	-0.072030626
139	0xbd3f79b3	-0.04674692
140	0xbd4b3457	-0.049610462
141	0xbca569af	-0.020191995
142	0x3c5d99fc	0.013525482
143	0x3c44e7f4	0.012018193
144	0x3d7da5fa	0.061925866
145	0x3d84309d	0.06454585
146	0x3b92c5e1	0.0044791554
147	0x3c9935b5	0.018702367
148	0x3d98b3c9	0.07456166
149	0xbb3866b0	-0.0028137378
150	0xbdb62e86	-0.088955924
151	0xbd941d67	-0.072321706
152	0x3ceda2a7	0.029008223
153	0x3d9db3bb	0.077002965
154	0xbd7cc155	-0.061707813
155	0xbd6e1150	-0.05812198
156	0xbdb8be02	-0.09020616
157	0xbae61788	-0.001755462
158	0xbdb26d1c	-0.08712217
159	0xbd6a5622	-0.05721105
160	0xbda6e835	-0.08149759
161	0xbca7f40b	-0.020502111
162	0xbdadc902	-0.08485605
163	0x3db05c35	0.08611337
164	0x3d9bdcad	0.0761045
165	0xbb9a4f23	-0.004709141
166	0x3b82d29c	0.0039923918
167	0x3b89c8f6	0.0042048646
168	0x3d47ef44	0.048812166
169	0xbd258c6e	-0.040417127
170	0xbd1c4a79	-0.03815696
171	0x3d8d5cdb	0.069024764
172	0xbd8b5710	-0.06803715
173	0x3d395910	0.045250952
174	0x3cb6c16c	0.022309028
175	0xbd9f301b	-0.07772847
176	0xbd4c5292	-0.049883433
177	0xbdb190c2	-0.086701885
178	0x3ca52137	0.02015744
179	0x3da8a43b	0.082344495
180	0x3da19743	0.07890179
181	0x3d5d6112	0.05404765
182	0x3d94872f	0.07252347
183	0x3d675759	0.056479786
184	0x3d4ca8fa	0.049965836
185	0xbdac4726	-0.08412008
186	0x3d5f1d3e	0.054471247
187	0x3c6c4a08	0.014421947
188	0xbd14c51f	-0.0363208
189	0x3d48cae2	0.04902161
190	0xbc5dda64	-0.013540838
191	0x3d3dbf68	0.046325117
192	0xbd963f69	-0.07336313
193	0x3c4a4964	0.012346599
194	0x3d2dd306	0.042437576
195	0xbd357368	-0.044299513
196	0xbdb0200a	-0.08599861
197	0xbd7b228c	-0.061312243
198	0xbbbd9b5c	-0.0057863425
199	0xbc8d43c5	-0.01724423
200	0x3d93649d	0.07196925
201	0xbda88731	-0.08228911
202	0x3d8da7bf	0.06916761
203	0x3d1e75a2	0.038686402
204	0xbbc1024c	-0.0058901664
205	0xbd4eb912	-0.050469466
206	0xbd06e9ab	-0.032937687
207	0xbd9373e3	-0.07199838
208	0x3c64a21c	0.0139546655
209	0xbb358f90	-0.0027703978
210	0xbd14c6f1	-0.036322538
211	0xbcb5a959	-0.022175478
212	0x3da3a06b	0.07989582
213	0xbd4599d2	-0.048242398
214	0xbccdfa8a	-0.02514388
215	0x3d10b8ed	0.03533261
216	0x3cbf82ec	0.023377858
217	0x3ac9960d	0.0015379802
218	0xbda447d7	-0.08021515
219	0xbdbef042	-0.09323169
220	0xbcce4a80	-0.025182009
221	0xbd01f7db	-0.031730514
222	0x3cf25668	0.029582217
223	0x3d7127ba	0.058875777
224	0xbc877837	-0.016536815
225	0x3da5a68d	0.08088408
226	0xbd31526f	-0.043291505
227	0xbd89d2ff	-0.067296974
228	0x3d90a2e9	0.07062323
229	0x3bfce88c	0.0077181514
230	0x3d9e5f49	0.07733018
231	0xbcf9e750	-0.030505806
232	0xbcacf2a2	-0.02111179
233	0x3d3be896	0.045876108
234	0xbc4420b4	-0.011970688
235	0xba8bbaa7	-0.0010660485
236	0xbd0d25f3	-0.03446002
237	0x3d949538	0.07255024
238	0x3d5b5e71	0.053556863
239	0xbd9a78bd	-0.0754256
240	0x3cf2e58f	0.029650478
241	0xbd8f915a	-0.070101455
242	0xbcf510de	-0.02991527
243	0xbd46b706	-0.04851439
244	0x3d2daafd	0.042399395
245	0xbc327640	-0.010892451
246	0xbda06836	-0.07832377
247	0x3d6c4046	0.057678483
248	0xbd3d15db	-0.04616342
249	0x3d326fde	0.043563716
250	0xbdb10417	-0.08643358
251	0x3d0dec83	0.034649383
252	0x3d54d010	0.051956236
253	0xbcbee038	-0.023300275
254	0x3da2ec72	0.079552546
255	0xbc1b7060	-0.0094872415

layer_3.bias f4 [64]
0	0xbd49c848	-0.04926327
1	0xbc9e637b	-0.019334545
2	0xbc887378	-0.016656622
3	0xbd1a10a7	-0.037613537
4	0xbc4ab728	-0.012372769
5	0x3d5526c3	0.05203892
6	0xbc799f44	-0.015235726
7	0xbb8ac966	-0.0042354343
8	0xbc6abf9e	-0.014327912
9	0x3dcb6687	0.09931665
10	0xbb862ab0	-0.004094444
11	0x3c7836ff	0.015149831
12	0xbd9fa20d	-0.077945806
13	0xbcceac90	-0.025228769
14	0x3c9015a2	0.01758844
15	0x3d41ef37	0.047347274
16	0xbd80472c	-0.06263575
17	0xbce58ac4	-0.02802027
18	0x3d3dc89f	0.046333905
19	0xbd12e280	-0.03586054
20	0x3d77a4ae	0.060459785
21	0x3d8aea35	0.06782953
22	0x3d9a1653	0.07523789
23	0x3d12fc88	0.035885364
24	0xbd805698	-0.062665164
25	0xbd564b42	-0.052317865
26	0xbd076edd	-0.03306471
27	0xbce3c57a	-0.027804125
28	0xbd34b7c8	-0.04412058
29	0x3d017e7d	0.03161477
30	0x3d7fbc76	0.06243559
31	0xbd884e2f	-0.06655537
32	0xbd869648	-0.065716326
33	0x3d3590cb	0.04432754
34	0x3ba0d1ab	0.004907807
35	0xbd0e449e	-0.034733407
36	0x3d8b958e	0.06815635
37	0xbd1b2188	-0.037873775
38	0xbbd9ecf8	-0.0066505633
39	0x3b72a540	0.0037024766
40	0x3c186ed8	0.009303771
41	0x3db6e768	0.08930856
42	0x3d86ad24	0.06575993
43	0x3d052e26	0.032514714
44	0x3b53f028	0.003233919
45	0x3dc57c42	0.09642841
46	0xbb99d0dc	-0.0046940874
47	0xbc6f0390	-0.014588252
48	0xbd4501be	-0.048097365
49	0xbcb61d30	-0.022230715
50	0x3c7f0d5d	0.015567151
51	0xbcf87d46	-0.030333173
52	0x3cb50a02	0.022099499
53	0xbd2b228a	-0.041780986
54	0x3d829986	0.063769385
55	0xbbd85e66	-0.00660305
56	0xbdbfa148	-0.09356934
57	0xbc1e73a4	-0.009671126
58	0x3ce4e7da	0.027942587
59	0xbbf26d27	-0.007398266
60	0x3d7f156a	0.06227628
61	0x3c035ebc	0.008018192
62	0x3d465199	0.04841766
63	0xbbdb9b92	-0.006701895

layer_4.weight f4 [16, 64]
0	0xbd84c3ea	-0.0648268
1	0xbb9a2613	-0.004704246
2	0xbc763ea4	-0.015029583
3	0xbdbfb092	-0.0935985
4	0x3db7efce	0.08981286
5	0xba70e617	-0.00091895595
6	0x3dd20fcc	0.10256919
7	0x3d77c0ee	0.060486726
8	0xbc260373	-0.010132658
9	0xbdd3c3ae	-0.10340057
10	0xbcd6e7bb	-0.026233545
11	0xbd9077bc	-0.070540875
12	0xbcf5008c	-0.029907487
13	0xb8cf92d1	-9.897876e-05
14	0xbe0d6cfe	-0.13811108
15	0xbd94e6fa	-0.07270618
16	0x3d7da0e4	0.061921015
17	0xbde52478	-0.111885965
18	0xbbda222d	-0.006656906
19	0x3c6d5427	0.0144853955
20	0xbc9c264a	-0.019061226
21	0xbdd429ed	-0.10359559
22	0x3d45423f	0.04815888
23	0xbdfd393f	-0.123644345
24	0xbcac91dc	-0.021065645
25	0xbd549a3c	-0.0519049
26	0x3d8736ef	0.066022746
27	0x3dc11d6e	0.094294414
28	0xbdb417ec	-0.08793625
29	0xbe08b619	-0.13350715
30	0xbe01c065	-0.12671049
31	0xbdbc2e49	-0.09188516
32	0x3d5d5384	0.054034725
33	0x3c90c327	0.01767118
34	0x3cad8a82	0.02118421
35	0xbd02d4d0	-0.031941235
36	0xbd69c996	-0.057077013
37	0x3bbcdd0c	0.0057636555
38	0x3df46bee	0.119346485
39	0x3dde631e	0.10858749
40	0x3da5f20a	0.08102806
41	0xbd8c2415	-0.068428196
42	0x3d35c848	0.044380456
43	0xbdd8c129	-0.105837174
44	0x3c91bcd8	0.017790243
45	0xbc09a95a	-0.008402193
46	0x3d284f90	0.0410915
47	0x3d8af344	0.067846805
48	0xbd9a2f1c	-0.07528517
49	0xbc659245	-0.014011924
50	0xbd44ddfe	-0.04806327
51	0xbd981ec0	-0.0742774
52	0x3c3cf3aa	0.011532703
53	0xbdae33d6	-0.08505981
54	0xbb0c766b	-0.0021432887
55	0x3d702ab9	0.058634493
56	0x3b8ebf3c	0.004356293
57	0x3d3e4de4	0.046461
58	0x3d6a331c	0.057177648
59	0xbd347155	-0.044053394
60	0xbde2775a	-0.11057921
61	0xbcf7c4f8	-0.03024529
62	0xbd24e778	-0.04025981
63	0xbccb92c8	-0.024850264
64	0x3d851113	0.06497397
65	0xbda64443	-0.08118489
66	0xbd482708	-0.048865348
67	0xbda54e23	-0.08071544
68	0xbcccf8c2	-0.02502096
69	0xbb2a9645	-0.002602951
70	0xbd499f88	-0.049224406
71	0xbdd346e7	-0.10316258
72	0x3cb1c222	0.021699015
73	0x3d714af0	0.058909357
74	0xbdc429a9	-0.095782585
75	0xbdd5fd46	-0.10448699
76	0x3b26f05c	0.0025472855
77	0xbc2b66ba	-0.010461504
78	0xbce94de2	-0.02847952
79	0x3b6773c8	0.0035316814
80	0x3c920284	0.017823465
81	0x3d7b86fa	0.06140802
82	0xbde9e216	-0.114200756
83	0x3ce8d2e0	0.028420866
84	0x3c9810e4	0.018562742
85	0xbd5c23bd	-0.05374502
86	0xbb5f4aa4	-0.003407159
87	0x3acf3872	0.0015809669
88	0xbda74982	-0.081683174
89	0x3df1e77e	0.11811732
90	0xbc07ab03	-0.008280518
91	0xbcc3d62d	-0.023905838
92	0xbddd9e48	-0.108212054
93	0x3c982a0f	0.018574743
94	0xbd96efe0	-0.07369971
95	0xb9c977ac	-0.0003842687
96	0x3d31d520	0.043416142
97	0x3c9dad5a	0.0192477
98	0xbc1abd6a	-0.009444574
99	0x3dc1a9c7	0.094562106
100	0xbd826bd6	-0.06368224
101	0xbd77dd98	-0.060514063
102	0x3da71d4a	0.08159883
103	0x3d40d2bc	0.047075972
104	0xbdb73360	-0.08945346
105	0x3c8e8a9e	0.017400082
106	0x3d01f7ae	0.031730346
107	0x3da8dee6	0.082456395
108	0x3a4935ac	0.0007675539
109	0x3e0788fb	0.13235848
110	0x3dfda410	0.12384808
111	0xbdec12d2	-0.11527027
112	0xbc93b558	-0.018030807
113	0xbcacce2e	-0.021094408
114	0xbda439a4	-0.080188066
115	0x3dacab10	0.08431065
116	0x3d26c2ee	0.040713243
117	0xbdd59638	-0.104290426
118	0xbdc16c85	-0.094445266
119	0x3cbb7114	0.022881068
120	0xbda6d99f	-0.08146977
121	0x3dc2c86a	0.09510882
122	0x3a1b0916	0.00059141347
123	0xbd3441dd	-0.044008125
124	0x3dfe6327	0.124212556
125	0x3d281d74	0.041043714
126	0x3e013ab3	0.12620048
127	0x3c5a4da1	0.013324172
128	0x3dba7400	0.091041565
129	0x3c4754fc	0.012166258
130	0xbd15731c	-0.03648673
131	0xbcffe680	-0.03123784
132	0xbdb0ea16	-0.08638398
133	0xbdbd028e	-0.09229003
134	0x3bc0dbcc	0.005885577
135	0x3df687d8	0.12037629
136	0x3d47f3c2	0.04881645
137	0xbcbc5aa1	-0.022992434
138	0xbd4cbc10	-0.049984038
139	0x3de5c0e6	0.11218433
140	0xbd888eae	-0.06667839
141	0x3dd7b210	0.105320096
142	0x3d303ba2	0.04302562
143	0x3da54be7	0.08071118
144	0xbde1c560	-0.110239744
145	0x3e0f71fb	0.14008324
146	0xbdb96862	-0.090531126
147	0x3b8c307c	0.0042782407
148	0xbcbcd394	-0.023050107
149	0x3d0421d8	0.03225884
150	0x3e09ffb8	0.13476455
151	0xbdaca060	-0.084290266
152	0x3d7e2188	0.062043697
153	0x3d1afa40	0.037836313
154	0xbc8a06ac	-0.016848885
155	0x3dcbdb39	0.09953923
156	0x3d9ea92e	0.07747112
157	0xbd60cfa9	-0.05488554
158	0x3d6d6672	0.057959028
159	0xbb6ca040	-0.0036106259
160	0x3d9f529a	0.07779427
161	0xbda24c98	-0.07924765
162	0x3d9f4e42	0.07778598
163	0x3dd9f5e7	0.10642605
164	0x3dc5441c	0.096321315
165	0xbdaa64fc	-0.083200425
166	0x3d19f264	0.037584677
167	0xbd98e43e	-0.07465409
168	0x3d585d9c	0.052823648
169	0x3d8bdadc	0.068288535
170	0xbc470c6c	-0.012148958
171	0xbcb94850	-0.02261749
172	0x3dc332f4	0.09531203
173	0xbd1aba41	-0.03777528
174	0x3cbad8a8	0.022808388
175	0xbdbfb252	-0.09360184
176	0xbc99bf98	-0.018768117
177	0x3d872f46	0.066008136
178	0xbdf909b4	-0.12160054
179	0x3d907e56	0.07055347
180	0xbc0635bc	-0.008191522
181	0x3c8fec60	0.017568767
182	0xbc50c128	-0.012741365
183	0x3e190137	0.1494187
184	0x3d5445ac	0.051824257
185	0x3c43f062	0.011959167
186	0x3d8c617e	0.06854533
187	0x3dff04ac	0.12452063
188	0xbd0337e1	-0.032035712
189	0xbc876414	-0.016527213
190	0xbd7505aa	-0.059819855
191	0xbc0cfd85	-0.008605366
192	0xbdb6ce3b	-0.08926054
193	0x3d92fa38	0.07176632
194	0x3cbc07b2	0.022952888
195	0xbd5b34f1	-0.053517286
196	0xbd4efa3c	-0.05053161
197	0x3d8723a8	0.06598598
198	0x3de73b84	0.112906486
199	0x3de5082a	0.11183198
200	0x3d26e814	0.04074867
201	0x3da597d9	0.08085603
202	0xbcbcf1cc	-0.023064516
203	0x3cfbc204	0.030732162
204	0xbdc8f867	-0.09813004
205	0xbcdea53c	-0.0271784
206	0x3d8e14f5	0.06937591
207	0x3d67a002	0.05654908
208	0x3dd256f7	0.102704935
209	0x3cb08e63	0.02155227
210	0xbdd11c26	-0.10210447
211	0x3cad1106	0.021126281
212	0xbd9819db	-0.074268065
213	0xbdb7e83a	-0.089798406
214	0xbdbdde82	-0.092709556
215	0x3dd5385c	0.1041114
216	0xbd3d5e80	-0.0462327
217	0x3df40b5c	0.11916229
218	0xbd88e5fe	-0.066844925
219	0x3de164a1	0.110055216
220	0x3d5101c0	0.05102706
221	0x3d95f979	0.07322974
222	0x3d326e49	0.043562207
223	0x3dd6adfa	0.10482402
224	0xbdf8c654	-0.12147203
225	0xbcd941e8	-0.026520684
226	0x3d2ab848	0.04167965
227	0x3d98ada3	0.074549936
228	0xbd87ed88	-0.06637102
229	0xbd985ede	-0.074399695
230	0x3c4a334c	0.012341332
231	0xbcb7fa00	-0.022458076
232	0x3dce9322	0.10086657
233	0x3c591334	0.013249207
234	0x3c05dd9c	0.008170512
235	0xbdafb179	-0.08578772
236	0xbc56c5a8	-0.013108648
237	0xbd68e697	-0.056860533
238	0xbc96ca5d	-0.018407041
239	0xbd277ed8	-0.040892452
240	0x3d2452d8	0.04011807
241	0xbd4c0210	-0.049806654
242	0xbddf3e52	-0.109005585
243	0xbcfde8e4	-0.03099484
244	0xbd930c50	-0.07180083
245	0xb9eb2dc0	-0.0004485678
246	0xbd9962e5	-0.07489566
247	0x3dc2f3c8	0.09519154
248	0x3b7cdcc2	0.003858373
249	0x3b72216d	0.0036946193
250	0x3d55a31a	0.0521575
251	0xbdafcfe0	-0.08584571
252	0xbd85e73a	-0.065382436
253	0xbc4d7f18	-0.012542509
254	0xbd791ae1	-0.06081665
255	0xbcf36ad5	-0.029714027

layer_4.bias f4 [16]
0	0x3d9ac361	0.07556797
1	0x3dfd4072	0.123658076
2	0xbd8e5943	-0.06950619
3	0xbd888be4	-0.06667307
4	0x3d5c2ee8	0.05375567
5	0x3e238803	0.15969853
6	0x3c40e0db	0.01177236
7	0x3d8b184a	0.06791742
8	0x3d895ade	0.06706785
9	0xbdc91690	-0.098187566
10	0x3df2c3cf	0.11853754
11	0x3e0b5a23	0.13608603
12	0xbe0180aa	-0.12646738
13	0x3dbd8ad6	0.092549965
14	0xbd199d57	-0.037503567
15	0x3d5d2ecc	0.053999707

layer_5.weight f4 [120, 16]
0	0x3e19a6fa	0.15005103
1	0x3e12e1e9	0.1434399
2	0x3caf67a3	0.021411723
3	0xbe13cff1	-0.14434792
4	0x3e6672d6	0.22504744
5	0xbd877f14	-0.06616035
6	0xbe325002	-0.17413333
7	0xbe2923f2	-0.16517618
8	0xbd030994	-0.031991556
9	0x3dd5cce0	0.104394674
10	0xbd29a5ea	-0.041417994
11	0x3e392e15	0.18083985
12	0x3bcd2d13	0.006261477
13	0x3d8b4360	0.0679996
14	0x3e2ce0e0	0.16882658
15	0xbe22abfb	-0.15885918
16	0xbe2ade03	-0.16686253
17	0xbdab80bc	-0.083741635
18	0xbe52acfc	-0.20573801
19	0x3df69c0f	0.120414846
20	0xbca0d929	-0.0196348
21	0xbb84222b	-0.0040323935
22	0x3e675fe9	0.2259518
23	0x3e7e99bc	0.24863333
24	0x3e38e75c	0.18057007
25	0xbdc1c4e3	-0.09461381
26	0x3e6466e5	0.22304876
27	0x3d8f6e81	0.07003499
28	0xbdf8a98f	-0.12141716
29	0xbe109840	-0.14120579
30	0xbc589225	-0.013218437
31	0x3e50c26a	0.20386663
32	0x3e18a4af	0.14906572
33	0xbda68a5b	-0.08131858
34	0x3d117ec3	0.03552128
35	0x3e0fc46a	0.1403977
36	0x3c0939f6	0.008375635
37	0xbdd09b60	-0.101858854
38	0xbe2301b7	-0.15918623
39	0x3cd4918b	0.025948307
40	0xbe388099	-0.18017806
41	0xbd439c83	-0.047756683
42	0x3d56f321	0.05247796
43	0x3e54b4b0	0.20772052
44	0x3e068d54	0.1313985
45	0xbd03981f	-0.032127496
46	0xbe491b6f	-0.19639371
47	0x3e85459d	0.26029673
48	0x3da5af6f	0.08090102
49	0xbd9caf41	-0.076506145
50	0xbe8b8fc1	-0.27258113
51	0x3caf5c4f	0.02140632
52	0x3dcfa11d	0.10138152
53	0x3daa0399	0.083014674
54	0x3d0858d0	0.033287823
55	0x3c17d28c	0.009266507
56	0xbe0b8687	-0.13625537
57	0x3de1fc7f	0.11034488
58	0x3e19f6f7	0.15035616
59	0xbd5cbb55	-0.05388959
60	0xbe6bfeba	-0.23046389
61	0x3d093a4a	0.033502854
62	0xbd9c7c4d	-0.07640896
63	0x3e1f42b7	0.15552793
64	0x3def902e	0.11697422
65	0x3dbc6376	0.09198658
66	0xbd9a8a00	-0.07545853
67	0xbe098d0c	-0.13432711
68	0xbdc6f7dd	-0.09715245
69	0x3e436c09	0.19084181
70	0xbe58ace3	-0.21159701
71	0xbe69da70	-0.22837234
72	0x3cefb180	0.029259443
73	0xbd82a352	-0.06378807
74	0x3cd01597	0.02540092
75	0x3c79da1d	0.015249756
76	0xbe539874	-0.20663625
77	0x3e27a8e0	0.16373014
78	0xbe311ae1	-0.1729541
79	0x3e89f859	0.26947287
80	0xbe301fa2	-0.17199567
81	0x3d41a537	0.0472767
82	0xbe7f2d29	-0.24919571
83	0xbe5351b6	-0.20636639
84	0xbda7931d	-0.081823565
85	0x3e2b5772	0.16732576
86	0x3bee3bb7	0.007270302
87	0x3d8f24e1	0.06989456
88	0xbe3ecbb8	-0.186324
89	0x3d9893f3	0.07450094
90	0xbd82201f	-0.06353783
91	0x3dde05dd	0.10840962
92	0xbe58294e	-0.21109506
93	0x3d52d3f3	0.05147166
94	0x3e05ed6b	0.13078849
95	0xbdbe4dad	-0.09292159
96	0x3e4d5753	0.20052843
97	0x3dd45f85	0.103697814
98	0x3e532593	0.20619802
99	0x3ea23768	0.31682897
100	0x3e8b624f	0.2722344
101	0x3e67dce8	0.22642863
102	0x3e26c85a	0.16287366
103	0x3e549fd2	0.20764092
104	0x3d211c24	0.039333478
105	0xbcd4ea2a	-0.025990564
106	0x3e81fd85	0.25388733
107	0x3db7baa6	0.08971147
108	0x3dcd5c9a	0.10027428
109	0x3e4b21bc	0.19837087
110	0xbe216569	-0.15761341
111	0xbd66069b	-0.056158643
112	0x3e2e2e08	0.17009747
113	0xbdf28a73	-0.11842813
114	0xbd06c4a2	-0.032902367
115	0xbe5c0124	-0.2148481
116	0x3d99bdc9	0.07506902
117	0x3d9095ca	0.0705982
118	0x3c1beea4	0.009517346
119	0x3e4e4c4d	0.20146294
120	0x3e523bdf	0.20530652
121	0xbe3c92c0	-0.18415356
122	0xbd3b53e2	-0.045734294
123	0xbe3251fc	-0.17414087
124	0x3d1a59e3	0.03768338
125	0x3e7a67a1	0.24453594
126	0x3e5f4b2c	0.2180602
127	0x3d7b66dd	0.061377395
128	0xbdec6ad1	-0.11543811
129	0x3d8209b1	0.06349505
130	0xbca71eee	-0.02040049
131	0xbe792503	-0.24330525
132	0xbd379eb3	-0.04482908
133	0x3c55fd1f	0.013060837
134	0x3e605164	0.21906048
135	0x3c9f6418	0.019456908
136	0x3d4fc976	0.050729237
137	0x3e6b863e	0.23000428
138	0x3cfb06bf	0.030642865
139	0x3c6294f5	0.013829459
140	0x3e740c76	0.23832878
141	0x3dabebd2	0.083945885
142	0x3dbbed7c	0.09176156
143	0x3d4e3414	0.050342634
144	0xbe23c9ce	-0.15994951
145	0x3d4903d9	0.049075935
146	0xbd80bab2	-0.06285609
147	0x3cc6c893	0.024265563
148	0x3e4659b6	0.1937016
149	0xbe05a58d	-0.13051434
150	0x3e5d12af	0.21589158
151	0xbe6f524f	-0.23371242
152	0xbe34c1dc	-0.17652076
153	0xbe1b9e4d	-0.15197106
154	0xbdf3191c	-0.118700236
155	0x3d0c654e	0.0342763
156	0x3e8086ec	0.25102937
157	0x3d8e1c40	0.06938982
158	0x3c243fa0	0.010024935
159	0xbd951ffd	-0.07281492
160	0x3e36552d	0.1780593
161	0xbdeaddc3	-0.11468079
162	0xbd5d4029	-0.054016266
163	0x3e2e2577	0.17006479
164	0x3e38959d	0.18025823
165	0xbb5db05a	-0.0033827038
166	0xbe5a9186	-0.21344575
167	0xbe29b63a	-0.1657342
168	0xbd9d58ad	-0.07682929
169	0x3db097d3	0.08622708
170	0x3e0a6d4c	0.13518256
171	0xbe098f3a	-0.13433543
172	0x3dbf9d2d	0.09356151
173	0xbda10fe3	-0.07864358
174	0x3ddc25fd	0.10749433
175	0x3e223933	0.15842132
176	0x3e4a269b	0.1974129
177	0xbe5aa6f7	-0.21352755
178	0xbc854eb5	-0.016272882
179	0xbd0c22db	-0.03421293
180	0xbe2a66ec	-0.16640824
181	0x3e5706e8	0.20998728
182	0x3d09b287	0.033617523
183	0xbdded4b7	-0.10880416
184	0xbd966b79	-0.073447175
185	0xbdc91b2d	-0.098196365
186	0xbd61f482	-0.05516482
187	0x3c07072a	0.008241454
188	0xbe5fc102	-0.2185097
189	0xbd97ced2	-0.07412495
190	0x3e23a549	0.1598102
191	0xbd550800	-0.052009583
192	0xbe3c55b1	-0.18392064
193	0xbc2a20ae	-0.010383768
194	0x3bbcf7dc	0.005766852
195	0xbdbed035	-0.09317056
196	0xbda58560	-0.0808208
197	0x3db0fac2	0.08641578
198	0xbe66f5af	-0.22554658
199	0x3e3879f2	0.18015268
200	0x3e4547f2	0.19265726
201	0xbd58bc7e	-0.052914135
202	0xbd41382b	-0.047172707
203	0x3d37f53b	0.044911604
204	0x3e506fb5	0.20355113
205	0xbe44c7c5	-0.19216831
206	0x3c750b22	0.014956268
207	0x3e57e710	0.21084237
208	0xbe58ff5d	-0.21191163
209	0xbe1f3d07	-0.15550624
210	0xbe9c9b63	-0.305873
211	0x3cef1e05	0.02918912
212	0x3e368b1b	0.17826502
213	0xbdcd19e9	-0.100147076
214	0x3daf10b5	0.085481085
215	0x3e2a8b59	0.1665472
216	0x3e49c1c9	0.1970283
217	0x3e55e9fc	0.20890039
218	0x3e0d4201	0.1379471
219	0x3cebcfd9	0.028785633
220	0x3d223b03	0.03960706
221	0x3d964b90	0.07338631
222	0x3e3f8e92	0.1870673
223	0xbe660296	-0.22461924
224	0x3e1c7197	0.15277706
225	0x3e656892	0.22403172
226	0xbdba5e81	-0.091000564
227	0xbdf150d0	-0.11782992
228	0x3db9c36d	0.09070478
229	0xbd065bd5	-0.03280242
230	0xbe383594	-0.17989188
231	0x3e434b29	0.1907164
232	0x3e4502ac	0.192393
233	0xbd95823a	-0.07300229
234	0xbe293c60	-0.16526937
235	0x3e1232fa	0.14277259
236	0xbcac33ed	-0.021020854
237	0xbe36c870	-0.17849898
238	0x3d8ae74b	0.06782397
239	0x3c50bc43	0.012740198
240	0x3cdee49c	0.027208619
241	0xbc739f9d	-0.014869598
242	0xbe972942	-0.29523665
243	0xbd7097de	-0.05873858
244	0xbbcb5758	-0.0062054805
245	0x3dc94beb	0.09828933
246	0xbc3a0b3b	-0.011355217
247	0xbe145fee	-0.1448972
248	0xbceb5d71	-0.02873108
249	0xbdd2c695	-0.10291783
250	0x3d610eca	0.054945745
251	0x3dbaa5f8	0.09113687
252	0xbbaf8bc1	-0.005357236
253	0xbe3850fa	-0.1799964
254	0x3d5414ff	0.051777836
255	0xbd58a063	-0.05288733

layer_5.bias f4 [120]
0	0x3de932a4	0.11386612
1	0xbe583456	-0.21113715
2	0x3d3696e7	0.044577505
3	0x3e3d37b6	0.18478283
4	0x3d7451d4	0.05964835
5	0x3d27bade	0.040949695
6	0x3e213267	0.15741883
7	0x3dee2ce4	0.11629656
8	0x3e1f006f	0.15527509
9	0xbd645d94	-0.055753306
10	0xbd0165bb	-0.03159116
11	0x3e0ff3aa	0.14057794
12	0x3d68c670	0.05682987
13	0xbdb61a31	-0.08891714
14	0x3bbfec95	0.00585706
15	0x3e1404a6	0.14454898
16	0x3d643098	0.055710405
17	0x3e955f0d	0.2917408
18	0xba648fd5	-0.00087189424
19	0x3dd20497	0.10254782
20	0xbe37ac09	-0.1793672
21	0xbd745bc9	-0.059657846
22	0x3e02cbbb	0.1277303
23	0x3d62df0b	0.05538849
24	0xbe00b1cb	-0.12567823
25	0x3de0bfe1	0.10974098
26	0xbe474e7d	-0.19463535
27	0x3e507448	0.20356858
28	0xb8f7e591	-0.00011820638
29	0xbd090612	-0.033453055
30	0x3e919079	0.28430536
31	0xbd0c4264	-0.034243003
32	0x3cdc670b	0.026904603
33	0x3e8ef5a6	0.2792179
34	0xbdcbc010	-0.099487424
35	0xbe15a31f	-0.14613007
36	0xbe5caa62	-0.21549371
37	0xbdad3c23	-0.08458736
38	0x3e9abda2	0.30222803
39	0x3e380902	0.17972186
40	0x3e4264eb	0.1898381
41	0x3e10de43	0.14147286
42	0xbb6513c2	-0.0034954404
43	0xbd1dcc0c	-0.038524672
44	0x3bb7f61e	0.0056140563
45	0x3e05293f	0.13004015
46	0x3e3f698e	0.1869261
47	0x3eded469	0.4352143
48	0xba8cf0e7	-0.0010752947
49	0x3d22e1e3	0.039766204
50	0xbda254d7	-0.07926338
51	0x3e549c5c	0.20762771
52	0x3dd39ec6	0.10333018
53	0xbd774716	-0.060370527
54	0x3cbe5cb4	0.023237564
55	0x3e2013a4	0.15632492
56	0xbceb5c24	-0.02873046
57	0xbd640774	-0.05567117
58	0xbde5a23a	-0.11212583
59	0x3df26874	0.11836329
60	0xbe566d94	-0.20940238
61	0x3e48a605	0.19594581
62	0xbd178152	-0.036988564
63	0x3e1481b7	0.14502607
64	0x3d3bc79d	0.045844663
65	0x3e64eb7c	0.22355455
66	0x3d86a03d	0.06573532
67	0xbd62b006	-0.05534365
68	0x3ea53913	0.32270107
69	0xbdb743dc	-0.0894849
70	0x3d954021	0.07287622
71	0x3e34dc80	0.17662239
72	0x3e8bd030	0.27307272
73	0xbe211ba1	-0.15733196
74	0xbdc1994b	-0.094530664
75	0x3cd5ae5e	0.026084121
76	0xbdc37f60	-0.09545779
77	0xbcf3b851	-0.029750975
78	0x3cbe6e4e	0.023245957
79	0xbdfda155	-0.12384287
80	0xbe474765	-0.19460829
81	0x3d835780	0.06413174
82	0xbd81f82c	-0.06346163
83	0x3df38dd4	0.11892286
84	0x3e21e765	0.15810926
85	0x3e089657	0.133386
86	0xbde42cac	-0.11141333
87	0x3e04c2f3	0.12964992
88	0x3e58b703	0.21163563
89	0x3da413ea	0.08011611
90	0x3e66c181	0.22534753
91	0x3e8dad91	0.27671483
92	0xbd9ad140	-0.075594425
93	0x3d918175	0.0710477
94	0x3e34621b	0.1761555
95	0x3e4905fd	0.1963119
96	0xbd8edfff	-0.069763176
97	0x3e10f5d0	0.1415627
98	0xbe7b6beb	-0.24552886
99	0xbe02a6c0	-0.12758923
100	0xbe5944e0	-0.2121768
101	0x3d4f520b	0.05061535
102	0xbe6594b0	-0.22420001
103	0x3dbaefd6	0.09127776
104	0x3dcb14dd	0.09916089
105	0xbe2955d2	-0.16536644
106	0x3de288e5	0.11061267
107	0x397bfa66	0.00024030506
108	0xbdb307f3	-0.087417506
109	0x3e8ac568	0.27103734
110	0xbe01c609	-0.126732
111	0x3c8d952d	0.017283047
112	0x3b56c04d	0.0032768429
113	0xbe2e9030	-0.1704719
114	0xbd8ea404	-0.06964877
115	0x3e5ab5b4	0.21358377
116	0x3e8a42cd	0.2700409
117	0x3d46b6cf	0.048514184
118	0x3d91d440	0.071205616
119	0x3dd3b4c6	0.10337214
