src/pyoptes/optimization/budget_allocation/supervised_learning/trained_nn_states/wx_120_RNN_per_node.pth (torch, 206447 bytes, 18 tensors)

layer_1.weight_ih f4 [128, 120]
0	0x3f0b365c	0.5437982
1	0x3edd622e	0.43238968
2	0x3efe9052	0.49719483
3	0x3e6970ac	0.22796887
4	0x3f040765	0.51573783
5	0x3ef6c8f7	0.482002
6	0x3f16bdbe	0.58883274
7	0x3ef01bd1	0.46896222
8	0x3ee8e227	0.4548504
9	0x3ee710a4	0.45129883
10	0x3f08e551	0.5347491
11	0x3f133631	0.57504565
12	0x3f1b98c5	0.6077998
13	0x3f0f3fc7	0.5595669
14	0x3ed2c920	0.4116907
15	0x3f021bdf	0.5082378
16	0x3ed85481	0.4225197
17	0x3ed907e4	0.42388833
18	0x3e6819ae	0.22666046
19	0x3efbaf54	0.49157202
20	0x3eeaf0c1	0.45886806
21	0x3f028503	0.5098421
22	0x3e43e637	0.19130789
23	0x3ed005cb	0.4062942
24	0x3ef9c518	0.48783183
25	0x3f0efae7	0.55851597
26	0x3ed0b177	0.40760395
27	0x3ec12241	0.37721446
28	0x3ed2e2f5	0.4118878
29	0x3ef7b14d	0.48377457
30	0x3ed221ba	0.41041356
31	0x3f04f2f7	0.51933235
32	0x3ed31866	0.41229552
33	0x3f025dad	0.5092419
34	0x3ef8b313	0.48574123
35	0x3ef3128d	0.4747509
36	0x3f05da98	0.5228667
37	0x3f099269	0.5373903
38	0x3f091f73	0.5356361
39	0x3eb038b3	0.34418258
40	0x3edab7ba	0.42718297
41	0x3ecfb001	0.40563968
42	0x3f0de535	0.5542787
43	0x3ee89723	0.45427808
44	0x3ef31b56	0.47481793
45	0x3ed8ac94	0.42319167
46	0x3efa2107	0.48853323
47	0x3f087c22	0.5331441
48	0x3f1673e8	0.5877061
49	0x3ed961bc	0.42457378
50	0x3efac5ea	0.4897912
51	0x3f049865	0.51795036
52	0x3f0c66ca	0.54844344
53	0x3ef70dd0	0.48252726
54	0x3ef604c9	0.48050526
55	0x3ed6eef8	0.41979194
56	0x3ef727db	0.48272595
57	0x3edab0cc	0.4271301
58	0x3ed7a465	0.4211761
59	0x3f07d8e4	0.53065324
60	0x3f02ff62	0.51170933
61	0x3f1676c3	0.58774966
62	0x3f203956	0.6258749
63	0x3edde6cb	0.43340144
64	0x3efc9dcd	0.49339142
65	0x3f21e9f4	0.6324761
66	0x3eda6081	0.42651752
67	0x3ef96dd8	0.48716617
68	0x3f1d4c1f	0.61444277
69	0x3edbdddf	0.42942712
70	0x3f0ee7e6	0.558226
71	0x3ecfb1a7	0.40565225
72	0x3f03b597	0.5144896
73	0x3edc7fa4	0.43066132
74	0x3f056590	0.521081
75	0x3f27838d	0.65435106
76	0x3f06e636	0.52695024
77	0x3ecd01d3	0.40040454
78	0x3f0c5aa0	0.5482578
79	0x3f28d05b	0.65942925
80	0x3f2b9841	0.67029196
81	0x3edcf508	0.43155694
82	0x3eb6bc93	0.35690746
83	0x3e7c4489	0.24635519
84	0x3ed0e1b2	0.40797192
85	0x3eb7c310	0.35891008
86	0x3efadb2a	0.48995334
87	0x3eef56fb	0.46746048
88	0x3ea67803	0.32513437
89	0x3f05aeb5	0.52219707
90	0x3ee01373	0.4376484
91	0x3ed4ab5e	0.41536993
92	0x3f1b49b4	0.6065934
93	0x3eaf82aa	0.34279376
94	0x3f008316	0.5020002
95	0x3ee0d266	0.4391052
96	0x3ed4784b	0.41498026
97	0x3efaa5f9	0.48954752
98	0x3ef0f4c9	0.47061756
99	0x3eccd473	0.40005836
100	0x3ee31700	0.44353485
101	0x3ed2a34b	0.41140208
102	0x3eff1efe	0.49828333
103	0x3f038961	0.513815
104	0x3efe3fbd	0.49658003
105	0x3f07162b	0.527682
106	0x3eedb0a0	0.46423817
107	0x3ef4ee0e	0.4783787
108	0x3ef87ece	0.48534244
109	0x3f0acc40	0.5421791
110	0x3f0282c0	0.5098076
111	0x3ef0d070	0.47034025
112	0x3eb9db41	0.3630009
113	0x3e9f8189	0.31153515
114	0x3f0169e7	0.5055222
115	0x3ee9d9cf	0.45673987
116	0x3ed1cebd	0.4097804
117	0x3f1c9fa5	0.611811
118	0x3f0b351e	0.54377925
119	0x3f0ebe38	0.55759
120	0x3edc16a4	0.42986023
121	0x3f0e32c7	0.5554623
122	0x3ed31b55	0.4123179
123	0x3ea2f521	0.31827644
124	0x3f0d3f02	0.5517427
125	0x3f16871a	0.587999
126	0x3eebc33f	0.46047398
127	0x3efd4c66	0.4947235
128	0x3eefcaf1	0.4683452
129	0x3f1b5825	0.6068137
130	0x3ef5ab74	0.4798237
131	0x3efc1b17	0.49239418
132	0x3f1fd6f1	0.6243735
133	0x3f04f5f9	0.51937824
134	0x3ead8cbc	0.33896434
135	0x3f0eadc5	0.557339
136	0x3eb1f39a	0.34756166
137	0x3ef8b0cf	0.48572394
138	0x3e219796	0.15780482
139	0x3f10dc07	0.56585735
140	0x3ee87dc1	0.45408443
141	0x3ee47cdd	0.44626513
142	0x3e90101b	0.28137287
143	0x3ec7d5bf	0.39030263
144	0x3edd665c	0.43242157
145	0x3f14da87	0.58145946
146	0x3ef2698e	0.47346157
147	0x3ed4cdeb	0.41563353
148	0x3f0c921d	0.5491045
149	0x3f04a0e8	0.51808023
150	0x3ee03311	0.4378896
151	0x3f060dc1	0.52364737
152	0x3f0c604b	0.5483443
153	0x3ecfdf96	0.4060027
154	0x3efdd542	0.49576765
155	0x3eea7e35	0.45799413
156	0x3eefd9f1	0.46845964
157	0x3f14a2a7	0.5806069
158	0x3ef42e1d	0.47691432
159	0x3eebd58d	0.46061364
160	0x3ea669d3	0.32502612
161	0x3f0326a4	0.51230836
162	0x3f22855a	0.6348473
163	0x3f036d1f	0.5133838
164	0x3f0c129b	0.5471589
165	0x3effe7d5	0.4998156
166	0x3f0aa26b	0.5415408
167	0x3ef232f6	0.47304505
168	0x3ed9e23a	0.4255541
169	0x3eb585ab	0.35453543
170	0x3f24590f	0.6419839
171	0x3ef2004f	0.4726586
172	0x3eed029c	0.46291053
173	0x3ef6430d	0.4809803
174	0x3ef67b41	0.4814091
175	0x3e98ec2d	0.29867688
176	0x3efa46fa	0.48882276
177	0x3e9cbdc9	0.30613545
178	0x3f0a408d	0.54004747
179	0x3f0eff74	0.5585854
180	0x3f00a07f	0.502449
181	0x3ef62b17	0.4807975
182	0x3f0737c2	0.52819455
183	0x3ecc2ec8	0.3987944
184	0x3f073317	0.5281233
185	0x3f1d2dbf	0.6139793
186	0x3f14e12a	0.58156073
187	0x3efc861b	0.49321064
188	0x3efb89f3	0.49128684
189	0x3ef80f60	0.4844923
190	0x3f1ad08d	0.60474473
191	0x3f10f788	0.566277
192	0x3f0bd3c0	0.5461998
193	0x3f18bc8d	0.59662706
194	0x3f03203c	0.5122106
195	0x3f055685	0.52085143
196	0x3efa450f	0.48880813
197	0x3ef00c5e	0.46884435
198	0x3efc7105	0.49304977
199	0x3f125dd1	0.571744
200	0x3f087b97	0.53313583
201	0x3ecb9144	0.39759266
202	0x3ee5e9b8	0.44904876
203	0x3ea534a0	0.32266712
204	0x3efdbf9f	0.49560258
205	0x3f056b9e	0.52117336
206	0x3edaf00f	0.42761275
207	0x3f2108aa	0.62903845
208	0x3ed305a0	0.4121523
209	0x3f26ad6d	0.65108377
210	0x3ef68a5a	0.4815243
211	0x3ed125ec	0.40849245
212	0x3efb4f54	0.4908396
213	0x3edf0e3b	0.43565544
214	0x3ed7fbb7	0.4218423
215	0x3ee00456	0.43753308
216	0x3f072dfb	0.52804536
217	0x3ede4ae2	0.43416506
218	0x3f1fb16f	0.6238012
219	0x3eca6c07	0.39535543
220	0x3f06b79a	0.52623904
221	0x3f07ce03	0.53048724
222	0x3ef3c385	0.47610107
223	0x3f0b04ab	0.54304
224	0x3f2726f7	0.6529383
225	0x3f240f03	0.64085406
226	0x3ef803b6	0.4844033
227	0x3f0d0186	0.5508045
228	0x3f1fb59c	0.6238649
229	0x3eddef4e	0.43346637
230	0x3ed07a1f	0.4071817
231	0x3eedb5e7	0.46427843
232	0x3ebbb91d	0.36664668
233	0x3ea60a8e	0.32429928
234	0x3ed80bc3	0.42196473
235	0x3ef4ebff	0.478363
236	0x3ed594b5	0.41715017
237	0x3ef8a78b	0.48565325
238	0x3f02cb36	0.51091325
239	0x3f07234b	0.5278823
240	0x3f075b1d	0.528734
241	0x3f101dce	0.5629548
242	0x3f01d43c	0.5071447
243	0x3e9b4056	0.30322522
244	0x3f2b5652	0.6692859
245	0x3efa5bea	0.4889825
246	0x3f1c702e	0.6110867
247	0x3ef9aa3b	0.48762688
248	0x3ef86d3f	0.48520848
249	0x3f08d991	0.5345698
250	0x3f16ec9d	0.58954793
251	0x3f1b0984	0.60561395
252	0x3f175402	0.5911256
253	0x3f1a814d	0.6035355
254	0x3eeb4ed4	0.4595858
255	0x3f1bb580	0.6082382

layer_1.weight_hh f4 [128, 128]
0	0x3c9576e4	0.018245168
1	0x3cad4ac4	0.021153815
2	0xbba7bdf4	-0.0051190797
3	0xbd1dafa1	-0.03849757
4	0xbd951d94	-0.07281032
5	0xbd19d4ac	-0.037556335
6	0x3d4a70b2	0.04942388
7	0x3da6bd1d	0.08141539
8	0xbc47026c	-0.0121465735
9	0x3cde6fcc	0.027152918
10	0x3cc6db28	0.024274424
11	0x3c7ba3c4	0.015358869
12	0xbd9cd62d	-0.07658038
13	0xbd1d870f	-0.03845888
14	0xbc951f14	-0.018203296
15	0xbd7f7b23	-0.06237329
16	0x3d9ae927	0.075640015
17	0xbd92716e	-0.07150541
18	0x3d855737	0.065107755
19	0x3c0743fc	0.008255955
20	0xbd5314f6	-0.05153366
21	0x3cc47c00	0.023984909
22	0x3d48b6b2	0.049002357
23	0x3d4486e6	0.04798021
24	0xbd4e2b02	-0.050333984
25	0x3da7f2d7	0.08200615
26	0xbd35ad5b	-0.044354778
27	0xbd7b5110	-0.061356604
28	0xbd08c0a7	-0.033386853
29	0x3d901055	0.07034365
30	0x3d038478	0.032108754
31	0x3d89abbf	0.06722211
32	0xb70ae43c	-8.278581e-06
33	0xbb5a8764	-0.003334486
34	0xbc94066c	-0.018069468
35	0x3bdb5d04	0.006694438
36	0x3d73de96	0.059538446
37	0x3d87ab1b	0.06624433
38	0x3d9a2dc7	0.075282626
39	0x3c3be6a0	0.0114685595
40	0x3d8a46f7	0.06751817
41	0xbbcec3d8	-0.0063099675
42	0x3d39688a	0.04526571
43	0xbb6367a4	-0.0034699226
44	0x3b88a55c	0.004170103
45	0x3db44b7f	0.08803462
46	0x3d0035a4	0.031301156
47	0xbd9c6d8c	-0.07638082
48	0x3daa7e79	0.08324904
49	0x3d84b6bd	0.06480167
50	0x3cee57c0	0.029094577
51	0xbb29f134	-0.0025931122
52	0xbc83a878	-0.016071543
53	0xbd48b3d7	-0.048999634
54	0xbb4ae94c	-0.003096181
55	0x3d21e4e6	0.039524935
56	0x3d762b56	0.060099922
57	0xbb48b74c	-0.0030626832
58	0x3c9fa9ec	0.019490205
59	0xbb576628	-0.0032867286
60	0x3d3bf4d1	0.045887772
61	0x3c12d868	0.008962728
62	0xbd933195	-0.071871914
63	0xbdb22bf6	-0.08699791
64	0x3d4ce1ca	0.050020017
65	0x3db23d47	0.08703094
66	0x3d63a8ea	0.05558101
67	0x3d37c85e	0.04486882
68	0x3d2fae52	0.042890854
69	0xbda8a9d1	-0.08235515
70	0xbcf7e070	-0.030258387
71	0x3d89901d	0.067169406
72	0x3d920dbf	0.07131528
73	0x3cf18458	0.029482052
74	0xbc7c1af4	-0.0153872855
75	0x3d4ddb6a	0.050258078
76	0x3d83cf9d	0.064360835
77	0xbcae7aa4	-0.021298714
78	0x3d77a832	0.060463138
79	0xbd8a75f6	-0.067607805
80	0x3db4a7e9	0.08821089
81	0xbc7b2ba4	-0.015330229
82	0x3d6644c6	0.05621793
83	0xbd15f749	-0.036612783
84	0xbb60d344	-0.0034305612
85	0x3d987d69	0.07445795
86	0xbd672a77	-0.056436982
87	0x3c7a0d64	0.015261982
88	0x3d16ba12	0.036798544
89	0x3d471686	0.048605464
90	0x3d411a7a	0.04714439
91	0xbd9dc733	-0.0770401
92	0x3d3bfcb8	0.04589531
93	0xbd8b6dcc	-0.068080515
94	0xbce4009e	-0.027832326
95	0xbd204764	-0.039130583
96	0x3ce24fa0	0.027625859
97	0xbd43c893	-0.047798704
98	0xbdafc8e8	-0.08583242
99	0x3d57660e	0.05258756
100	0xbda0da34	-0.07854119
101	0x3d0151be	0.031572096
102	0x3d03387c	0.03203629
103	0x3cd23534	0.025660135
104	0x3d88d9d9	0.06682176
105	0x39ec4cc0	0.0004507061
106	0x3d9d9459	0.07694311
107	0xbd30fe4d	-0.04321127
108	0xbbb25460	-0.005442187
109	0x3d6494b2	0.05580587
110	0x3d61faee	0.055170946
111	0xbd952eb0	-0.072842956
112	0x3d2e5e02	0.04257012
113	0xba9b4a98	-0.0011847792
114	0x3c87b704	0.01656676
115	0x3d110662	0.035406478
116	0xbb5613c8	-0.00326656
117	0x3d74a62a	0.05972878
118	0x3d72fdd2	0.059324093
119	0x3d4f1062	0.050552733
120	0xbdae243d	-0.08503006
121	0x3d02dcd0	0.031948864
122	0x3d1889b2	0.03724069
123	0xbd8eb484	-0.069680244
124	0xbd0449d0	-0.032296956
125	0xbc47c234	-0.012192298
126	0xbd8a8c7a	-0.06765075
127	0xbc58ab50	-0.013224438
128	0x3d8d8efd	0.069120385
129	0x3ceb6890	0.028736383
130	0xbb9e8684	-0.004837813
131	0x3b4a946c	0.003091122
132	0x3da00173	0.078127764
133	0x3d251122	0.040299542
134	0xbd4f6715	-0.050635416
135	0x3bc619bc	0.0060455482
136	0x3ca6f36c	0.020379744
137	0x3daced70	0.08443725
138	0x3cb18100	0.021667957
139	0xbd3e714b	-0.046494763
140	0x3c9d4060	0.019195735
141	0x3b9d8bc8	0.004807923
142	0xbd8cb8ea	-0.06871207
143	0xbce60610	-0.028079063
144	0xbd94a88e	-0.07258712
145	0x3d10a21e	0.035310857
146	0xbd358d4b	-0.0443242
147	0x3da39e79	0.07989211
148	0xbd03b0bd	-0.032150973
149	0x3ce28a80	0.027653933
150	0x3c5fb1cc	0.01365323
151	0x3d972c8b	0.07381543
152	0x3d530dce	0.051526837
153	0xbd24f91e	-0.04027664
154	0xbba78fd4	-0.005113581
155	0xbb831e3c	-0.004001407
156	0xbd9fa037	-0.077942304
157	0x3c20343c	0.009778079
158	0xbd3ab8b9	-0.04558632
159	0xbd217348	-0.03941658
160	0xbd600487	-0.054691818
161	0xbd27cbfe	-0.040966026
162	0xbc4570fc	-0.012050863
163	0x3c87532c	0.016519152
164	0xbc4cf1c0	-0.01250881
165	0xbd004c9f	-0.03132307
166	0xbda4355c	-0.0801799
167	0x3da566c7	0.08076244
168	0xbc135c90	-0.008994237
169	0xbd39d2a6	-0.045366906
170	0x3d410cc2	0.047131307
171	0x3cd8ae60	0.026450336
172	0x3d8d5815	0.06901566
173	0x3d162632	0.03665752
174	0x3d6691a6	0.056291245
175	0xbd86cf62	-0.06582524
176	0xbda72012	-0.08160414
177	0x3d19c51e	0.0375415
178	0xbd44d3a3	-0.048053395
179	0x3da47bd9	0.080314346
180	0x3c012fdc	0.007884946
181	0xbcc1e3a8	-0.023668125
182	0xbda0ae60	-0.078457594
183	0xbd54426e	-0.051821165
184	0xbd7eb32c	-0.06218259
185	0x3d9c93ad	0.076453544
186	0x3d9b3093	0.07577624
187	0xbda2458c	-0.07923421
188	0xbd43e8a3	-0.04782928
189	0x3db3df2d	0.08782802
190	0x3d90e56b	0.07075008
191	0xb9d1c808	-0.0004001262
192	0xbd93aba4	-0.07210472
193	0xbd5c2722	-0.053748257
194	0x3d941599	0.07230682
195	0xba173118	-0.00057675084
196	0xbd5dcc9d	-0.054150213
197	0x3b57cd28	0.003292868
198	0x3d52b38a	0.051440753
199	0xbd9ee768	-0.07758981
200	0xbcee9d72	-0.02912781
201	0x3cc31578	0.023813948
202	0xbda34c32	-0.079735175
203	0x3d4a64aa	0.049412407
204	0xbdb44465	-0.08802108
205	0x3d3b49b2	0.04572458
206	0xbd51c99b	-0.051217657
207	0x3b8aabfc	0.004231928
208	0xbd6c66cf	-0.057715233
209	0xbcb90a90	-0.022588044
210	0x3d686642	0.056738146
211	0xbc8747cc	-0.016513728
212	0x3d7eed2e	0.06223791
213	0x3d8ff63d	0.07029388
214	0xbd44ff72	-0.048095174
215	0x3d0d12ea	0.034441866
216	0x3c0932e4	0.00837395
217	0x3d9aa69d	0.0755131
218	0x3cf849f0	0.030308694
219	0x3daf4d27	0.085596375
220	0xbda9681b	-0.0827181
221	0x3d9801dd	0.074222304
222	0xbd5808a6	-0.052742623
223	0xbda91da4	-0.082576066
224	0xbd680647	-0.05664661
225	0x3d9a60db	0.07538005
226	0xbd7b8bc9	-0.061412606
227	0x3d5fd556	0.054646812
228	0x3da2b86d	0.07945333
229	0xbd620cea	-0.055188097
230	0x3c49395c	0.012281742
231	0xbd655920	-0.0559932
232	0xbd53c557	-0.05170187
233	0x3d895b8f	0.067069165
234	0xbdb2b4cf	-0.08725893
235	0xbd93a8a3	-0.07209899
236	0xbcb09834	-0.021556951
237	0x3c9560d0	0.01823464
238	0x3ca5c56c	0.02023574
239	0xbd0ae0b5	-0.033905704
240	0x3ce5f974	0.02807305
241	0xbd9fa716	-0.07795541
242	0xbd800e6d	-0.062527515
243	0x3c1f55ac	0.009725016
244	0x3d856cb7	0.06514876
245	0x3ccdf860	0.025142848
246	0x3d258972	0.04041428
247	0x3d96ca05	0.07362751
248	0x3d86e471	0.065865405
249	0xbdadc51f	-0.084848635
250	0xbd280a65	-0.041025538
251	0xbd9c4ae0	-0.07631469
252	0xbd97f06d	-0.074189045
253	0x3d3d80a2	0.046265252
254	0x3c830818	0.01599507
255	0x3d48faa2	0.049067147

layer_1.bias_ih f4 [128]
0	0x3edd915d	0.43274966
1	0x3f171606	0.5901798
2	0x3ee4a6d3	0.44658527
3	0x3ecb7e25	0.39744678
4	0x3ef1f254	0.47255194
5	0x3edaffe2	0.42773348
6	0x3f181ab2	0.59415734
7	0x3f06c266	0.5264038
8	0x3ee2d09e	0.44299787
9	0x3ef01836	0.4689347
10	0x3eddb647	0.4330313
11	0x3f10e0e5	0.5659316
12	0x3f19ce25	0.60080177
13	0x3ede65c4	0.43437016
14	0x3ef63e92	0.48094612
15	0x3ee9a98c	0.45637167
16	0x3f15bf32	0.58494866
17	0x3eedde50	0.46458673
18	0x3f0e0d92	0.55489457
19	0x3f0abc32	0.54193413
20	0x3eda1bff	0.42599484
21	0x3f053218	0.5202956
22	0x3f054872	0.5206367
23	0x3ee31ecf	0.44359443
24	0x3ee2bddb	0.44285473
25	0x3efb72af	0.49110934
26	0x3f018fa9	0.50609833
27	0x3f0194ef	0.5061788
28	0x3f06cc14	0.5265515
29	0x3efe8b38	0.4971559
30	0x3f11465e	0.56747997
31	0x3ef3d197	0.47620842
32	0x3ee63814	0.4496466
33	0x3ec1f4ec	0.37882173
34	0x3f108ba1	0.56463057
35	0x3f10aaae	0.56510437
36	0x3f08d1a5	0.5344489
37	0x3f1a8435	0.6035798
38	0x3f10b008	0.565186
39	0x3f1194dd	0.5686777
40	0x3ec8a7de	0.39190573
41	0x3f18fda8	0.5976205
42	0x3f1ca571	0.61189944
43	0x3f006eaf	0.5016889
44	0x3ef9383b	0.48675713
45	0x3f0734a0	0.52814674
46	0x3f097894	0.5369961
47	0x3ef2c336	0.4741456
48	0x3ed8751b	0.42276844
49	0x3f0f119b	0.5588624
50	0x3f16ba66	0.5887817
51	0x3f135614	0.5755322
52	0x3f03d3d6	0.5149511
53	0x3f183e02	0.59469616
54	0x3f0f44e8	0.5596452
55	0x3f04339b	0.51641244
56	0x3f08de26	0.5346397
57	0x3f12ca43	0.57339877
58	0x3f0092f2	0.5022422
59	0x3f03afc9	0.514401
60	0x3f0896ca	0.53355086
61	0x3f0e631a	0.55619967
62	0x3eeeae5f	0.4661741
63	0x3f0dd7db	0.55407494
64	0x3f062f30	0.5241575
65	0x3f0c3f61	0.5478421
66	0x3f0f88be	0.56068027
67	0x3ee84f9b	0.45373234
68	0x3f141a90	0.5785303
69	0x3ede2a52	0.43391663
70	0x3ef0cf57	0.47033188
71	0x3f13127b	0.57450074
72	0x3f08f1a3	0.5349371
73	0x3f0548b6	0.52064073
74	0x3f1631c9	0.58669716
75	0x3f01e929	0.507464
76	0x3ef7121c	0.48256004
77	0x3f0dfdaa	0.55465186
78	0x3f13ccbb	0.5773427
79	0x3f096124	0.5366385
80	0x3f078537	0.52937645
81	0x3f00ed11	0.50361735
82	0x3f002e00	0.5007019
83	0x3f127f08	0.57225084
84	0x3ee7935f	0.45229623
85	0x3f02d49a	0.51105654
86	0x3f076e76	0.52902925
87	0x3f02ae9d	0.5104769
88	0x3ef0c327	0.4702389
89	0x3ee20ae7	0.44148943
90	0x3ef1a56f	0.47196528
91	0x3f04f5d2	0.5193759
92	0x3eecc0f6	0.46240968
93	0x3f0e896e	0.5567845
94	0x3ed78120	0.42090702
95	0x3ed7eca2	0.42172724
96	0x3efd3446	0.49453944
97	0x3ef6ab89	0.48177746
98	0x3f00d68f	0.5032739
99	0x3f174413	0.5908825
100	0x3f135cc2	0.5756341
101	0x3eee43b1	0.4653602
102	0x3f0589eb	0.5216357
103	0x3ef97cb4	0.48727953
104	0x3f043bd4	0.5165379
105	0x3eece278	0.46266532
106	0x3f167329	0.5876947
107	0x3f02d25b	0.51102227
108	0x3f0e750c	0.5564735
109	0x3f1504d8	0.58210516
110	0x3f0679ad	0.5252941
111	0x3eeb91ad	0.4600958
112	0x3f00f795	0.5037778
113	0x3ee3c6f5	0.4448773
114	0x3f193b5c	0.598562
115	0x3f150253	0.5820667
116	0x3ed37123	0.41297254
117	0x3efd1dc4	0.49436772
118	0x3f071a85	0.5277484
119	0x3f04f8c7	0.51942104
120	0x3f00b0be	0.5026969
121	0x3f0598a5	0.5218604
122	0x3f04d885	0.5189288
123	0x3f0fe3dc	0.5620706
124	0x3f0442d1	0.51664454
125	0x3edeef3a	0.4354189
126	0x3f0eafd8	0.55737066
127	0x3ede39aa	0.4340337

layer_1.bias_hh f4 [128]
0	0x3eff743d	0.4989337
1	0x3ef7ef1c	0.48424613
2	0x3ee3f496	0.44522542
3	0x3ee9b9f6	0.4564969
4	0x3ede3610	0.4340062
5	0x3ee7d659	0.45280722
6	0x3f0e092b	0.5548274
7	0x3ed2ec1d	0.41195765
8	0x3ed2f994	0.41206038
9	0x3edad486	0.42740268
10	0x3f09af2b	0.5378291
11	0x3eca3529	0.39493683
12	0x3ee5f91f	0.44916627
13	0x3ee571b1	0.44813302
14	0x3edea0bc	0.43482006
15	0x3f02f05f	0.5114803
16	0x3eed277c	0.46319187
17	0x3f0c0bf7	0.54705757
18	0x3eddc624	0.43315232
19	0x3eee978a	0.4659999
20	0x3f0a05ac	0.53914905
21	0x3f0c5c2d	0.5482815
22	0x3ed27e54	0.41112006
23	0x3ee622be	0.4494838
24	0x3f15e1bc	0.5854757
25	0x3f14e9de	0.58169353
26	0x3f0d7d49	0.55269295
27	0x3ed7f023	0.42175397
28	0x3f0d5065	0.552008
29	0x3f17f250	0.59354115
30	0x3ef29a93	0.47383556
31	0x3ef2a8b1	0.47394326
32	0x3ee13262	0.43983752
33	0x3ef53a03	0.47895822
34	0x3ef72b6b	0.48275313
35	0x3ef06a11	0.46955922
36	0x3ee58163	0.44825277
37	0x3f0ad26d	0.54227334
38	0x3f097c6a	0.53705466
39	0x3f070be1	0.527525
40	0x3f0bf82a	0.54675543
41	0x3f097ce2	0.5370618
42	0x3ef9d9eb	0.4879907
43	0x3ee437c4	0.44573796
44	0x3f09d87d	0.5384596
45	0x3eeef9a1	0.46674827
46	0x3f06340a	0.52423155
47	0x3eda3580	0.42618942
48	0x3f00c6c3	0.50303286
49	0x3f06e04a	0.5268599
50	0x3f000de4	0.50021195
51	0x3efec7e6	0.49761885
52	0x3f087e1e	0.5331744
53	0x3f003389	0.50078636
54	0x3eddcc37	0.43319866
55	0x3ed516bf	0.41618916
56	0x3f073519	0.52815396
57	0x3f0065bf	0.5015525
58	0x3f0c95be	0.5491599
59	0x3f0a084f	0.5391893
60	0x3f08ee30	0.53488445
61	0x3f1121ab	0.56692
62	0x3ec23efe	0.37938684
63	0x3efefad8	0.49800754
64	0x3f0b10fa	0.5432278
65	0x3f180f9a	0.59398806
66	0x3f0f1d83	0.55904406
67	0x3edfd02d	0.43713513
68	0x3f09bd69	0.5380464
69	0x3f0b134a	0.5432631
70	0x3edd7139	0.43250445
71	0x3ed22d17	0.41050026
72	0x3f041b9d	0.51604635
73	0x3f156173	0.5835182
74	0x3f07a911	0.5299235
75	0x3ef10295	0.47072282
76	0x3f065a94	0.5248196
77	0x3f111098	0.56665945
78	0x3f16ebc0	0.58953476
79	0x3eeaf6bc	0.45891368
80	0x3f1505c2	0.5821191
81	0x3ee527b3	0.4475685
82	0x3ef2b0e1	0.47400573
83	0x3f0f1439	0.5589023
84	0x3f0efa15	0.55850345
85	0x3f141ade	0.57853496
86	0x3ed0489a	0.4068039
87	0x3f0545e4	0.5205977
88	0x3ee6d421	0.45083717
89	0x3f0655cf	0.52474684
90	0x3f143298	0.578897
91	0x3f1012cb	0.56278676
92	0x3f127849	0.5721479
93	0x3f031a53	0.5121204
94	0x3eda4ee6	0.4263832
95	0x3f061d26	0.52388227
96	0x3f1b564c	0.60678554
97	0x3ee5b722	0.44866282
98	0x3f0d8119	0.5527511
99	0x3f060ca5	0.52363044
100	0x3ee20f18	0.4415214
101	0x3ee7170a	0.45134765
102	0x3ecdee92	0.40221077
103	0x3eedc8a9	0.46442154
104	0x3efae15b	0.49000058
105	0x3f1a8643	0.6036112
106	0x3edd1eab	0.4318746
107	0x3f07e350	0.53081226
108	0x3f00fbca	0.503842
109	0x3f023500	0.5086212
110	0x3f1600f1	0.58595186
111	0x3f1274f5	0.5720971
112	0x3eee0bcb	0.46493372
113	0x3f02ca5d	0.5109003
114	0x3f19c5ca	0.6006743
115	0x3f065586	0.5247425
116	0x3ef0a65f	0.4700193
117	0x3f010659	0.5040031
118	0x3f17d4b4	0.59308934
119	0x3ef0794f	0.4696755
120	0x3f00410a	0.5009924
121	0x3ef1c6da	0.47222024
122	0x3efce5c2	0.4939404
123	0x3ee1e2dc	0.44118392
124	0x3ee032ec	0.4378885
125	0x3f0f85c2	0.56063473
126	0x3f07d517	0.53059524
127	0x3f0d8180	0.55275726

layer_2.weight_ih f4 [64, 128]
0	0x3f1c13da	0.6096779
1	0x3f1f0732	0.62120354
2	0x3f04dad2	0.51896393
3	0x3f1acb0e	0.60466087
4	0x3ed7f6ab	0.4218038
5	0x3ed923fe	0.42410272
6	0x3f09d95f	0.53847307
7	0x3ee1a302	0.44069678
8	0x3f13cbaa	0.5773264
9	0x3f0453ff	0.5169067
10	0x3eebe398	0.46072078
11	0x3eef33a2	0.4671908
12	0x3ee91af5	0.4552838
13	0x3f0d011b	0.5507981
14	0x3f0df651	0.55453974
15	0x3eda9f58	0.42699695
16	0x3eeaa515	0.45829073
17	0x3f1cafa7	0.61205524
18	0x3ee16166	0.44019622
19	0x3f0f2306	0.55912817
20	0x3f0cb68a	0.5496603
21	0x3effdf8b	0.49975237
22	0x3ee9889b	0.45612034
23	0x3f265d2d	0.64985925
24	0x3eca746f	0.39541957
25	0x3ecd6e5d	0.40123263
26	0x3ee9c3ec	0.4565729
27	0x3f02a81b	0.5103776
28	0x3ed07008	0.40710473
29	0x3f13dd11	0.57759196
30	0x3eeb716b	0.4598497
31	0x3edf14bc	0.43570507
32	0x3ed8e0fa	0.42359143
33	0x3f06524a	0.52469313
34	0x3ec8accb	0.3919433
35	0x3f12a8fb	0.57289094
36	0x3f0d2ae6	0.5514358
37	0x3ef88eef	0.4854655
38	0x3edb7efd	0.42870322
39	0x3ed1daff	0.40987393
40	0x3f088f36	0.5334352
41	0x3efbaf64	0.4915725
42	0x3f020991	0.5079585
43	0x3ef4c597	0.47807
44	0x3f1bde7f	0.6088638
45	0x3f0dc5f9	0.5538021
46	0x3f1ff72b	0.62486523
47	0x3eec0506	0.46097583
48	0x3f00cd71	0.5031348
49	0x3ef28d31	0.47373345
50	0x3f0a1f68	0.5395417
51	0x3ed12f6f	0.408565
52	0x3f149073	0.5803291
53	0x3ef20cf8	0.4727552
54	0x3f163dd4	0.5868809
55	0x3f1119f9	0.56680256
56	0x3ed3cf59	0.4136913
57	0x3f09acbf	0.53779215
58	0x3f171fe5	0.5903304
59	0x3f05127f	0.5198135
60	0x3f00ed0a	0.5036169
61	0x3f162aac	0.5865886
62	0x3f111483	0.56671923
63	0x3efe9917	0.49726173
64	0x3f0c082c	0.5469997
65	0x3f1b1942	0.60585415
66	0x3f1f2527	0.62166065
67	0x3f222d60	0.63350487
68	0x3ec8ae30	0.39195395
69	0x3f0c5761	0.5482083
70	0x3f1f3f0f	0.62205595
71	0x3ed598f9	0.4171827
72	0x3edb0512	0.42777306
73	0x3f00330e	0.50077903
74	0x3ee37565	0.44425502
75	0x3ec835b1	0.39103463
76	0x3f137e41	0.57614523
77	0x3f20e0d0	0.62843037
78	0x3f10649c	0.5640352
79	0x3ef926a9	0.48662308
80	0x3f1fc92d	0.62416345
81	0x3f189fe5	0.5961898
82	0x3ee4f038	0.44714522
83	0x3f0cc283	0.549843
84	0x3f2073d3	0.62676734
85	0x3f1eb48d	0.6199425
86	0x3f24fde7	0.64449924
87	0x3f0b1918	0.54335165
88	0x3f2757cc	0.6536834
89	0x3ef2f427	0.47451898
90	0x3ee3d79f	0.44500443
91	0x3edfc261	0.43702987
92	0x3f03db63	0.5150663
93	0x3eff9193	0.49915752
94	0x3f13788b	0.5760581
95	0x3f11d22a	0.5696131
96	0x3ee19a61	0.44063094
97	0x3eecf18f	0.46278045
98	0x3ef45f5d	0.47729006
99	0x3ee0e932	0.43927914
100	0x3ee92217	0.4553382
101	0x3f083a33	0.53213805
102	0x3f1e231b	0.61772317
103	0x3f02a434	0.51031804
104	0x3f1b4421	0.6065083
105	0x3efc43b9	0.49270418
106	0x3f01a9d3	0.50649756
107	0x3ef3d701	0.47624972
108	0x3f0867fe	0.5328368
109	0x3ef98fb7	0.48742458
110	0x3f1a7065	0.6032775
111	0x3ee774cf	0.45206305
112	0x3edd361c	0.43205345
113	0x3f2c48c4	0.6729853
114	0x3ef40c92	0.4766584
115	0x3f19e999	0.60122067
116	0x3f12cc98	0.57343435
117	0x3ef18b6e	0.4717669
118	0x3f171f88	0.5903249
119	0x3f0fcb71	0.561698
120	0x3f02bc7a	0.5106884
121	0x3f10b12e	0.56520355
122	0x3ee7514f	0.4517922
123	0x3f0bf0d9	0.5466438
124	0x3ed6d70c	0.41960943
125	0x3f00f3fc	0.5037229
126	0x3ef94095	0.48682085
127	0x3ef7e87b	0.48419556
128	0x3c5f4ee0	0.013629645
129	0xbdb7144c	-0.08939418
130	0xbd0b2008	-0.033966094
131	0x3d217eb2	0.039427467
132	0xbd105262	-0.035234816
133	0x3d9ad898	0.07560843
134	0x3d8d5414	0.06900802
135	0x3c7ecb62	0.01555142
136	0xbd2ef7ad	-0.04271667
137	0xbca6acd6	-0.020346086
138	0x3c90aeac	0.017661415
139	0xbc9baa0c	-0.019001983
140	0xbd86d922	-0.065843835
141	0xbda86283	-0.082219146
142	0x3c8f3acf	0.017484097
143	0xbd17ee17	-0.037092295
144	0x3dc6b6ad	0.097028114
145	0xbd91a18e	-0.07110892
146	0xbdb1d73d	-0.086836316
147	0xbcd12945	-0.025532374
148	0xbd7483b3	-0.05969591
149	0x3d6eff8d	0.05834918
150	0xbcf15952	-0.029461537
151	0x3dcc7244	0.09982732
152	0x3d73132b	0.059344452
153	0xbd8e4ab9	-0.06947846
154	0x3d6be716	0.057593428
155	0xbdfc927e	-0.12332629
156	0x3cd435ef	0.025904624
157	0xbdf46841	-0.11933947
158	0xbd924c8a	-0.07143505
159	0x3b4626fd	0.0030235641
160	0xbc73dfa5	-0.014884864
161	0xbd68e887	-0.05686238
162	0x3d5220d7	0.05130085
163	0xbdc892dc	-0.09793636
164	0xbd0cf0df	-0.0344094
165	0xbdb595e6	-0.088664815
166	0x3cb0b058	0.021568462
167	0x3dc1904d	0.09451351
168	0xbe002478	-0.12513912
169	0x3d494859	0.04914126
170	0xbd0c61d9	-0.034273002
171	0xbd40ae79	-0.04704139
172	0xbd4dde5e	-0.050260894
173	0x3dbcbbf7	0.09215539
174	0xbbf07151	-0.007337727
175	0xbc8589bb	-0.016301027
176	0xbd301b78	-0.042994946
177	0x3daaada5	0.08333901
178	0xbdd174e5	-0.10227374
179	0xbd531a0f	-0.051538523
180	0xbbdcf666	-0.00674324
181	0x3c5cfe9e	0.01348844
182	0x3d0aff2b	0.033934753
183	0xbddf5c2b	-0.109062515
184	0xbdfa4c03	-0.12221529
185	0x3d25db43	0.040492307
186	0xbda6784f	-0.08128416
187	0x3b8256cd	0.0039776326
188	0x3d0dcb0e	0.034617476
189	0xbd8ec401	-0.069709785
190	0xbd3080ff	-0.04309177
191	0xbd4e531f	-0.05037224
192	0x3d13f60d	0.036123324
193	0xbcb1d0f8	-0.02170609
194	0x3dc6d556	0.09708659
195	0xbe005c50	-0.12535214
196	0xbe192d7c	-0.14958757
197	0xbdddc338	-0.10828251
198	0x3d6d13c5	0.05788018
199	0x3d94989a	0.07255669
200	0x3bf3383b	0.0074224747
201	0xbd6284e7	-0.055302527
202	0x3cb7d6ba	0.022441257
203	0x3c865a2c	0.01640042
204	0xbdad7a7d	-0.084706284
205	0xbdd7cc7e	-0.10537051
206	0xbcdf2992	-0.027241502
207	0x3a302ed3	0.00067208445
208	0x3db5caf7	0.08876603
209	0xbc07c562	-0.008286806
210	0x3d6bba72	0.057550855
211	0xbe04461f	-0.12917374
212	0xbdc5a1fb	-0.09650036
213	0xbde05ca0	-0.10955167
214	0xbd5082af	-0.05090588
215	0xbde5e4c7	-0.112252764
216	0xbd86dc8e	-0.06585036
217	0x3ddc7b0d	0.107656576
218	0x3d455511	0.04817683
219	0x3dbc2d16	0.09188287
220	0x3b7c0806	0.003845693
221	0xbdcc331e	-0.09970687
222	0x3d75eea9	0.060042057
223	0xbd3a2869	-0.045448694
224	0x3cf08e7d	0.029364819
225	0xbbc0878a	-0.0058755325
226	0xbd7179a9	-0.058953915
227	0xbc5f35bf	-0.013623654
228	0x3c56222d	0.013069672
229	0x3d528ffb	0.05140684
230	0xbd7a1ae3	-0.061060797
231	0x3c1d1454	0.009587366
232	0xbc8c28e2	-0.017109338
233	0xbca205e5	-0.019778201
234	0xbd3a07e6	-0.04541769
235	0x3da2a24e	0.079411134
236	0x3dceac63	0.10091474
237	0x3dba47e3	0.090957426
238	0xbe0804cb	-0.13283078
239	0x3d51de7c	0.05123757
240	0x3c929b71	0.017896386
241	0xbdfac0a4	-0.122437745
242	0xbdfdef17	-0.123991184
243	0x3d4814fe	0.048848145
244	0x3daaf2e7	0.08347111
245	0x3c931594	0.017954625
246	0xbd525db1	-0.051358882
247	0x3b463954	0.0030246573
248	0x3d6ba87c	0.057533726
249	0x3d13715f	0.03599679
250	0x3d52693a	0.051369883
251	0x3c936e67	0.01799698
252	0x3daab590	0.083354115
253	0xbe16d679	-0.14730252
254	0x3dc42b87	0.09578615
255	0xbd49c96e	-0.049264364

layer_2.weight_hh f4 [64, 64]
0	0x3b4f4e88	0.0031632502
1	0x3d25dab8	0.04049179
2	0xbccd3398	-0.025049016
3	0xbd71ac54	-0.059002236
4	0xbdded4f4	-0.10880461
5	0x3b54b588	0.0032456834
6	0xbd69cd9c	-0.05708085
7	0x3d55f7d4	0.0522383
8	0xbcb0c4c8	-0.021578208
9	0xbc9f6e34	-0.019461729
10	0xbb893cfc	-0.004188178
11	0x3d4ec4a8	0.050480515
12	0xbd9e1d3e	-0.07720421
13	0xbdb35fe8	-0.08758527
14	0xbd17df54	-0.037078217
15	0x3bc09c8c	0.005878037
16	0xbdab54ce	-0.083657846
17	0x3c9b2060	0.018936336
18	0xbcee27e0	-0.029071748
19	0x3cb2e630	0.021838278
20	0xbdb63652	-0.088970795
21	0x3d4896c8	0.04897192
22	0x3df7ded0	0.12103045
23	0x3dfd7168	0.12375146
24	0x3d093ef8	0.033507317
25	0xbd8c906e	-0.06863485
26	0xbdb2ca1c	-0.087299556
27	0x3dbb7230	0.09152639
28	0xbd48e4b0	-0.04904622
29	0x3a9a3a18	0.0011766581
30	0x3d86d810	0.065841794
31	0xbd96f168	-0.07370263
32	0x397a5f1c	0.00023877289
33	0xbd915f0e	-0.07098208
34	0xbcfdc8ec	-0.030979596
35	0xbd76c3a0	-0.060245156
36	0xbcd6ac40	-0.026205182
37	0x3d42476c	0.047431394
38	0xbdd3d39e	-0.10343097
39	0x3da78aa0	0.081807375
40	0xbdf82645	-0.12116674
41	0x3d94d480	0.07267094
42	0xbda1b2c4	-0.07895425
43	0x3dc9d6f2	0.09855451
44	0xbd44f184	-0.04808189
45	0x3df4a490	0.1194545
46	0x3c991fa0	0.018691838
47	0xb988d43c	-0.00026098068
48	0xbdb05472	-0.08609857
49	0xbd71ec30	-0.059063137
50	0x3c147898	0.009061955
51	0xbdc81492	-0.097695485
52	0x3d9b02ce	0.07568894
53	0x3d9ee09a	0.07757683
54	0xbc9c6438	-0.019090757
55	0xbdd083b4	-0.101813704
56	0x3d820ff2	0.063506976
57	0xbd3b8c00	-0.04578781
58	0x3ca147b4	0.019687511
59	0x3de019f2	0.10942449
60	0xbda1f510	-0.0790807
61	0xbd1651ec	-0.03669922
62	0xbc1bbc98	-0.0095054135
63	0x3d8809e2	0.0664251
64	0xbdf00450	-0.117195725
65	0xbdaaaea0	-0.08334088
66	0x3dd6cbd2	0.104880944
67	0x3ddae1f6	0.1068763
68	0x3d2f6248	0.042818338
69	0x3dbd44c6	0.09241633
70	0x3d9d6ca4	0.07686737
71	0xbdb6615c	-0.089052886
72	0xbdbc5434	-0.09195748
73	0x3d01d7ec	0.03170006
74	0xbdca3d10	-0.09874928
75	0xbd6a1ca8	-0.057156235
76	0x3d74c3ec	0.05975716
77	0xbda89876	-0.082322046
78	0xbdd74e0c	-0.10512933
79	0x3d348f60	0.044082046
80	0x3d94cce8	0.07265645
81	0xbd32f768	-0.043692976
82	0x3d4a4f74	0.04939218
83	0x3b520d88	0.0032051522
84	0x3d4589f0	0.04822725
85	0x3c6b0790	0.014345065
86	0x3de450b8	0.111482084
87	0x3d976080	0.07391453
88	0xbc4e1fe8	-0.012580849
89	0x3d8fc4ce	0.070199594
90	0xbc5d8134	-0.013519574
91	0x3dbd8cc2	0.09255363
92	0x3d1106d4	0.035406902
93	0x3d9cc0b2	0.07653941
94	0x3d2b8204	0.04187204
95	0xbdbb9c00	-0.09160614
96	0xbdc1dfb6	-0.094664976
97	0x3c262f84	0.010143165
98	0xbdf5ad26	-0.11995916
99	0xbcfbef94	-0.030753888
100	0xbdc3eb8a	-0.0956641
101	0xbd91d1da	-0.07120104
102	0x3d414f64	0.047194853
103	0xbdfe9f8e	-0.124327764
104	0xbd75c7b8	-0.06000492
105	0xb9a5f2f4	-0.00031652267
106	0x3d480eec	0.048842356
107	0x3da2ec2e	0.07955204
108	0xbcc86a14	-0.024464644
109	0x3c57b738	0.013166241
110	0xbdd5360e	-0.10410701
111	0xbdf96d0c	-0.12179002
112	0x3dd8b522	0.10581423
113	0xbd487fb4	-0.048949912
114	0x3cc5f914	0.024166621
115	0xbd82093e	-0.06349419
116	0xbc5291c8	-0.01285214
117	0x3c68a2c4	0.014198963
118	0xbcaaca54	-0.02084843
119	0xbc998370	-0.018739432
120	0xbd163c54	-0.036678627
121	0x3da58162	0.080813184
122	0xba977798	-0.0011556027
123	0x3d558a9c	0.05213414
124	0x3d77e288	0.06051877
125	0x3caadd3c	0.020857446
126	0x3db4b1d4	0.088229805
127	0x3d57a678	0.05264899
128	0x3d50ab0c	0.050944373
129	0xbd8791a2	-0.06619574
130	0x3dc76c30	0.09737432
131	0xbd957dbc	-0.072993726
132	0xbb71d9c0	-0.003690347
133	0xbd813636	-0.06309168
134	0xbcff4aa4	-0.031163521
135	0x3d382220	0.04495442
136	0xbd8835d8	-0.06650895
137	0xbdbd444e	-0.09241544
138	0xbdcd7c4c	-0.10033473
139	0xbdf45724	-0.11930683
140	0xbd39415c	-0.045228347
141	0x3d162118	0.036652654
142	0x3db4133e	0.08792733
143	0xbd88c6c2	-0.06678535
144	0x3d7ed514	0.062214926
145	0xbd2e3a0c	-0.042535827
146	0xbd3fe8d0	-0.046852887
147	0xb938d050	-0.0001762521
148	0x3dbeb5cc	0.09312019
149	0x3af36f40	0.0018572584
150	0x3cdb4cac	0.026769958
151	0x3c6a60d0	0.014305308
152	0x3db4f97a	0.088366464
153	0xbd0c9ad4	-0.034327343
154	0xbdfad6f2	-0.12248029
155	0xbdf7c4ea	-0.12098105
156	0x3dfc51ea	0.12320311
157	0xbdf362b4	-0.118840605
158	0x3c07830c	0.00827099
159	0x3dd5a976	0.10432713
160	0x3df2d33c	0.11856696
161	0x3dd15ede	0.102231726
162	0xbdbe3166	-0.09286766
163	0x3be40d84	0.006959619
164	0xbd812e8c	-0.06307706
165	0x3d40a5a0	0.047032952
166	0xbd879b18	-0.06621379
167	0x3d526640	0.051367044
168	0xbdadf92e	-0.08494793
169	0x3d955532	0.0729164
170	0xbd80c562	-0.06287648
171	0x3d792370	0.06082481
172	0xbdb0b85c	-0.08628914
173	0xbdcfe64e	-0.10151349
174	0x3da5f41a	0.08103199
175	0xbd07a9f4	-0.033121064
176	0xbdc026e4	-0.09382418
177	0x3dac17ac	0.084029526
178	0xbd58e80c	-0.052955672
179	0x3d24aa4c	0.04020147
180	0xbd71f6f8	-0.05907342
181	0xbc8065b4	-0.015673496
182	0xbda162ec	-0.07880196
183	0xbc14c3c8	-0.009079881
184	0x3df501c4	0.119632274
185	0x3d6b5804	0.057456985
186	0xbd2cbb40	-0.042170763
187	0xbbc12b2c	-0.005895039
188	0xbdfb1c0c	-0.12261209
189	0xbdb2bf02	-0.08727838
190	0xbd783774	-0.06059976
191	0xbdbc96e0	-0.092084646
192	0xbdd84608	-0.105602324
193	0x3d6f6888	0.0584493
194	0x3c83898c	0.016056798
195	0xbd02d3dc	-0.031940326
196	0xbd484920	-0.048897862
197	0x3cc07c34	0.023496725
198	0xbc3fd1ac	-0.0117077045
199	0x3de2a682	0.11066915
200	0xbdbfa77a	-0.093581155
201	0x3c02ee6c	0.0079914145
202	0xbdccacde	-0.09993909
203	0x3da3b620	0.07993722
204	0xbda179c0	-0.0788455
205	0x3d76cf08	0.060256034
206	0xbc4c0d98	-0.012454413
207	0xbd550f8c	-0.05201678
208	0xbd80c06c	-0.062867016
209	0x3dd0c7f4	0.10194388
210	0xbdf808d0	-0.12111056
211	0xbd7cadec	-0.061689302
212	0xbdc08a40	-0.09401369
213	0xbd04b28c	-0.032396838
214	0x3dba7ca4	0.091058046
215	0xbdfeb8da	-0.124376014
216	0x393b0450	0.00017835316
217	0xbdfcebe4	-0.1234968
218	0xbcfb8514	-0.030703105
219	0x3df4cf36	0.11953585
220	0x3b2c02b4	0.0026246728
221	0xbd25cc2c	-0.040477917
222	0x3a8e2f3c	0.0010847817
223	0x3ba15434	0.004923368
224	0x3d9a226e	0.07526098
225	0xbd9bdc54	-0.07610384
226	0x3ac556ac	0.0015055737
227	0xbdac917c	-0.084261864
228	0xbd8a457c	-0.06751534
229	0xbd86d4f6	-0.06583588
230	0x3d80bf72	0.06286515
231	0xbd5bcd48	-0.05366257
232	0xbdedc48e	-0.116097555
233	0xbd8868ba	-0.066606
234	0x3d5c2974	0.05375047
235	0xbdddcaac	-0.10829672
236	0x3d5e01b8	0.054200858
237	0xbc1f7144	-0.0097315945
238	0xbd6ab3a4	-0.057300225
239	0xbafb7a1c	-0.0019186172
240	0xb940e5ac	-0.00018396106
241	0x3dbfa862	0.09358288
242	0x3c5ccfc4	0.01347727
243	0x3d550ca4	0.05201401
244	0xbd8bb4e2	-0.0682161
245	0x3d90aeb8	0.07064575
246	0x3d468ab0	0.048472106
247	0xbd14e264	-0.036348715
248	0xbcbf9e94	-0.023391046
249	0x3d283c1c	0.04107295
250	0x3dbacfb8	0.091216505
251	0xbd9e7864	-0.077378064
252	0xbd08a4b8	-0.033360213
253	0x3d494698	0.04913959
254	0x3d47821c	0.048708066
255	0x39e2e664	0.00043277733

layer_2.bias_ih f4 [64]
0	0x3e87b7e1	0.26507476
1	0x3d8e5b39	0.06950993
2	0x3ef706c5	0.48247352
3	0x3eaf761b	0.34269795
4	0xbdf2586e	-0.11833273
5	0x3e91d29a	0.2848099
6	0xbd3f015d	-0.04663216
7	0x3ed8d73e	0.42351717
8	0x3f05e8d4	0.5230839
9	0x3edcc8a8	0.4312184
10	0x3ec7dfe6	0.39038008
11	0xbc9a21d6	-0.018814962
12	0x3ea117de	0.31463522
13	0x3ee43db6	0.44578332
14	0xbe01b2c3	-0.12665848
15	0x3eca0d62	0.39463335
16	0x3ec94281	0.3930855
17	0xbd9d4e18	-0.07680911
18	0xba864b73	-0.0010245874
19	0x3ecb25f6	0.396774
20	0xbd090695	-0.033453543
21	0xbd817a56	-0.06322162
22	0x3dba3da4	0.09093788
23	0x3c3b893b	0.0114462925
24	0x3dbc705c	0.09201118
25	0x3dbbfbe8	0.09178907
26	0x3edd67f4	0.43243372
27	0x3dd99035	0.106232084
28	0x3db5d09a	0.08877678
29	0x3d91847d	0.07105348
30	0x3e99bf95	0.30028978
31	0x3ecf1702	0.4044724
32	0x3eac3651	0.3363519
33	0x3d51b893	0.051201414
34	0x3ec63c87	0.38718054
35	0x3ef51f10	0.4787526
36	0x3efee4a8	0.49783826
37	0x3e8f13f1	0.27944902
38	0x3ebfda59	0.37471274
39	0x3ec5d7bb	0.38641152
40	0xbe036ceb	-0.12834518
41	0xbae7dfab	-0.001769056
42	0xbc984ebf	-0.018592237
43	0xbdc384d5	-0.0954682
44	0x3eb2ddba	0.3493479
45	0x3be38446	0.0069432585
46	0x3eec58ef	0.461616
47	0x3ecd15f4	0.4005581
48	0x3edb33e7	0.42813036
49	0x3efd37e0	0.49456692
50	0x3f05ef7b	0.52318543
51	0x3eb8f574	0.36124766
52	0xbdbb5a5c	-0.09148094
53	0x3eca4473	0.39505348
54	0x3ee17196	0.44031972
55	0x3eb2c777	0.34917805
56	0x3eba034f	0.3633065
57	0x3f012a20	0.504549
58	0xbe0b43a9	-0.13600029
59	0x3ee06814	0.43829405
60	0x3f08b116	0.5339521
61	0x3d6849c7	0.056710985
62	0x3eb3955e	0.35074896
63	0x3eeece1b	0.4664162

layer_2.bias_hh f4 [64]
0	0x3ea93673	0.33049354
1	0xbd94b3d8	-0.07260865
2	0x3edb86d9	0.42876318
3	0x3e90f5f3	0.28312644
4	0xbd5354aa	-0.051594414
5	0x3e8c242b	0.27371344
6	0xbd42f97e	-0.047601216
7	0x3e7f2c84	0.24919325
8	0x3f015ea9	0.50535065
9	0x3ea2220f	0.3166661
10	0x3f08b83c	0.5340612
11	0x3d3d6acf	0.04624444
12	0x3e8ff92e	0.28119797
13	0x3ebffed3	0.37499103
14	0xbce8b27c	-0.02840542
15	0x3eab9b6e	0.3351702
16	0x3ebf9894	0.37421095
17	0x3da8089a	0.082047656
18	0x3d4ea9b7	0.05045482
19	0x3eadb36e	0.33925956
20	0x3cf140fa	0.029449929
21	0x3d63cb9c	0.0556141
22	0xbe0a4073	-0.13501148
23	0x3ca9909f	0.020698844
24	0xbcfe5359	-0.031045603
25	0xbcb5c18d	-0.022187019
26	0x3ed9c7fe	0.42535394
27	0x3d009940	0.03139615
28	0x3dc71115	0.09720055
29	0xbd28b158	-0.041184753
30	0x3e9158a9	0.28387955
31	0x3eda9ab3	0.4269615
32	0x3ebe6d1f	0.37192628
33	0x3d38acce	0.045086674
34	0x3ef7cefe	0.4840011
35	0x3ec6577c	0.3873862
36	0x3f06cd66	0.52657163
37	0x3ef7763a	0.48332387
38	0x3e93d163	0.28870687
39	0x3ee0ec57	0.43930313
40	0xbdf49240	-0.119419575
41	0xbd4757ee	-0.04866784
42	0xbe0f5878	-0.13998592
43	0x3dcf9c45	0.10137228
44	0x3f036a36	0.5133394
45	0xbd1ec489	-0.03876165
46	0x3ee67950	0.4501443
47	0x3ecb1ea2	0.39671808
48	0x3e8f1b60	0.27950573
49	0x3ee3bdf6	0.44480866
50	0x3ee70cfa	0.45127088
51	0x3eb8b179	0.360729
52	0xbcece0a0	-0.028915703
53	0x3ebaeca6	0.36508673
54	0x3ebeae42	0.37242323
55	0x3eaae19d	0.33375254
56	0x3f04477a	0.51671565
57	0x3eb10575	0.34574476
58	0xbd8b65af	-0.06806504
59	0x3ed3835f	0.41311166
60	0x3ebe381a	0.37152177
61	0xba3707d4	-0.00069820625
62	0x3ee77ae4	0.45210946
63	0x3ed895aa	0.42301685

layer_3.weight_ih f4 [32, 64]
0	0xbe371432	-0.17878798
1	0xbd61fad2	-0.05517084
2	0xbde35c4a	-0.11101587
3	0x3cbbc4c1	0.022920968
4	0x3e05c19b	0.13062136
5	0x3e13a098	0.1441673
6	0x3d87d07e	0.066315636
7	0xbd5918ac	-0.053002045
8	0x3d7b980c	0.0614243
9	0xbdc4b9a6	-0.09605722
10	0xbd0fcba9	-0.035106335
11	0xbd9d45f1	-0.07679356
12	0xbd889607	-0.066692404
13	0xbe3e05d5	-0.18556912
14	0x3e250e5e	0.16118762
15	0x3e05b783	0.13058285
16	0x3bafd2fd	0.005365728
17	0x3dcf5515	0.1012365
18	0xbe17bd0d	-0.14818211
19	0xbe107d54	-0.14110309
20	0x3d95fef5	0.0732402
21	0xbe00497c	-0.12528032
22	0xbbe6d282	-0.0070441375
23	0xbdc07e12	-0.09399046
24	0xbd9f8569	-0.07789118
25	0xbe1aeed7	-0.15130173
26	0xbe2f07f5	-0.17092879
27	0x3da6c395	0.08142773
28	0xbd86da13	-0.06584563
29	0x3d17a29d	0.037020314
30	0x3cc3de22	0.023909632
31	0xbe0a2efb	-0.13494484
32	0x3d421eb5	0.047392566
33	0xbda9a24a	-0.08282907
34	0xbdffe116	-0.124941036
35	0xbd961dfa	-0.07329936
36	0x3dd3116c	0.10306057
37	0x3d1122fa	0.035433747
38	0x3d98f500	0.07468605
39	0xbe20d909	-0.15707792
40	0xbe2fea78	-0.17179286
41	0xbc40acb9	-0.01175993
42	0xbdba3ec8	-0.09094006
43	0x3d212b18	0.039347738
44	0x3e1f4539	0.1555375
45	0x3d98c4a3	0.074593805
46	0xbd38d4cf	-0.045124825
47	0xbd3632b0	-0.044481933
48	0xbd0d5adf	-0.03451049
49	0xbda39b0f	-0.079885595
50	0x3cdce266	0.026963424
51	0xbdf5107d	-0.119660355
52	0x3daeea9c	0.08540842
53	0xbdfd6bba	-0.12374063
54	0x3ddca391	0.10773385
55	0xbd2341d8	-0.039857715
56	0x3dd91bac	0.10600981
57	0xbd935170	-0.07193267
58	0x3c27c61d	0.010240105
59	0x3e17f2ac	0.14838666
60	0xbe07076e	-0.13186428
61	0xbd32d189	-0.04365686
62	0xbd58db04	-0.052943245
63	0xbe0af6ae	-0.13570663
64	0x3ed302f7	0.412132
65	0xbdfe98a6	-0.12431459
66	0x3ec8a043	0.3918477
67	0x3f2b86c9	0.6700254
68	0x3d5dd0f8	0.054154366
69	0x3f08ef64	0.5349028
70	0x3d33d69f	0.04390585
71	0x3f000169	0.5000215
72	0x3f19f9c0	0.60146713
73	0x3f03fad0	0.51554585
74	0x3f23920f	0.6389474
75	0x3e2f90de	0.17145106
76	0x3f39484d	0.7237595
77	0x3f123c31	0.57123095
78	0xbddd3e35	-0.10802881
79	0x3f264046	0.64941823
80	0x3f16f75d	0.58971196
81	0x3d2bf267	0.04197922
82	0x3c0c281b	0.008554484
83	0x3f36e690	0.7144556
84	0xbe1c9ca2	-0.15294126
85	0x3c66a724	0.014077935
86	0x3cb4c22c	0.022065245
87	0xbce5c8f5	-0.028049925
88	0xbe02c79b	-0.12771456
89	0xbd831892	-0.06401171
90	0x3f1b239d	0.60601217
91	0xbc8bd7ff	-0.017070768
92	0xbe1e0bec	-0.15434235
93	0xbe09e0bf	-0.1346464
94	0x3ec85bb8	0.39132476
95	0x3eee17f4	0.4650265
96	0x3f2a5089	0.66529137
97	0xbc84903f	-0.016182063
98	0x3f264c02	0.6495973
99	0x3f158739	0.5840946
100	0x3ee71aea	0.4513772
101	0x3ee4499b	0.44587407
102	0x3f34465c	0.7041986
103	0x3f00dee1	0.50340086
104	0x3dde782b	0.10862764
105	0xbdcb0e3a	-0.09914823
106	0x3d9c8ece	0.07644425
107	0xbe0f2417	-0.13978611
108	0x3ef39f10	0.47582293
109	0x3b623b07	0.0034520046
110	0x3f28c56e	0.65926254
111	0x3f2727e2	0.6529523
112	0x3f1253e3	0.5715925
113	0x3f26b1e1	0.6511517
114	0x3ef37933	0.47553405
115	0x3f3abae8	0.72941446
116	0xbda8a2d9	-0.08234186
117	0x3f12aaec	0.57292056
118	0x3efce86c	0.49396074
119	0x3ed43a69	0.41450813
120	0x3ec3b89c	0.38226783
121	0x3ec4ea0c	0.38459814
122	0xbd14ef24	-0.036360875
123	0x3ee220c7	0.44165632
124	0x3f271fe6	0.6528305
125	0x3d31b0bd	0.04338144
126	0x3f00243e	0.500553
127	0x3f0e47f2	0.5557853
128	0x3aefeb8c	0.0018304451
129	0xbc1851c7	-0.009296841
130	0x3e042c0e	0.1290743
131	0x3e0c93be	0.13728234
132	0xbddab38d	-0.10678778
133	0x3da7358c	0.0816451
134	0xbe29f5bf	-0.16597651
135	0xbe4ed5b4	-0.20198709
136	0xbc916d61	-0.017752351
137	0xbd098903	-0.03357793
138	0xbcbfaa8e	-0.023396757
139	0x3cf8c3d0	0.030366808
140	0xbdfc16db	-0.12309047
141	0x3cf4249f	0.029802619
142	0xbc64bef2	-0.013961541
143	0xbd063313	-0.032763552
144	0xbe4d42ef	-0.20045064
145	0x3d86ac7d	0.06575868
146	0x3e28d569	0.1648766
147	0x3df1e119	0.11810512
148	0xbc80d2b8	-0.015725479
149	0xbcad2f9f	-0.021140872
150	0xbd2c8b88	-0.042125255
151	0xbd3dd77d	-0.046348084
152	0xbd7b4783	-0.061347496
153	0x3d298d7f	0.041394707
154	0xbe28cf4c	-0.16485327
155	0xbe1dcce7	-0.15410195
156	0x3dbc80da	0.09204264
157	0xbde02f08	-0.109464705
158	0x3dc7d2d6	0.09757011
159	0xbce363ae	-0.027757492
160	0x3dfda691	0.12385286
161	0x3daed316	0.08536355
162	0xbcf11b1a	-0.029431868
163	0xbd9b5ee5	-0.07586459
164	0xbd56d7e2	-0.052451976
165	0xbd8d1de6	-0.06890468
166	0xbdb69032	-0.08914222
167	0xbd8e0a3c	-0.06935546
168	0xbda880f7	-0.08227723
169	0xbe0ef776	-0.13961586
170	0xbe3c3d09	-0.18382658
171	0xbe331ec1	-0.174922
172	0xbbfec157	-0.0077745127
173	0xbe266453	-0.16249208
174	0xbd527c7d	-0.051388253
175	0x3baa91aa	0.005205353
176	0x3d9e2193	0.077212475
177	0xbdb27d1c	-0.08715269
178	0x3d70fa94	0.05883272
179	0x3d919f31	0.071104415
180	0xbdd29434	-0.10282174
181	0x3d48dd68	0.049039274
182	0x3e0d0e53	0.13774996
183	0xbdc79dc9	-0.09746892
184	0x3e03d91d	0.12875791
185	0xbe455ff1	-0.1927488
186	0xbcd0e742	-0.025500897
187	0x3b04d061	0.0020265805
188	0x3e14b718	0.1452297
189	0x3da7af6d	0.08187757
190	0xbd75885b	-0.05994449
191	0xbcad27f1	-0.02113721
192	0xbd735b12	-0.059413023
193	0x3d0dc0b5	0.034607608
194	0xbc59ef46	-0.013301676
195	0x3bce9a96	0.006305049
196	0xbd21dae1	-0.03951538
197	0xbdb6b8f7	-0.08921998
198	0x3de66e7b	0.11251541
199	0x3dd55a0f	0.10417568
200	0x3c3d9d86	0.011573201
201	0xbdaebc7c	-0.08532044
202	0xbe3863ff	-0.18006895
203	0xbdcf9497	-0.10135763
204	0x3e1bab36	0.1520203
205	0xbd32afdb	-0.04362474
206	0x3e0fe6f7	0.1405295
207	0xbd255d9f	-0.040372487
208	0xbdf84eaa	-0.12124379
209	0xbd0f6219	-0.035005663
210	0x3e001a2f	0.12509988
211	0x3d83e19d	0.06439517
212	0x3d3fd19d	0.046830762
213	0xbd637de3	-0.055539977
214	0x3de593b2	0.11209811
215	0x3e011fde	0.12609813
216	0x3c199e63	0.009376141
217	0x3dc88a06	0.09791951
218	0x3de474af	0.11155068
219	0xbb3065e1	-0.0026916193
220	0x3d00d8fd	0.031456936
221	0xbd98f351	-0.07468284
222	0x3d840a13	0.06447234
223	0xbdfbef0a	-0.123014525
224	0xbd2f540d	-0.042804766
225	0x3d5fa7e7	0.054603484
226	0x3e00946b	0.12556617
227	0x3d62d40b	0.055378
228	0x3dd88e43	0.10574009
229	0x3da054d0	0.07828677
230	0xbe017a57	-0.12644325
231	0xbaeffc70	-0.0018309485
232	0xbd28d4e9	-0.041218672
233	0x3e0a743a	0.135209
234	0xbd30065a	-0.042974807
235	0xbe180e0f	-0.14849113
236	0x3e0541b7	0.1301335
237	0x3cd15c65	0.025556752
238	0x3da466a6	0.08027391
239	0xbdd5d6be	-0.104413494
240	0xbe2adcdb	-0.16685812
241	0x3e0dc197	0.1384338
242	0x3bd3b3e2	0.0064606527
243	0xbe223a01	-0.15842439
244	0x3e2515c7	0.16121589
245	0x3de1495b	0.110003196
246	0x3e19fc77	0.15037714
247	0xbd4beda6	-0.049787186
248	0x3c5069b3	0.012720513
249	0xbce8d0ed	-0.028419936
250	0x3e0b79ae	0.13620636
251	0xbdcecb39	-0.100973554
252	0xbdbb81e0	-0.09155631
253	0x3d95dabf	0.07317113
254	0xbe345743	-0.17611413
255	0x3d195097	0.037430372

layer_3.weight_hh f4 [32, 32]
0	0x3dd3fed2	0.103513375
1	0x3c334c60	0.010943502
2	0xbdac4be4	-0.084129125
3	0xbe00e74a	-0.1258823
4	0xbe26f1c1	-0.1630316
5	0xbd4f7230	-0.050646007
6	0xbe0647ec	-0.13113374
7	0xbd393780	-0.045218945
8	0xbc99aca8	-0.018759087
9	0xbd8c7685	-0.06858543
10	0xbdcc345a	-0.09970923
11	0x3dd6b45a	0.10483618
12	0xbe1f3752	-0.15548447
13	0x3db6eb2a	0.08931573
14	0xbd3d1648	-0.046163827
15	0x3dc0ea4e	0.0941969
16	0xbe1976f1	-0.14986779
17	0x3d6ce2c0	0.057833433
18	0x3de54522	0.11194827
19	0x3cb96948	0.02263321
20	0x3d432d50	0.047650635
21	0x3e19b75d	0.15011354
22	0xbd8c4d82	-0.06850721
23	0xbe05d6d0	-0.13070226
24	0x3dd79ba6	0.105277345
25	0xbe29a7fc	-0.16567987
26	0xbdd9e488	-0.10639292
27	0xbd41df10	-0.04733187
28	0x3d71d100	0.05903721
29	0x3dc24826	0.094864175
30	0xbe145201	-0.14484407
31	0x3e2f8391	0.17140032
32	0xbc92de88	-0.017928377
33	0xbd98cbed	-0.07460771
34	0x3e006747	0.12539397
35	0xbca2ef5c	-0.019889526
36	0x3cb6de00	0.022322655
37	0xbdd2d947	-0.102953486
38	0xbe1affc4	-0.1513663
39	0xbde3b05a	-0.11117621
40	0xbe114559	-0.1418661
41	0xbe246298	-0.16053236
42	0x3dbadf7e	0.09124659
43	0xbe16d739	-0.14730538
44	0x3e1956f7	0.1497458
45	0xbd1895f0	-0.037252367
46	0xbb903258	-0.0044005327
47	0xbd37470c	-0.04474549
48	0xbd67de36	-0.0566084
49	0xbe18d904	-0.14926535
50	0x3c63dcf4	0.01390766
51	0xbcae6870	-0.021290034
52	0x3dec3c92	0.1153499
53	0xbc5b4d14	-0.013385076
54	0x3d20d138	0.039262027
55	0xbd9f0c0b	-0.07765969
56	0x3e1184fb	0.14210884
57	0xbdd39f17	-0.10333078
58	0xbde2dad4	-0.110768944
59	0x3e133d2d	0.14378805
60	0x3db55a9e	0.088551745
61	0xbe25b9d9	-0.16184177
62	0x3d3e2bcc	0.046428487
63	0x3e0a0655	0.13478978
64	0xbbc3608c	-0.005962437
65	0x3d3fc5fc	0.046819672
66	0x3c9fd53c	0.019510858
67	0x3e1e96fb	0.15487282
68	0x3d584bf0	0.052806795
69	0x3d2328b8	0.039833754
70	0xbdec6fef	-0.11544787
71	0xbc509388	-0.012730487
72	0x3e3138b5	0.17306788
73	0xbd8ff258	-0.07028645
74	0x3cd40318	0.025880381
75	0x3de7ebd2	0.11324276
76	0xbc9a2f38	-0.018821344
77	0xbe034f8b	-0.12823312
78	0xbe1f36c2	-0.15548232
79	0x3e279941	0.16367055
80	0x3debfb2e	0.11522518
81	0xbe093fe6	-0.13403282
82	0x3da9257a	0.08259101
83	0x3e2a6111	0.1663859
84	0xbd3c0dc7	-0.045911577
85	0x3d70a554	0.05875142
86	0x3dbb6e4a	0.09151895
87	0xbc24a574	-0.010049213
88	0xbd89ac0e	-0.0672227
89	0xbe0282ae	-0.12745163
90	0xbcf79760	-0.030223548
91	0x3d52c3b4	0.05145617
92	0x3e00095f	0.12503575
93	0x3cccc620	0.024996817
94	0xbd6b0a2a	-0.05738274
95	0x3db83192	0.0899383
96	0x3da22dc6	0.07918887
97	0xbd5082ac	-0.05090587
98	0xbdc38955	-0.095476784
99	0xbe239a10	-0.15976739
100	0xbd161f94	-0.03665121
101	0x3ddbc0ce	0.10730134
102	0x3d783fe8	0.06060782
103	0xbdc57aba	-0.09642549
104	0x3d3e0378	0.046390027
105	0x3d9f798e	0.077868566
106	0x3d96707e	0.07345675
107	0x3d2a0784	0.041511074
108	0xbdb59b9d	-0.088675715
109	0x3d708fc8	0.05873087
110	0x3db61a0e	0.08891688
111	0xbd9d962c	-0.07694659
112	0x3dcdd14a	0.10049684
113	0xbd2fc1f8	-0.042909592
114	0xbc2c6ec4	-0.010524455
115	0xbe1306bf	-0.14358042
116	0xbd5c9856	-0.053856216
117	0xbd96d097	-0.07364004
118	0xbca51864	-0.020153232
119	0xbd455a04	-0.04818155
120	0x3e2fc7b1	0.1716602
121	0x3cac556c	0.021036826
122	0x3e1ed915	0.15512498
123	0x3d7e30fc	0.062058434
124	0x3e0a90c3	0.13531785
125	0xbdea8649	-0.11451394
126	0xbdc9dcf3	-0.09856596
127	0x3dda3a05	0.106555976
128	0x3b82a51c	0.0039869677
129	0x3df21176	0.11819737
130	0x3dfb4a4e	0.12270032
131	0xbd52a1a8	-0.0514237
132	0x3e067b85	0.13133056
133	0x3e21725d	0.15766282
134	0xbde60fe1	-0.112334974
135	0xbd53a6b0	-0.051672637
136	0xbde673bf	-0.112525456
137	0xbcaac8ac	-0.020847641
138	0x3da14742	0.078749195
139	0x3e066731	0.13125302
140	0xbcc2e7c4	-0.023792155
141	0xbd37c8b8	-0.044869155
142	0x3db357c6	0.08756976
143	0xbdda73c9	-0.106666155
144	0xbd94a714	-0.0725843
145	0x3e07e763	0.13271861
146	0x3e13bf45	0.14428432
147	0x3d53b7c4	0.051688924
148	0xbc9730b0	-0.018455833
149	0x3db862ca	0.090032175
150	0xbd8cc4cc	-0.068734735
151	0xbe314fd4	-0.17315608
152	0xbda21b10	-0.07915318
153	0xbd2349f8	-0.039865464
154	0xbd707652	-0.05870659
155	0x3e2d4897	0.16922222
156	0x3e14c97b	0.14529984
157	0x3ccacc2c	0.02475556
158	0xbe224caf	-0.15849565
159	0x3dddcf1a	0.10830517
160	0xbc57c0d8	-0.013168536
161	0xbddc3b7f	-0.107535355
162	0xbddb1b97	-0.10698622
163	0x3d951742	0.07279827
164	0xbd541e2c	-0.051786587
165	0x3d53dc5c	0.051723823
166	0x3b804abc	0.003915159
167	0xbe163e4d	-0.14672203
168	0xbe2bb764	-0.16769177
169	0x3d30d64c	0.04317312
170	0xbbb2bfb0	-0.00545498
171	0x3da9643a	0.0827107
172	0xbdeb50b4	-0.11490002
173	0xbb173418	-0.0023071822
174	0x3e2634c7	0.1623107
175	0xbd40d208	-0.0470753
176	0x3ddabc0a	0.10680397
177	0xbc3f760c	-0.011685859
178	0x3dd1137e	0.10208796
179	0x3d8e22c0	0.06940222
180	0xbd7480e2	-0.059693225
181	0x3d009264	0.03138961
182	0x3c615ec4	0.013755504
183	0xbe02c506	-0.12770471
184	0xbdf4b933	-0.119493864
185	0xbc8ea7ac	-0.017413937
186	0x3dcc2d9a	0.09969635
187	0x3df5b616	0.11997621
188	0x3ddc84da	0.10767527
189	0xbe1128af	-0.14175676
190	0x3e0c94af	0.13728593
191	0x3d1147bc	0.0354688
192	0xbb8e5bbc	-0.0043444317
193	0x3dd03446	0.1016622
194	0xbd09c0dc	-0.03363119
195	0x3b2cbab4	0.00263564
196	0x3d0c6ce0	0.03428352
197	0x3e062423	0.13099723
198	0xbd98fa85	-0.07469658
199	0x3c9c0118	0.01904349
200	0x3da989b2	0.082782164
201	0xbdcbf944	-0.09959653
202	0xbe1ea391	-0.15492083
203	0xbdcd65db	-0.10029193
204	0x3d5a1915	0.053246576
205	0xbcb77ae0	-0.022397459
206	0x3e0000db	0.12500326
207	0x3de5a57e	0.11213206
208	0xbdd3c1a3	-0.10339668
209	0x3d555a84	0.052088276
210	0xbcfb17f4	-0.03065107
211	0x3e064f39	0.13116159
212	0x3da6776e	0.08128248
213	0xbd545fee	-0.0518493
214	0xbd8151a1	-0.063143976
215	0x3bfe65dc	0.0077636074
216	0xbd89ba10	-0.06724942
217	0x3dff9339	0.12479252
218	0x3d3e4770	0.046454847
219	0x3b978d18	0.004624974
220	0xbda63384	-0.081152946
221	0xbd1521e4	-0.036409274
222	0x39da47b8	0.00041633635
223	0xbe2a41ea	-0.16626707
224	0x3df58aca	0.119893625
225	0xbe0dde72	-0.13854387
226	0x3d5414b8	0.05177757
227	0xbccc08b8	-0.024906501
228	0xbdbda236	-0.09259455
229	0x3cc88794	0.024478711
230	0xbdff7e70	-0.12475288
231	0x3de83cae	0.11339699
232	0x3ddf9596	0.10917203
233	0xbe018333	-0.12647705
234	0xbe00e54e	-0.12587473
235	0xbded0c34	-0.11574593
236	0xbe0a6e86	-0.13518724
237	0x3d86f144	0.065889865
238	0x3df92ce2	0.12166764
239	0xbc0251bc	-0.007954057
240	0x3e0ca45b	0.13734572
241	0x3e2bf185	0.16791351
242	0x3dac8992	0.08424677
243	0xbcd55d38	-0.026045427
244	0x3dfdd5e6	0.123943135
245	0xbe2370cc	-0.15960997
246	0x3e17b4a9	0.1481501
247	0x3d66e200	0.056367874
248	0x3c43ef8c	0.011958968
249	0xbdf4560d	-0.119304754
250	0x3e31021b	0.1728596
251	0xbe27b7fb	-0.16378777
252	0xbd50bb38	-0.050959796
253	0x3df3b52a	0.11899789
254	0xbe08d230	-0.1336143
255	0x3dc7ca9e	0.09755443
