src/ba_120_sci.pth (torch, 198383 bytes, 17 tensors)

layer_1.weight_ih f4 [128, 120]
-0.014909485 0.13223833 0.15990834 0.12214853 0.1672089 0.13773161 0.07995957 0.112524085
0.18058321 0.08182393 0.072267115 0.18995115 0.13087583 0.15970051 0.18282706 0.1644661
0.07820599 0.023085771 0.07771456 0.1126665 0.16265295 0.03262431 0.11363789 0.14539859
0.16424923 0.20141065 0.05381645 0.13365027 0.10734608 0.11488577 0.15534012 0.109135635
0.16025649 0.06147569 0.1512406 0.19879968 0.066804856 0.11831852 0.09009747 0.073491216
0.057553593 0.101799324 0.1449877 0.11676477 0.14845747 0.17544097 0.05397191 0.14376236
0.07069492 0.08472579 0.15677471 0.02814089 0.16936415 0.08009348 0.03772323 0.15091495
0.16570495 0.15333052 0.067802936 0.17052755 0.18376572 0.17650065 0.15714201 0.13438548
0.10247819 0.17604673 0.14539589 0.17786574 0.1951791 0.19144706 0.16522364 0.15272179
0.16525818 0.15913124 0.14683993 0.08554854 0.19368322 0.1757991 0.13844952 0.111277826
0.17696378 0.19294311 0.1578815 0.06803594 0.10469217 0.09234458 0.19481444 0.057717416
0.11713108 0.13451152 0.13909483 0.15861079 0.10065122 0.12231551 0.17217225 0.116638176
0.17912431 0.09504031 0.11117975 0.15981534 0.1595634 0.1579929 0.081667334 0.12465218
0.10529547 0.20156232 0.22149387 0.09700027 0.1626056 0.17363459 0.2339385 0.07909117
0.2063334 0.19674125 0.12845184 0.16076113 0.17235029 0.17089932 0.19352642 0.18276224
0.09805246 0.1209562 0.13240789 0.14355871 0.1469724 0.1526883 0.1973354 0.19033794
0.18986034 0.16299391 0.10434976 0.12717463 0.11998774 0.12534836 0.120300174 0.115242615
0.10733916 0.07365378 0.14944804 0.16649172 0.17399208 0.026523886 0.15191235 0.08492637
0.13409811 0.17776833 0.14645591 0.08757588 0.056642953 0.08721838 0.05767882 0.09474117
0.09787527 0.16196077 0.14252084 0.11955363 0.09742623 0.1574696 0.10870012 0.1722764
0.18439277 0.15084799 0.14647062 0.119842686 0.16054074 0.15586358 0.15116994 0.07887715
0.15617897 0.10317491 0.18773012 0.06060547 0.15660197 0.13694374 0.121615954 0.16254899
0.15774335 0.16950014 0.096515566 0.21273284 0.12465105 0.202366 0.13485667 0.12864494
0.14405079 0.12319897 0.10295456 0.1561788 0.094875425 0.17472848 0.2106094 0.17231338
0.10088047 0.21328694 0.07772583 0.21523012 0.18929996 0.10996779 0.1991672 0.15699056
0.16938259 0.17859748 0.15754914 0.12798452 0.20383841 0.13295409 0.17243092 0.060644317
0.17733562 0.08435965 0.10767691 0.096969634 0.10283629 0.1121421 0.11920472 0.17654432
0.18355443 0.1871472 0.13462126 0.17314473 0.11012445 0.14840089 0.09310793 0.20288552
0.15441427 0.19979379 0.12444485 0.10589754 0.18029064 0.16572726 0.18664964 0.1539513
0.14469716 0.13195315 0.10561996 0.119611494 0.091859855 0.108440235 0.17392282 0.118990004
-0.03602928 0.029903097 0.049389016 -0.40860945 0.16074072 0.11357855 0.08469115 0.080440015
0.14217174 0.14118123 0.07184961 0.09048431 0.060934093 0.09683892 0.15908661 0.19802986
00000000: ea46 74bc 7c69 073e 03bf 233e 0229 fa3d
00000010: cf38 2b3e 8409 0d3e d8c1 a33d 0773 e63d
00000020: ceea 383e 4e93 a73d c800 943d 8e82 423e
00000030: 5004 063e 8888 233e 0437 3b3e cd69 283e
00000040: 762a a03d 5f1e bd3c d028 9f3d b2bd e63d
00000050: 7f8e 263e 12a1 053d fbba e83d 5ee3 143e
00000060: f330 283e 983e 4e3e a36e 5c3d 9edb 083e
00000070: 43d8 db3d 3b49 eb3d 7b11 1f3e 8182 df3d
00000080: 471a 243e efcd 7b3d d1de 1a3e 2592 4b3e
00000090: fcd0 883d fb50 f23d 0685 b83d 9082 963d
000000a0: 51bd 6b3d 2a7c d03d a877 143e 5e22 ef3d
000000b0: 3c05 183e cca6 333e a611 5d3d 7136 133e
000000c0: 80c8 903d b784 ad3d 8d89 203e b987 e63c
000000d0: cc6d 2d3e 0d08 a43d ac83 1a3d 7389 1a3e
000000e0: 8fae 293e ad02 1d3e 44dc 8a3d c69e 2e3e
000000f0: 152d 3c3e 96bc 343e d6e9 203e 599c 093e
00000100: 16e0 d13d 9845 343e a9e2 143e 7022 363e
00000110: 08dd 473e b30a 443e 6330 293e 1a63 1c3e
00000120: 7139 293e 4df3 223e 355d 163e 1334 af3d
00000130: e554 463e ae04 343e b6c5 0d3e a1e5 e33d
00000140: fe35 353e e192 453e b0ab 213e 6d56 8b3d
00000150: d968 d63d 281f bd3d 707d 473e 1969 6c3d
00000160: 6be2 ef3d 63bd 093e e06e 0e3e de6a 223e
00000170: 3a22 ce3d 8e80 fa3d ec4d 303e ffdf ee3d
00000180: 5d6c 373e 7ea4 c23d 35b2 e33d a2a6 233e
00000190: 9764 233e e4c8 213e 3441 a73d a449 ff3d
000001a0: 27a5 d73d 5a66 4e3e 4acf 623e 14a8 c63d
000001b0: 1582 263e 44cd 313e 938d 6f3e 8dfa a13d
000001c0: 1049 533e 8a76 493e e188 033e 919e 243e
000001d0: 987c 303e 3b00 2f3e ca2b 463e 0626 3b3e
000001e0: bacf c83d e2b7 f73d ef95 073e 0e01 133e
000001f0: ef7f 163e 525a 1c3e 4b12 4a3e f3e7 423e
00000200: c06a 423e e0e7 263e 54b5 d53d 113a 023e
00000210: 22bc f53d 525b 003e f05f f63d 5204 ec3d
00000220: a2d4 db3d cbd7 963d e808 193e ce7c 2a3e
00000230: fb2a 323e 9f48 d93c e98e 1b3e e0ed ad3d
00000240: 0451 093e e708 363e 8af8 153e fc5a b33d
00000250: 7102 683d 8d9f b23d a040 6c3d a907 c23d
00000260: d472 c83d 0bd9 253e fcf0 113e 89d8 f43d
00000270: 6787 c73d b63f 213e 2b9e de3d 3969 303e
00000280: 75d1 3c3e e577 1a3e 65fc 153e 1570 f53d
00000290: cb64 243e b49a 1f3e 4bcc 1a3e 588a a13d
000002a0: 61ed 1f3e 5e4d d33d 533c 403e 713d 783d
000002b0: 445c 203e fb3a 0c3e c911 f93d 3e73 263e
000002c0: 7987 213e 7291 2d3e f4a9 c53d a3d6 593e
000002d0: 0d49 ff3d 0839 4f3e de17 0a3e 80bb 033e
000002e0: 0d82 133e be4f fc3d d7d9 d23d 56ed 1f3e
000002f0: 0c4e c23d 06ec 323e fea9 573e eb72 303e
00000300: 6b9a ce3d e467 5a3e b82e 9f3d 4965 5c3e
00000310: d9d7 413e cb36 e13d 7df2 4b3e 22c2 203e
00000320: a172 2d3e 42e2 363e 9054 213e 600e 033e
00000330: 04bb 503e 1e25 083e bb91 303e 2d66 783d
00000340: 7897 353e c1c4 ac3d b685 dc3d 0498 c63d
00000350: d59b d23d c2aa e53d 9b21 f43d 09c8 343e
00000360: b1f5 3b3e 84a3 3f3e 28da 093e da4c 313e
00000370: ed88 e13d 67f6 173e 5faf be3d 39c1 4f3e
00000380: c61e 1e3e be96 4c3e f1dc fe3d cfe0 d83d
00000390: 1c9e 383e 68b4 293e 1521 3f3e 69a5 1d3e
000003a0: 7e2b 143e ba1e 073e 474f d83d dff6 f43d
000003b0: 0521 bc3d ea15 de3d d318 323e 08b1 f33d
000003c0: 7093 13bd 57f7 f43c 234c 4a3d 4235 d1be
000003d0: 3799 243e df9b e83d 8e72 ad3d bcbd a43d
000003e0: 7895 113e d091 103e e325 933d d74f b93d
000003f0: 0796 793d 7c53 c63d 9ae7 223e 57c8 4a3e

layer_1.weight_hh f4 [128, 128]
0.04393179 -0.060390614 -0.030730087 0.005026518 -0.025564713 0.017986974 0.0075827623 -0.0018074895
-0.020241901 -0.021448879 0.036890864 0.017786002 -0.023908101 0.03161061 -0.0355973 0.045896813
-0.049224876 -0.04988297 0.03288129 -0.06128596 0.037586942 -0.032696664 -0.06259232 -0.052250966
-0.010510931 0.009167455 -0.064002246 -0.05153233 0.035891358 0.045650378 0.018492537 0.032630388
0.049705394 -0.043851014 -0.024272487 0.039280616 0.02835778 -0.06305269 0.016772574 0.06354927
0.019390194 0.04234679 0.05221269 0.021538517 -0.060381904 0.03860744 0.0028831325 -0.05027181
0.03958697 -0.05692009 -0.006782207 -0.022309793 -0.039797135 0.06293588 0.0254848 0.020548651
0.031442013 0.040201962 0.04497435 -0.04896411 -0.0248052 0.016316278 0.03029416 -0.05232513
-0.0013403923 0.053411677 -0.0058572437 -0.04179818 0.014512029 0.030093051 0.062693626 -0.030221574
0.04554577 -0.02866081 -0.038389716 -0.006946988 -0.059956294 0.060885493 0.06437298 0.028847756
-0.025151582 0.04572928 0.04430961 -0.054828357 0.047371313 -0.03448831 0.059749182 0.039204355
-0.047538117 -0.028008197 -0.048511438 0.060786407 0.033286847 -0.023465391 -0.047085743 -0.0057886755
-0.043018606 0.0643917 0.03415203 0.0055807903 0.012603251 0.017704222 -0.035921082 -0.031800713
-0.033670675 0.031291287 -0.00070010085 0.043129396 0.022472342 0.046974167 0.036816057 0.0028116214
0.052146815 -0.0051613236 -0.0023946443 0.012849579 0.041361906 -0.06184151 -0.058427386 0.010931244
0.039753757 0.052493025 0.061136167 -0.028667841 -0.043105796 -0.0456921 -0.015498671 0.014419666
0.023740519 0.03633242 0.06058839 0.022357918 -0.016679596 -0.038608942 0.008931342 -0.0432978
0.054003067 0.019862847 0.0448567 0.0031078774 -0.023023825 -0.009546529 -0.063107096 0.026393069
-0.03917414 0.0645006 0.0010893807 -0.000115804694 0.010173654 0.05288533 0.036130812 0.030515106
0.034385286 -0.0224954 -0.028501678 -0.03498615 0.0020365496 -0.037280887 0.030182604 0.041445
0.009376997 0.057036318 0.052510016 -0.03715497 -0.024928251 -0.04815895 -0.03445198 -0.01009449
-0.035895623 -0.046203423 0.013859887 -0.033723835 0.04351121 0.028035617 -0.018924266 0.020054009
0.061619945 0.001102657 -0.0632482 0.0029205864 0.047441788 0.057831094 0.016017867 -0.035356786
-0.0004443723 0.046630953 0.03386761 0.006437457 0.020054678 -0.059010837 -0.021840084 -0.03911923
0.030246938 0.009549243 -0.019762691 -0.022661742 0.057638194 0.0070619863 0.059294503 -0.03954887
0.024241965 0.034946885 0.0125099495 -0.046405803 -0.034249116 0.034400597 -0.046455774 -0.057277516
-0.033123966 -0.016774055 0.029692452 0.05366687 0.0030722045 0.02112572 -0.02750662 0.0096620275
0.053254817 -0.042525683 0.021527354 0.0133642955 0.011659061 -0.046177752 0.057165414 0.009155494
0.034411084 0.03468078 0.060604125 -0.044934485 -0.0148514 0.01571656 -0.048647117 -0.052774288
0.007170771 -0.044619277 0.016172808 -0.0634959 0.0071996227 0.002050028 -0.053875595 0.045169935
0.051295172 -0.009182378 -0.006751434 0.04213904 -0.049861867 -0.031698994 0.008926318 0.0414413
0.041596703 0.040446617 -0.05078351 -0.055395663 0.024475532 0.03617219 -0.033931732 0.0071907537
00000000: d2f1 333d 265c 77bd aabd fbbc 7db5 a43b
00000010: 176d d1bc 6b59 933c d278 f83b 49e9 ecba
00000020: 58d2 a5bc 8fb5 afbc e01a 173d f3b3 913c
00000030: ecda c3bc 217a 013d 79ce 11bd 4cfe 3b3d
00000040: 06a0 49bd 1652 4cbd 88ae 063d fd06 7bbd
00000050: c4f4 193d f0ec 05bd 6730 80bd 1c05 56bd
00000060: 0a36 2cbc 1833 163c 9c13 83bd 9113 53bd
00000070: d102 133d e4fb 3a3d a97d 973c 71a7 053d
00000080: e297 4b3d 1f9d 33bd 18d7 c6bc b6e4 203d
00000090: 934e e83c c521 81bd a366 893c 1f26 823d
000000a0: 2fd8 9e3c d473 2d3d f9dc 553d 8b71 b03c
000000b0: 0453 77bd d622 1e3d f0f2 3c3b d0e9 4dbd
000000c0: f225 223d 0a25 69bd 473d debb 07c3 b6bc
000000d0: 5202 23bd 87e4 803d 80c5 d03c a555 a83c
000000e0: 57c9 003d d0aa 243d 0637 383d 978e 48bd
000000f0: 4634 cbbc b7a9 853c 752b f83c e052 56bd
00000100: 1ab0 afba 34c6 5a3d 1fee bfbb 9234 2bbd
00000110: dcc3 6d3c b485 f63c 8465 803d 3c93 f7bc
00000120: 348e 3a3d 13ca eabc 893e 1dbd 8fa3 e3bb
00000130: bb94 75bd 1163 793d fbd5 833d 2152 ec3c
00000140: b10a cebc a04e 3b3d fe7d 353d b393 60bd
00000150: 6c08 423d 9d43 0dbd 8fbb 743d bf94 203d
00000160: 54b7 42bd 7271 e5bc eeb3 46bd 2bfb 783d
00000170: ca57 083d 7e3a c0bc fbdc 40bd eeae bdbb
00000180: 4734 30bd ccdf 833d 00e3 0b3d 10df b63b
00000190: de7d 4e3c 7208 913c fc21 13bd 7741 02bd
000001a0: 43ea 09bd 4b2b 003d f986 37ba 73a8 303d
000001b0: eb17 b83c fc67 403d 6fcc 163d 2e43 383b
000001c0: e697 553d 5220 a9bb 77ef 1cbb 0a87 523c
000001d0: 1a6b 293d 864d 7dbd 8e51 6fbd f618 333c
000001e0: d6d4 223d ed02 573d eb69 7a3d d2d8 eabc
000001f0: b48f 30bd a427 3bbd 23ee 7dbc 7640 6c3c
00000200: 7a7b c23c 4ed1 143d 882b 783d f427 b73c
00000210: a6a3 88bc 6924 1ebd c354 123c 0959 31bd
00000220: 5232 5d3d 69b7 a23c a9bb 373d 88ad 4b3b
00000230: 769c bcbc 0b69 1cbc 4b3e 81bd 4736 d83c
00000240: 1075 20bd e418 843d 8dc9 8e3a 2cdc f2b8
00000250: 66af 263c 4a9e 583d e7fd 133d d1fa f93c
00000260: 96d7 0c3d 4648 b8bc 5a7c e9bc a34d 0fbd
00000270: a277 053b d8b3 18bd 8241 f73c 3bc2 293d
00000280: faa1 193c ea9e 693d be14 573d cf2f 18bd
00000290: 5536 ccbc 5242 45bd 851d 0dbd 5c63 25bc
000002a0: 4a07 13bd cd3f 3dbd 9414 633c 0122 0abd
000002b0: cf38 323d f3aa e53c 1007 9bbc 4e48 a43c
000002c0: 3265 7c3d 0887 903a 4688 81bd 4f67 3f3b
000002d0: 5252 423d 4ce0 6c3d e737 833c 47d2 10bd
000002e0: a4fa e8b9 1900 3f3d c3b8 0a3d 4ef1 d23b
000002f0: b549 a43c 59b5 71bd fae9 b2bc 7c3b 20bd
00000300: 6dc8 f73c 6e74 1c3c 5ee5 a1bc 1ea5 b9bc
00000310: 0716 6c3d 3c68 e73b cbde 723d fffd 21bd
00000320: 1697 c63c 7724 0f3d 88f6 4c3c 0314 3ebd
00000330: cd48 0cbd a4e7 0c3d 6948 3ebd d49b 6abd
00000340: ffac 07bd be69 89bc 963d f33c cbd1 5b3d
00000350: 0a57 493b d90f ad3c 9055 e1bc 7b4d 1e3c
00000360: b921 5a3d 692f 2ebd 225a b03c ebf5 5a3c
00000370: a505 3f3c e224 3dbd 4826 6a3d ed00 163c
00000380: a3f2 0c3d 6f0d 0e3d 083c 783d 390d 38bd
00000390: 4953 73bc 04c0 803c 3342 47bd da29 58bd
000003a0: c9f8 ea3b b4c2 36bd d67c 843c 230a 82bd
000003b0: d0ea eb3b c359 063b a8ac 5cbd 1c04 393d
000003c0: e31a 523d af71 16bc 223b ddbb fc99 2c3d
000003d0: f53b 4cbd ced6 01bd b13f 123c 5abe 293d
000003e0: 4e61 2a3d 5aab 253d 5f02 50bd 90e6 62bd
000003f0: e980 c83c 4a29 143d 00fc 0abd 6aa0 eb3b

layer_1.bias_ih f4 [128]
0.16000104 0.077554524 0.096540414 0.14763945 0.15931672 0.16024019 0.13111356 0.17351428
0.042166583 0.09606776 0.18433897 0.11291669 0.10894209 0.16916826 0.15265076 0.12119416
0.08632708 0.13547057 0.18737891 0.15559274 0.0018965394 0.0999264 0.011971247 0.20267698
0.1772611 0.12942044 0.16420212 0.0812175 0.08192717 0.05289511 0.12811536 0.09941738
0.20595235 0.15412188 0.18597226 0.07329425 -0.029238325 0.09397834 0.119187914 0.12138528
0.081591606 0.18003692 0.15257797 0.2067297 0.075372 -0.0036103684 0.036345787 0.14326361
0.10507135 0.14806871 0.13800009 0.12586027 0.1121998 0.17021377 0.15816389 0.17160986
0.103906795 0.114151955 0.115631506 0.124394156 0.052183017 0.09536382 0.17337225 0.11367544
0.11916778 -0.012462318 0.105174705 0.18745211 -0.023609899 0.12167699 0.15269125 0.08946719
0.06260884 0.14644158 0.10711591 0.13311389 0.18980145 0.105942205 -0.05593752 0.083854005
0.15104042 0.16008927 0.12610385 0.13900806 0.004292653 0.03413067 0.034673765 0.118178435
0.1339566 0.083064795 0.07547582 0.085947454 0.097072735 0.14435996 0.20034932 0.189638
0.1821107 0.18398026 0.11881286 0.11878104 0.065341756 -0.029207716 0.113715835 0.16720596
0.14814034 0.16251862 0.1121695 0.15776718 0.12069785 0.09695984 -0.0034635018 0.09185674
0.052313775 0.11278607 0.13681105 0.16857971 0.20966907 0.027085355 0.16344209 0.060077354
-0.0082186535 0.14308858 0.1145434 0.10030602 0.084771 0.15389036 0.1309977 0.0043219524
00000000: 50d7 233e e8d4 9e3d fbb6 c53d cc2e 173e
00000010: ec23 233e 0116 243e a242 063e baad 313e
00000020: deb6 2c3d 2cbf c43d 5bc3 3c3e de40 e73d
00000030: 081d df3d 723a 2d3e 7b50 1c3e a534 f83d
00000040: 41cc b03d ccb8 0a3e 42e0 3f3e b453 1f3e
00000050: 4d95 f83a 36a6 cc3d 0d23 443c 8e8a 4f3e
00000060: ef83 353e cb86 043e 9a24 283e 5c55 a63d
00000070: 6fc9 a73d 8ba8 583d ac30 033e 579b cb3d
00000080: 2ce5 523e 20d2 1d3e 836f 3e3e 4c1b 963d
00000090: 3685 efbc b777 c03d cb18 f43d d898 f83d
000000a0: 8019 a73d 995b 383e 663d 1c3e f3b0 533e
000000b0: a35c 9a3d ee9b 6cbb 52df 143d b2b3 123e
000000c0: a62f d73d 539f 173e e54f 0d3e 84e1 003e
000000d0: 02c9 e53d 854c 2e3e b7f5 213e 7fba 2f3e
000000e0: 16cd d43d 80c8 e93d 36d0 ec3d 5dc2 fe3d
000000f0: dcbd 553d 1b4e c33d 7f88 313e abce e83d
00000100: 3d0e f43d c02e 4cbc d665 d73d 72f3 3f3e
00000110: 8c69 c1bc c931 f93d 185b 1c3e 933a b73d
00000120: 1039 803d c8f4 153e 965f db3d 024f 083e
00000130: 505b 423e 3af8 d83d be1e 65bd a6bb ab3d
00000140: 57aa 1a3e 71ee 233e 5e21 013e 2158 0e3e
00000150: 62a9 8c3b 9acc 0b3d 1406 0e3d 8907 f23d
00000160: eb2b 093e e01d aa3d 1193 9a3d 3805 b03d
00000170: 12ce c63d 19d3 133e 5f28 4d3e 7730 423e
00000180: 3a7b 3a3e 5265 3c3e 2854 f33d 7943 f33d
00000190: e6d1 853d 0545 efbc d9e3 e83d 0a38 2b3e
000001a0: 1ab2 173e 486b 263e 1fb9 e53d b88d 213e
000001b0: 6f30 f73d e192 c63d ebfb 62bb 631f bc3d
000001c0: f846 563d 62fc e63d 3218 0c3e 29a0 2c3e
000001d0: 7db3 563e 1be2 dd3c 5d5d 273e ac13 763d
000001e0: 88a7 06bc d085 123e bb95 ea3d 3e6d cd3d
000001f0: 6b9c ad3d 6f95 1d3e 4324 063e 2a9f 8d3b

layer_1.bias_hh f4 [128]
0.09870478 0.15810636 0.04790211 0.13181794 0.15545551 0.1612153 0.10096523 0.06996659
0.14070198 0.11026236 0.1237406 0.16131817 0.12996164 0.13503176 0.14607452 0.18844484
0.09994038 0.20498364 0.18164647 0.19900265 0.056787398 0.20986225 -0.050295245 0.17580636
0.17167988 0.1778183 0.13643923 0.11259984 0.11084135 0.07879109 0.09477122 0.0840348
0.15456483 0.12085852 0.09411632 0.074152455 -0.01734356 0.12770835 0.10355985 0.12208435
0.09135853 0.1822874 0.13667521 0.12331655 0.11713204 -0.06453742 0.09752449 0.1865669
0.17779139 0.13087253 0.1415985 0.1088002 0.07630769 0.092820935 0.17846762 0.08382862
0.1868032 0.13552637 0.10984834 0.13348417 0.07365977 0.12066844 0.09683344 0.066474326
0.120274745 -0.033546463 0.15266158 0.1649504 -0.025442818 0.061118122 0.19417463 0.19051212
0.07786688 0.16006169 0.073468074 0.17748778 0.09628952 0.13088526 -0.04723587 0.06511597
0.19732529 0.16000988 0.1333593 0.17929256 0.047451716 0.07298821 0.022543503 0.12320293
0.14962319 0.16789895 0.17885053 0.07853843 0.117109135 0.0934141 0.19015779 0.102762796
0.12935154 0.12426375 0.13243385 0.12948456 0.026832491 -0.03857648 0.1853915 0.12378859
0.11635335 0.1618511 0.16673543 0.1552391 0.050225276 0.18028085 0.044078358 0.20584856
0.07979482 0.1890535 0.15200463 0.17090319 0.12850009 0.102969825 0.16800003 0.14539354
0.040438764 0.1328916 0.16094159 0.18882322 0.14420731 0.19823831 0.14970163 -0.0025207384
00000000: bb25 ca3d a2e6 213e 0135 443d 48fb 063e
00000010: bb2f 1f3e a015 253e dcc6 ce3d a54a 8f3d
00000020: 2e14 103e 3bd1 e13d b66b fd3d 9730 253e
00000030: aa14 053e c445 0a3e 8f94 153e aff7 403e
00000040: 8bad cc3d 3be7 513e 8801 3a3e 5ac7 4b3e
00000050: e799 683d 21e6 563e 6302 4ebd 9506 343e
00000060: dacc 2f3e 0016 363e bab6 0b3e bf9a e63d
00000070: ca00 e33d 395d a13d 6a17 c23d 701a ac3d
00000080: 3e46 1e3e ac84 f73d 0fc0 c03d 3edd 973d
00000090: 1514 8ebc fac5 023e 3017 d43d 5c07 fa3d
000000a0: 2e1a bb3d 8ca9 3a3e 96f4 0b3e 638d fc3d
000000b0: ece2 ef3d 322c 84bd ebba c73d 650b 3f3e
000000c0: f20e 363e 7303 063e 32ff 103e a4d2 de3d
000000d0: 3547 9c3d e718 be3d 37c0 363e 57ae ab3d
000000e0: 5749 3f3e 6dc7 0a3e 2bf8 e03d 13b0 083e
000000f0: efda 963d 0421 f73d 9c50 c63d b123 883d
00000100: 9b52 f63d 0468 09bd 5153 1c3e c2e8 283e
00000110: 756d d0bc ff56 7a3d b7d5 463e 9c15 433e
00000120: ac78 9f3d 36e7 233e 6e76 963d 5bbf 353e
00000130: 7133 c53d c906 063e 667a 41bd 865b 853d
00000140: a40f 4a3e a1d9 233e 578f 083e 7898 373e
00000150: bb5c 423d d87a 953d 27ad b83c d151 fc3d
00000160: d236 193e b4ed 2b3e 9824 373e c2d8 a03d
00000170: ead6 ef3d e44f bf3d b9b8 423e 4d75 d23d
00000180: bb74 043e fe7d fe3d bd9c 073e 9a97 043e
00000190: d0cf db3c 5f02 1ebd 45d7 3d3e df84 fd3d
000001a0: aa4a ee3d 4bbc 253e b1bc 2a3e 00f7 1e3e
000001b0: 05b9 4d3d 8b9b 383e 828b 343d f7c9 523e
000001c0: 776b a33d 3e97 413e 1aa7 1b3e 3f01 2f3e
000001d0: 8795 033e d8e1 d23d 3308 2c3e 0be2 143e
000001e0: 1ea3 253d bc14 083e dfcd 243e e05a 413e
000001f0: 15ab 133e fcfe 4a3e 624b 193e f932 25bb

layer_2.weight_ih f4 [64, 128]
0.10372706 0.10114082 0.106453836 0.09339478 0.03772138 0.108632386 0.10945692 0.1120127
0.02942429 0.042399995 0.11420819 0.003163052 0.06622408 0.13338704 -0.03184342 0.03803734
0.007421984 0.09401912 -0.017327266 0.071200624 0.54210824 0.08543288 1.0321094 0.09643398
-0.026437668 0.05784155 -0.013471856 0.018912017 -0.032400586 0.5890106 -0.023677051 -0.005807666
0.037199166 0.048318278 0.12830703 0.07929584 0.29275727 0.028586183 0.070976466 -0.0134403035
0.12585928 -0.020936256 -0.0025365786 -0.051119316 0.11360939 1.8108575 0.11698465 0.031444367
0.035340637 0.012677485 -0.060124297 0.058882747 -0.06651816 0.07705711 0.099480726 0.061427243
0.047417164 -0.023630515 0.07081102 -0.057972055 1.3141474 0.10318169 0.093057156 0.016391322
-0.042254828 0.40797305 0.023688082 0.12696864 0.7317964 0.06354686 -0.03126282 0.07683381
0.6267625 -0.05973166 -0.05346451 0.051521596 0.046890866 -0.0024156393 1.6582975 -0.0024185153
-0.017152648 -0.038775396 0.089092076 0.108699165 0.9845228 0.07793895 0.6145851 0.012633472
-0.033861727 0.052851878 0.015081269 -0.017106973 0.06973962 0.053138 0.043524336 0.0324454
0.039134063 0.08231401 0.07265785 0.0023873542 -0.027823862 1.1918014 0.07556728 0.045871418
0.06972969 -0.0043740394 0.03143629 -0.051504627 0.06458077 0.10413786 0.9586237 0.0450495
0.041025568 0.04363553 -0.009044749 0.12178311 0.086161874 0.040853083 0.1154628 0.10148216
1.0012704 0.054045826 0.080067106 0.048574504 -0.035909012 -0.004118278 0.04013083 0.62838906
0.11458275 0.07342496 0.09493891 0.14571524 0.06981642 0.20265977 0.080831915 0.069201306
0.1725277 0.19989914 0.10872321 0.040118106 0.22365512 0.06536774 0.17977415 0.19739947
0.1437797 0.0938891 0.075005695 0.15964095 0.66736585 0.057491533 0.9400548 0.21733643
0.14909527 0.0830823 0.11066876 0.20880699 0.09964682 0.6807105 0.1302045 0.0544689
0.16415367 0.15161802 0.08736951 0.19981298 0.35000357 0.098435596 0.10894675 0.19045155
0.19384965 0.1477997 0.099083066 0.18130344 0.18103772 0.76941943 0.1281543 0.04868322
0.1666347 0.066200584 0.1105795 0.08192931 0.1870492 0.15215057 0.21609807 0.19701153
0.16697887 0.10226464 0.049795702 0.12350309 1.2709533 0.16270119 0.21729887 0.01954783
0.14941518 0.5436603 0.20943032 0.14404002 0.7166081 0.13556087 0.21670432 0.21359219
0.6854671 0.1721684 0.12600234 0.14583303 0.07820395 0.10799073 0.6521448 0.038277104
0.14630859 0.2195471 0.053026497 0.10334044 0.637203 0.08606082 0.58693177 0.15149307
0.08011771 0.11260225 0.097807236 0.15164089 0.078407764 0.03594988 0.10574383 0.18430549
0.17515542 0.109252624 0.14387922 0.14500585 0.13853644 1.1033969 0.1780648 0.10820398
0.1111223 0.10778219 0.13041377 0.12843697 0.060287576 0.110981345 0.67220503 0.15666136
0.13004549 0.08138005 0.1175251 0.11637815 0.10351641 0.12178763 0.1798375 0.102526106
0.5690583 0.03215965 0.074111514 0.13793027 0.132609 0.13387546 0.15409033 0.5637571
00000000: da6e d43d eb22 cf3d 7804 da3d c345 bf3d
00000010: bc81 1a3d a87a de3d f32a e03d ea66 e53d
00000020: 350b f13c 9eab 2d3d fce5 e93d 354b 4f3b
00000030: 7ea0 873d 9d96 083e 3f6e 02bd 0bcd 1b3d
00000040: 1d34 f33b 198d c03d e9f1 8dbc a2d1 913d
00000050: 9bc7 0a3f 6ff7 ae3d 291c 843f 2e7f c53d
00000060: cf93 d8bc 43eb 6c3d 0fb9 5cbc 60ed 9a3c
00000070: 7ab6 04bd 66c9 163f 60f6 c1bc 3c4e bebb
00000080: 275e 183d 63e9 453d eb62 033e db65 a23d
00000090: 48e4 953e 922d ea3c 1c5c 913d b834 5cbc
000000a0: 41e1 003e 8382 abbc ba3c 26bb 7d62 51bd
000000b0: 0aac e83d 2eca e73f a695 ef3d cfcb 003d
000000c0: 58c1 103d 3ab5 4f3c e544 76bd 092f 713d
000000d0: ac3a 88bd 1ed0 9d3d 8dbc cb3d 229b 7b3d
000000e0: 8038 423d c894 c1bc 5e05 913d 1b74 6dbd
000000f0: fb35 a83f ec50 d33d c094 be3d 1847 863c
00000100: 6613 2dbd d8e1 d03e 820d c23c 1104 023e
00000110: 0257 3b3f db24 823d 710d 00bd 0b5b 9d3d
00000120: 8273 203f 2fa9 74bd 9afd 5abd 4f08 533d
00000130: a310 403d b44f 1ebb 1843 d43f f47f 1ebb
00000140: b683 8cbc f3d2 1ebd e875 b63d ab9d de3d
00000150: b009 7c3f 759e 9f3d 7355 1d3f 9ffc 4e3c
00000160: 98b2 0abd 367b 583d 6d17 773c ec23 8cbc
00000170: a5d3 8e3d 3ba7 593d 9346 323d 78e5 043d
00000180: 0a4b 203d 3f94 a83d a4cd 943d 2875 1c3b
00000190: deee e3bc f38c 983f 05c3 9a3d abe3 3b3d
000001a0: 71ce 8e3d 1a54 8fbb 57c3 003d 84f6 52bd
000001b0: ec42 843d 3b46 d53d 5d68 753f d385 383d
000001c0: 6d0a 283d 2bbb 323d 6d30 14bc 6c69 f93d
000001d0: a375 b03d 9055 273d c377 ec3d e1d5 cf3d
000001e0: a129 803f 285f 5d3d 39fa a33d 0ff6 463d
000001f0: 5415 13bd 9ff2 86bb 3a60 243d 1bde 203f
00000200: 5caa ea3d d35f 963d 556f c23d 6036 153e
00000210: e9fb 8e3d 0b86 4f3e 348b a53d 6ab9 8d3d
00000220: 1aab 303e 5cb2 4c3e 46aa de3d e252 243d
00000230: d905 653e 86df 853d b716 383e 1623 4a3e
00000240: fc3a 133e ee48 c03d 969c 993d eb78 233e
00000250: 7dd8 2a3f 3e7c 6b3d 6ea7 703f 718d 5e3e
00000260: 6eac 183e 0e27 aa3d 4ea6 e23d 80d1 553e
00000270: a213 cc3d 0b43 2e3f 5454 053e c81a 5f3d
00000280: e617 283e c141 1b3e c9ee b23d c69b 4c3e
00000290: ab33 b33e 9a98 c93d 791f df3d bb05 433e
000002a0: 8680 463e ce58 173e 10ec ca3d 9ca7 393e
000002b0: f461 393e acf8 443f e13a 033e 0e68 473d
000002c0: 49a2 2a3e 2c94 873d 8177 e23d 8eca a73d
000002d0: d389 3f3e 5ccd 1b3e d048 5d3e 64bd 493e
000002e0: 82fc 2a3e 2070 d13d 94f6 4b3d 30ef fc3d
000002f0: 99ae a23f 249b 263e 9883 5e3e c522 a03c
00000300: 4b00 193e 522d 0b3f e774 563e 3a7f 133e
00000310: a173 373f 78d0 0a3e bde7 5d3e e9b7 5a3e
00000320: c67a 2f3f ea4c 303e c206 013e 4155 153e
00000330: 6429 a03d 3e2a dd3d f6f2 263f 74c8 1c3d
00000340: ebd1 153e f4d0 603e 5032 593d 27a4 d33d
00000350: bc1f 233f a840 b03d 2941 163f 0021 1b3e
00000360: c114 a43d 029c e63d 294f c83d c047 1b3e
00000370: 4094 a03d 2e40 133d 3990 d83d 94ba 3c3e
00000380: f15b 333e d7bf df3d 1355 133e 6a7c 143e
00000390: 7fdc 0d3e 1c3c 8d3f 9e56 363e 0c9a dd3d
000003a0: 1794 e33d e9bc dc3d 308b 053e fb84 033e
000003b0: 1bf0 763d 304a e33d a115 2c3f d66b 203e
000003c0: a52a 053e 95aa a63d 00b1 f03d ab57 ee3d
000003d0: 6900 d43d cb6b f93d 5227 383e 35f9 d13d
000003e0: cead 113f d6b9 033d c7c7 973d 983d 0d3e
000003f0: a7ca 073e a616 093e dbc9 1d3e 6352 103f

layer_2.weight_hh f4 [64, 64]
0.06969151 0.077391066 0.02840239 0.038170204 -0.0015465514 0.022209944 0.014721115 0.07841368
-0.0240408 -0.05606547 -0.0129218465 0.05022679 -0.045732852 -0.07282176 -0.03842235 0.031148128
0.047860585 0.033132628 -0.06336955 -0.0032450112 -0.0871992 0.020013722 -0.048870787 -0.025813242
0.077187315 0.068307 -0.05829832 0.029200682 0.04957502 0.04365714 0.084399596 0.024854016
-0.070036784 0.06811818 -0.039014783 -0.01973841 -0.031163491 0.033755302 -0.06590386 -0.00013891913
-0.06592453 0.011775003 0.05173624 0.08961824 -0.00070668396 0.06443611 0.08658659 -0.03682261
0.0652588 0.06893069 0.020164574 -0.018393222 0.021095593 -0.046675466 0.034493756 0.03361135
-0.022285981 0.029448723 0.009135829 0.021706441 -0.08304289 -0.053382333 0.016238194 -0.06271258
0.08427191 0.05440207 -0.082978874 0.07611778 0.08969769 0.08119203 0.022897065 0.03856153
-0.08616014 -0.0628613 -0.078052215 -0.011971238 -0.065770656 -0.048420385 0.016902747 0.08481018
-0.008645129 0.040237308 0.0067544156 0.016564833 -0.02219634 -0.090779 -0.050931703 0.018815784
0.07506996 -0.026409963 -0.06961368 -0.08408992 0.032661498 0.07745765 0.078696966 0.05567354
-0.0569933 0.04304617 0.051386844 -0.0005234745 -0.07212378 0.07746246 0.056770172 0.028679857
0.065891474 -0.0474995 -0.039251495 0.077343695 0.02290015 -0.06350211 -0.08094347 -0.05724799
-0.023705006 0.06884432 0.05702744 -0.05494083 -0.01811587 0.019436413 -0.0028486475 0.0113320425
0.041609228 0.0022106038 0.0757337 -0.07263213 0.071824975 0.087437175 -0.0799275 0.0061501237
0.071672365 -0.08458247 0.021993618 0.09046303 0.05769531 -0.023805287 0.04077348 0.055423517
0.042044237 -0.009618835 -0.017854262 0.029532962 -0.0426999 0.079297125 0.08658867 -0.07090189
0.089455254 -0.030047676 -0.013996146 0.072145104 0.013831272 -0.053176172 0.04642408 0.004895309
0.08024323 -0.06431283 -0.09035031 -0.0069416356 -0.012671946 -0.014682478 -0.056564726 0.030993953
0.011983632 -0.08542425 0.087848544 0.038133554 -0.05752483 -0.038707267 -0.068356484 0.061030038
0.041297797 -0.009834386 0.092064984 0.067093164 0.02867142 0.05484134 -0.04603627 0.07357761
0.08332636 0.03628329 -0.034890592 0.030573206 0.001348573 -0.03160281 0.062561095 -0.061426137
-0.090564735 -0.00945575 -0.051614147 0.017153732 0.07908785 0.049419004 -0.08773675 0.048321083
0.027382798 -0.04605858 0.066180296 -0.04368422 0.06808857 -0.07644245 -0.005603209 0.0338209
0.07157731 0.010224972 0.033875715 0.07751926 -0.07691558 0.032871272 0.057249013 -0.06264901
-0.06828647 -0.05048278 -0.0044956477 -0.015422063 0.031073125 0.0406974 -0.019318854 -0.06666587
0.07501466 -0.085852325 -0.08647176 -0.041802876 -0.0041123596 0.05470445 0.039306134 -0.020317126
-0.07470146 0.08854121 -0.09049514 -0.059748527 0.08951215 0.09135018 0.004153008 0.02513146
-0.0024290062 -0.0152423885 0.08613335 -0.0010266883 0.07850677 -0.03511126 -0.08193346 -0.024021352
0.040650584 0.07617967 0.019821232 0.03722625 0.073112845 -0.017376795 0.03906794 -0.08632687
0.025659906 0.051202886 0.051402323 -0.07520259 0.081991665 -0.07243714 0.024303557 0.08030828
00000000: 6cba 8e3d 357f 9e3d 21ac e83c 5c58 1c3d
00000010: a7b5 caba a1f1 b53c d530 713c 5a97 a03d
00000020: 36f1 c4bc e8a4 65bd 27b6 53bc 9bba 4d3d
00000030: 5f52 3bbd 9323 95bd c160 1dbd 5c2a ff3c
00000040: 7609 443d 14b6 073d e5c7 81bd 41aa 54bb
00000050: 7f95 b2bd d1f3 a33c bc2c 48bd 4b76 d3bc
00000060: 6214 9e3d 8ae4 8b3d 38ca 6ebd 4536 ef3c
00000070: 2d0f 4b3d d4d1 323d b2d9 ac3d a69a cb3c
00000080: 726f 8fbd 8b81 8b3d f7cd 1fbd 72b2 a1bc
00000090: 944a ffbc 0043 0a3d 9af8 86bd d2aa 11b9
000000a0: 7103 87bd f1eb 403c 61e9 533d c589 b73d
000000b0: c240 39ba 14f7 833d 4f54 b13d 4ed3 16bd
000000c0: 68a6 853d 892b 8d3d 2d30 a53c 62ad 96bc
000000d0: aad0 ac3c c62e 3fbd 5349 0d3d 0eac 093d
000000e0: 1791 b6bc 733e f13c 72ae 153c b5d1 b13c
000000f0: 6412 aabd 6fa7 5abd f605 853c 746f 80bd
00000100: c096 ac3d b4d4 5e3d d4f0 a9bd a3e3 9b3d
00000110: 6cb3 b73d 0248 a63d a092 bb3c b2f2 1d3d
00000120: ba74 b0bd 6dbd 80bd d7d9 9fbd 0323 44bc
00000130: c4b2 86bd 7454 46bd a177 8a3c f6b0 ad3d
00000140: 4da4 0dbc e0cf 243d 2554 dd3b f9b2 873c
00000150: 19d5 b5bc 57ea b9bd c39d 50bd 8f23 9a3c
00000160: 47be 993d b559 d8bc 9e91 8ebd 5637 acbd
00000170: 10c8 053d 1ea2 9e3d e02b a13d f009 643d
00000180: ce71 69bd 2e51 303d 037b 523d c739 09ba
00000190: a2b5 93bd a3a4 9e3d d787 683d 05f2 ea3c
000001a0: 1cf2 863d d68e 42bd 2dc6 20bd 5f66 9e3d
000001b0: 1899 bb3c 650d 82bd b1c5 a5bd de7c 6abd
000001c0: 0031 c2bc 40fe 8c3d 9b95 693d a309 61bd
000001d0: bc67 94bc 1d39 9f3c 60b0 3abb 08aa 393c
000001e0: 706e 2a3d c7df 103b 451a 9b3d 27c0 94bd
000001f0: f918 933d 4312 b33d 07b1 a3bd fa86 c93b
00000200: f6c8 923d 9339 adbd f62b b43c ae44 b93d
00000210: eb51 6c3d 4e03 c3bc 1802 273d c503 633d
00000220: 9436 2c3d 5198 1dbc 1a43 92bc 1cef f13c
00000230: 17e6 2ebd 8866 a23d 6755 b13d 0335 91bd
00000240: 5134 b73d 8b26 f6bc 1750 65bc d0c0 933d
00000250: 8f9c 623c 42cf 59bd 2d27 3e3d d468 a03b
00000260: 9056 a43d 72b6 83bd 9509 b9bd a976 e3bb
00000270: fe9d 4fbc c78e 70bc 6ab0 67bd 08e7 fd3c
00000280: ff56 443c e9f2 aebd f0e9 b33d ee31 1c3d
00000290: 289f 6bbd 838b 1ebd 7cfe 8bbd a2fa 793d
000002a0: e127 293d 6820 21bc 918c bc3d 2468 893d
000002b0: 53e0 ea3c 50a1 603d 8790 3cbd dcaf 963d
000002c0: 03a7 aa3d c99d 143d 70e9 0ebd a974 fa3c
000002d0: 9ac2 b03a f371 01bd 0820 803d f999 7bbd
000002e0: 017a b9bd 4aec 1abc 5b69 53bd fc85 8c3c
000002f0: d0f8 a13d 956b 4a3d 53af b3bd 54ec 453d
00000300: e451 e03c eca7 3cbd 8989 873d 3aee 32bd
00000310: 0572 8b3d dc8d 9cbd 209b b7bb c987 0a3d
00000320: 2097 923d a486 273c 43c1 0a3d 6bc2 9e3d
00000330: ea85 9dbd 07a4 063d f17d 6a3d 204e 80bd
00000340: c7d9 8bbd 08c7 4ebd 3a50 93bb d2ac 7cbc
00000350: 118d fe3c 51b2 263d 9342 9ebc 1e88 88bd
00000360: 49a1 993d 58d3 afbd 1b18 b1bd 7e39 2bbd
00000370: f9c0 86bb c611 603d 78ff 203d 1a70 a6bc
00000380: 14fd 98bd 1855 b53d 8455 b9bd dfba 74bd
00000390: 2552 b73d ce15 bb3d f515 883b 7ee0 cd3c
000003a0: f62f 1fbb 36bb 79bc af66 b03d f191 86ba
000003b0: 28c8 a03d d3d0 0fbd bbcc a7bd 6dc8 c4bc
000003c0: 3a81 263d 1604 9c3d 2360 a23c 8d7a 183d
000003d0: 30bc 953d c859 8ebc b405 203d 24cc b0bd
000003e0: b934 d23c 1eba 513d 3e8b 523d d103 9abd
000003f0: 3feb a73d ec59 94bd 4118 c73c ab78 a43d

layer_2.bias_ih f4 [64]
0.13242222 0.17909105 0.14867312 0.21964914 0.038306784 -0.049620103 -0.04714925 0.20897013
-0.09189297 0.04057794 0.08320304 0.039580356 0.05846782 0.22021881 0.15521069 0.16481856
0.07111964 0.22164612 0.17533635 0.08571042 -0.06743142 0.13162543 0.09173079 0.16965659
-0.0881618 0.13092056 0.083619565 0.23138562 0.24045654 0.021115614 0.14531365 0.24195819
0.110094376 0.1963586 0.15097998 0.1288005 -0.032416165 -0.07033925 -0.08202763 0.13760321
0.21766534 0.155832 0.0033927877 0.14934479 0.16687286 0.12878366 0.14346877 0.18183368
0.0375118 0.0006401301 0.17600283 0.19064516 0.07525601 0.06727876 0.10293015 0.21964219
0.1466565 -0.04567344 0.23111948 -0.10727665 -0.09373931 -0.044975165 0.059694257 0.06055358
00000000: b199 073e a563 373e c43d 183e b4eb 603e
00000010: 93e7 1c3d 733e 4bbd 921f 41bd 44fc 553e
00000020: 6232 bcbd 0e35 263d 5b66 aa3d 031f 223d
00000030: f47b 6f3d 0a81 613e 8def 1e3e 32c6 283e
00000040: 2ca7 913d 33f7 623e 5f8b 333e f288 af3d
00000050: 7c19 8abd d1c8 063e 5add bb3d 75ba 2d3e
00000060: 2c8e b4bd 0a10 063e bc40 ab3d 5af0 6c3e
00000070: 3d3a 763e a7fa ac3c 1acd 143e e3c3 773e
00000080: 2979 e13d 3b12 493e 7f9a 1a3e 47e4 033e
00000090: d0c6 04bd 060e 90bd 1afe a7bd dbe7 0c3e
000000a0: aae3 5e3e 6c92 1f3e 8859 5e3b d7ed 183e
000000b0: b8e0 2a3e dddf 033e 7ae9 123e 9c32 3a3e
000000c0: f9a5 193d 67ce 273a 163a 343e 7c38 433e
000000d0: d31f 9a3d 72c9 893d 0bcd d23d e2e9 603e
000000e0: 1f2d 163e 1314 3bbd 96aa 6c3e dcb3 dbbd
000000f0: 65fa bfbd e137 38bd f781 743d 0807 783d

layer_2.bias_hh f4 [64]
0.0023915991 0.13600026 0.22158037 0.2264145 -0.102277376 0.036750827 -0.07662928 0.15560314
-0.046105143 0.011366784 -0.07568121 0.0776059 0.21421805 0.08571286 0.09490479 0.066367075
0.18967713 0.18514232 0.06509289 0.082202956 0.016364843 0.2123503 0.0658769 0.18051404
-0.03505079 0.15070124 0.008194734 0.14066932 0.15231182 0.008744926 0.06776158 0.12406492
0.07869638 0.17641726 0.23568939 0.082409374 -0.015740907 0.070118144 -0.029416317 0.2278082
0.17686635 0.07048279 -0.035533205 0.09644951 0.21980372 0.14964344 0.08819146 0.20223214
-0.031113144 0.05918874 0.0687049 0.20346506 0.10412272 0.23092526 0.1529786 0.12158744
0.11536044 -0.04685855 0.13639964 0.06798933 0.003256572 -0.03841256 0.17629299 0.08157166
00000000: 60bc 1c3b a743 0b3e f7e5 623e 34d9 673e
00000010: cd76 d1bd 0988 163d d0ef 9cbd 6e56 1f3e
00000020: bfd8 3cbd bf3b 3a3c c0fe 9abd d8ef 9e3d
00000030: fa5b 5b3e 398a af3d 715d c23d 76eb 873d
00000040: b93a 423e f395 3d3e 6c4f 853d 065a a83d
00000050: 900f 863c 5b72 593e 78ea 863d acd8 383e
00000060: 6b91 0fbd 6d51 1a3e 3543 063c 9e0b 103e
00000070: a1f7 1b3e e146 0f3c 95c6 8a3d c015 fe3d
00000080: 912b a13d baa6 343e 8f58 713e 3fc6 a83d
00000090: 13f3 80bc 1a9a 8f3d 7dfa f0bc 8e46 693e
000000a0: 741c 353e 4859 903d 448b 11bd 5287 c53d
000000b0: 3a14 613e 213c 193e b99d b43d f115 4f3e
000000c0: fee0 febc e46f 723d 28b5 8c3d 2559 503e
000000d0: 4b3e d53d ac77 6c3e 6ca6 1c3e d602 f93d
000000e0: 1842 ec3d c0ee 3fbd 59ac 0b3e fd3d 8b3d
000000f0: 366c 553b 7d56 1dbd 2686 343e 0b0f a73d

layer_3.weight_ih f4 [32, 64]
0.23950063 0.16739789 0.016081337 0.23529038 -0.12514177 0.027958507 0.09145372 0.2001376
0.030938704 0.038377162 0.042803142 0.0611289 0.263182 0.1281923 0.09017673 0.18207164
0.08534465 0.21451163 0.20087394 0.16210191 0.10842443 0.26887423 0.22025044 0.09754866
0.077766895 0.10834892 0.044237167 0.20353256 0.09171056 -0.017842652 0.17270279 0.043277938
0.21285003 0.2697927 0.035167363 0.06874969 -0.12488863 0.047515363 0.0016126159 0.14497364
0.24153295 0.20745638 0.081405744 0.14367552 0.16335115 0.20317098 0.14170432 0.24065809
0.01508202 -0.025126617 0.17722738 0.055962395 0.21395607 0.21314983 0.17440218 0.0301782
0.1021072 0.019921502 0.15695569 -0.034211315 -0.095705405 -0.040017545 0.22965792 0.164138
0.24496187 0.034387603 0.14219509 0.21468394 0.038691282 0.09233485 -0.07224359 0.029462295
0.08418022 -0.03321517 0.06669366 0.056852303 0.22569475 0.065051325 0.2108899 0.106546104
0.20080855 0.048938982 0.20246778 0.19762607 0.03215771 0.1658107 0.11240767 0.19457357
-0.09293678 0.108973764 -0.091620915 0.09064185 0.043188117 -0.028973171 0.09748964 0.12486098
0.23999673 0.09446427 0.21558304 0.08909981 0.0739241 -0.10130718 -0.031225309 0.1638027
0.23683015 0.011540788 -0.008646778 0.16905662 0.041778404 0.20689766 0.15712236 0.13606182
0.11392743 0.019985426 0.19159968 0.17302524 0.06862712 0.078994684 0.10429554 0.058829594
0.22727564 -0.07651335 0.1448844 -0.11390021 -0.09689463 -0.07504862 0.1509457 0.21585213
0.28087294 0.2408473 0.0632312 0.05711657 -0.05103951 0.0689403 -0.024956303 0.066453226
-0.13675275 0.04971842 -0.12399609 -0.13450448 0.23518106 0.06965192 0.22719206 0.100873046
0.015307315 0.09796451 0.052776016 0.19744143 0.0041746143 0.21706624 0.040597472 0.0853137
0.11673302 0.18684243 0.0051008887 0.041722637 0.08633865 0.03183954 0.23905562 0.24232544
0.18794477 0.23591001 0.21528374 0.092641324 0.107033215 0.07481148 -0.050799597 0.24589877
0.124819994 0.12814938 0.07780572 0.17225136 0.07300898 0.08885955 0.16284937 0.077610105
-0.05542861 0.08068904 0.15309696 0.007383768 0.11259743 0.24213621 0.119185075 0.14152163
0.24815346 0.09634132 0.058036543 -0.07013545 -0.009728333 -0.07060895 0.112311855 0.12598819
0.37297714 0.17911024 0.1492961 0.21848665 0.007878185 0.042948615 0.07395661 0.104306795
-0.07013282 0.08140739 -0.04103832 0.010472295 0.006329484 0.10142697 0.09329026 0.12247188
0.08148639 0.12043576 0.1437009 0.18774971 -0.10220557 0.033112396 0.086132675 0.14103068
0.07030457 0.07294104 0.065665215 0.025927342 0.24967605 0.030786794 0.1930002 0.24342453
0.26743123 0.19477403 0.17341211 0.066755004 -0.13206092 -0.11696509 0.013149261 0.11238015
0.16801879 0.16404705 0.117391266 0.15641981 0.08581263 0.1855912 0.17194645 0.16462629
-0.09329535 0.10504938 0.062070698 0.17363453 0.24861038 0.18939397 0.15906371 0.066860326
0.22479323 -0.05551635 0.14693277 0.024855344 0.066483825 -0.05028847 0.18351407 0.123604976
00000000: a73f 753e 5a6a 2b3e 02bd 833c f6ef 703e
00000010: 2a25 00be 3d09 e53c 174c bb3d dff0 4c3e
00000020: 2a73 fd3c 5f31 1d3d 5952 2f3d 4c62 7a3d
00000030: cbbf 863e d844 033e 94ae b83d fd70 3a3e
00000040: 2dc9 ae3d f0a8 5b3e e6b1 4d3e 0bfe 253e
00000050: a10d de3d e2a9 893e 5589 613e 98c7 c73d
00000060: 4044 9f3d 0ae6 dd3d 0832 353d d76a 503e
00000070: bfd2 bb3d c12a 92bc 00d9 303e 3544 313d
00000080: 5cf5 593e 4522 8a3e a70b 103d a3cc 8c3d
00000090: 9cc5 ffbd 789f 423d 695e d33a f873 143e
000000a0: 6a54 773e 726f 543e 0eb8 a63d ad1f 133e
000000b0: 8645 273e 0e0c 503e f01a 113e 136f 763e
000000c0: 941a 773c 56d6 cdbc 187b 353e d338 653d
000000d0: 4d17 5b3e f343 5a3e 7c96 323e 4638 f73c
000000e0: 941d d13d 6b32 a33c feb8 203e 2a21 0cbd
000000f0: 3201 c4bd 70e9 23bd 722b 6b3e cb13 283e
00000100: 49d7 7a3e 04da 0c3d 979b 113e 1bd6 5b3e
00000110: c07a 1e3d 0e1a bd3d 73f4 93bd e95a f13c
00000120: ae66 ac3d a10c 08bd b096 883d f6dd 683d
00000130: 861c 673e a139 853d 86f3 573e d834 da3d
00000140: c2a0 4d3e 3e74 483d b753 4f3e 7d5e 4a3e
00000150: ceb7 033d 48ca 293e fe35 e63d 4b3e 473e
00000160: a355 bebd a32d df3d bfa3 bbbd 6fa2 b93d
00000170: 06e6 303d 2559 edbc a6a8 c73d 1db7 ff3d
00000180: b4c1 753e 7c76 c13d cdc1 5c3e f679 b63d
00000190: 8565 973d 247a cfbd 38cc ffbc e5bb 273e
000001a0: 9a83 723e 9315 3d3c 37ab 0dbc 2e1d 2d3e
000001b0: d51f 2b3d fbdc 533e afe4 203e ca53 0b3e
000001c0: c952 e93d 7ab8 a33c b532 443e 872d 313e
000001d0: 608c 8c3d f7c7 a13d e698 d53d 4df7 703d
000001e0: f2ba 683e 08b3 9cbd 935c 143e 8344 e9bd
000001f0: b170 c6bd 17b3 99bd 8291 1a3e 5708 5d3e
00000200: 94ce 8f3e ada0 763e 5c7f 813d 11f3 693d
00000210: ce0e 51bd 9230 8d3d 2971 ccbc a118 883d
00000220: ea08 0cbe 8ba5 4b3d a9f1 fdbd 8bbb 09be
00000230: 4ed3 703e aaa5 8e3d 09a5 683e 8796 ce3d
00000240: 88cb 7a3c 9ea1 c83d aa2b 583d 162e 4a3e
00000250: 34cb 883b 9d46 5e3e 8949 263d f3b8 ae3d
00000260: b911 ef3d 9f53 3f3e 5b25 a73b 5be5 2a3d
00000270: 51d2 b03d 2d6a 023d ffca 743e 2924 783e
00000280: 9874 403e 6592 713e 5773 5c3e bcba bd3d
00000290: 3b34 db3d c336 993d 3d13 50bd e3cc 7b3e
000002a0: a0a1 ff3d 9739 033e 9b58 9f3d a962 303e
000002b0: bb85 953d fffb b53d fcc1 263e 0cf2 9e3d
000002c0: 1c09 63bd 4c40 a53d 73c5 1c3e 89f3 f13b
000002d0: 7b99 e63d 8ef2 773e 4e17 f43d 0ceb 103e
000002e0: f11b 7e3e 994e c53d bab7 6d3d 2da3 8fbd
000002f0: 9663 1fbc 6d9b 90bd c203 e63d 0c03 013e
00000300: dcf6 be3e ad68 373e 14e1 183e f7ba 5f3e
00000310: 8113 013c e3ea 2f3d 9076 973d cd9e d53d
00000320: cca1 8fbd ebb8 a63d cc17 28bd fd93 2b3c
00000330: 8f67 cf3b f1b8 cf3d f70e bf3d 89d2 fa3d
00000340: 56e2 a63d 06a7 f63d 5426 133e 7641 403e
00000350: 2751 d1bd dda0 073d 5466 b03d 596a 103e
00000360: d8fb 8f3d 1d62 953d 7c7b 863d 9465 d43c
00000370: 14ab 7f3e 9634 fc3c d8a1 453e 4844 793e
00000380: bfec 883e d872 473e f292 313e d9b6 883d
00000390: fa3a 07be 658b efbd ff6f 573c 9027 e63d
000003a0: 1e0d 2c3e f3fb 273e d56a f03d 842c 203e
000003b0: 88be af3d 9f0b 3e3e bb12 303e cb93 283e
000003c0: a211 bfbd 2124 d73d d83d 7e3d 40cd 313e
000003d0: b893 7e3e 7ef0 413e 99e1 223e 11ee 883d
000003e0: 3230 663e 1d65 63bd 8b75 163e 6f9d cb3c
000003f0: ac28 883d 48fb 4dbd 1deb 3b3e 9b24 fd3d

layer_3.weight_hh f4 [32, 32]
-0.009690102 -0.12540425 -0.050961178 -0.12233861 0.02074046 -0.1074899 -0.12134701 0.070023865
0.04261914 0.056283522 0.104762316 0.109245814 0.09944405 -0.06570893 0.094551265 0.03572517
-0.040972486 0.065087356 -0.05048706 0.0679929 0.044016972 0.08176555 -0.061729528 -0.021295594
0.12600616 0.09293575 0.11917023 0.033405073 0.11669038 0.053974524 -0.09135513 0.123214066
-0.058630895 -0.086369805 0.012759951 0.042417664 0.033051167 0.054959778 0.12984808 0.10631083
0.10661028 -0.07435843 -0.105168656 -0.10155813 0.059715632 -0.012859789 -0.11978741 0.11782653
-0.0055424045 -0.027741557 0.009635136 -0.08383274 0.07584769 0.056687042 -0.1276392 -0.12534624
0.09261811 -0.0807916 -0.08247081 -0.049419638 -0.062013138 -0.065942675 0.07050562 -0.052770328
0.0055961534 -0.10963511 0.10589218 -0.05058203 0.04856985 0.07061371 0.042486724 0.09408423
-0.056516826 -0.06541621 0.120590314 0.07737077 -0.08482981 0.043107778 -0.021366088 0.07177759
-0.04600383 0.109300785 0.08422829 0.07109086 0.07850397 0.008282878 -0.030282043 0.04980368
0.118126824 0.0049720444 0.009552536 -0.04667129 -0.027065396 0.039193183 0.033780314 0.0022166718
0.109461315 0.12293792 0.08957655 0.0921171 0.010707057 0.002959965 -0.0033642503 -0.080757014
-0.0010738488 0.07271308 -0.110731736 0.106615126 -0.06737431 -0.02643246 0.06939345 0.04568155
0.0057304883 -0.13004981 0.056917306 -0.024043938 -0.0034112064 0.11342807 0.0723299 -0.10630275
0.107325576 0.018096814 0.012924339 0.12643826 0.119522646 -0.09185575 0.0486159 0.11760225
0.09217536 0.038659904 0.07449715 -0.00781234 0.0060821082 -0.017928135 -0.02201481 0.049985133
-0.114519425 0.051685873 -3.5392363e-06 -0.10596285 -0.028396396 -0.047628116 -0.046846177 -0.12587385
0.12806861 0.043782245 -0.10252524 0.08197147 0.11774403 0.018337715 0.014059386 0.003474347
-0.06775129 -0.09083867 -0.08181112 -0.06414082 -0.050710704 -0.083783865 -0.07700379 -0.045342684
-0.028288793 -0.044796824 0.015415227 0.0361609 -0.07713227 0.11479786 -0.06025705 0.09874868
-0.0105254045 0.010237984 -0.01298526 -0.075677395 0.019015178 -0.08184032 -0.020608263 -0.1272294
-0.09814485 -0.031546798 0.03682125 0.1138357 -0.06467555 -0.06350653 -0.012159263 -0.0904485
0.012228574 0.09105619 0.028629638 0.049795803 0.027673507 0.11680654 0.07440607 -0.05520885
-0.04678628 -0.042870563 0.11077393 -0.05539664 -0.08587282 0.057196274 0.020880658 0.11735045
-0.0844842 -0.028565612 -0.0118232025 -0.02789811 -0.01616714 -0.009695852 -0.04080831 0.03610655
0.079977185 -0.015818795 -0.115383275 -0.047256075 0.13012843 0.043959536 0.0007852085 -0.0686686
0.10450303 0.10027657 0.007197359 -0.020474704 0.12013585 0.025762862 -0.10407533 -0.09483693
0.00214273 -0.0505888 -0.04293356 -0.026265834 0.058715377 -0.012083216 0.09891706 -0.01956678
0.026979385 -0.0308314 -0.001567467 0.11806812 0.04505397 -0.12711559 0.06350119 0.095494635
0.0806397 -0.06452646 0.026419472 0.1299293 0.12880953 0.055289116 0.12971151 -0.05662998
-0.12002998 0.08993208 0.02849321 0.08066755 0.095413834 0.08306273 0.1168652 0.11056682
00000000: 3cc3 1ebc f969 00be abbc 50bd aa8c fabd
00000010: e6e7 a93c aa23 dcbd c884 f8bd ac68 8f3d
00000020: 6891 2e3d 8d89 663d a08d d63d 45bc df3d
00000030: 52a9 cb3d 6792 86bd 18a4 c13d 8e54 123d
00000040: c4d2 27bd 854c 853d 85cb 4ebd dd3f 8b3d
00000050: 244b 343d b274 a73d 1ad8 7cbd 1974 aebc
00000060: c207 013e 1955 be3d 860f f43d c2d3 083d
00000070: 5efb ee3d 6414 5d3d 6618 bbbd a857 fc3d
00000080: f326 70bd a7e2 b0bd 1d0f 513c 25be 2d3d
00000090: a960 073d 811d 613d e5f6 043e 7eb9 d93d
000000a0: 7e56 da3d 3c49 98bd aa62 d7bd b5fd cfbd
000000b0: 6198 743d ddb1 52bc 1a53 f5bd 094f f13d
000000c0: 0f9d b5bb 4342 e3bc b1dc 1d3c 80b0 abbd
000000d0: 0956 9b3d ac30 683d dab3 02be c45a 00be
000000e0: 90ae bd3d 1176 a5bd 75e6 a8bd 3f6c 4abd
000000f0: 7d01 7ebd f40c 87bd 4065 903d b325 58bd
00000100: f05f b73b 5f88 e0bd 00de d83d 1a2f 4fbd
00000110: 2ef1 463d ec9d 903d 8f06 2e3d 3caf c03d
00000120: 307e 67bd eff8 85bd 0ef8 f63d 9174 9e3d
00000130: 40bb adbd c891 303d ef07 afbc 2100 933d
00000140: 836e 3cbd 17d9 df3d e27f ac3d 1698 913d
00000150: b0c6 a03d e9b4 073c 0c12 f8bc f2fe 4b3d
00000160: 7aec f13d 88ec a23b 3d82 1c3c 652a 3fbd
00000170: 40b8 ddbc 0889 203d 3a5d 0a3d 9545 113b
00000180: 412d e03d e0c6 fb3d e973 b73d e4a7 bc3d
00000190: a76c 2f3c f9fb 413b c17a 5cbb ef63 a5bd
000001a0: 63c0 8cba 98ea 943d 52c7 e2bd 0859 da3d
000001b0: 8bfb 89bd e388 d8bc 271e 8e3d 941c 3b3d
000001c0: d2c6 bb3b c72b 05be 1f22 693d cbf7 c4bc
000001d0: 8c8e 5fbb fa4c e83d b321 943d 42b5 d9bd
000001e0: 83cd db3d c53f 943c 9bc0 533c 0879 013e
000001f0: 4ac8 f43d de1e bcbd 7721 473d 73d9 f03d
00000200: 6fc6 bc3d d959 1e3d f691 983d a8fe ffbb
00000210: 6c4c c73b 06de 92bc 6758 b4bc 36bd 4c3d
00000220: 2989 eabd 91b4 533d 9e83 6db6 0d03 d9bd
00000230: 8f9f e8bc b315 43bd c7e1 3fbd 13e5 00be
00000240: 6b24 033e 0355 333d c1f8 d1bd a8e0 a73d
00000250: c823 f13d fa38 963c 5759 663c dfb1 633b
00000260: 30c1 8abd a009 babd 978c a7bd 435c 83bd
00000270: 07b6 4fbd e096 abbd 2ab4 9dbd 40b9 39bd
00000280: e6bd e7bc e07c 37bd 2690 7c3c 741d 143d
00000290: 86f7 9dbd 241b eb3d 19d0 76bd bf3c ca3d
000002a0: bf72 2cbc 38bd 273c 21c0 54bc c0fc 9abd
000002b0: b8c5 9b3c e69b a7bd a9d2 a8bc 6d48 02be
000002c0: 2b00 c9bd 3737 01bd e1d1 163d b122 e93d
000002d0: 9d74 84bd b60f 82bd a537 47bc 103d b9bd
000002e0: 5b5a 483c ab7b ba3d b488 ea3c aff6 4b3d
000002f0: 8db3 e23c 4438 ef3d 3662 983d ad22 62bd
00000300: f8a2 3fbd 0b99 2fbd 71dd e23d 96e7 62bd
00000310: 17de afbd a446 6a3d ea0d ab3c 6f55 f03d
00000320: 0d06 adbd 6e02 eabc 1bb6 41bc 948a e4bc
00000330: f370 84bc 5adb 1ebc 9d26 27bd 76e4 133d
00000340: 14cb a33d 6b96 81bc 114e ecbd 968f 41bd
00000350: 6340 053e ea0e 343d 73d6 4d3a 1fa2 8cbd
00000360: af05 d63d cd5d cd3d d3d7 eb3b 91ba a7bc
00000370: c909 f63d a30c d33c 7225 d5bd dd39 c2bd
00000380: 0b6d 0c3b 3436 4fbd 1adb 2fbd 722b d7bc
00000390: 897f 703d aef8 45bc 0795 ca3d 834a a0bc
000003a0: df03 dd3c 2292 fcbc 7773 cdba b3cd f13d
000003b0: 838a 383d 972a 02be e90c 823d b192 c33d
000003c0: 6d26 a53d 7326 84bd a66d d83c 300c 053e
000003d0: a5e6 033e d776 623d 18d3 043e d7f4 67bd
000003e0: 47d2 f5bd 4f2e b83d 986a e93c 0735 a53d
000003f0: 5468 c33d cb1c aa3d 0657 ef3d db70 e23d

layer_3.bias_ih f4 [32]
0.19038507 0.023351667 0.16462657 0.07279364 0.032365777 0.07994078 0.106618896 0.07344097
0.040714744 -0.045030497 0.16606107 -0.076624304 0.07709166 0.075302534 -0.079579644 0.21064712
-0.09923087 0.10108925 -0.12595396 -0.09968986 0.2126066 -0.049383994 0.1319413 0.20703982
0.079545714 0.044327084 0.08883594 -0.10464519 -0.11520839 0.119541116 -0.021583984 0.040302765
00000000: 4ef4 423e ff4b bf3c de93 283e d514 953d
00000010: fa91 043d feb7 a33d 025b da3d 3868 963d
00000020: 81c4 263d e671 38bd ea0b 2a3e 34ed 9cbd
00000030: 3be2 9d3d 3738 9a3d a7fa a2bd e1b3 573e
00000040: 8e39 cbbd e107 cf3d 13fa 00be 332a ccbd
00000050: 8bb5 593e df46 4abd 9f1b 073e 3f02 543e
00000060: dde8 a23d 5190 353d 9eef b53d 3850 d6bd
00000070: 60f2 ebbd f9d1 f43d e5d0 b0bc 8314 253d

layer_3.bias_hh f4 [32]
0.0699407 0.013188748 0.118152544 0.22185697 -0.026120258 0.11357954 0.041903842 -0.10232159
0.24492158 0.10362442 0.13246237 -0.023816286 -0.024298465 -0.030896317 0.08304471 0.2146947
-0.030344464 0.2364668 -0.08752397 -0.015130356 0.20181674 -0.09595905 0.100747816 0.1514917
0.11286039 0.19168214 0.18656684 -0.054490007 -0.039032664 0.06368826 0.120005846 -0.099436045
00000000: 123d 8f3d 9e15 583c f6f9 f13d 792e 633e
00000010: 27fa d5bc 649c e83d 5da3 2b3d fb8d d1bd
00000020: b9cc 7a3e 0a39 d43d 37a4 073e 5f1a c3bc
00000030: 930d c7bc 461a fdbc 5813 aa3d edd8 5b3e
00000040: f494 f8bc 5a24 723e c43f b3bd 50e5 77bc
00000050: 0ca9 4e3e 2e86 c4bd df54 ce3d a420 1b3e
00000060: 5923 e73d 5348 443e 610b 3f3e ea30 5fbd
00000070: b7e0 1fbd fe6e 823d a0c5 f53d 20a5 cbbd
