src/barabasi_1000.pth (torch, 649955 bytes, 17 tensors)

layer_1.weight_ih f4 [128, 1000]
000000 5a de a7 bd 7f 4f 2e 3d 91 4b da 3d df cb f8 bb
       -0.08196707 0.042556282 0.106589444 -0.0075926627
000010 a3 0a 47 3d 7c 76 24 3e 4b 3c ef 3d 7a 77 77 3d
       0.04859413 0.16060823 0.11681422 0.060416676
000020 a5 cb 68 3e db 24 a7 3d d9 41 a1 3c fe 23 26 3d
       0.22733934 0.081613265 0.019684719 0.04056167
000030 63 0a 0f 3e a9 8b 6d 3d 35 e4 09 3e ad 8f af 3d
       0.13968806 0.05799452 0.1346596 0.08572326
000040 12 3d 04 3e c6 14 3d 3e 39 b3 0b 3e 6a 94 ae 3d
       0.12913921 0.18464956 0.13642587 0.085244015
000050 0c 7d a7 3e 94 89 c4 3c 2f 1c b4 3d a5 1d 83 3c
       0.3271259 0.023991384 0.08794438 0.016005347
000060 33 88 24 3e 04 6e 09 3e de 9b b5 3d 9e 00 69 bd
       0.16067581 0.13420874 0.0886762 -0.056885354
000070 42 e4 4e 3e 5a 88 b1 3d a9 e0 0f 3e 85 5e 81 bd
       0.20204261 0.08668585 0.14050545 -0.06316856
000080 8a 3f bb 3d 92 c5 8a 3c 67 8f 06 3e 23 83 77 3d
       0.091429785 0.016939912 0.13140641 0.060427796
000090 49 07 e0 3d 26 c1 db 3c 66 16 45 3d 2d 22 e1 bc
       0.109388895 0.026825499 0.048117064 -0.027482117
0000a0 03 29 99 3d 00 94 e8 3d 57 a3 79 bc ba d2 e3 bc
       0.074785255 0.11356354 -0.015236697 -0.027810443
0000b0 fa 07 ab 3d ee 18 16 3e 37 3c 21 bd 91 30 88 bd
       0.08351131 0.14657947 -0.039364066 -0.06649888
0000c0 28 b7 b3 bb 9b 08 c3 3d 02 74 e1 3d f2 6b 2b 3e
       -0.0054844804 0.09523126 0.11008455 0.16740397
0000d0 7c 96 e0 3d f8 c6 32 3e 5e 9b 97 3d 40 eb cf 3d
       0.109662026 0.17458713 0.07402681 0.10152292
0000e0 28 2b 8a b9 85 eb f4 3d 8d 11 0d 3e 6e dd 94 3d
       -0.00026353565 0.11958984 0.13776226 0.07268797
0000f0 83 3e 99 3d 5e cf 4d 3e fa 01 22 3e 5b 7e 03 3e
       0.07482626 0.20098636 0.15821066 0.1284117
000100 30 dc 80 3d 71 4b 38 3d ca 91 26 3e 91 48 3c 3e
       0.062919974 0.04499382 0.16266552 0.18387057
000110 da b9 d6 3d a1 4f ea 3d d0 e6 f3 3d 4a 48 00 3e
       0.10484667 0.11440969 0.11909258 0.12527576
000120 3d ba dd 3a 52 98 80 3e 30 12 80 3d d9 85 10 3e
       0.0016916465 0.2511621 0.06253469 0.14113559
000130 bf 89 47 3e 20 e1 48 3e b6 84 9d 3d a9 95 fa 3d
       0.1948614 0.19617128 0.07691328 0.12235577
000140 48 b2 4a 3e 08 e5 e2 3d 06 2d 2d 3e 8e 93 f9 3c
       0.19794571 0.110788405 0.16911706 0.030465867
000150 0c 23 71 3d 4e 84 ac 3d 40 59 96 bb 40 cc e2 3d
       0.058871314 0.084236726 -0.004588276 0.11074114
000160 0b 7b 7f 3d 04 52 20 3e ca 0d 4e 3e 31 ca a9 3d
       0.062373202 0.15656286 0.20122448 0.08290518
000170 76 ca ab 3d 85 1e 38 3d 85 80 0c 3e c9 53 29 3e
       0.08388226 0.04495098 0.13720901 0.16535868
000180 97 ef fa 3d 8e 5f 5a 3e d3 12 20 3e 66 ba ba 3d
       0.122527294 0.21325514 0.15632181 0.09117584
000190 18 ef 1b 3e 9b 07 dd 3c e7 93 21 3e 86 13 5c 3d
       0.15227926 0.026981166 0.15779077 0.053729557
0001a0 fd 85 76 3e dd 45 e5 3d ab cd 4d 3d 1d 13 fa 3c
       0.2407455 0.11194966 0.05024497 0.030526692
0001b0 bf be 08 3e fb e2 ee 3d 92 44 9f 3d b4 6b b3 3d
       0.13354014 0.11664387 0.077767506 0.08760777
0001c0 08 45 a1 3d a1 a1 0d 3e 39 66 80 3d 32 40 d0 3d
       0.07874495 0.13831188 0.062694974 0.10168494
0001d0 31 bc c1 3c e2 4f 46 3d be b7 1b 3e a1 63 23 3e
       0.023649307 0.048416026 0.15206811 0.15955974
0001e0 34 9e 1e 3e d0 f8 79 3d de 77 5b 3e bb 3b 0b 3d
       0.15490037 0.0610283 0.21432444 0.03399251
0001f0 ff da d1 3d e5 66 c9 3d d4 30 cc 3d 75 84 31 3e
       0.10246848 0.09834079 0.09970251 0.17335685
000200 d2 e7 d6 3c 78 32 9e 3d c3 35 48 3e 4d 44 f4 3d
       0.026233587 0.0772447 0.19551758 0.1192709
000210 e0 3f 89 3e 17 5b 03 3e fc 85 40 3e fa cc d5 3d
       0.26806545 0.12827717 0.18801111 0.10439487
000220 05 da ec 3d 84 37 0c 3e 39 ad cf 3d 45 96 52 3d
       0.115650214 0.13693053 0.101404615 0.05141284
000230 a2 dd 99 3d 06 bb 14 3e 66 1c bc 3d 80 07 1a 3e
       0.07512976 0.14524469 0.09185104 0.15041924
000240 50 fd 2a 3e 95 db a6 3d 44 99 5a 3e 36 a9 25 3e
       0.16698194 0.08147351 0.21347529 0.1617783
000250 af 97 8f 3d 93 bf 30 3e 02 cf b2 3d 69 2b cf 3d
       0.07011353 0.1726058 0.0873089 0.10115702
000260 40 0f bd 3d 2e 6c 51 3e 2a 8d 70 3e a6 4b 10 3e
       0.09231424 0.20451424 0.2349135 0.14091358
000270 6d cb cc 3d 76 14 69 3d c3 b5 0a 3e e4 90 37 3e
       0.09999738 0.05690428 0.13545899 0.17926365
000280 12 21 9a 3d ed 33 57 3e 94 10 31 3d aa 1c c6 3d
       0.07525839 0.21015902 0.0432287 0.09673436
000290 12 8a 1a 3e 25 75 61 3e 61 9e fc 3d 8e 83 5d bc
       0.15091732 0.22017343 0.12334896 -0.013520135
0002a0 b4 52 cc 3c c9 24 68 3e 74 e0 1e 3e 7e d3 ec bb
       0.02494178 0.22670282 0.1551531 -0.0072273603
0002b0 55 0d 2d 3e cb 7a 1f 3e 1a ce 98 3d 5c cb ca 3d
       0.16899617 0.15574186 0.07461186 0.09902069
0002c0 cb e9 54 3e 61 8f 84 3e 58 bb e6 3d 1d b8 13 3e
       0.2079231 0.2589064 0.11266202 0.14425702
0002d0 9f a3 20 3d f9 c0 24 3e 71 40 15 3e d0 86 2d 3e
       0.03921854 0.16089238 0.14575364 0.16945958
0002e0 e3 b0 14 3e 6f 38 0d 3e bc bb 76 3d 84 1d 99 3d
       0.14520602 0.13791059 0.06023763 0.07476333
0002f0 8e 8e ee 3d e1 b2 b9 3d a6 5d 16 3e d5 93 40 3e
       0.11648284 0.090673216 0.14684162 0.18806393
000300 49 1c 1f 3e 2d 21 a2 3d c3 5d f6 3d 32 a6 09 3e
       0.15538134 0.07916484 0.120296024 0.13442305
000310 3a 95 2c 3e 6c fd de 3d a6 92 8f 3d fd c9 ae 3d
       0.168538 0.1088818 0.07010393 0.0853462
000320 f9 8a 61 3e 20 20 00 3e a7 40 5e bd 66 8c dc 3d
       0.2202567 0.12512255 -0.054260876 0.107689664
000330 52 c0 ca bd 9c 08 93 3d fa 73 f7 3d d1 bb 05 3e
       -0.098999634 0.071793765 0.12082668 0.13059928
000340 c2 e8 b3 3c af 1b b2 3b c9 b1 11 3e b4 14 13 3e
       0.021961574 0.005435429 0.14227976 0.14363366
000350 67 b5 e9 3d 51 e2 63 3e f3 82 58 3d cf 09 5b 3e
       0.11411553 0.22254302 0.052859258 0.2139046
000360 11 5a f7 3c c7 ab b8 3d 70 39 d4 3d c7 08 0c 3e
       0.030194314 0.09017139 0.10362518 0.13675223
000370 e5 45 35 3e 17 5c c3 3d 48 5b 23 3e c7 14 b4 3d
       0.17702444 0.09539049 0.1595279 0.087930255
000380 73 d4 c4 3d 7b 2a 99 3d d4 1c f6 3d d0 78 02 3e
       0.09610834 0.07478806 0.12017217 0.12741399
000390 af 31 64 3d e6 6d 3c 3c 64 ac 1a 3e 3a 9a 78 3e
       0.055711444 0.011500811 0.15104824 0.24277583
0003a0 37 18 86 3e ce 92 05 3e ba 30 13 3e 8d ff 40 3e
       0.2619035 0.13044283 0.14374056 0.18847485
0003b0 e4 2f 3a 3d 39 59 b7 3d d1 ac 05 3e 98 59 91 3d
       0.04545583 0.08952565 0.13054205 0.07097167
0003c0 fa e2 f1 3d d9 6d 77 3e 3c 4b e3 3d 7b 9d 3f 3d
       0.118108705 0.24162997 0.11098334 0.046781044
0003d0 3c 76 e7 3d 9e 43 49 3e 49 72 f0 3d 12 7d 66 3d
       0.11301848 0.196547 0.11740548 0.05627162
0003e0 7a 49 17 3e ab 00 4f 3e ad 46 f7 3c 35 cb f2 3d
       0.14774123 0.20215099 0.030185068 0.11855165
0003f0 f5 c4 17 3e 8e a8 5d bb 49 1c 34 3d a8 97 18 3e
       0.14821227 -0.003382239 0.043972287 0.14901602

layer_1.weight_hh f4 [128, 128]
000000 43 cd 22 3d 5b 32 dd 3c a4 f2 52 bd ba b0 5f 3d
       0.039746534 0.02700155 -0.05150093 0.0546119
000010 20 90 f8 bc dd 52 ac bb 7d 47 9b 3d f2 db 88 3d
       -0.030342162 -0.0052589015 0.07581995 0.06682576
000020 4f 75 99 3d 34 e5 5e 3d 87 ba 82 bd 60 77 2f 3d
       0.07493078 0.054417804 -0.063832335 0.042838454
000030 ab e9 ae bc 1a f1 61 3d 6f cc 57 3d 8f 99 94 bd
       -0.021351656 0.055161573 0.052685197 -0.072558515
000040 75 3b 6f bd df 58 b0 bb 59 09 23 bd e9 be 03 bd
       -0.058406312 -0.005381688 -0.039803836 -0.032164488
000050 6f 49 6c 3d 1f b8 10 bd 6d cc 3b 3d 24 80 a0 bc
       0.05768722 -0.03533184 0.045849252 -0.019592352
000060 c3 47 4f 3d 6e cd e0 3c e5 b0 1f 3c 9b c5 90 3c
       0.050605547 0.027441707 0.009746765 0.01767235
000070 96 18 82 bc 8f 14 87 3c 59 17 4a 3d fe 1d 37 3c
       -0.015880864 0.016489295 0.049338672 0.011176584
000080 39 12 86 3d 82 a8 3f bd 34 e1 1c bd a8 d6 9f 3d
       0.065464444 -0.04679156 -0.038300708 0.07804614
000090 c1 b7 6f bd d2 11 8b bd d1 0e af bc 79 60 d2 3c
       -0.05852485 -0.06790508 -0.02136937 0.025680767
0000a0 33 b7 6b 3d dd 16 31 bc 57 c9 88 3b 06 ef bd bc
       0.05754776 -0.010808674 0.004174392 -0.023185264
0000b0 8a 1b ab 3d 04 89 3a 3d 1c bc 46 3b 7e ca 9e 3d
       0.08354862 0.045540825 0.0030324524 0.07753466
0000c0 3c f1 f2 3c a8 c7 19 bd d2 7e 50 3d 05 1a 0b bc
       0.029656045 -0.037543923 0.050902195 -0.00849009
0000d0 70 ff 5c bc 80 6a 72 bc 56 a2 b2 3c fe c3 3b bd
       -0.013488635 -0.014795899 0.021805923 -0.04584121
0000e0 84 86 ce 3c cd 83 0c 3c 1a 53 94 bd 9f 0f 89 3d
       0.025210626 0.008576346 -0.07242413 0.066924326
0000f0 17 2b 90 3c 6e 7a 5b bc ee 97 2c 3d e0 f6 69 bd
       0.017598672 -0.013395889 0.04213708 -0.057120204
000100 48 da a9 3d 7f 55 a1 bd 60 08 f2 3c 8e 46 5e 3c
       0.08293587 -0.07877635 0.02954501 0.013566626
000110 69 bc 5c bd 47 f4 50 3d fc d3 78 bc 3d 01 a5 3d
       -0.05389062 0.05101421 -0.01518726 0.08056877
000120 12 c1 0a bd 27 28 79 3c 41 c7 b6 bc b2 d2 20 bd
       -0.033875532 0.015207327 -0.022311809 -0.039263435
000130 69 de 3a 3d 0d 22 9a 3c 48 03 c4 3b 04 86 25 3c
       0.045622263 0.018815065 0.0059818365 0.010102753
000140 fa 9c 3b bd ba 50 52 3d 82 b3 8f 3c d6 01 92 3d
       -0.045804 0.051346518 0.01754165 0.071292564
000150 6a 52 a5 3d ed 00 83 3b c4 e2 6e 3d b9 0d 8c 3b
       0.0807236 0.003997913 0.05832173 0.004274097
000160 db 28 68 3b 3e 98 ed bc f7 99 85 3d 0e 3a 41 3d
       0.0035424742 -0.029003259 0.06523507 0.047174506
000170 cc ec 2b bd 44 a9 0a bd cc 33 a1 3d 58 b7 15 3c
       -0.041973874 -0.03385283 0.078712076 0.009137951
000180 54 c7 ab 3c e3 4d 25 bc fe 78 45 bd 67 53 34 3d
       0.02096907 -0.01008937 -0.04821109 0.04402485
000190 bb dd 94 bc 7d ac 80 bd 4a f2 99 3c 06 4a 24 bb
       -0.018172136 -0.062828995 0.01879229 -0.0025068535
0001a0 d0 b8 61 bd c3 e8 5a 3c 51 75 31 bd e7 2d 88 bd
       -0.05510789 0.013361159 -0.043324772 -0.0664938
0001b0 c5 e6 1c 3d 41 c3 86 bd fe 05 52 bd 70 9b 07 3c
       0.038306016 -0.065802105 -0.051275246 0.008276805
0001c0 38 af 00 3d ac 2b 48 3d dd a3 61 bd 37 b8 98 bd
       0.0314171 0.048869774 -0.055087913 -0.07457011
0001d0 47 15 b5 3b ac 49 8f bd 9d 13 23 bd 2e c9 eb 3b
       0.005526218 -0.06996474 -0.039813627 0.0071956133
0001e0 d8 d3 36 3d 05 14 86 bd 3e d1 74 3d 10 5d 28 3d
       0.044635624 -0.06546787 0.05976986 0.041104376
0001f0 47 77 0a bd b4 cb da 3c 40 67 7c bd 39 d8 68 bc
       -0.033805158 0.026708461 -0.061621904 -0.014211708
000200 9b 85 78 bd 89 33 6a 3c 97 42 fc 3c 03 3b 5d 3d
       -0.06067429 0.0142945135 0.030793471 0.054011356
000210 07 1f 5f bd d5 ed 81 3d ca e1 06 ba c3 7a 19 bd
       -0.05447295 0.06344191 -0.00051453395 -0.03747059
000220 8f fe 03 3d bb 85 32 bd b4 99 0a 3c 91 b8 51 bd
       0.032225188 -0.043584567 0.008459497 -0.051201407
000230 05 79 38 bd b1 9c 96 bd 4a a5 04 bd 75 4b 45 3c
       -0.04503729 -0.07354105 -0.032384194 0.012041916
000240 72 e2 f1 3c b8 ba 98 bd 3f d8 85 3c 47 56 2d bd
       0.029526923 -0.07457489 0.016338466 -0.04231861
000250 e5 ea db 3b ab 08 a7 3d 67 30 35 ba 37 30 b2 bc
       0.006711351 0.0815595 -0.00069118146 -0.021751506
000260 d5 5e df bc a3 39 00 3d 6f 13 9b 3c 8a 05 12 bd
       -0.0272669 0.031304967 0.018930165 -0.035649814
000270 fb 81 27 bd 2c 77 d7 3c 07 5d 8c bc 58 47 70 bd
       -0.040895443 0.026301943 -0.017134203 -0.05866179
000280 cf 7d f7 3c dc b4 ed bc 29 4a 1c 3d e9 be 45 bd
       0.030211357 -0.029016905 0.038156662 -0.04827777
000290 b9 da 31 3d c6 04 0f 3c 38 f6 f4 3c ce ec a4 3d
       0.04342148 0.008729165 0.029902562 0.080529794
0002a0 06 e8 a5 3d 2f 31 7d bd 50 2a a6 3d 15 42 21 3d
       0.081008956 -0.061814483 0.08113539 0.03936966
0002b0 a1 f6 57 3d f5 b6 d3 37 0f d9 84 bd 91 25 c1 3c
       0.052725438 2.5238356e-05 -0.06486713 0.023577483
0002c0 bc 08 00 bd 8b fc 36 3c 8f f4 9c bd d6 7a 0e 3d
       -0.03125833 0.011168609 -0.07663833 0.034785114
0002d0 f1 47 81 3d 7e 90 2d 3d 45 59 0d bd c9 8c 83 3d
       0.0631255 0.042374127 -0.034508962 0.06423337
0002e0 e0 c2 87 3b 8a 31 d5 b6 f9 fb fe 3c 35 af 08 3d
       0.004143104 -6.353662e-06 0.03112601 0.033370215
0002f0 cf 1c 6b 3d 53 39 95 bd 03 35 73 3d 15 9e 8b bd
       0.05740052 -0.07286324 0.059376728 -0.06817261
000300 81 ad 37 3d f8 ba a9 3d f7 c4 39 3d dc bb 99 3b
       0.0448432 0.082876146 0.045353856 0.004691584
000310 25 c1 e9 bb 53 3a 9d bd 38 58 2f bc 54 f6 8e bd
       -0.0071336203 -0.0767714 -0.010702185 -0.06980577
000320 66 0e 93 bd 2d c8 e8 3c 6a cb 84 3d 3a d8 69 bd
       -0.07180481 0.028415764 0.06484111 -0.057090975
000330 0a 89 2c 3c 58 13 44 39 e3 c9 4a bd 28 e7 6a 3d
       0.0105307195 0.00018699223 -0.04950894 0.057349354
000340 8e ec 68 bd f7 2c 51 bb 4a 17 6e 3c 12 b4 cd 3c
       -0.05686622 -0.003191767 0.01453192 0.025110278
000350 c4 9b fd 3c 1b 77 fd 3b 54 f8 61 3d 32 c8 62 3d
       0.030958064 0.0077351457 0.055168465 0.055366702
000360 c1 60 82 3d ca d2 9f bd 84 17 8a 3d da 33 14 bd
       0.063661106 -0.07803877 0.067427665 -0.036182262
000370 b6 d1 d3 ba 5f 77 62 bd 65 f9 99 3c 73 f1 f6 bc
       -0.0016160521 -0.055289622 0.018795678 -0.030144429
000380 16 5b 9d bd e3 25 94 bb 27 b6 57 bd 33 fc a0 3d
       -0.07683389 -0.004521118 -0.05266395 0.07860603
000390 0b 1e 8e bd 3f bd 89 3d a4 10 f3 bc 8a 2c b2 bb
       -0.06939324 0.06725549 -0.02967102 -0.0054374384
0003a0 25 2c 70 bd 34 39 b1 3c 72 64 56 3d be 1b 39 bc
       -0.05863585 0.021633722 0.052341886 -0.011298118
0003b0 55 67 84 bc b2 ee 13 bd e7 ae 61 3d 5d 08 96 3d
       -0.016162554 -0.03611631 0.05509844 0.07325814
0003c0 49 f6 c7 3c 46 75 1d bd ee 26 80 3d 08 e1 86 3d
       0.02440943 -0.03844192 0.06257425 0.0658589
0003d0 8b bf 9e 3d 3b f2 65 3c 9b 63 6a bd 14 2a 52 3d
       0.07751378 0.014034803 -0.057223897 0.05130966
0003e0 9c b3 2f 3d 6f ad 54 3d 4b cb 1b 3b 06 4e 14 bd
       0.0428959 0.05192321 0.0023772295 -0.03620722
0003f0 21 d3 45 3d f0 3b 5e 3d 45 9e 78 bd b8 6f 8a 3d
       0.04829705 0.05425638 -0.060697813 0.0675959

layer_1.bias_ih f4 [128]
000000 a0 a2 dc 3d 4d 5e 35 3e 4e 1b 09 3d 9d e3 8e 3d
       0.10773206 0.17711754 0.033473305 0.069770075
000010 02 93 94 bd 0d 4c 65 bd 8c e0 ec 3d 90 ac 93 3e
       -0.07254602 -0.05598073 0.115662664 0.28842592
000020 d6 f3 c1 3c 93 18 09 3d 48 d5 63 3e 9c bb 8d bc
       0.02367584 0.0334707 0.22249329 -0.017301373
000030 58 f7 bf bc c3 79 95 3d e3 af 5f 3e f6 be 52 3e
       -0.023433372 0.07298615 0.21844439 0.20580658
000040 96 03 0a bd 5c aa 0d 3e bb 10 35 3e 56 7f ca bd
       -0.033694826 0.13834518 0.17682163 -0.09887569
000050 31 ce cf bd b7 39 7d bc 3e 5e 00 be 7b 57 a9 3d
       -0.1014675 -0.015455655 -0.1253595 0.08268639
000060 e9 fb 6b 3e 47 8d 2d 3e 91 3d 2f 3e ad 01 2a 3e
       0.23045315 0.16948424 0.1711333 0.16602202
000070 89 dd 75 bc 17 d5 96 3d 8d b3 c4 3d 7f 54 b9 3d
       -0.015006431 0.073648624 0.09604559 0.090493195
000080 e1 c1 d2 bb d4 62 e3 3d bf e0 fa bd b2 a7 cf 3d
       -0.0064318036 0.11102834 -0.12249898 0.10139407
000090 b3 15 1e 3e 33 b2 f4 bc e2 25 f8 bd 57 7a 3b 3e
       0.15437965 -0.029870128 -0.121166006 0.18308388
0000a0 81 8f 96 3d 45 b4 9c 39 a9 ac fe bd 7d 05 13 3e
       0.0735159 0.0002988895 -0.12435276 0.14357562
0000b0 a5 13 0f 3e 4b c5 23 3d 42 c5 71 3b 48 ca 8d bd
       0.13972338 0.039983075 0.0036891256 -0.06923348
0000c0 72 72 0d be 00 d6 16 bd c8 4d 3c 3d 77 a9 4f 3e
       -0.13813189 -0.03682518 0.045972615 0.2027949
0000d0 e6 ce 58 3d c3 16 63 3e 03 94 40 3e b2 63 b7 3d
       0.05293169 0.22176652 0.18806462 0.08954562
0000e0 74 2b 80 bd 47 76 63 3e 9f bb e2 bd fe 47 25 3e
       -0.06258288 0.22213088 -0.11070942 0.16140744
0000f0 53 d6 b7 bd 12 9a d9 3d 37 0c 67 bd 16 88 83 bd
       -0.08976426 0.1062509 -0.056408133 -0.06422441
000100 79 53 81 bd 86 e8 06 be f2 52 fc 3d 45 82 90 3d
       -0.06314749 -0.13174638 0.12320508 0.07056097
000110 4e 30 c3 bb 58 1b 2f 3e 14 c1 cd bd f4 94 85 bd
       -0.005956686 0.17100275 -0.10046592 -0.06522551
000120 03 77 e8 3c 68 8a bb bd 89 38 03 bd cf 05 84 ba
       0.028377062 -0.09157258 -0.032036338 -0.0010072532
000130 14 10 b5 3d c9 fa f1 3d e9 56 c4 bd 7c b9 5e bd
       0.08840957 0.118154116 -0.09586889 -0.05437611
000140 08 20 b9 3d 23 70 1f 3e dc 97 10 3d f9 22 06 3e
       0.090393126 0.1557012 0.035301074 0.13099279
000150 47 16 b1 3c 97 be ca 3d be 32 24 be 34 61 a3 3c
       0.021617068 0.098996334 -0.16034982 0.019943811
000160 65 ba a3 bd f1 a6 2f bb 64 3d 78 3c d9 c8 49 3d
       -0.07994536 -0.0026802386 0.015151355 0.04926381
000170 e8 80 1c bc 2b 86 38 3e bf d1 67 3e d2 33 3d 3e
       -0.009552218 0.18019931 0.22638606 0.18476799
000180 22 a7 93 3e 69 10 d7 3d 01 7c a7 3d 3c 87 0a be
       0.2883845 0.10501177 0.08177949 -0.1352815
000190 66 1b 59 bd 5c aa 6e 39 fa df cb 3c 0e ee 97 bd
       -0.053004645 0.00022760913 0.024887074 -0.07418452
0001a0 1a e9 04 3e 71 32 c7 bd 63 09 ff 3d 1c fd f7 3d
       0.12979546 -0.09726418 0.12452962 0.12108824
0001b0 dc c2 8e 3d 09 14 07 3e c3 86 cc bd cc 75 db 3d
       0.0697076 0.13191237 -0.09986641 0.10715827
0001c0 f2 47 25 bd c1 64 56 3d 6e 8f 1c 3e b2 0f 10 bd
       -0.040351816 0.05234218 0.15289089 -0.03517122
0001d0 a5 31 91 bd ab 7d ed 3d e3 20 1d 3c 98 6d 7f 3d
       -0.07089547 0.11596235 0.00959036 0.062360376
0001e0 25 9e 22 3e fd f7 f4 3a f1 46 2b 3e 64 00 e3 3c
       0.1588064 0.0018689629 0.16726281 0.027710147
0001f0 e4 96 15 be 0d 3b 05 3e 1c 76 6a 3e 95 06 12 3e
       -0.14608341 0.13010807 0.22896618 0.14260323

layer_1.bias_hh f4 [128]
000000 23 6f 4c 3e 7f 37 c8 3d ed dd 7f 3d 34 29 ef 3d
       0.1996427 0.0977621 0.062467504 0.11677781
000010 d6 85 31 bd f3 ae cf bd 60 69 1f 3e ca 6b 13 3e
       -0.043340527 -0.10140791 0.15567541 0.14396587
000020 87 3f 15 3e 94 b3 41 3e b8 56 fe 3d a3 66 4f 3d
       0.14575015 0.1891616 0.12418884 0.05063499
000030 96 67 2c bd ce 6f b7 3d cb 08 3a 3e de b3 1b 3e
       -0.042090975 0.08956872 0.18167417 0.15205333
000040 50 01 9a bd a2 a7 2e 3e ca df 53 3e 76 a4 01 be
       -0.075197816 0.17056134 0.20690838 -0.12660393
000050 f4 5b 1f bd bf 33 09 bd 25 79 8d 3c c9 8d 5e 3d
       -0.038906053 -0.033496615 0.01726968 0.054334436
000060 cb b3 c4 3d 70 10 51 3e a3 46 3e 3e a7 54 ee 3d
       0.09604605 0.20416427 0.18581633 0.1163724
000070 38 09 a4 bd 0e 63 41 3e b8 32 0c 3e 40 06 a6 3d
       -0.08009571 0.18885443 0.13691223 0.08106661
000080 07 ca ec bd c1 8f f5 3d f5 d5 28 bd 55 52 47 3e
       -0.11561971 0.119903095 -0.04121967 0.19465001
000090 10 5c 5c 3e 26 a4 86 bc db 51 06 be 6c 5b 29 3e
       0.21519494 -0.016435694 -0.13117163 0.16538781
0000a0 37 86 9a 3d e1 74 1c bd 01 6b f2 bd a5 13 c6 3d
       0.07545131 -0.038197402 -0.118368156 0.09671716
0000b0 c2 7f e8 3d cc 9a 1d 3d 1a 56 00 be b5 f9 7e bd
       0.11352493 0.038477704 -0.12532845 -0.062249858
0000c0 60 0c ed bd 4e 2d 8b bc e5 53 0e 3e 49 8b 39 3e
       -0.11574626 -0.016989376 0.1389919 0.1811954
0000d0 16 1e db 3d ec 31 41 3e b7 b1 b0 3d 77 50 0c 3e
       0.10699098 0.188667 0.086276464 0.1370257
0000e0 96 9c 96 bd de c6 8b 3e d3 4a 01 be 0e 8c 37 3e
       -0.07354085 0.2730016 -0.126262 0.1792452
0000f0 d1 b7 e5 bd ba 56 0c 3e 4a 0b 99 bc ce d8 e8 bd
       -0.11216701 0.13704959 -0.01868214 -0.11369477
000100 1a 03 70 bc 77 43 9f bd 55 f8 11 3e 26 0f 26 3e
       -0.014649177 -0.0777654 0.14254887 0.16216716
000110 c4 20 b9 bd f9 7a 8f 3d 49 77 3f bd db b4 e2 bd
       -0.09039453 0.07005877 -0.04674462 -0.11069652
000120 2a be 9c bb 1b 34 d9 3c 55 1b b3 bc fb 1f 66 bd
       -0.0047834115 0.026514104 -0.021863619 -0.056182843
000130 d7 60 4a 3e ee 6c 14 3e ac 3c f3 bd 17 7f 44 bd
       0.19763504 0.14494678 -0.118768066 -0.047972765
000140 dc 3b 0b 3e 72 1d 52 3e f5 14 d9 3d 5a 93 0b 3e
       0.13597053 0.20519045 0.105997 0.13630429
000150 4a 9a b5 bd 9f ed aa 3d 74 6e 19 be ba 41 30 bc
       -0.08867319 0.08346104 -0.14983541 -0.010757858
000160 f0 cd 97 bd 7a 9f 48 3a 7a ec 09 be 58 9b 26 3e
       -0.07412326 0.00076531584 -0.13469115 0.16270196
000170 ac 12 5d 3d 42 2b e4 3c e0 2f e3 3d 3b 89 d9 3d
       0.053972885 0.027852658 0.11093116 0.10621878
000180 0d 13 6a 3e d3 5c 95 3d 5c 4c 03 3e 3b c9 f7 bc
       0.2285883 0.072930954 0.12822098 -0.030247321
000190 78 a6 66 bd 11 0a cc 3c ad 7e ad bb 25 18 5f bd
       -0.0563111 0.024907144 -0.005294642 -0.054466385
0001a0 54 f5 16 3e 48 dd 27 bc 42 9f b0 3d c8 5b 19 3e
       0.14742023 -0.010245629 0.08624126 0.14976418
0001b0 02 d0 8d 3d f8 e1 aa 3d c2 5a 8b bc c3 d8 41 3e
       0.0692444 0.08343881 -0.01701105 0.18930344
0001c0 fd e1 49 bd 1d c4 d7 3d 39 df 2d 3e d7 d1 9e bd
       -0.049287785 0.105354525 0.16979684 -0.077548675
0001d0 a6 63 05 3d 6f a9 53 3e 37 97 5f bc ea 69 bb bd
       0.032565735 0.20670103 -0.013646892 -0.09151061
0001e0 85 d3 4a 3e 5f 78 cd bd 71 5f 06 3e 5e 30 d3 bd
       0.19807251 -0.100327246 0.13122346 -0.1031196
0001f0 b7 0a 84 bc ba 44 64 3e 83 45 95 3d 86 ee d8 3d
       -0.01611839 0.22291842 0.07288649 0.1059237

layer_2.weight_ih f4 [64, 128]
000000 25 5b e5 3d 02 94 5a 3e 49 00 19 bb ac 9c 07 3e
       0.11199025 0.21345523 -0.0023346117 0.1324336
000010 9a 7c cc 3c ad 96 c5 3d e4 cc 1c 3e d7 47 30 3d
       0.024961758 0.0964788 0.15312535 0.04303726
000020 89 12 e7 bc a7 93 61 3e b2 5a 3f 3e 0d 85 07 3e
       -0.02820708 0.22028981 0.18686941 0.13234349
000030 3c de 1d be ed b2 d9 3c c8 c8 10 3e 33 19 21 3d
       -0.15416807 0.026574576 0.14139092 0.039330672
000040 0d 14 18 3d c5 1f 0e 3e 8a 2a f2 3d 4a 8f ae 3b
       0.037128497 0.13879307 0.1182452 0.00532714
000050 0f ff 78 3c ef c4 d9 3c 61 24 b7 3c d7 f8 c8 3d
       0.015197529 0.026583163 0.022356214 0.098130874
000060 5d 06 14 3d fe 78 46 3e bd ff 15 3e 90 2e 56 3e
       0.03613888 0.19382092 0.14648338 0.209162
000070 39 50 3b bd db 8b 2e 3e 2b ba 06 3e b2 14 31 3e
       -0.045730803 0.17045538 0.13156955 0.17293051
000080 03 e1 bd 3c 47 f3 62 3d ef 7b ec 3d a2 59 59 3e
       0.023178583 0.05540779 0.11547076 0.21225598
000090 c3 43 83 3c f6 45 b5 bd 00 c1 14 3e 35 6d d3 3d
       0.016023522 -0.088512346 0.14526749 0.10323564
0000a0 76 c8 d9 ba b4 fa 51 3d 57 a5 62 3c 0a f6 2e 3e
       -0.0016615528 0.05126448 0.013833365 0.17086044
0000b0 15 ec 06 3e d0 17 cb 3d 33 6f 7b bd c3 fb 11 3d
       0.13175996 0.09916651 -0.061385345 0.03564049
0000c0 c6 d7 06 be 94 12 bd bd ac 74 b4 3d 43 e6 2a 3e
       -0.13168249 -0.09232059 0.08811316 0.166894
0000d0 e1 ab 1b 3e bd 81 94 3d 5d a5 e9 3d d4 50 09 3d
       0.15202285 0.07251308 0.11408494 0.03352435
0000e0 80 79 89 bd a5 d8 38 3e d5 c5 b3 3c b1 dd ff 3d
       -0.067126274 0.18051393 0.02194492 0.12493456
0000f0 db 7f 9e bd 28 28 f4 3d 57 99 5a bd 25 03 8c bd
       -0.0773923 0.11921722 -0.053368893 -0.06836537
000100 7e d0 e3 bb 96 bf 11 3d 5b 84 4a 3e 27 95 22 3e
       -0.0069523444 0.0355831 0.19777052 0.1587721
000110 96 77 76 bd 84 37 d1 3c 27 d3 21 be 76 ed 16 3d
       -0.06017264 0.025539167 -0.15803204 0.036847554
000120 69 a8 d6 3b 45 3f ed bd 9e b0 69 3d 16 c5 f3 3d
       0.006550838 -0.11584333 0.0570532 0.119028255
000130 b1 d8 51 3e 61 0b 42 3e 74 4c de bc a5 2d 36 3e
       0.20492817 0.18949653 -0.027136065 0.1779085
000140 df ba 4d 3d e2 10 1f 3e 9e f7 3c bd 34 2b 9d 3d
       0.050227042 0.15533784 -0.046134584 0.07674256
000150 f0 0e 6b 3c dc 21 83 3d e2 ef 88 3c 68 53 c3 3d
       0.014346823 0.064029425 0.016715948 0.09537393
000160 4c ce fa bd 89 5f 6b 3b 5b 75 e2 3d 7a 9d 2c 3e
       -0.12246379 0.0035915098 0.1105754 0.16856948
000170 14 99 23 bd 8e 34 86 bc 40 64 59 3e cf bb 6b 3e
       -0.03994091 -0.016382482 0.21229649 0.23020862
000180 4f ac 5d 3e b1 63 08 3e e0 de 0e 3e 31 e8 e9 3d
       0.21647762 0.13319279 0.13952208 0.1142124
000190 32 05 b6 3d e7 99 7b 3c e0 c4 c3 bd e1 f7 10 bd
       0.0888771 0.015356517 -0.09559035 -0.035392646
0001a0 d1 22 16 3e 81 9e 4c 3d d3 59 f4 3d 7d 06 e0 3d
       0.14661719 0.04995585 0.11931195 0.109387375
0001b0 f2 49 9d bb 8d 36 a6 bc 02 24 f9 3a 68 21 1a 3e
       -0.0048000747 -0.020289684 0.0019007924 0.15051806
0001c0 a9 08 1d 3e 3e 6e 0e 3e e1 0b b1 3d 34 d4 cf 3c
       0.15335335 0.13909242 0.08644844 0.025369741
0001d0 45 6d 96 3d a4 5e 47 3e 58 07 0f ba f2 b5 5d 3d
       0.0734506 0.19469696 -0.00054561114 0.054128595
0001e0 9b 14 72 3d 81 d6 1d bd f7 88 47 3e ac 43 c5 3d
       0.059101682 -0.038534645 0.19485842 0.09632048
0001f0 a2 df 9f bd ea 26 88 3d a1 9e fa 3d fa ff 5e 3e
       -0.078063264 0.06648047 0.12237287 0.21777335
000200 fb 68 2e bd 18 5c 8d bd 27 8e e9 bd 29 66 51 bb
       -0.042580586 -0.06902331 -0.114040665 -0.0031951761
000210 ab dd 68 3d 8b 16 09 3c 8e eb 43 3d c0 a2 7b bd
       0.056852024 0.008367191 0.047832064 -0.061434507
000220 2b d9 15 3e bd 4f 15 bd 3e 93 3b 3d 9b cd b6 bd
       0.14633624 -0.036452997 0.045794718 -0.08925935
000230 ca 8d a9 3b d6 dd 68 bd d1 12 2e be e8 9d 3d bd
       0.0051743733 -0.056852184 -0.16999365 -0.04629317
000240 bb df d6 bc 61 da 67 3c 2d c6 f3 3c 43 35 95 bd
       -0.02622973 0.014151187 0.029757584 -0.072855495
000250 d7 cb 63 3d 93 4a f5 bc 17 45 08 be 05 f0 7b bd
       0.05561432 -0.029942786 -0.13307606 -0.061508197
000260 0d d5 db bd 37 4c 25 bd a2 89 23 be 4a ce 15 bd
       -0.107339956 -0.040355887 -0.15970472 -0.036573686
000270 b6 7c 2c 3d e9 4e 19 be b4 56 77 bd 82 82 a9 3c
       0.04211112 -0.14971508 -0.06038542 0.020692114
000280 79 0a 2f be 06 c4 5f 3d 54 51 e0 bd 60 5b 69 bd
       -0.17093839 0.054630302 -0.10953012 -0.056971908
000290 ba 24 9e bd 29 19 8f 3d 55 0c 1e 3e 0a ac 26 bd
       -0.07721849 0.06987221 0.15434392 -0.040691413
0002a0 90 97 db 3c 41 e9 77 3d 1b 11 d5 bc 8c d5 d4 bd
       0.02680567 0.060525183 -0.026009133 -0.10392293
0002b0 a3 0e 71 bd 1b 01 29 be 92 24 fb 3b af 5d 33 be
       -0.05885185 -0.16504328 0.0076642716 -0.17516206
0002c0 03 dd 09 bd 5b ab e0 3b 71 57 30 be 37 ed d1 bc
       -0.03365804 0.0068563647 -0.17220856 -0.025625808
0002d0 c2 ca 9a bd 1a 7e 6d 3d 1f 2b 0f be cd c6 fe bd
       -0.07558204 0.057981588 -0.13981293 -0.12440262
0002e0 a9 49 81 bd f8 3f 00 3c 8f b6 d2 bc 37 28 b3 bd
       -0.06312878 0.007827751 -0.025721816 -0.08747905
0002f0 ea 63 1f be 1f 8e 05 bd fa b2 b0 bc 9a bf 70 bd
       -0.15565458 -0.03260624 -0.021569718 -0.058776475
000300 76 59 5d 3d 3b 76 9f bc f9 e0 cf bd e5 71 07 bd
       0.054040395 -0.019465556 -0.10150332 -0.033067603
000310 73 07 05 3d 50 ab fd 3c ad c9 eb bd 91 1a 62 bd
       0.032477807 0.030965477 -0.11513076 -0.055201117
000320 2e 51 e2 3c e0 b4 e9 bd af ae c8 bd 2a 4e 17 ba
       0.0276266 -0.11411452 -0.09798943 -0.000577184
000330 78 d3 27 3d f8 2c 15 bd a3 e9 6e 3d 9a 96 90 bd
       0.040973157 -0.03641984 0.058328282 -0.07059975
000340 35 cf 09 3e 8b b5 1a 3d c8 87 bb bd c7 b4 05 be
       0.1345795 0.03777079 -0.091567576 -0.13057242
000350 6f b6 85 3b a2 3d 59 3c 5e 6e bc bc 4f 4c ea bd
       0.0040805857 0.013259323 -0.023001846 -0.11440336
000360 5e 34 a0 3d 99 ca 8b bc 9f c6 82 ba 0e 1a 2d bd
       0.07822488 -0.01706438 -0.0009977407 -0.042261176
000370 a7 59 6e 3d 55 9b 3f 3d 02 90 0a 3d 6c 1a d7 bc
       0.058190968 0.046778996 0.033828743 -0.026257716
000380 e4 ff b0 3d 32 07 df bb 54 f0 e6 bc ef ac e0 3b
       0.08642557 -0.0068062777 -0.02819077 0.006856553
000390 64 0c 03 be 38 70 7b bc 41 c3 42 3d ed 2e c5 bd
       -0.12797695 -0.015346579 0.04754949 -0.09628091
0003a0 15 11 be bd 2f b6 00 bc fd 42 b2 bd ae 86 90 3b
       -0.09280602 -0.007855936 -0.08704183 0.0044105863
0003b0 31 78 a1 3c f7 4e 54 3d b5 94 1e be 73 a0 aa bd
       0.019710632 0.05183312 -0.15486415 -0.083313845
0003c0 6a f2 f2 bd b8 d2 16 bd 18 44 ff bd 28 0d c1 bd
       -0.11862643 -0.03682205 -0.1246416 -0.094263375
0003d0 86 f8 26 be 1c 59 05 bd 27 45 25 be ee 58 ba 3c
       -0.16305742 -0.032555684 -0.16139661 0.022747483
0003e0 fe f1 1e bd c8 c3 bd bc db 37 0f be de 77 16 be
       -0.038805 -0.023164645 -0.13986151 -0.14694163
0003f0 ff ca e4 3d e7 d7 22 be d0 df 69 bd c4 a5 a6 3c
       0.11171531 -0.15902673 -0.05709821 0.020342715

layer_2.weight_hh f4 [64, 64]
000000 c6 4b 5f 3b b2 cf 4b bd a7 be f0 bd fa a5 8c bd
       0.0034072264 -0.04975862 -0.11755114 -0.06867595
000010 0a 62 99 bd f0 a0 00 bc aa 74 8d 3d 45 9f 9b bc
       -0.074894026 -0.0078508705 0.069070175 -0.018996844
000020 f4 ad a0 3d fc 2e 3c bd b3 10 b1 bd 6d 6c 37 bd
       0.07845679 -0.045943245 -0.08645763 -0.044781137
000030 e2 59 86 bd d9 e5 0b bd 3d 71 c2 bc da ae af bd
       -0.065601125 -0.034154747 -0.023735637 -0.08578272
000040 78 1d 1c 3d c2 7c ee 3d d6 0d d3 bc b8 ec 2b bd
       0.03811404 0.116448894 -0.025763433 -0.0419738
000050 a2 29 e6 3d de 8d e3 bd 77 ef 62 bd 11 5c ea bd
       0.112384096 -0.111110434 -0.055404153 -0.114433415
000060 04 c5 73 bd 2c cf 84 3d 30 97 69 3c 8e 9b 78 3d
       -0.05951406 0.064848274 0.014257237 0.060695224
000070 61 35 75 bd 34 81 aa bc 41 8a 68 3d e8 a1 ea bc
       -0.05986536 -0.020813562 0.056772474 -0.028641656
000080 f3 af 72 3d 8d 1d 95 bd a7 fd 21 3d 9e 21 62 bd
       0.05924983 -0.07281027 0.039548542 -0.05520784
000090 36 0f 5f bd c1 84 a7 3d a8 a7 44 3d 40 5d 05 bd
       -0.054457866 0.08179618 0.048011452 -0.032559633
0000a0 7e 55 f0 bd 52 0a 93 bc 72 0c ee 3d 1e 7c e0 bd
       -0.11735056 -0.017949257 0.116234675 -0.109611735
0000b0 ac dc 48 bd 21 02 d9 3d 5c 66 43 bd 79 f3 88 bd
       -0.049038574 0.10596109 -0.04770504 -0.06687064
0000c0 0a cc 4f bd dc 1d f2 3d 4f 1f 89 bd 51 50 68 3c
       -0.050731696 0.118221015 -0.06695425 0.014179305
0000d0 58 81 61 bd 13 66 e0 bc 10 84 e4 bd a2 12 b2 bd
       -0.055054992 -0.027392423 -0.111580014 -0.0869496
0000e0 7c 96 ec bd d6 1e e5 bd 84 da b4 3d e2 ed e2 bd
       -0.1155214 -0.11187522 0.08830741 -0.11080529
0000f0 b8 2e df bd f5 22 ea bd 95 70 d3 bd 34 48 98 bd
       -0.10897583 -0.11432449 -0.10324208 -0.07435647
000100 d6 36 76 bc 82 db e8 3d 07 95 1d bd 7f 85 11 bc
       -0.015027722 0.11369993 -0.0384722 -0.008881926
000110 f2 4f 6d bc 85 d0 10 3d dd 91 af bd af 31 9a 3a
       -0.0144843925 0.03535511 -0.08572743 0.0011764074
000120 75 6e 72 3d 72 52 d1 3d 3f 87 ed bd d1 59 66 3d
       0.05918737 0.10220803 -0.11598062 0.056238
000130 07 58 65 3d 3b 60 dd bd 5f 58 58 bd b2 5e 18 bd
       0.055992153 -0.1080937 -0.052818652 -0.037199683
000140 a2 1e db 3d 7f d5 35 bc d9 d7 fb 3c 9b 39 d4 3d
       0.10699202 -0.011098265 0.030742573 0.1036255
000150 b0 7c 7a 3d 31 30 45 bc d6 dc 54 bd 2b b9 d7 bb
       0.061154068 -0.0120354155 -0.051968418 -0.006583353
000160 38 f4 0d 3c de 4a c4 bd 24 b9 db 3d 73 4d 26 3d
       0.008664183 -0.09584592 0.10728672 0.040601205
000170 93 9e a0 bc eb f8 aa bd 5f b1 ff bc 4a 3e da 3d
       -0.019606864 -0.083482586 -0.031212507 0.10656412
000180 ff f2 0c bd 85 02 90 3c b6 08 af bc 4f d8 e8 bb
       -0.034411427 0.017579326 -0.021366458 -0.007105864
000190 49 df f1 bd 80 26 1b bd 1a d5 c5 3d 26 ef 82 bd
       -0.118101664 -0.037878513 0.096597865 -0.0639327
0001a0 83 89 a1 bb f4 a0 d0 bd d4 37 9d 3d 1d 79 a1 bd
       -0.0049297228 -0.10186949 0.07676664 -0.07884429
0001b0 c7 97 4b 3d 33 af ea 3d b1 ba 0f 3d 86 a7 de 3d
       0.049705293 0.11459198 0.035090152 0.10871796
0001c0 e7 ff b3 bd 63 cb ac bc 3e 1f d0 bd a7 d3 d6 3b
       -0.08789044 -0.021093076 -0.10162209 0.0065559926
0001d0 8d 50 ec bc 17 a4 09 bd 00 d7 62 3d 81 a8 d3 bd
       -0.028847003 -0.033603754 0.05538082 -0.10334874
0001e0 1f 94 68 3d 62 41 95 3c fa 5c d5 3d db f1 a7 bd
       0.056781884 0.018219654 0.104181245 -0.08200427
0001f0 a9 19 66 3d cf c5 8b 3d ab 37 82 3d 0e b9 81 3d
       0.056176815 0.06824838 0.06358274 0.063341245
000200 c8 72 30 3d 06 b9 1f 3c 73 0d 4e bd cd 41 cc 3d
       0.043078214 0.009748703 -0.050305795 0.09973488
000210 74 59 8f 3d 65 fa c7 bd 46 5a bd bd 15 ac 1d bb
       0.06999484 -0.09764556 -0.09245734 -0.0024058868
000220 ed e6 df 3c 22 41 38 3c a1 1f de 3d e4 46 d5 3d
       0.027331794 0.011245998 0.108458765 0.10413912
000230 af 32 4d 3d 6e 78 d4 bd 4d 5d df ba cf 94 0b 3d
       0.050097164 -0.10374533 -0.0017041356 0.03407746
000240 86 47 b8 3d 10 fc 0a bd 6a 61 a6 bc 04 89 5e bd
       0.08998017 -0.03393179 -0.020310123 -0.054329887
000250 23 76 db 3d 28 3c 75 bb 30 67 e0 3d 29 03 5f bd
       0.10715892 -0.003741989 0.109571815 -0.054446373
000260 2b fe 1a 3d a8 aa e0 bd 97 bf 8e bd 91 44 d3 bd
       0.03784005 -0.1097005 -0.069701366 -0.103158124
000270 c4 6a c3 bd 64 b1 de bc 84 10 29 bd d3 d8 1b 3c
       -0.09541848 -0.027184196 -0.041275516 0.009512144
000280 09 71 9e bd f4 0b 50 bd 10 32 61 bd 38 76 90 bd
       -0.077364035 -0.05079265 -0.054979384 -0.070537984
000290 e5 8f a4 bd 63 ee 00 3d 5b 32 d3 3d 58 4d de 3d
       -0.08035258 0.031477343 0.10312339 0.10854596
0002a0 69 23 75 3d 54 17 36 3d 8d c5 5d 3d 41 54 75 3d
       0.059848223 0.04445584 0.054143477 0.059894804
0002b0 b6 ba 09 3d a5 c9 d0 3d 4b 76 9c bd 9a 8f 4e bd
       0.033625327 0.10194711 -0.0763975 -0.050429918
0002c0 54 fb c3 3c b2 7a 36 3d e7 aa 8b 3d 19 22 17 bd
       0.023923554 0.044550605 0.068197064 -0.036897752
0002d0 ae ba a2 3d b4 35 bc bd e0 19 e6 3c 28 4d bf 3c
       0.079457626 -0.091899306 0.02808851 0.02335222
0002e0 6f 6d c7 bd 0c 35 66 bd 05 be 5d 3d 59 20 9e bd
       -0.0973767 -0.056202933 0.054136295 -0.077210136
0002f0 a3 03 ea bd ec dd c5 bc 44 ad 88 bd c9 dc 8d bd
       -0.11426475 -0.024153672 -0.06673673 -0.06926877
000300 51 a0 01 bc f9 43 81 bd 2a 34 8a 3d 56 8f cd 3c
       -0.007911758 -0.06311793 0.06748231 0.025092762
000310 eb 76 b9 3c 69 d6 0b 3d 76 fb b0 3d c4 44 02 3d
       0.022639712 0.034140024 0.08641712 0.03180386
000320 c6 da 51 3c 27 e1 bd 3d 47 c3 8f bc 37 54 a5 bd
       0.012808507 0.0927146 -0.01754917 -0.08072703
000330 fa d8 0f 3d 0b fc ac 3b 06 d8 03 3d fe bc 86 3d
       0.035119034 0.0052790693 0.032188438 0.06579016
000340 8e bb 15 3c ad 05 c3 bd 4f ba 00 3d 88 bb 99 bd
       0.009138955 -0.09522567 0.031427678 -0.07506472
000350 80 e4 c9 3d b7 a2 80 bb 69 01 42 bd 23 98 9f 3d
       0.09858036 -0.003925647 -0.047364626 0.0779269
000360 df 95 1b bc 93 ae 4a 3d 63 88 f5 bc b5 34 33 3d
       -0.009496181 0.049482893 -0.02997226 0.043751437
000370 a4 23 28 3d e1 2f 76 3d ed b7 8b bd 04 96 a0 bd
       0.041049615 0.060104255 -0.068221904 -0.07841113
000380 4a 7d d8 3c e8 8e e4 3c 21 3e e2 bd 2c 1d 76 3d
       0.02642693 0.027900174 -0.110470064 0.060086414
000390 62 9f 17 3d 58 71 54 bd d0 27 da bd d6 62 28 3d
       0.037017234 -0.051865906 -0.10652125 0.041109882
0003a0 09 6b 1d 3d 27 e4 17 3c 91 9d 8f bc 11 2e 71 bd
       0.038432155 0.009270704 -0.017531188 -0.058881823
0003b0 f5 87 73 bd c0 69 9b bd df ab 02 bd 71 dc c3 3d
       -0.05945583 -0.075885296 -0.03190219 0.0956353
0003c0 49 d3 b1 bd a4 a0 ee 3d ad 16 35 bd f0 2d f1 bc
       -0.086828776 0.116517335 -0.04421108 -0.02944085
0003d0 5b 12 e1 bd 97 7a 80 bd 41 7b e0 3d 17 d4 e8 bd
       -0.10989829 -0.06273382 0.10961009 -0.11368578
0003e0 1c b3 61 3d bf 4f 1f bc bc 89 c1 3c ed a2 90 3d
       0.055102453 -0.009723603 0.023625247 0.070623256
0003f0 81 c4 3f bd 76 85 3d bd 7c 0f 3a 3c 93 98 ed 3d
       -0.04681826 -0.046269856 0.011356231 0.11601367

layer_2.bias_ih f4 [64]
000000 cc 76 36 3e ba 4b 0c bd 00 85 93 3e 7c 5d 97 3e
       0.17818755 -0.034251906 0.28812408 0.2956351
000010 31 0a a4 3e 05 3d b4 3d 6c 6b 4c bd 9d 33 c1 bd
       0.32039025 0.08800701 -0.049907133 -0.094336726
000020 90 45 24 3d b6 4d a1 3e f2 5c 0e 3e 5b 91 33 3e
       0.040105402 0.315046 0.13902643 0.17535917
000030 df 38 c2 3c 6f 21 59 3e fe c7 d9 bd ca f7 4a bd
       0.023708759 0.2120416 -0.106338486 -0.049552716
000040 08 91 a5 bd 35 ed 85 bd 19 81 62 3e fb 0b 4b 3e
       -0.08084303 -0.06539384 0.2211956 0.19828789
000050 50 0a 9d 3e 86 c1 b5 3e 4f d2 27 be b8 24 a9 3e
       0.3067193 0.3549921 -0.1638882 0.33035827
000060 82 a9 98 3d 8d 1a 57 3e 02 f7 37 3d 31 4c 55 3c
       0.07454206 0.21006222 0.0449133 0.013018654
000070 a0 76 01 bb 8f bc 2f be 50 d6 84 3d 14 bd 1e bd
       -0.0019754544 -0.17161773 0.06486189 -0.038754538
000080 a2 37 4d bd d3 93 01 be 34 95 c2 3d 91 bb 35 3d
       -0.050101884 -0.12654047 0.095011145 0.04436833
000090 88 d8 9f ba be f7 b8 bd da 98 1e bd db 35 48 3e
       -0.0012195269 -0.09031628 -0.03871999 0.19551794
0000a0 fd ce 80 3e 4e 4a a2 3d 05 80 5d 3d be 03 a5 3e
       0.2515792 0.07924329 0.054077167 0.32229418
0000b0 65 e5 17 3e 8e d6 ae bd eb cc 31 3e e1 2c 03 be
       0.14833601 -0.08537017 0.17363326 -0.12810089
0000c0 87 72 fa 3d 22 9d 3c bd 54 a6 6e bd 6b 01 3a bd
       0.122288756 -0.04604829 -0.05826409 -0.04541151
0000d0 ed 68 8c 3e d5 72 31 3d fb 06 21 bd 9a 60 86 bd
       0.27423802 0.043322403 -0.039313298 -0.06561394
0000e0 f0 de e6 bd d0 d2 1b 3e fa 60 9e bd df 4b ab 3e
       -0.11272991 0.15217137 -0.077333406 0.33456323
0000f0 78 b1 4a 3e 3c cc 03 bd 48 1c cd bd 3b 16 91 3c
       0.19794261 -0.032177195 -0.1001516 0.017710796

layer_2.bias_hh f4 [64]
000000 58 fe dd 3d 26 de 04 be 4f 01 7d 3e 6d 0d 44 3e
       0.10839528 -0.12975368 0.2470753 0.19145747
000010 d2 61 bb 3e 12 be e1 bc 7d d3 6c 3d 80 4d 30 be
       0.36598068 -0.027556453 0.05781888 -0.17217064
000020 6a 9f 2c be e7 f1 3d 3e b5 28 10 3e 99 64 93 3e
       -0.16857687 0.1854931 0.14078029 0.28787687
000030 44 16 18 be fe 00 21 3e 6c a5 3d 3d af 36 1a bd
       -0.14852244 0.15723035 0.046300337 -0.037649807
000040 16 3a 2f be 93 45 ed bd b4 e1 49 3e d3 eb 4a 3e
       -0.17112002 -0.11585536 0.19715005 0.19816522
000050 2c 80 57 3e 21 16 0d 3e 9d 26 9e bd db 1d 1f 3e
       0.21044987 0.13777973 -0.07722209 0.15538733
000060 bb 89 71 3d d0 83 a0 3e 58 04 ae bc 8f 7f b2 bd
       0.05896924 0.31350565 -0.021242306 -0.08715736
000070 4e cc cb bc b9 a8 d7 bd 0f bd 53 3e e1 f5 87 bc
       -0.024877694 -0.10530228 0.20677589 -0.016596736
000080 d2 26 d0 bd ce 44 d9 bc 5b 5a 68 3d dc 7e 28 bd
       -0.101636544 -0.026522066 0.056726795 -0.041136608
000090 99 af e5 bd df 44 fe bc 26 7f 2a 3d 8c 52 5d 3e
       -0.11215133 -0.0310387 0.041625164 0.2161352
0000a0 e8 ce 14 3e 4e c9 49 bd 78 86 16 3d 59 a0 33 3e
       0.14532053 -0.049264245 0.036749333 0.17541637
0000b0 67 2e 80 3e 52 2e e5 3d f4 58 14 3e 99 d7 38 bd
       0.25035402 0.111904755 0.14487058 -0.045127485
0000c0 88 fe 02 3e 76 17 d2 ba 45 9b c5 bc 5a 08 e1 bb
       0.12792408 -0.001602872 -0.02412189 -0.0068674507
0000d0 75 4d 95 3e 0b 3a e4 bc 92 d1 b5 bd dd e5 34 bd
       0.29160658 -0.027859708 -0.08877863 -0.044164527
0000e0 d4 38 5f bd a7 4f 17 3e ee ff 04 be 3a e4 96 3e
       -0.054497555 0.14776479 -0.12988254 0.29470998
0000f0 da d8 81 3e 14 08 b3 3c bf bc c9 bd 45 48 10 be
       0.25360757 0.021854438 -0.098504536 -0.14090069

layer_3.weight_ih f4 [32, 64]
000000 b0 84 f6 3d c0 a2 22 3e 20 64 4b 3e 28 99 94 3c
       0.12037027 0.15882397 0.19862413 0.018139437
000010 2b 25 53 3e b2 c3 04 be 9d 35 ff 3d d2 00 25 bd
       0.20619647 -0.12965277 0.12461398 -0.040283985
000020 44 30 df bd 10 18 7f 3e 65 d1 8e 3d 98 c2 58 b9
       -0.10897878 0.24911523 0.069735326 -0.00020671857
000030 df 82 49 3e 24 18 7d 3c ec b4 c7 bd 4a 6d 87 bd
       0.1967883 0.01544765 -0.09751305 -0.06612642
000040 c1 f6 bf 3d d1 92 0e bd 18 a8 06 3e 4a 2e 9f 3e
       0.093732364 -0.034807984 0.1315006 0.31090003
000050 7b c0 6c 3e 97 73 b5 3d 71 4e 94 3d df d7 50 3e
       0.231203 0.08859938 0.07241524 0.20394848
000060 e2 bc 85 3e 48 bc 94 3e 9a 1b b4 3c 74 e5 b8 3d
       0.2612067 0.29049897 0.021985818 0.0902814
000070 de 60 81 3e 5e e7 ce bd 98 a4 fb 3c 3c 16 11 be
       0.25269216 -0.101027235 0.030718133 -0.14168638
000080 f0 55 9f bd 29 05 53 bd 82 e4 26 3d 10 e9 45 3c
       -0.07780063 -0.051518593 0.040745266 0.012079492
000090 02 3f 92 3d ec db 5a 3c d5 6c 1c bd 65 4f 97 3e
       0.07140924 0.0133580975 -0.038189728 0.2955276
0000a0 70 16 d5 3d b9 57 0e 3d 20 42 80 3d c3 f1 7d 3e
       0.1040467 0.034751628 0.06262612 0.24799256
0000b0 0a 89 82 bb e7 fa ba 3d b2 d9 d3 3d b7 b5 26 3d
       -0.0039836215 0.09129887 0.103442565 0.04070064
0000c0 3b d8 32 3e b7 af 97 bd 0d 86 89 3d c3 e9 56 bd
       0.17465298 -0.07406562 0.06715021 -0.052469026
0000d0 38 66 66 3e 65 57 a8 3d 32 07 fc 3c e1 fc 65 bd
       0.22499931 0.08219794 0.03076515 -0.056149367
0000e0 e3 eb 9f 3c 6b d1 d0 3b 39 47 60 3e 81 5b 4b 3e
       0.01952166 0.006372621 0.2190217 0.19859125
0000f0 dc 5c 1f 3e 51 02 0d bd 62 73 7c 3d 9f 59 0c be
       0.15562767 -0.034426037 0.061633475 -0.13706063
000100 c8 b2 7e bd d9 b0 d6 3d f1 cd 32 be 6c 0e 12 be
       -0.062182218 0.1048295 -0.17461373 -0.14263314
000110 32 8a bc bc e4 da 8b bd 4c bc 48 be e9 52 42 3d
       -0.023015115 -0.068288594 -0.1960308 0.04744235
000120 bf f7 a0 3d dd b9 5d be e4 a3 1f 3d b7 67 8d 3d
       0.07859754 -0.21652932 0.038974658 0.06904548
000130 fe 08 d6 bb 00 98 9c 3c 16 81 b7 bd 67 b1 86 bd
       -0.0065318337 0.019115448 -0.08960168 -0.065768056
000140 c7 f4 b7 3d 85 83 8d 3d e9 47 59 be 2d 9f f8 bd
       0.089822344 0.06909851 -0.21218838 -0.12139735
000150 5d a4 46 be e3 df c7 3d 60 e1 ff 3c 5c ca b2 bc
       -0.19398637 0.097595 0.031235397 -0.021825008
000160 d0 22 d0 bd 69 08 ae bd e9 d8 35 be 3e 64 07 be
       -0.1016289 -0.08497698 -0.17758526 -0.13221833
000170 dd 99 c9 3d 3f 6c 1a 3d 10 cc 1e be 5b 97 3c 3d
       0.098438 0.037700888 -0.15507531 0.04604278
000180 8d 6f 61 be 27 6f 2a bd c6 1b 0f 3e dc d6 97 bc
       -0.2201521 -0.04160991 0.13975438 -0.01853507
000190 56 cd c6 3b be 72 18 3d d9 36 27 bd db 9d d6 3d
       0.0060669584 0.0372188 -0.04082379 0.10479327
0001a0 c6 f8 50 be f2 1c 89 3c 65 be 8c bd a3 11 df bd
       -0.204074 0.016737435 -0.068722524 -0.10892036
0001b0 c2 0f 54 be 6f 80 f3 bd 68 33 ab 3d c9 be 96 3d
       -0.20709136 -0.11889731 0.08359414 0.07360608
0001c0 c8 16 ed bd 2f af 30 3d 45 b8 9b 3d 3b f3 df 3d
       -0.11576611 0.043135818 0.07603506 0.109350644
0001d0 20 ff f7 3b aa 61 b4 3d 31 be fc bd 0a ec 1a 3e
       0.007568255 0.088076904 -0.12340964 0.15129104
0001e0 83 0a 16 be 8f e1 ee bd f1 d8 7e 3b c9 55 96 3c
       -0.14652447 -0.11664116 0.0038886631 0.018351452
0001f0 a7 2a d0 bd 94 2f 44 bb 37 aa 88 bd 74 72 07 be
       -0.10164385 -0.0029935585 -0.06673091 -0.13227254
000200 af 35 40 3c 19 b7 5f 3d cf 26 fd 3c b6 fd 88 3e
       0.011731549 0.054617975 0.030902294 0.26756066
000210 bf bd 9a 3e 8e 5b ef 3d c3 10 5d bd a8 3e ca 3d
       0.3022289 0.116873845 -0.053971063 0.09875232
000220 c6 61 95 bd 16 e1 08 3e 4d b1 14 3e 61 2e 44 3e
       -0.072940394 0.13367113 0.1452076 0.19158317
000230 29 76 8b bd e8 9f b4 3d 36 dc 5d 3e d4 09 e6 bd
       -0.06809647 0.08819562 0.21666035 -0.11232343
000240 c5 39 00 3d dc ff 67 3d 91 27 26 3e 2a 8d 89 3e
       0.031305093 0.05664049 0.16226031 0.26865512
000250 27 97 96 3e 60 4a 82 3e ad c7 06 3c 92 88 49 3d
       0.29412195 0.2544737 0.008226317 0.04920251
000260 ab 99 bb 3d ab 0a 95 3e 1c 28 df 3d ef fa 2a be
       0.09160169 0.29109702 0.10896322 -0.16697286
000270 08 54 a5 3c 4a d0 05 be f3 7e c7 3d 61 17 1d 3d
       0.02018167 -0.13067737 0.097410105 0.038352374
000280 31 1a 33 3d 13 81 0a 3d 87 6f 2b bd 63 7f aa 3c
       0.04372615 0.0338145 -0.041854408 0.020812696
000290 6b 1f 07 3e 36 6d 23 3d 94 ce 51 3c 77 83 86 3e
       0.13195579 0.039899074 0.0128056 0.26272175
0002a0 57 d5 f4 3b 03 d6 02 3e 1b dd 95 bd bb 43 93 3e
       0.007471721 0.12776951 -0.07317563 0.28762612
0002b0 5b 93 b7 3d 61 1e b4 bc c2 92 9c 3e 20 e8 c4 3d
       0.08963653 -0.021987142 0.30580717 0.09614587
0002c0 42 bb ee 3d e4 23 c9 3d 80 0b 1a be 6f 6d 26 3e
       0.1165681 0.09821299 -0.1504345 0.16252683
0002d0 38 5b 3e 39 36 5e ad bd 60 16 46 bd f9 24 d6 bd
       0.00018153794 -0.08465235 -0.048361182 -0.10456271
0002e0 f8 49 2a bd 3e 3b 01 3d 10 0f 2f bc cb 7d 0b bc
       -0.04157445 0.03155064 -0.0106847435 -0.008513878
0002f0 67 dd 8b 3e 2f ee ac bc 5f ca 2b 3e 2f 05 a5 bd
       0.27317354 -0.021109669 0.16776417 -0.08057629
000300 60 ec c0 bd e0 0a dd 3d f4 b7 83 bd b9 76 58 bc
       -0.09420085 0.1079309 -0.06431571 -0.013211899
000310 05 68 04 be c6 96 be 3c 2a 3a 5e 3d 30 2f 44 be
       -0.12930305 0.023265254 0.05425469 -0.19158626
000320 9e f4 28 be e8 f8 4e be f8 50 79 3d 8b 57 20 bc
       -0.16499564 -0.20212138 0.060868233 -0.009786497
000330 d1 63 57 bd 6d c4 c3 3c a5 7d 4a bd 0e 14 4c 3c
       -0.052585427 0.023897374 -0.04943623 0.012455953
000340 dd e1 84 3d af 7c 05 3d 0b 7f bb 3d 5a 52 bb 3d
       0.064883925 0.03258961 0.09155091 0.09146567
000350 7c 99 12 be 4e dc 3b bd 59 93 d5 3a 53 71 14 be
       -0.14316362 -0.045864396 0.0016294523 -0.14496355
000360 85 e2 90 39 33 c6 21 3d 69 38 35 be d3 91 26 be
       0.0002763459 0.039495658 -0.176973 -0.16266565
000370 13 7c 19 be bd e6 61 be 97 51 23 be 7c bc 25 be
       -0.14988737 -0.22060676 -0.15949093 -0.16185182
000380 d5 a0 1f be 1d b6 dc bd 76 82 9a 3c 88 0c c2 3d
       -0.15588696 -0.10776923 0.018861037 0.094750464
000390 40 f2 c5 3c bf b9 08 be f1 cd d4 bd 60 12 06 be
       0.024163365 -0.13352107 -0.10390843 -0.13092947
0003a0 4b bc 58 be 27 a6 17 bd 89 1b cd bd c0 72 48 3c
       -0.21165578 -0.03702369 -0.100150175 0.01223439
0003b0 aa 34 d5 bd c2 a6 32 be 18 0d 30 be c2 47 88 3d
       -0.104104355 -0.17446426 -0.17192495 0.06654312
0003c0 4e 55 68 3d 53 ed ba 3d 86 78 41 3c 56 e8 13 be
       0.056721978 0.09127297 0.01180852 -0.14444098
0003d0 2b 2c 70 bb 97 df d7 3d 64 78 b8 bb 6e b2 04 be
       -0.003664742 0.10540693 -0.005629586 -0.1295869
0003e0 69 1b 32 be bf cd 5d 3d d6 25 e5 bd 00 02 03 bd
       -0.17393269 0.054151293 -0.11188857 -0.03198433
0003f0 1f e8 0c be 21 e8 b4 3d 77 25 23 bd 7d ac 45 be
       -0.13760422 0.088333376 -0.03983065 -0.1930408
