src/barabasi_120.pth (torch, 198383 bytes, 17 tensors)

layer_1.weight_ih f4 [128, 120]
00000000: fcb8 36bd 0cb8 f8bd b516 a5be e0d3 3c3e
00000010: bd99 82be 2942 973d b269 183d 7006 6a3e
00000020: 2ace 3d3e 584f 3f3e 9724 233e 4f5e 41be
00000030: 49bd 91be 7ee3 8a3c 318e 93be 7d86 46bd
00000040: 5112 e7bc 5498 5b3e 3cf7 e83c 7539 243e
00000050: 387a 41be 899a 923e e5c1 b0be 8536 483e
00000060: 35e1 43bb 8c42 853d adee 28be 1ae6 fc3c
00000070: 5d5b a83e 9fb7 6cbe ec0b 8f3c 56ca 53be
00000080: 30c4 c6bc de36 563e 2bf1 29be 6056 94be
00000090: c8d4 04be 8e8f 813e 3495 35be bbb1 cb3d
000000a0: db61 b8be 059c 373e d576 5cbe 8623 a63e
000000b0: 9a37 033d 45b9 513e 6e80 183d 2eb9 7a3d
000000c0: b834 473e 7e85 fc3d b0a8 043e 5429 c73d
000000d0: f86f e43b f049 2cbd a7f8 173d ea5d d23c
000000e0: ced7 f33d cc7c bbbe 1eab 8d3d c90b c53d
000000f0: 8b11 bb3e 68de d73b df92 993c 6f67 1a3e
00000100: d0eb a33d 9abf bc3d 7d8e ea3d f92b 71be
00000110: 6cb5 e13d 1995 aabd dd79 603e 117d 0c3e
00000120: 47ec 2a3e 2457 2abe 2a55 aa3e 9fef 6b3e
00000130: 9029 eebd 5087 b7be 61c4 37bd cc17 833e
00000140: aa99 35bd 9b52 7cbd f7a5 22be 8604 35be
00000150: 7ba0 13bd c851 443e abd7 d7bd 76e4 9b3e
00000160: 057a 35be 9881 9b3b 89fd 63bd 4199 a2bd
00000170: 89e8 5bbe 6d0e d1bd 8481 493e 93fe 2fbe
00000180: 3118 36bd 3c5f f0bd 32f1 a23d 22ce b3be
00000190: 1300 6c3e afc4 d43d 9fb6 163e ee32 bc3d
000001a0: 03b4 6a3e efbf 673c 4628 9cbd beff ac3c
000001b0: cd37 aa3d 34dd 993d 1f84 a7bd 0cf0 afbe
000001c0: 25d6 223d 0809 10bf 16b9 57be 6387 373d
000001d0: 17ee 12be 30d6 043d 7786 b03e 42f0 6c3e
000001e0: ed37 7f3d c934 813e e5c2 8e3d ea19 873d
000001f0: 87c0 1d3e 2772 523e c5fd 113e f600 8a3d
00000200: 7ab7 2b3e 4bb3 ce3d 855e 363e 458f 3c3e
00000210: 35a7 bc3d 6020 0d3e 4816 2d3e bc49 c33d
00000220: 1905 2e3e f344 c13d 276c 463e 8182 7f3d
00000230: 3726 5e3d 4a91 153e f9a2 6b3e 3495 f03d
00000240: 7bdc 573e 6c8b 0f3e e25a 603e 8616 0b3e
00000250: 867c a43d 5ee9 453e 55b2 833d 8c67 1b3e
00000260: 4e04 903d 1dc4 283e 37a1 0a3e 8a36 633d
00000270: 5fdd 313e 284a 2c3e 866d 913d e2ed 513e
00000280: ae07 d83a 34d4 e53d 6b34 673d 4667 de3d
00000290: 9499 863d 665d 313e b8f2 503e c13d 383e
000002a0: c2e0 4c3e 824b 2b3e 1935 913d f557 5d3e
000002b0: 96c1 953d fe65 1c3e 4d72 093e f790 1a3e
000002c0: 166a e03d d68e e73d b6b1 be3d 201d dc3d
000002d0: 6d5a 3f3e ff56 c43d 97be 0f3e b295 c93d
000002e0: 5e54 1f3e 0311 003e d859 c93d 5c09 e43d
000002f0: 5f3f 643e 9bd6 e83d 38fc d43d 3f9f 293e
00000300: 28c0 be3d 2ca7 963d d376 553d d349 cf3d
00000310: 0244 4b3e db02 323e d2a3 ee3d a204 0c3e
00000320: fc9a a33d 83e9 863d 6cc0 293e 78cc 583e
00000330: c635 2b3e 6402 b73d 6c70 cb3d f164 df3d
00000340: 84a1 c53d f7e2 c73d 5f0b 953d f368 f63d
00000350: 9380 043e ccc0 503e 4f3a 063e a5ab 6b3d
00000360: e386 d73d 2219 d23d 0799 ae3d fa33 2d3e
00000370: 0bda 1a3e 22b6 0c3e 8aed 073e cb96 9c3d
00000380: 311d b73d 7ab2 2b3e 997b 403e e362 f33d
00000390: f952 133e 1b50 383e 28f6 cf3d 5728 543e
000003a0: 999a 263e 3e0b ef3d 53b5 513e c95e 333e
000003b0: 949e 583e 9c8e 353e 7ff0 353e fce8 7b3e
000003c0: ecee 2b3e c1bc 2a3e 6639 073e 78f6 373e
000003d0: b45b 053e 7ece 363e a6bb 983d 8822 3b3e
000003e0: c11e a23d a1b2 5f3e 500a 293e 3bdd 4b3e
000003f0: 4421 c13d f5f6 113e e742 193e 87bf 593e
-0.04461001 -0.12144479 -0.32243887 0.18440199 -0.25507918 0.07385666 0.037210174 0.22854018
0.18535677 0.18682611 0.15931927 -0.18883632 -0.28464726 0.01695418 -0.2881942 -0.0484681
-0.028206976 0.21444827 0.028438203 0.16037543 -0.18894279 0.28633526 -0.3452293 0.19552048
-0.0029888873 0.065068334 -0.16497298 0.03087144 0.32882205 -0.23116921 0.01746174 -0.20682654
-0.024263471 0.20919368 -0.16595905 -0.2897215 -0.12971795 0.25304836 -0.17732698 0.09946009
-0.36012158 0.1793061 -0.21529706 0.32448977 0.032035448 0.20480831 0.037231855 0.061211757
0.19453704 0.12330149 0.12954974 0.097246796 0.0069713555 -0.0420627 0.037102368 0.025679547
0.11906396 -0.3661865 0.06917404 0.096213885 0.36536822 0.006587792 0.018746791 0.1507852
0.08003962 0.092162326 0.11452959 -0.2355193 0.110209316 -0.08329219 0.21921487 0.13719584
0.16691695 -0.16634804 0.332681 0.23040627 -0.11629021 -0.35845423 -0.044865016 0.25604093
-0.044336 -0.061602216 -0.15883623 -0.17677507 -0.036041718 0.19171822 -0.10539182 0.3044774
-0.17722328 0.0047456734 -0.05566171 -0.07939387 -0.21475424 -0.102078296 0.19678313 -0.17186956
-0.044456664 -0.117369145 0.079561606 -0.35118204 0.23046903 0.10389077 0.14718102 0.091894016
0.22920232 0.014144882 -0.07624869 0.021118041 0.083114244 0.07512894 -0.08179497 -0.3436283
0.039755005 -0.5626378 -0.21066698 0.04480685 -0.14348637 0.032430828 0.3447759 0.23138526
0.062309194 0.25235584 0.06970767 0.065967396 0.15405475 0.20551358 0.14256962 0.067384645
0.1676921 0.10092791 0.17809494 0.18414028 0.0921158 0.13781881 0.16903031 0.09535548
0.16994132 0.09436979 0.19377194 0.062380318 0.054235663 0.14606205 0.23011388 0.11747208
0.210802 0.14018029 0.21909669 0.13582811 0.080315635 0.19327304 0.064304985 0.15176219
0.07032071 0.16481061 0.13538061 0.055471934 0.17369603 0.16825163 0.07100968 0.20500901
0.0016481781 0.11222115 0.056446474 0.108595416 0.065722615 0.17320785 0.2040509 0.17992307
0.20007613 0.16728023 0.07090206 0.21615584 0.07312314 0.15273282 0.13422509 0.15094362
0.10957734 0.11306541 0.093112394 0.10747743 0.18686838 0.09586906 0.14037548 0.09843005
0.15559527 0.1250649 0.098315895 0.11134598 0.22289799 0.11369058 0.103996694 0.16564654
0.09313995 0.07356104 0.052115273 0.10121503 0.19850162 0.17383902 0.1165234 0.13673642
0.07988545 0.065875076 0.1657731 0.21171749 0.16719732 0.08936003 0.09933552 0.10907925
0.09649947 0.09760087 0.072775595 0.12031736 0.12939672 0.20386046 0.1310818 0.05753674
0.105237745 0.102587 0.085252814 0.16914359 0.1512224 0.13741353 0.13274208 0.07645949
0.08941115 0.16767302 0.18797149 0.118840955 0.1438712 0.17999308 0.101543725 0.20718513
0.16269912 0.11672066 0.20479326 0.17516626 0.21154243 0.17730182 0.17767523 0.24600595
0.1679036 0.16673566 0.1320549 0.17965114 0.13023263 0.17852208 0.07457666 0.18274891
0.07916022 0.21845485 0.1650784 0.19908611 0.09430173 0.14254363 0.14966927 0.21264468

layer_1.weight_hh f4 [128, 128]
00000000: 9d54 6f3c f2f3 82bd f910 8b3c 8264 f4bb
00000010: 3c80 1a3c 1032 92bd 6d7c 8cbb 18b4 6cbc
00000020: 1861 8cbd 32b1 503c fa12 163d 5f89 65bd
00000030: 5120 d13b fee2 84bc f25a 453d 78fa e5bc
00000040: 490b 75bd cea9 903d 902a 9cbc 9e6c 95bd
00000050: c5ce 8a3d df0b 60bd b689 32bc 0ea2 37bd
00000060: 5ea3 523d 92b3 7ebd 6aad 8bbd a917 b2bc
00000070: 3f62 fabc 82ba 8abd e4b7 99bd 1a1e 9b3d
00000080: b77d 5b3d fb75 2abd 832b 74bb 1740 f23c
00000090: 4164 66bd adeb 33bc 340a 31bd fb6f 98bb
000000a0: cf8d 733d 4ea7 da3c 64a0 5e3c 4661 8a3d
000000b0: 02b1 7e3d 422b 983d cb06 9b3d 2768 133d
000000c0: 83cd 2b3d 9650 8e3d 7ba9 293d 60d0 c33c
000000d0: 2670 873d c7d9 e63c b179 a4bb e239 89bd
000000e0: 1f36 8cbb cc53 8cbc b87b 563d 0590 37bd
000000f0: 75f8 06bd ae1a 243d 344f 7fbd 8525 9cbc
00000100: fc44 7d3d 3b1f 6cbd 6776 0ebd 245c 8c3d
00000110: 6aca 0fbc bf82 923d 53be a03c bb6c f93c
00000120: 1ea0 43bc 35b1 b43c 084a 1a3c b320 973d
00000130: 1628 8cbd 7192 9cbc 47cc 1bbd 4e45 53bd
00000140: 20b0 633d f3e1 7dbb 02f3 63bd f79e aebc
00000150: 83b1 523c bad5 8b3d fc10 91bd 7dde 05bd
00000160: 53d9 333d 4491 903d e565 323d 9dcf 70bd
00000170: 2ac9 99bd f49e 7c3d 12df 22bb e764 9abd
00000180: 586c 9b3c 7517 5d3d a91e abbc dae9 09bd
00000190: 7649 11bd 2148 973d be2f d6bc 0bde 543d
000001a0: 3af6 25bc ad17 1c3d ba64 9b3d 15c4 3e3d
000001b0: a128 45bd d97c c13c de28 853d 4854 353d
000001c0: c559 943c 91be 0f3d 940a 99bd bf80 a93c
000001d0: 23da 3d3d 545e 3e3d ed8a 4dbc d61e bfbb
000001e0: 21eb fabc cb25 6fbd 9c43 63bd ddea 8cbd
000001f0: ed91 aebc 4fb1 a7bc 1990 883b e007 0bbd
00000200: 8066 75bc 6c03 63bc c4eb dc3c 1f30 963c
00000210: ce40 9cbd 85d1 583d 8d16 59bd 7cba 393d
00000220: c57e b03c 6293 09bd 0ab6 1c3d 40e1 883d
00000230: 62a2 9f3c b515 82bd 15b4 573c 2282 7fbc
00000240: 6356 57bd cb44 923d f5cd 8d3d 27d0 2cbc
00000250: 3811 623d e013 123d 08a7 bbba 4e58 61bd
00000260: 9fe7 0f3d f48e 3a3d 2d1c 213c b9c0 873d
00000270: 2ef1 64bc 4972 683a 13ff 523d 492e 69bc
00000280: 33ce 4a3d 5a4b 3abc f759 ddbc da28 a33c
00000290: c596 e13b 0209 4fbd cf0e 453d cadb 453d
000002a0: 5b2f 893d 7da1 a83c 4d08 923d 7f53 3ebd
000002b0: a030 af3c 0ec8 533d 7600 0fbc f539 953d
000002c0: 9fe5 3f3d 347a de3c d81c ca3c abac 43bc
000002d0: cfa1 93bb 2e87 3f3d 0963 243d 9a16 363c
000002e0: 5eb3 1b39 9257 39bd 4ac9 cf38 e50c ebbc
000002f0: 60d6 2d3d 5bd6 583d 252e 353d 7511 303b
00000300: 19b2 923d d820 733d 0dc3 ab39 7217 2c3d
00000310: 848c 853c bb7a 09bc 6f31 7a3d 15fa 913d
00000320: fdd3 b53b 71b7 3cbd 3e53 80bd 80e1 43bd
00000330: bb66 033d 3764 c63c 3b9e 00bd bc19 913d
00000340: 60ff 4bbd 0935 92bd 9742 45bd cd2d 69bd
00000350: 6962 793d 4a2c de3c 43da e23c 6a81 9d3d
00000360: b81a 90bc 486d 77bd 2d90 d73b 4328 30bd
00000370: ebb1 77bd cbcd 4a3d d15e 2f3d 33e6 9cbd
00000380: 74cb 0a3b d575 843d 5cb9 81bd 827d 263d
00000390: 2f52 923d 865d 5fbc 03e2 833d 4792 ca3b
000003a0: e868 0bbd 73e8 99bd 0e2f ed3c 2d53 11bd
000003b0: 906d 4c3d f0fc 5c3d 1312 f03b 3448 523d
000003c0: 319e 323d 7d83 983d 6b32 4dbd 0cf3 94bc
000003d0: e010 c83c 2a71 80bc e85a 60bd 90ab 5f3b
000003e0: aba1 94bd c543 933d b8d4 8b3d aa04 9d3c
000003f0: 66d0 063c 015a 593c ff49 9dbd 7a77 393d
0.014607576 -0.06394185 0.016975867 -0.0074582705 0.0094299875 -0.07138455 -0.0042872936 -0.014447235
-0.06854457 0.012737559 0.03663919 -0.05603921 0.0063820262 -0.01622152 0.048182435 -0.028073534
-0.059825215 0.07063638 -0.019063264 -0.07296108 0.067777194 -0.05469882 -0.010897091 -0.04483228
0.05142533 -0.06218297 -0.068201855 -0.021739798 -0.030564426 -0.06773855 -0.075057775 0.07574101
0.053586688 -0.04161642 -0.003725738 0.029571576 -0.056247953 -0.010981482 -0.04322262 -0.004652021
0.05946141 0.026691105 0.013588045 0.06756835 0.062180527 0.07430126 0.07569655 0.035988
0.041944038 0.06948964 0.041421395 0.023903072 0.066131875 0.028180016 -0.0050193896 -0.067004934
-0.0042789127 -0.017129801 0.05236408 -0.044815082 -0.03295179 0.040064506 -0.062331393 -0.01906086
0.061833367 -0.05764697 -0.034780886 0.06853512 -0.008776287 0.07153844 0.019622004 0.030447355
-0.01194003 0.022057155 0.0094170645 0.07379284 -0.06843583 -0.019112797 -0.03803661 -0.051579766
0.055587888 -0.0038739413 -0.055651672 -0.021316035 0.012859705 0.068278745 -0.07083318 -0.032682884
0.04390843 0.07058957 0.043554205 -0.058791745 -0.07509072 0.061675027 -0.0024852199 -0.07538777
0.01897256 0.05397745 -0.020888643 -0.033670284 -0.03547045 0.07386804 -0.026145812 0.05196957
-0.010129506 0.038108516 0.075875714 0.046573717 -0.04813445 0.023619102 0.065019354 0.04426983
0.018109212 0.035093848 -0.07472721 0.020691274 0.04635061 0.046476677 -0.0125453295 -0.0058325334
-0.030629696 -0.05838565 -0.0554844 -0.06880734 -0.021309817 -0.02047029 0.0041675684 -0.033943057
-0.014978051 -0.013855796 0.02696789 0.018333493 -0.07629548 0.05293419 -0.05300002 0.04534386
0.021544823 -0.03358782 0.038259543 0.06683588 0.01948661 -0.063517965 0.0131654935 -0.015594991
-0.05257262 0.071420275 0.06924049 -0.010547674 0.055192202 0.035663486 -0.0014316747 -0.055015855
0.035133 0.045546487 0.009833378 0.06628556 -0.013973517 0.00088671275 0.05151279 -0.014232227
0.049513053 -0.011370504 -0.027020438 0.01991694 0.006884428 -0.0505457 0.048109826 0.04830531
0.066984855 0.020584816 0.071304895 -0.046466347 0.02138549 0.05170446 -0.008728137 0.07286445
0.046849843 0.02715788 0.024671957 -0.011943023 -0.004505373 0.046759777 0.04013351 0.011113787
0.00014848771 -0.04524953 9.908022e-05 -0.028692672 0.042440772 0.0529388 0.04423346 0.0026865874
0.07162876 0.059357494 0.00032760986 0.042014547 0.016302355 -0.008391078 0.0610823 0.071277775
0.0055489526 -0.04607338 -0.06265877 -0.047822475 0.032080393 0.024217708 -0.0314009 0.070849866
-0.04980409 -0.07139022 -0.04815921 -0.056928445 0.060884867 0.027120728 0.027691966 0.076906994
-0.017590865 -0.060406953 0.0065784664 -0.043007147 -0.06047241 0.049512666 0.042815033 -0.076610945
0.0021178396 0.06467787 -0.063341826 0.040647037 0.071445815 -0.013633138 0.06439593 0.0061819884
-0.034035593 -0.07515039 0.028953101 -0.035479713 0.049909174 0.053952157 0.0073263734 0.05133839
0.043607894 0.074469544 -0.05009691 -0.0181823 0.02442211 -0.01567896 -0.054774195 0.0034129359
-0.07257398 0.071906604 0.06827682 0.019167263 0.008228397 0.0132660875 -0.07680129 0.045279957

layer_1.bias_ih f4 [128]
00000000: ccec 103e f849 fe3d 2060 a03d 48a2 dd3d
00000010: de6a 1a3e 0e6b 013e 70cc 303e 28e8 353e
00000020: 1326 c63d 692c 823d 61bc 413e 4d51 473e
00000030: 3b13 fc3d 1056 0fbb 408c 5c3d d1a1 d33d
00000040: 260b f13d 5996 943d 5373 473e 7a15 4d3e
00000050: a65d c03c dce7 393e 2906 6c3d 9de1 a63d
00000060: 97d7 223d 7448 7d3d 90b0 193e 2357 aa3d
00000070: bbd9 373e f129 3d3e af62 a43d 8737 0d3e
00000080: b612 cc3d 8d5d ed3d c672 2f3e 66bb 3e3e
00000090: 13c0 bc3d c02d 103e 3872 463e 1d0a 3d3e
000000a0: e14f f63d 6426 4c3e eb5e ea3d ec5b 3d3e
000000b0: c5f7 283e 85f8 f03d 6b87 333e ddbb 103e
000000c0: 2673 473e 5f92 243e 52b5 5d3e 1a9c f33d
000000d0: ddd0 8f3d 4d62 133e 7f4f af3d de40 1c3e
000000e0: 4a82 443e 0d57 953c d1e9 203e 552c 053e
000000f0: 3e0b 4b3e 4fce 053e 40b1 aa3d e343 dd39
00000100: 97bb 743d 52b4 113d c121 583e 4374 1d3e
00000110: add6 4e3e 14fd b13d 5c6f ed3c 7c3e e63d
00000120: c237 1d3e 7f8a 273e 498a c23d fad4 073e
00000130: 4f79 b53d 91c6 113e 72e7 d53d 493a 373e
00000140: 336a 153e 2a34 6a3e 1ede f93d fb8a c93d
00000150: ec22 c63d 3099 a63d 34ee 0d3e c93f 103e
00000160: 5921 e83d c425 5b3e 6c52 203e dd82 933d
00000170: e359 663e 0818 b13d 36cc 373e a853 0f3e
00000180: 1459 e63d 44cb df3d ffa8 8b3d d100 313e
00000190: aa87 ef3d 5363 4c3e deef 023e e094 dc3d
000001a0: b134 fe3d 1c71 5a3e 381b 353e 4c6a f43d
000001b0: 7336 473e 763d 15bd 8d88 263e 1507 413e
000001c0: 311f 8b3d 9718 063e 67c4 273e 9481 903d
000001d0: 8127 e83d 15ea b93d 284d c93d 880a 313e
000001e0: 5577 103e 57c5 7b3d d1b6 913d f19c 453e
000001f0: 8ce1 c23d f842 ab3d 783a 4e3d 67e4 803d
0.14152831 0.12416452 0.078308344 0.10821968 0.15079829 0.12638494 0.17265487 0.17764342
0.09675231 0.06356127 0.18919517 0.19464608 0.123083554 -0.0021871366 0.05384469 0.103335984
0.117697045 0.07255239 0.19477586 0.20027724 0.023482155 0.18154854 0.057623062 0.08148501
0.039756384 0.061836675 0.1500876 0.08317401 0.17954151 0.1847303 0.08026635 0.13790713
0.09964506 0.11590109 0.17133626 0.18626174 0.09216323 0.14079952 0.19379508 0.18460889
0.120269544 0.1993652 0.114438854 0.18492097 0.16500767 0.11766151 0.17532127 0.14134164
0.1947752 0.16071461 0.216512 0.118950084 0.070222594 0.14392968 0.085600846 0.1525912
0.19190326 0.018229986 0.15714194 0.13005193 0.19828507 0.13066982 0.08334589 0.00042202984
0.059749212 0.035572357 0.21106626 0.15376382 0.2019908 0.08690849 0.028983764 0.11242387
0.15353301 0.16361426 0.09499032 0.13264838 0.088610284 0.14235903 0.10444535 0.17893328
0.14591293 0.22871462 0.122005686 0.098409615 0.096746296 0.08134687 0.13860399 0.14086832
0.113344856 0.21401125 0.15656441 0.072026946 0.22495227 0.08647162 0.17948994 0.13996756
0.11247459 0.10927442 0.06819343 0.17285468 0.11695798 0.19959764 0.12786815 0.10770583
0.12412394 0.2133221 0.17686164 0.11934337 0.19454364 -0.036435567 0.16263027 0.18850358
0.06793059 0.13095318 0.16383515 0.07055965 0.1133566 0.09077851 0.098291695 0.17289174
0.14108022 0.061467495 0.071149476 0.1929815 0.09515676 0.08362383 0.05034873 0.06293564

layer_1.bias_hh f4 [128]
00000000: 67e7 043e 09c1 d73d 5871 e53d d221 2d3e
00000010: 8699 1e3e ca1d 1b3e b19a b73d 885b c33d
00000020: 2c41 2c3e 24d7 8d3c a4b4 e73d 07e0 053e
00000030: 0a09 5f3e 25aa fa3d d933 373e 32b4 113e
00000040: adf7 463e afc5 933d 77b3 8b3d 25a5 1e3e
00000050: 405c c33d b561 a43d f22c c23d cb47 0f3e
00000060: 63d0 b33d c072 ae3d e175 5c3e af4d 9b3d
00000070: d250 0c3e d586 163e d16e cd3d 6a32 a63d
00000080: 0e9c 0f3e f8e6 1c3e 7293 a63d 2846 143e
00000090: 3952 3f3e d404 073e 08f1 0c3e f60f 8d3d
000000a0: f3b5 373e 4385 d03d 975d b03d f0a1 b43d
000000b0: 6726 463e 0623 1e3e 3ba1 243e 57a1 483e
000000c0: e94b f73d c4ba 393e c20f 633e d8dd 533e
000000d0: ecc5 4b3e 45bf ae3d e4d0 233e db51 a13d
000000e0: c4d2 d43d c95b 943d 732f 933d 78e4 563e
000000f0: 3767 103e 5ddb e93d c058 1a3e 91cf 6f3d
00000100: 2d94 c63d ee6a f13d 8d9e ed3d 7d16 1a3e
00000110: b74b 023e 0c18 2c3e 30ee b13d ee78 ef3d
00000120: 5241 4a3e 4a6e 3c3e 8ddf c73d ed4f c23d
00000130: a9f3 1e3e 76f7 283e e672 203e 3f16 163e
00000140: cbb7 083e aa82 593e 3b5f ef3d 5ae9 0f3d
00000150: 7c60 3ebc fcd9 ec3d e77d 0b3e d74b 1b3e
00000160: ec9f 2a3e 4749 473e 5e9e 153e b15e f23d
00000170: cd68 193e 8a22 be3d 30b0 ae3d f634 ea3d
00000180: 4873 953d 8ae2 643e 311d 3e3e 8e2e ed3d
00000190: 0e0b 0e3e 688e ff3d 8277 5f3e 5850 ab3d
000001a0: d6f9 143e ed8b 333e 84ab 3c3e ec89 1c3e
000001b0: 4903 7a3d 1c43 aa3c 2a8d 983d 17ee 033e
000001c0: 6f6c 193e 31c2 d63d 7ab3 023e cd37 043e
000001d0: a469 393e e38e 0e3e 59b8 223e ad20 353e
000001e0: 9b02 4d3e e9c8 ba3d e794 363e de3b 443e
000001f0: 9fc8 ac3d 81d9 233e de7b c33d c144 cf3d
0.12978898 0.105348654 0.11203259 0.16907433 0.15488252 0.15148082 0.08965052 0.095389426
0.16821736 0.017314501 0.11313751 0.13073741 0.21780792 0.12239484 0.17890872 0.14228895
0.19430418 0.072154395 0.068213396 0.15492685 0.0953908 0.08026449 0.09481229 0.1399223
0.08779981 0.085179806 0.21529342 0.07583176 0.13702706 0.14699872 0.10030902 0.081150845
0.14024374 0.15322483 0.08133592 0.14479887 0.18683709 0.13185436 0.13763821 0.0688781
0.17940502 0.10181668 0.08611601 0.088199496 0.19350587 0.15443048 0.1607713 0.19592796
0.120750256 0.18137652 0.2217398 0.20690095 0.1989972 0.085325755 0.15997654 0.07876941
0.10391763 0.07244069 0.071867846 0.20985591 0.14101873 0.11418793 0.15072918 0.05854756
0.09696231 0.11787973 0.11602507 0.15047641 0.12724195 0.16806048 0.08688009 0.116929874
0.1975148 0.18401447 0.09759436 0.09487901 0.15522636 0.16500649 0.1566883 0.14656924
0.13351361 0.2124125 0.11688086 0.03513465 -0.011619683 0.11565015 0.13622247 0.1516565
0.16662568 0.19461547 0.14611194 0.11834467 0.14981385 0.092839316 0.08529699 0.11435883
0.07297379 0.22352043 0.18565823 0.11581145 0.13871405 0.12478334 0.21822932 0.08364934
0.1454843 0.17533846 0.18424803 0.15286988 0.06103829 0.020783953 0.074488 0.12883793
0.1498277 0.10486258 0.12763777 0.12911911 0.18106705 0.13921694 0.15890636 0.17688246
0.20020525 0.09120352 0.17830239 0.19163463 0.08436703 0.1600094 0.0954511 0.10120536

layer_2.weight_ih f4 [64, 128]
00000000: 62de b83c 738f 79bc 4f7d e3bd ca34 06bc
00000010: 503c 05bd 03f0 8cbd 53d6 6dbd 8742 91bd
00000020: 8655 41bd 253b 03bd dda1 083d b462 143d
00000030: 52cf abbd 6804 803c c40d d7bc f0ea af3d
00000040: 0c5e 4dbd f0a2 583d ee9c 993d cd65 763d
00000050: e205 debc e8ad 35bd 8eee a93d 9ddc 4abd
00000060: 9f4b 813d eecb a33d e7a4 e0bd 4918 b53d
00000070: 0039 673d fecd c9bd 7f2f a83c 711e a6bd
00000080: 1435 3ebd 0dd0 cdbc 96c4 903d 487b 253d
00000090: c863 c13d efcd 9ebd 3698 9f3d 12b9 a8bd
000000a0: be13 5d3c f2ef 5abd 9534 acbd c152 91bb
000000b0: b53a 803d 0f90 b93c b25e cebd 8fc2 ba3d
000000c0: f59e 43bc 2a42 a4bd 32e9 763c ae1b 99bd
000000d0: 7347 bd3b f397 993d 5750 a9bd 6ad4 523d
000000e0: f6ad 983d 99e7 97bb 8ff2 aa3d 0586 b7bc
000000f0: 53eb c3bd 2759 0b3d 59e0 92bd 639d a8bc
00000100: 2f56 653d a0b2 d43c 4552 85bd bf00 813d
00000110: f270 d13b 35c6 29bd 9541 84bd 3327 43bc
00000120: e096 0d3d 9f1a c73d c51c 883c 8f0e 143d
00000130: e292 89bd d63d 843c 40f9 8bbd 2af7 563d
00000140: afce 9abd f3d5 893d b7be 343d c7ca b9bd
00000150: 9199 6cbd a271 93bd 56de e6bd 443a d6bd
00000160: 683d 673d c947 bc3d f03f c1bd 3802 37bd
00000170: 6139 18bd 63d6 dcbd 4246 fc3c a4f2 3f3d
00000180: 4ade a63d ae4d 0ebc b393 c5bd 15d1 d0bc
00000190: c5a4 123d 204d 1a3d 7c76 bd3b 49a8 2abd
000001a0: be4f 59bd 66a5 a2bd cd2a 7a3c d03e 28bc
000001b0: 9057 0ebd 9304 87bd 83fa 563d f19c 8f3d
000001c0: 275f c93d aec3 43bc b90a 7c3d d074 6fbd
000001d0: 0ac9 c3bd 7a5a 6cbd 3a4d d33d 73cc 10bd
000001e0: 6eaf f03b 7346 cdbd 91dd d03c 3fd2 42bc
000001f0: 9b4c e3bb 4bfa c33b 4935 a3bd 4cfb efbd
00000200: a334 923f fe76 343e 0534 373e 5ad0 a93c
00000210: 6c37 d33d b0b1 7f3d 5c25 3f3e 1836 193e
00000220: 80ee 863d 707e 2f3e 7d53 4f3e b89e fb3d
00000230: e895 8b3d e38e a53f 411d a03d 5b1c b23d
00000240: 81cd e73d e2c7 133e 8c4c 623e 12e6 5e3e
00000250: 5309 1a3f 9c33 403e 76a6 883d 34c5 4b3e
00000260: 29b8 c93d 246d 583f fa05 1f3e 2d70 9d3f
00000270: f0a7 103e 26a3 203e 8247 753e b1ab ff3d
00000280: 541b de3c 37a2 643e 0b58 323d a8b5 7c3e
00000290: e453 8c3d 2679 573e cb33 3b3e 9059 1f3e
000002a0: 23a8 573e c54d db3d 97d0 7b3e 536a 0f3e
000002b0: 193f 123e 8d92 753e 99fc e23d feee 253e
000002c0: c983 183e 2a11 523e d4c5 7f3e ed1d 3b3e
000002d0: dabc 763e 0856 263e bcb0 5a3e 1048 823f
000002e0: fac6 4b3e 8a95 f53d 35a4 443e fd83 0e3d
000002f0: 7df1 693e c6f5 b23d 35cc 2b3e 754d 493f
00000300: f571 023e e4da 60bc c282 163e 4367 d93d
00000310: 4f50 793e 678b 733e 5937 573a e587 0e3e
00000320: 5125 713e 52d8 093e e59c 083d d562 c03d
00000330: 38cb 693e 16ed 543e c88d 093e b7c6 643e
00000340: 7b89 493e 1c24 623e 1cf4 413e 3ab3 a13d
00000350: 83da 7a3f 6549 0f3e e1a7 f63d 113e fc3d
00000360: ef2d 7b3e 9263 4d3e aceb 683e d22f 5d3e
00000370: 8048 283d b0d0 323e df95 be3d 4487 3d3d
00000380: 4b13 8a3d deb2 263d a3f4 913d 484e 6b3e
00000390: 35b5 ca3d c485 d53d eb1e 243e aced 523e
000003a0: 04c2 aa3d 2814 373d 73c6 213e 341b 063e
000003b0: 4c89 2a3e d7a1 c83e 8141 c73c 719c 4b3e
000003c0: 21ba 643e b60a 083e 105f 6b3e bd72 1e3e
000003d0: 50c8 d03d b730 3e3e 588d 0e3e 048f 3a3e
000003e0: 77d7 123e d228 353e a428 003e 427d 043e
000003f0: 2362 d13d a64b 9c3d db15 b83d 6bad 563e
0.022566978 -0.015231955 -0.11107885 -0.008191297 -0.03252822 -0.06881716 -0.058065724 -0.07092767
-0.047200702 -0.032038826 0.03335749 0.036226943 -0.083891526 0.015627101 -0.026251681 0.08589733
-0.05013852 0.052889764 0.07500635 0.06015568 -0.027102415 -0.044355303 0.08297454 -0.0495268
0.06313252 0.07997881 -0.109689526 0.08842523 0.056450844 -0.09853743 0.02053046 -0.08111275
-0.046437338 -0.02512362 0.07068746 0.040400773 0.0944286 -0.077541225 0.07792704 -0.08238424
0.013493476 -0.053451486 -0.08408467 -0.004434914 0.062611975 0.0226517 -0.100766554 0.0911914
-0.011939754 -0.08020432 0.0150702465 -0.074759826 0.0057763397 0.07499685 -0.08267277 0.051472105
0.074550554 -0.004635763 0.08347046 -0.022402773 -0.09566369 0.03402057 -0.07171697 -0.02058286
0.055990394 0.025964081 -0.06509832 0.062989704 0.006391638 -0.04144879 -0.06457821 -0.011911201
0.034567714 0.097218744 0.01661528 0.036146697 -0.06717469 0.016142767 -0.0683465 0.052481808
-0.07558953 0.06730261 0.044127192 -0.0907188 -0.05776364 -0.07199408 -0.11272876 -0.10460332
0.056455046 0.091933794 -0.09436023 -0.04467985 -0.037164096 -0.107830785 0.03079522 0.04686226
0.08147867 -0.0086855125 -0.09647312 -0.025490323 0.035801668 0.03767121 0.0057819467 -0.041664395
-0.053054564 -0.079417035 0.015268994 -0.010268882 -0.034751475 -0.06592669 0.052485 0.07012356
0.09832602 -0.011948509 0.061533663 -0.05846101 -0.095598295 -0.057703473 0.10317464 -0.035351228
0.0073451316 -0.10023203 0.025496276 -0.011890947 -0.0069366223 0.005980765 -0.07969148 -0.11717853
1.1422313 0.17623517 0.17890938 0.020729233 0.10313305 0.062425315 0.18666595 0.14962041
0.06588459 0.17138076 0.20246692 0.122861326 0.06815702 1.293423 0.0781808 0.086968146
0.11318494 0.14431718 0.22099513 0.21767452 0.6017048 0.18769687 0.06672375 0.19899446
0.09849579 0.84541535 0.15529624 1.2299858 0.14126563 0.15687236 0.2395306 0.124839194
0.02711264 0.22327505 0.043540996 0.24678671 0.06851938 0.21042308 0.18281476 0.15561509
0.21060233 0.10708193 0.2459129 0.14005403 0.14281882 0.23981686 0.110833354 0.1620445
0.14894022 0.2051436 0.24977809 0.18273135 0.24095479 0.16243756 0.21356481 1.0178242
0.19900122 0.11991413 0.19203265 0.034793843 0.22846027 0.08738284 0.16777118 0.78633815
0.12738784 -0.013724063 0.14698318 0.10615399 0.24347042 0.23783647 0.00082098466 0.13919027
0.23549391 0.13461426 0.03335275 0.09393851 0.22831428 0.20793566 0.13432992 0.22341429
0.19681351 0.22084087 0.18940777 0.07895513 0.9798967 0.13992842 0.12043739 0.12316526
0.24529241 0.20057514 0.22746152 0.21600273 0.041084766 0.1746242 0.093059294 0.046271577
0.06741961 0.040697925 0.07126739 0.2297908 0.09897844 0.104259044 0.1602742 0.20598477
0.08337787 0.044696957 0.15798359 0.13096315 0.16653937 0.39185974 0.024323227 0.19883896
0.22336628 0.13285336 0.22985482 0.15473457 0.101944566 0.1857327 0.13921106 0.18218619
0.14340006 0.17691353 0.12515503 0.12938407 0.10223796 0.07631616 0.089885436 0.20964591

layer_2.weight_hh f4 [64, 64]
00000000: 7812 c63d e732 4f3d a1cc 83bd f30d 093d
00000010: 89d9 5c3d af43 a23d 209e bcbc 3892 b2bd
00000020: 4a83 57bc 9806 8e3d 1c5d b8bd 2d0e 573d
00000030: 8efd bc3b 6fb5 98bc c5f2 753d d487 bdbc
00000040: d80c 373d 51ec 63bd 3639 41bc 621d c33d
00000050: c6f8 dcbd 1c97 773d 5a10 b7bd a905 dbbd
00000060: a25c be3d c4cc c6bd 71da 6fbd a112 cfbd
00000070: a16a cabc 82fb 413c 6a72 88bd 53c6 9d3d
00000080: 81cd a33d d543 c13d fe38 e03b 9a4f 4ebd
00000090: b72a a73d 5e68 67bd 479a f1bc 5517 a03d
000000a0: 72e4 81bd f97f d1bd c161 bcbd 4e8b c33c
000000b0: ad88 c8bd 4425 173c d8ef cf3d 2ba7 1b3c
000000c0: 1440 4fbd 9e20 183d 8243 9bbd fc92 d7bd
000000d0: da2d 4abd 514c a7bd 1b45 893d ab29 8ebd
000000e0: c909 7abd 2248 663a 1854 f23c f9cb 4b3d
000000f0: 7cf9 14bd 30e6 b33d 424e 4d3d d3c5 433d
00000100: 153c dcbd 9e3f af3d feea a9bd adaf 70bd
00000110: 76b0 803d 6853 bc3d 9149 67bd 69c6 aebd
00000120: 1e03 96bc 5b02 60bc 119e 903d 4ce8 993c
00000130: 4fdc aabd ed02 663c b2f9 be3d f687 773c
00000140: 4c17 fb3c 6508 ddbd a9f7 aa3d 81d8 e43c
00000150: 7b16 903d 0f81 c0bd d3ee b4bd 412f f5bc
00000160: 50e3 8bbc efd4 d73d 039f 90bd 2ac3 af3d
00000170: ed8a 73bd 443d 37bd 2b2b c03d cf5f f9bc
00000180: f8d5 53bd f0b0 623c cefb cc3d 4cb9 ddbd
00000190: 86bb bd3d 93a9 b63d 2942 7a3d 5721 33bd
000001a0: 83a4 d03d 1748 853d ab18 443b 7f52 a63d
000001b0: 116c 433c 20f1 f13a 7d56 dabd 4614 8abd
000001c0: 2559 96bd 5ed0 d73d 4698 f33c 09d1 0ebc
000001d0: 424c f8bc b554 f8bc b9b3 b23d be01 2e3d
000001e0: a236 eb3c ad62 41bd bd65 93bd 6236 bbbb
000001f0: 6476 ff3c 517b d0bd 61e7 03bd 1bf2 a63c
00000200: f73a e53b 9240 d3bd e708 323d 1547 0c3d
00000210: a5f9 8abd 21c3 af3d 934a c33d 77aa cdbd
00000220: 49cc 82bd 6091 3a3d 9c03 58bd 1d1e b43b
00000230: 8ff8 67bd cf5f 24bd a175 1b3d ea51 b2bd
00000240: 5a2a 3d3d 11ab cbbd ccfe 85bd 7dc0 d6bd
00000250: ff51 c0bd 9e40 873c f8de 7e3d c6aa 98bc
00000260: 045b 023d 1d04 d53d 0cb6 53bd 161e 453d
00000270: 1c21 ab3d f42e 6f3c e485 d7bd 363e 9a3d
00000280: 050b cd3d 350e b8bd a05a 9c3d c5a6 73bd
00000290: bb22 e9bc af75 bdbd 1dc7 c7bc f2ac 7dbd
000002a0: 5cf7 d4bd e706 c23d 5aa4 86bd 666b a93d
000002b0: 3076 c7ba cf49 9fbd 639f 1a3c 8c2c 173d
000002c0: e938 96bd 385d aa3c e33d d03d b342 19bd
000002d0: d96d d03d 597b c23d 21fd 8b3d a361 713c
000002e0: 3c29 25bc aa5e 883d 2d60 d5bd 719f 323d
000002f0: 19ad c0bd 75dc 9bbd 135e 06bc fc5b d6bc
00000300: b523 25bd 22c9 26bd 65c1 463d 4465 bb3d
00000310: 75f0 b8bc 12c4 c13d 1e68 b4bd 7522 7b3b
00000320: 4a02 bbbd d892 d6bc f3fd d63d 2560 bbbd
00000330: 58ff 05bd 02e1 62bd 76a6 6a3c 6b5e 48bd
00000340: aa40 2b3d a8c9 cc3d e7fa ba3c 0174 d3bd
00000350: 4e73 2a3d 717f 77bd 08b0 8e3c bff1 b53d
00000360: f472 9b3d 3c45 dabd 2af5 d4bd 2ad9 cc3c
00000370: 6586 433c 4a00 8abd 84c9 b2bd cce5 b13b
00000380: 72e0 bdbb 2f60 9c3c 9d79 57bd 5614 02bd
00000390: 3c69 9d3d fa44 a63c 29ad bbbd fc82 3cbd
000003a0: 7ef5 0ebd 7202 6a3d 52e3 4cbb d68e a9bc
000003b0: 5d31 cf3d d95c 963d 7f08 3f3d 40ea c53a
000003c0: 898e 5cbd 78b9 a93d fa81 873c aa1f d73d
000003d0: 3d5d ea3c d873 7f3d c594 aa3d e599 d73c
000003e0: c208 8d3d 3081 33bd 2ac8 923c 1937 a7bd
000003f0: b063 7abc 3bba 96bd 48b1 1cbd 8189 a5bd
0.096714914 0.050585654 -0.06435514 0.03346057 0.053918395 0.07923066 -0.023024619 -0.08719295
-0.01315386 0.069348514 -0.09002134 0.052503753 0.0057675308 -0.018641202 0.060045976 -0.023136057
0.044689983 -0.05564529 -0.011793425 0.09527089 -0.10789637 0.060446844 -0.08938666 -0.10694439
0.09295012 -0.09707025 -0.05855793 -0.10110975 -0.024709048 0.011839749 -0.06662448 0.07703843
0.07998181 0.09436766 0.0068427315 -0.050368883 0.08162444 -0.056496017 -0.02949251 0.0781695
-0.063424006 -0.10229487 -0.091983326 0.023870137 -0.09791694 0.009225193 0.101531684 0.009500305
-0.05059822 0.03714048 -0.075812355 -0.10526082 -0.049360134 -0.08168853 0.06702634 -0.06941541
-0.061044488 0.00087845523 0.029581115 0.04975507 -0.03637074 0.08784139 0.05012346 0.04779608
-0.10753647 0.08557056 -0.08296774 -0.058761287 0.06283657 0.09195596 -0.056466643 -0.085339375
-0.018312033 -0.013672437 0.07061399 0.018787526 -0.08342802 0.0140387835 0.09324969 0.015108099
0.030650757 -0.10792617 0.08348019 0.027935268 0.07035538 -0.09399616 -0.088346146 -0.029929759
-0.017076164 0.10538661 -0.07061579 0.085821465 -0.05945866 -0.04473616 0.09383234 -0.030441193
-0.05171773 0.0138361305 0.100089654 -0.10826358 0.09264283 0.089190625 0.06109825 -0.043732967
0.10187628 0.06507891 0.002992193 0.08121204 0.0119276205 0.0018458702 -0.106610276 -0.06742148
-0.07341222 0.1053779 0.029735696 -0.00871683 -0.0303098 -0.030313829 0.087256856 0.04248213
0.028712574 -0.047213245 -0.071971394 -0.00571327 0.031184383 -0.10179771 -0.032203082 0.020379117
0.0069955545 -0.1031505 0.04346552 0.034247477 -0.06785897 0.0858214 0.09535708 -0.10042279
-0.063866206 0.045548797 -0.052737817 0.005496754 -0.05663353 -0.040130433 0.037953977 -0.0870703
0.046182968 -0.09944738 -0.06542739 -0.10485933 -0.093906395 0.016510304 0.06222436 -0.018636119
0.03182508 0.10401175 -0.051687285 0.048124395 0.083559245 0.014598597 -0.105235845 0.07531397
0.100118674 -0.08987085 0.07634473 -0.059485216 -0.028458944 -0.09250962 -0.024386937 -0.06193251
-0.103987426 0.09473973 -0.06574316 0.08272438 -0.0015217718 -0.0777775 0.009437415 0.036907718
-0.073350735 0.020796403 0.10168054 -0.037417125 0.10177202 0.09496183 0.0683539 0.014732751
-0.010080632 0.06658681 -0.10418735 0.043609086 -0.09408016 -0.07610408 -0.00820114 -0.026166908
-0.040317256 -0.04071916 0.04852428 0.09150174 -0.022575596 0.094612256 -0.08808921 0.0038320099
-0.09131296 -0.026193067 0.10497656 -0.091491975 -0.032714218 -0.055390365 0.014321914 -0.04891817
0.041809715 0.099994004 0.022824718 -0.1032486 0.04161387 -0.060424272 0.017417923 0.08884
0.07590285 -0.10657737 -0.10398324 0.025005896 0.011933898 -0.067383364 -0.08729842 0.0054290053
-0.005794578 0.019088833 -0.052606214 -0.031757675 0.076860875 0.020296562 -0.09163887 -0.046023354
-0.03490209 0.05713124 -0.0031263423 -0.020697992 0.10116837 0.07341928 0.046638962 0.0015099719
-0.05384687 0.082873285 0.01654147 0.10504086 0.028608913 0.062366337 0.08329157 0.0263185
0.06886436 -0.043824375 0.017917711 -0.08164806 -0.015282556 -0.073597394 -0.038255006 -0.080828674

layer_2.bias_ih f4 [64]
00000000: 0386 ebbc 6d32 853d 03b3 023d 46ed f43d
00000010: a919 ac3d bc5e 5b3e a550 8f3c b131 d93d
00000020: 5400 ccbd 181c 83bd b4c1 57bd bf01 a63d
00000030: 8027 af3d 37bd 98bd 98c2 053e 3809 753e
00000040: 2327 133e f23f 8b3d e372 8dbc 2669 a13d
00000050: 521f 28bd 1480 9dbd dea3 393c 0058 ebbc
00000060: eb1c 113e 9d34 773d c08e b03c b617 b43c
00000070: 763c 6c3e efad 0f3e 20b2 eabd 02a2 333b
00000080: f39e dc3d 1dd4 5e3e 545c 4d3e af46 c93d
00000090: b5ef e93d 06f4 b83d 6734 eabc 147f 873e
000000a0: 9d13 003e 3af1 3f3e 162e 803e 82f4 6e3e
000000b0: 66d3 f63d 0cfb 343e 0f41 1f3e 95a7 88bb
000000c0: 666b 033d e779 3f3e 27b4 22bd 2a9f 99bd
000000d0: 8367 c7bd 1b2e 7bbd c894 7a3e 0f3f 0d3e
000000e0: 6f32 2e3e e8e5 8b3d be1d 3b3e 67fd 8cbd
000000f0: b7c9 2f3c 79c3 463d 3f3d dcbd b49f 553e
-0.028750425 0.065037586 0.031909 0.11959319 0.08403332 0.21422857 0.017494509 0.10605181
-0.09961 -0.06401843 -0.052674964 0.08105802 0.08552456 -0.07457965 0.13062513 0.23929298
0.14370398 0.06799306 -0.017266696 0.078813836 -0.041045494 -0.076904446 0.011330573 -0.028728485
0.14171188 0.06035291 0.021552444 0.021983963 0.23069939 0.14031194 -0.11459756 0.0027409797
0.10772505 0.21760602 0.20054752 0.09827935 0.114226736 0.09030919 -0.02858944 0.2646414
0.12507482 0.18744364 0.2503516 0.2333546 0.1205204 0.17673892 0.15552162 -0.004170368
0.032084845 0.18698846 -0.039722588 -0.07501061 -0.0973654 -0.061323266 0.24470818 0.13793586
0.17011426 0.068309605 0.18273064 -0.0688427 0.010729245 0.04852626 -0.10753869 0.20861703

layer_2.bias_hh f4 [64]
00000000: 918d bc3d d2e9 103e 7bfc 29bd f9da a33d
00000010: bcfd e63d 4658 b13d 4d46 e4bd e713 843e
00000020: 1f56 8abd a937 b7bd ddda 033d 2d35 623e
00000030: 1a3e 9fbd f63e cebd 94f3 dc3d 7c9e 563d
00000040: e539 6abd 1f87 e43d c9c6 88bd 8f8a 113e
00000050: 558d 3a3d c2b2 01bd 3e85 653c 9f97 c63d
00000060: 924c 673e 084b 6e3e eee9 df3c 0d7f 37bd
00000070: 43e0 3a3e cf8a bd3d 8ce8 363d 1c44 bbbd
00000080: 42a4 503c 8d5c 503e ce0d 433e 43ea 123e
00000090: bf4b 6b3e 02f8 5a3d b960 acbc b714 253e
000000a0: c12f 1e3e c073 6d3e 0ba7 353e d469 513e
000000b0: 649c 893d 7b42 d63d cde5 033e b238 b63d
000000c0: 5f80 1c3d 9b87 ef3d 6cc8 97bd 55aa 863d
000000d0: a38f fe3c 7ea2 4d3d 6515 243e 3646 303e
000000e0: fd6d fa3c bd11 543e 4288 7e3e b5c2 8abd
000000f0: bd58 a53d 4807 433d 5c1c cd3d e0cd 003e
0.09206689 0.14151695 -0.04150055 0.0800075 0.11278865 0.08659415 -0.11146221 0.25796434
-0.067547075 -0.08946163 0.032191146 0.22090597 -0.07775517 -0.100706026 0.10788646 0.052397236
-0.05718412 0.11158585 -0.0667854 0.14213012 0.04554494 -0.031664617 0.014008818 0.09696888
0.22587803 0.2327081 0.027333226 -0.0447989 0.18249612 0.09254991 0.044655368 -0.0914385
0.012734475 0.20347805 0.19048235 0.14347176 0.22978114 0.053459175 -0.021042215 0.16121183
0.15447904 0.23188686 0.17739503 0.20450526 0.06719282 0.10461899 0.12880631 0.088975325
0.03820836 0.116957866 -0.07411274 0.06575457 0.03107435 0.050203793 0.16023786 0.17214283
0.030570025 0.20709892 0.24856666 -0.06775419 0.08073566 0.047614366 0.10015175 0.12578535

layer_3.weight_ih f4 [32, 64]
00000000: 06b2 ab3d 1c3b 873e add0 90bd 3f5d 9c3d
00000010: 461d 013e 75e4 003e 6124 cebc ddd5 0d3d
00000020: b868 d23c e21e 03be e49f dfbd 0413 083e
00000030: ea17 cbbd 3056 13bd 2c2b 4e3e 30fd 873c
00000040: 5260 113e a65b 113e 2708 fcbd 0ce5 183e
00000050: aba8 213e bc0e e4bd f857 8bbd 0426 243e
00000060: 6131 dd3d 2d71 863e 1375 1f3e b6f0 afbd
00000070: a516 093c 8f58 c93d 8cbe abbd 53c7 abbd
00000080: 3f2e d6bd 5ca0 a73d e7b1 d23d 557d bd3d
00000090: 2f58 843e 351f 993d a806 bb3c 6218 303e
000000a0: 6e8f 903e ab6f 3c3d 5a4e 683e c78b 253e
000000b0: d4fb 463e 4eed ac3c 2afa bb3d b7ef 233d
000000c0: 34ac 1d3e 542d 45bb 7a34 dc3c 4001 79bd
000000d0: c205 9b3c 8923 133e 292b 0c3e 0a4e 0c3d
000000e0: 383b 483e ef2f b73d f8ed 1c3e 25f7 723d
000000f0: 8aac e1bd d68f 4a3d 39d5 5abd 22e9 8b3e
00000100: b4d2 963d 9991 343e 608f a03d 1e46 a43d
00000110: 366e 4b3d ed99 373c 030f d6bd 6b0c 1a3e
00000120: 0790 d13d f465 b4bd 2a58 83bd a732 903e
00000130: 690c 213e 02ab 993d 5ad0 d03d f597 d63d
00000140: 947b 463e a03a 453e 328b 00be 8d11 953e
00000150: 59c8 0f3e 2f24 ec3d d09d e6bd 803f 253e
00000160: af07 f53c 1ec1 993b 9e07 9ebd da0d c6bd
00000170: 7115 6e3e 264a 463e ab86 8f3d 3310 763a
00000180: 2dd5 f7bd 485c 713e f020 aa3d 19d6 113e
00000190: a996 353e 8332 a23d e9bf 533d 1be4 843b
000001a0: e810 303d 9c1d 613e 31ca 183d 9686 843d
000001b0: 7a82 ca3c 1fad 943e a2b2 8f3e 450d 443d
000001c0: f801 92bc fb47 5b3e 5a6c d43d a73f 8bbd
000001d0: 7aee c73b 9407 ab3b 2677 e03c d1bb a63d
000001e0: a8af 673e 93ce b33b cf88 6d3e edbc b3bd
000001f0: 10cc 63bc be4d cfbd c017 af3d 6549 613e
00000200: b52c 6fbb 7b1a a33d 1276 103e 74ab b1bd
00000210: 4a9a c03d 3267 21be cc2b 3dbd 6b1f 90bd
00000220: acf7 c9bd 45d2 dcbd c2ac e9bd eee3 e03c
00000230: e662 873d 4682 283d 682b 9a3d a4c4 183d
00000240: f4de 8abd 8bf9 1dbc 6449 11be 6809 f1bd
00000250: fdc8 c53d 0b70 573d 07f8 b23d 645d ddbd
00000260: 8392 b9bd 858b a1bd 389d e03d ed79 0f3d
00000270: d7fe 25bd d1f9 f9bd e2c1 22be 889e 12be
00000280: e130 023d a917 0dbe bf60 acbd 46b1 053d
00000290: cdd5 3a3d b0a3 033e cd8a ac3d 13df 14bc
000002a0: 4f21 5d3d caed 073e ed1a 253d 851a e23c
000002b0: 4a56 513c c676 98bd ea71 703d cb40 99bd
000002c0: 09ec 9abd 8ed4 d1bd 25bb 3d3d 3710 393d
000002d0: c685 ad3d ff8b b2bd 7c5a 303b 7ba5 5bbd
000002e0: 40e1 e6bc 24ca 0abe a582 dabd 5b28 15be
000002f0: dfef c83c 3e04 a4bd 5561 993d a4e7 f8bd
00000300: 4315 e6bd 43f3 00be ff53 0ebe b472 f83d
00000310: cde2 103e ed72 9fbd b2bf 96bb 06aa 823d
00000320: bc8f f13d 58f9 07be 105b 123d ecca f7bd
00000330: bf31 aebd 70ba fc3c affd 253d 4486 e23d
00000340: 42d2 d6bd 3604 253d 818f 91bd e096 7b3b
00000350: a3ec 923c c751 0dbe 1e6e a33d 8ad6 723d
00000360: 914f cebd 3daf 2ebd ca77 02bc 9db5 00be
00000370: 6ee7 103d 3ac5 de3d b7d9 97bd 9083 6a3c
00000380: 2f30 4cbd 1038 fa3c fb15 0e3d 2baa a53d
00000390: 765c f23c c922 ba3d e5dd 84bc fd7f 8b3c
000003a0: ae6e 23bc 5769 533d bce7 21be b75f 23be
000003b0: 222d c8bd d923 0dbe bec4 b7bd 01cb 03be
000003c0: 730e cb3d 0a8d 25be 2031 83bd 95a2 08be
000003d0: 76f0 663d e1e8 0fbe 8a4f a33c 4baf af3c
000003e0: 9e32 16be 5e14 4b3d 55d4 68bc d295 6c3d
000003f0: 4fd0 243c 401a fc3c fb89 baba 871b 183d
0.08383565 0.26412284 -0.07071052 0.07634973 0.12608823 0.1258715 -0.025163831 0.034627784
0.0256847 -0.1280475 -0.109191686 0.13288504 -0.099166706 -0.035970867 0.20133656 0.016600221
0.141969 0.14195117 -0.123062424 0.14931124 0.15786998 -0.11135623 -0.06803888 0.16030127
0.10800434 0.2625822 0.15572004 -0.08590834 0.008367215 0.09831344 -0.08385953 -0.083876275
-0.104580395 0.08184883 0.102878384 0.09252421 0.2584853 0.074766554 0.022830322 0.17196801
0.28234428 0.046004932 0.22686139 0.16166602 0.19432002 0.02110925 0.091785744 0.04002353
0.15397722 -0.0030086832 0.026880492 -0.060792208 0.018923644 0.14369024 0.1368834 0.03425411
0.1955384 0.089446895 0.15325153 0.059317727 -0.11019237 0.04945358 -0.053426 0.27326304
0.07364407 0.17633666 0.078398466 0.08021186 0.049665652 0.011206132 -0.10452082 0.150438
0.10232549 -0.088085085 -0.064133 0.28163645 0.1572739 0.0750332 0.1019599 0.10478202
0.19383079 0.19260645 -0.12553099 0.29114953 0.1404127 0.11530339 -0.11260569 0.16137505
0.02991089 0.004692211 -0.077162966 -0.09670611 0.23250367 0.19364223 0.07008108 0.0009386569
-0.12101207 0.23570359 0.083070636 0.14241828 0.17733254 0.079197906 0.05169669 0.0040555126
0.042984873 0.21983951 0.0373022 0.06470983 0.02472042 0.2903833 0.28065974 0.047864217
-0.017823204 0.21414177 0.10372229 -0.0679925 0.0061014267 0.0052194092 0.027400564 0.08141292
0.22625601 0.005487272 0.2319672 -0.08776269 -0.013903633 -0.1012225 0.08549452 0.22000654
-0.0036495153 0.07964035 0.1410754 -0.0867528 0.09404428 -0.15762022 -0.046184346 -0.070372425
-0.09861693 -0.10782293 -0.11409904 0.027452435 0.0661066 0.041139863 0.0752781 0.037296906
-0.06780806 -0.009642015 -0.14188153 -0.11769372 0.09657476 0.052597087 0.08738714 -0.108088285
-0.09061148 -0.07887939 0.10967487 0.035028387 -0.040526237 -0.12205852 -0.15894273 -0.14318287
0.031784896 -0.13778557 -0.0841689 0.032639764 0.045614053 0.1285541 0.08424912 -0.009086388
0.053986844 0.13274303 0.04030888 0.027600536 0.012776921 -0.07444529 0.058702387 -0.074830614
-0.075645514 -0.1024562 0.046321053 0.04518148 0.08472781 -0.087181084 0.0026909402 -0.05362461
-0.02818358 -0.13553673 -0.1066945 -0.14566176 0.024528442 -0.08008622 0.07489268 -0.12153557
-0.11234524 -0.12592797 -0.1389923 0.12131253 0.14149018 -0.07785592 -0.0046004886 0.06380086
0.11794993 -0.13278711 0.035731375 -0.12099251 -0.08505582 0.03085062 0.040525135 0.110607654
-0.10489322 0.04028722 -0.07107449 0.003838949 0.017935103 -0.13800727 0.079799876 0.05928663
-0.1007377 -0.04264759 -0.00796313 -0.1256928 0.03537696 0.10877462 -0.07414573 0.0143135935
-0.04985064 0.03054431 0.03468893 0.080890976 0.029585104 0.09088666 -0.016219089 0.017028803
-0.009975119 0.05161413 -0.15811056 -0.15954481 -0.097742334 -0.13783206 -0.089730725 -0.12870409
0.09914865 -0.16167083 -0.06405854 -0.1334327 0.056381665 -0.1405368 0.019935388 0.02144589
-0.14667746 0.04957997 -0.01421078 0.057760067 0.01005943 0.030774236 -0.0014231795 0.037135627

layer_3.weight_hh f4 [32, 32]
00000000: d71f fbbd 10f6 12bd ad87 78bc 06ff d73d
00000010: 48c9 913d 2750 f33d 740b b8bc 6383 a03d
00000020: bbce d03d 2b8b 41bd 2943 b2bd 4b2b 0fbe
00000030: 33f5 01be 396f 1dbd 8d2d 91bd 8408 f03d
00000040: 56b1 03bd 63bf d1bd b1b8 8f3d 72a3 f73b
00000050: 2f62 263c 7cf1 b43d d0e9 3bbc b06c fb3d
00000060: 3af7 6fbd b31f 7e3a 6fcc 4bbd 18f5 12be
00000070: c78b f0bc e62d e6bc 6987 a23d be89 cfbd
00000080: d500 3d3d d4aa 943d fd3d 72bc e8a8 f2bd
00000090: 37c8 9cbd ef07 0c3e c560 e13d ca75 993d
000000a0: 1747 02be 334d 623d 85bb 6abd bb63 1dbd
000000b0: 863d ef3d ab50 4abd cb6d 2a3c 3243 ccbd
000000c0: 9705 18be 8b6e c43d 2ee6 023e 2776 9cbd
000000d0: a0aa d9bd 5e5d 9c3d 00bf c2ba 3ea7 323d
000000e0: d96f 0ebe fc58 85bd 31ed 93bd 2ea5 8b3d
000000f0: 439d 02bd 0c62 0dbe 0ca9 143e 30f3 95bd
00000100: 04ed f6bd 06fc b7bd e7e7 933d bab4 c3bd
00000110: b529 c7bd 52c2 74bd ab17 16be 31b1 8cbd
00000120: 9a23 413d dc7f d0bd 4c4c bf3d 2831 82bd
00000130: e7fe d3bd f456 fc3d 10ab 683d bcf8 08be
00000140: 48aa 44bc 2c8e 04be cc59 833d 6d10 d13d
00000150: 71c8 0d3d a266 b6bd 8e97 12be 8074 16be
00000160: 1012 5f3d ea89 e4bd 51b7 fbbd bf05 473b
00000170: cd73 d13c 9f77 91bd bde8 0b3e 164f b73d
00000180: 7aac 11be 4a8e 1cbe 000a 91bd 0e72 ccbc
00000190: 3901 e33d 2fad c53b 7e42 a5bc 1020 063e
000001a0: 3f2b 61bd 51df 8cbc 7238 07be 6648 a23d
000001b0: 0807 16bb 12b8 05be 6911 94bd 72b2 8fbd
000001c0: 2b87 ab3d 4723 093e 44c8 05be 449f 3bbd
000001d0: 096a a5bd 20f4 e9bd b891 ddbd 4608 c43d
000001e0: 83db 6bbd 88a3 06bd 4a0a 0cbb 1c44 15be
000001f0: 13b9 0dbc 0684 aa3d 9d33 6fbb 137f 173e
00000200: 13fc 07bc 2abd a6bd 8d07 173e bb2e ae3d
00000210: d41a 183e 0e2b 993c e3aa 23bd 3c9b ab3d
00000220: 7734 c6bd e193 0fbe 43fb c6bc 10f0 48bd
00000230: 11e9 093e 5832 0d3e 9775 593d c19a 033e
00000240: 64f4 003d 5a30 cc3d 8069 873d e2cf 053e
00000250: 56a6 cd37 f345 89bc 5d36 583c 4872 4e3d
00000260: f437 fd3d 7c16 a0bc e0f3 1c3d 8a19 d1bc
00000270: c885 10be 98b5 c6bd 471e 133e 7df6 0f3d
00000280: 091c 11be abe0 87bd 9139 debd 1cf0 d4bd
00000290: 97c2 2fbd 83c2 1cbd 457e 333d 81ed d83d
000002a0: 9053 37bc 80db 0e3e 2149 883d e16e f5bc
000002b0: a959 a73d 00e2 babd 8788 0bbe 201e 0e3e
000002c0: 917e a3bc abb0 9d3d a87d 083e c348 c23d
000002d0: 3e46 9d3d b690 213d 95c8 953c 61d6 183e
000002e0: 7a33 1a3e 7ed2 dabd 51d1 00be 1ba5 4e3d
000002f0: b264 09be 5907 fbbd 5654 1b3e b585 0b3e
00000300: 5fb3 cd3d 30e5 16be 76be a83b cb81 4dbd
00000310: 1d08 c8bd b17d 11be 0f4e 28bd a1cb b83d
00000320: af6c ddbd 615d f6bd d4ea c33d 3fe3 963d
00000330: 058a c6bd e1ab 1cbe f2b2 df3c 68fc c2bc
00000340: 12c4 e9bd d26a 15be 26da eb3c 042e 8d3d
00000350: 2808 9abc 34a5 7d3d 0295 d13d a095 fe3d
00000360: 317b 5c3d 09e3 e1bd 0805 953d 1043 a33c
00000370: a759 66bc 8989 013e 4689 1a3e f5cc 9c3c
00000380: 7eaa 1a3d 4df8 a33d 53f9 d6bd f887 a33d
00000390: 16ca 88bd 266d 8ebc 6986 f8bd b799 e13d
000003a0: cb01 f0bd 7593 963d 44f4 c9bd 8f31 05be
000003b0: 091a dfbd 523f 143e 2850 e73d 007b b8bd
000003c0: d0e3 1abe c659 513d d7e6 cd3d 9ebd b53c
000003d0: aa64 4e3d a902 ec3d e3fe d03d 7984 183e
000003e0: 6a2c dabc 12b5 1a3c 9098 143e da5e b1bc
000003f0: b594 153e c7bb 243c 4c50 d53c 7e72 7cbb
-0.12261932 -0.035879195 -0.015169066 0.10546689 0.071184695 0.11880522 -0.022466399 0.0783756
0.10195681 -0.04725186 -0.08704216 -0.13981359 -0.12691192 -0.03843615 -0.07088766 0.11720374
-0.032151543 -0.10241582 0.07017649 0.007557326 0.010155245 0.08835122 -0.011469319 0.1227659
-0.058585383 0.00096940546 -0.04975551 -0.14351308 -0.029363526 -0.028098058 0.07935984 -0.10133694
0.04614337 0.072591454 -0.014785287 -0.118486226 -0.076553755 0.13674901 0.110047854 0.074931696
-0.12722431 0.055249404 -0.05730774 -0.03842519 0.116816565 -0.049393337 0.010402153 -0.09973754
-0.14845882 0.09591397 0.12783119 -0.07639723 -0.10628247 0.07634996 -0.0014857948 0.043616526
-0.13909854 -0.06511113 -0.07222975 0.06818615 -0.031888258 -0.13806933 0.14517611 -0.07321775
-0.12056926 -0.089836165 0.07221966 -0.09555955 -0.09724752 -0.05975563 -0.14657466 -0.06869734
0.047153093 -0.10180637 0.09340724 -0.06357032 -0.10351353 0.123212725 0.056803763 -0.13376135
-0.012003489 -0.1294486 0.06413612 0.10208211 0.034614984 -0.089062944 -0.14315626 -0.14692879
0.054460585 -0.111591175 -0.12290824 0.0030368415 0.025567913 -0.07102894 0.13663001 0.08950631
-0.14225951 -0.15288654 -0.070819855 -0.02495673 0.110842176 0.006032608 -0.020173308 0.13098168
-0.054972883 -0.01719633 -0.13205126 0.07923965 -0.0022892375 -0.13058499 -0.07229883 -0.070164576
0.083753906 0.13392363 -0.13064677 -0.045806184 -0.08076865 -0.11423516 -0.10818809 0.095718905
-0.05758239 -0.0328708 -0.0021368437 -0.14576763 -0.008650082 0.08325963 -0.003649927 0.14794569
-0.008299845 -0.08141549 0.14748974 0.08505007 0.14853984 0.018697288 -0.039957892 0.08379218
-0.096779756 -0.14021255 -0.024289733 -0.049057066 0.13467814 0.13788736 0.053090658 0.12852003
0.03148307 0.0997016 0.066119194 0.13067582 2.451536e-05 -0.016756987 0.013196555 0.050401956
0.12364188 -0.019541971 0.038318515 -0.025524873 -0.14113533 -0.09702605 0.14367019 0.03514718
-0.14170851 -0.06634649 -0.10850824 -0.1039736 -0.042910185 -0.03827144 0.043821592 0.10592175
-0.011189356 0.1395092 0.06654573 -0.029960098 0.08171398 -0.09125137 -0.136263 0.1387868
-0.019957813 0.07699712 0.13329184 0.094865344 0.07679413 0.039444648 0.018284122 0.14925529
0.15058699 -0.106846794 -0.12579848 0.050450426 -0.13417318 -0.12257261 0.1516889 0.13625224
0.10043978 -0.14735866 0.005149658 -0.05017261 -0.097671725 -0.14208104 -0.041090067 0.09023214
-0.108117454 -0.12029529 0.09566274 0.073675625 -0.09694294 -0.15299942 0.027307007 -0.023801997
-0.114143506 -0.1459153 0.028790545 0.068935424 -0.018802717 0.061925128 0.10233499 0.124308825
0.053828422 -0.11029632 0.0727635 0.019929439 -0.014059461 0.12650122 0.15091428 0.0191407
0.03776025 0.08006344 -0.104967736 0.07984918 -0.0667917 -0.01738603 -0.12135012 0.11015647
-0.11719092 0.07352344 -0.09861043 -0.13007186 -0.10893638 0.1447728 0.112945855 -0.090078354
-0.15125966 0.051111005 0.10053795 0.022185143 0.05038897 0.11523945 0.10204866 0.14894284
-0.026632506 0.009442585 0.14511323 -0.021651674 0.14607508 0.010054535 0.026039265 -0.003852039

layer_3.bias_ih f4 [32]
00000000: c42b ce3d a939 8f3e 08f4 2f3c 27e3 963d
00000010: ae8f 1d3e 0a05 153e 3d37 eabd 6302 8d3d
00000020: f862 143e 638e 823c ed67 7e3e 0893 eb3c
00000030: bdb1 f53c 2bdd cb3d d8f8 1b3e 0f1f 603e
00000040: b6ee bfbd 1764 813e f82c 003e 9de2 e3bd
00000050: 7473 773c 6d7c 883e 2fad 9ebc 7ee4 743e
00000060: 62e1 4c3e e404 763d 1c33 f6bc 09b9 42bd
00000070: e5ba 09be 7dd5 853e 7f0a c33c 5023 02be
0.100669414 0.2797368 0.010739334 0.073675446 0.1538684 0.14552703 -0.11436317 0.06885221
0.14490879 0.015937036 0.24844332 0.028756633 0.029991979 0.09954294 0.15231645 0.21886848
-0.093717024 0.25271675 0.12517154 -0.111272074 0.01510321 0.2665743 -0.01936969 0.23915288
0.20007852 0.060063258 -0.030053668 -0.047539745 -0.13450201 0.2613944 0.023808716 -0.12708783

layer_3.bias_hh f4 [32]
00000000: aea4 ab3d 20cd ca3b db7b 823d 867a cfbd
00000010: 65b2 d63d 73a9 413e efc8 7b3c a071 3d3e
00000020: 8d53 0e3e aa5c cd3d 0e80 373d a466 88bb
00000030: 85e7 c0bd af34 2d3e 9c6b 803e 9026 6d3e
00000040: 2024 aa3d 1897 4a3e d23f d63d 52be 8f3d
00000050: 87f9 f5bd e546 e13d 3255 26be 31a9 ee3d
00000060: 32a2 063e c165 3b3d 883c 90bd 62cc f93c
00000070: a4d4 13be 7a9c 583e 951a 013e ee23 61bd
0.083810195 0.0061890036 0.0637128 -0.10130791 0.10483245 0.18912296 0.0153677305 0.18500376
0.1389906 0.1002744 0.044799857 -0.0041626263 -0.09419159 0.16914628 0.250821 0.23159242
0.083076715 0.197842 0.104613915 0.070187226 -0.12010484 0.1099985 -0.16243437 0.116533644
0.1314781 0.045751337 -0.070427954 0.030492965 -0.14436585 0.21153441 0.12607796 -0.054965906
