src/gat_wax_120.pth (torch, 196537 bytes, 36 tensors)

conv1.att f8 [1, 1, 16]
-0.48134471583465915 -0.42102244055655547 0.5497574813536787 0.5400710219062919 -0.02290776393041096 0.5288169280478833 -0.00048108111040022614 -0.3661122229575105
-0.227952224903487 0.4287359569556539 -0.5400026621573913 -0.4786702773408115 0.3144779874273787 0.3179242559346034 -0.2997744140704145 0.09086019630703962
00000000: 812f 2711 5ace debf 00a4 441b 08f2 dabf
00000010: f4a6 6400 9d97 e13f b65a 1306 4348 e13f
00000020: 8656 9f03 2275 97bf d32d 717a 11ec e03f
00000030: 16d7 c9a2 3387 3fbf f12c 11f6 616e d7bf
00000040: 9c65 81db 892d cdbf 609a 6ff0 6870 db3f
00000050: 7f01 b7a9 b347 e1bf 0bbf afa8 88a2 debf
00000060: d9ff d347 6820 d43f 4808 76fa de58 d43f
00000070: 1e0a 2706 812f d3bf 9c99 a523 9d42 b73f

conv1.bias f8 [16]
-0.08803311638982858 0.1004440848647227 0.09807546836715998 0.09987358447865166 -0.07414593962302926 -0.04970787787609904 0.07165481455744478 -0.09014893076042314
-0.06750476799290475 0.09959185931082849 -0.07740538858704461 0.06863006256595934 -0.06280544078449941 -0.0530845025990535 -0.10522575638385137 -0.10373329592211379
00000000: 78f9 db9b 5689 b6bf fa14 921b b4b6 b93f
00000010: 0945 2d51 791b b93f 36f2 11b3 5091 b93f
00000020: dee5 cf71 3afb b2bf 38ae a99b 4f73 a9bf
00000030: 250b 204d f857 b23f a5a8 6215 0014 b7bf
00000040: 1a85 da12 fe47 b1bf 6116 b022 da7e b93f
00000050: a9f9 83ec d6d0 b3bf 4544 3e62 bd91 b13f
00000060: 7527 2e72 0414 b0bf afba 2c55 e42d abbf
00000070: ba91 5d3e 13f0 babf 91e4 7de9 438e babf

conv1.lin_l.weight f8 [16, 2]
-0.30330942650137926 -0.1744741066257695 0.48153513890223487 0.5898731807942545 0.3268681613693488 0.16694644154506816 0.11604623131309821 0.26625168490311674
-0.2434939703087613 -0.09383095030231929 -0.16870608264337927 -0.3325671699408591 0.46649972730065753 0.3598250361237377 -0.2294379310544588 -0.35705511188010786
0.38025798695377633 -0.15125758538698866 0.1060523775511871 0.6055550498483754 -0.38721642985542737 -0.39340887546903264 -0.11574189948284364 0.26805763356961027
0.26047190661112846 0.05685904727603996 -0.10902597648155696 -0.10087398502112846 -0.14404618900390104 -0.5253441297784659 0.141493994824742 -0.5722346822920907
00000000: 8a15 d9f0 6b69 d3bf 7e6e fae2 2a55 c6bf
00000010: 446f 5dc2 78d1 de3f ec8f 89b8 3de0 e23f
00000020: 1ad7 cb6f 68eb d43f 7a50 4f41 805e c53f
00000030: b855 50b0 34b5 bd3f 6d7b ca81 440a d13f
00000040: e0e9 9f77 cf2a cfbf 0bac e61e 4e05 b8bf
00000050: 9877 cb31 2998 c5bf 06a2 a7cf c748 d5bf
00000060: fd59 16ac 21db dd3f 01be 9b96 5f07 d73f
00000070: 729f 2bdd 385e cdbf 8242 19af fdd9 d6bf
00000080: c897 8098 2556 d83f 5928 4197 685c c3bf
00000090: 16d2 3ea5 3f26 bb3f 73d8 e0fb b460 e33f
000000a0: f2fc ac6b 27c8 d8bf d51e 866b 9c2d d9bf
000000b0: 8044 0ed9 42a1 bdbf e7f9 6734 db27 d13f
000000c0: e3fa 1a5c 92ab d03f df8a 1009 a11c ad3f
000000d0: c61a 675b 20e9 bbbf 32d5 aea2 e0d2 b9bf
000000e0: e64d 7103 1b70 c2bf 3169 117e 9ecf e0bf
000000f0: f823 2da8 791c c23f 7c9b c21b bf4f e2bf

conv1.lin_l.bias f8 [16]
-0.5234209725989016 -0.2731732985093391 -0.29947215384779324 -0.2141447263254879 -0.23006789095767105 -0.5246380455552496 0.16011452445292895 -0.24808158007067035
0.3262359616691436 -0.14445771124431248 -0.4301917346943809 -0.030366883784286845 -0.6534784511128617 -0.14092766721450134 -0.4693331611749559 -0.5413126480003919
00000000: 184a eb56 ddbf e0bf 533c cfdb ab7b d1bf
00000010: 66b1 b540 8d2a d3bf 41e4 162a 1869 cbbf
00000020: 1aee c259 dd72 cdbf 7fb5 fcb9 d5c9 e0bf
00000030: f8e8 11fb a17e c43f 575f 9220 23c1 cfbf
00000040: 2a7a 89cc 0ce1 d43f c383 b91c 977d c2bf
00000050: 6466 e1e9 4288 dbbf 5995 f012 7f18 9fbf
00000060: 8a74 05a4 4be9 e4bf 6cd8 e4f4 ea09 c2bf
00000070: d12e 8bf4 8d09 debf bb54 02e7 6e52 e1bf

conv1.lin_r.weight f8 [16, 2]
0.2420101688971971 -0.24682945925451877 0.38671950620936585 0.33741117067313925 -0.5509505666699908 -0.16111696216567115 -0.34748280708697377 -0.08140385492737938
0.25419931276974017 0.3019665906602641 0.424161346238464 -0.25213611682699144 -0.18549421333775243 0.2537624217936955 0.20936734925480585 -0.08793789615331611
0.526927444818071 0.09152974855119003 -0.07364105392310594 0.5133079068655836 -0.45371872526100704 0.22959759638418462 -0.5747746673977867 0.10465075369172824
0.40439507044903694 -0.3085677989103991 0.2824122952774372 -0.47085559604015165 0.4168994031045126 -0.08029771281174486 0.27872080933701493 0.31628014724122583
00000000: 3d40 5b70 30fa ce3f be00 9893 1b98 cfbf
00000010: 693f f92b 03c0 d83f 4328 d605 2598 d53f
00000020: cced 3115 63a1 e1bf f78c aa09 7b9f c4bf
00000030: d417 1787 283d d6bf bb71 ae0e e2d6 b4bf
00000040: d8bf c031 cd44 d03f 82b5 d7ad 6b53 d33f
00000050: 0a94 94a1 7525 db3f 2a64 fa85 ff22 d0bf
00000060: a902 f13d 46be c7bf 07b1 a3bd a43d d03f
00000070: 2126 f39e 8ccc ca3f bdba 0e14 1983 b6bf
00000080: 8078 dbf1 96dc e03f 6a72 a35c 7e6e b73f
00000090: 6822 3ede 23da b2bf 3782 18b4 046d e03f
000000a0: 9f0b a543 ba09 ddbf 7bea da3b 7463 cd3f
000000b0: 625e e1d7 8d64 e2bf ce93 9b4c 64ca ba3f
000000c0: b180 8fdc 9be1 d93f bece 3a27 93bf d3bf
000000d0: e31c 0d05 0b13 d23f ef62 8882 7f22 debf
000000e0: 4592 83d5 7aae da3f d454 7812 648e b4bf
000000f0: de4b 34ce 8fd6 d13f b99b 3116 ef3d d43f

conv1.lin_r.bias f8 [16]
-0.48680229886573834 0.2996921861893152 -0.5207307368868069 -0.09037453323624009 -0.316825457882687 -0.014378946483016328 -0.40575421028820663 -0.1823258688645733
0.3993050718464757 -0.5171570251210892 -0.6855205051822432 -0.12225401399802058 -0.3835581872869929 -0.3117577772147987 -0.14153650360893952 0.42082632418073795
00000000: e0bd 4fd4 c427 dfbf c530 a322 282e d33f
00000010: 176d 9e81 d3a9 e0bf 1613 a410 c922 b7bf
00000020: 105e 0949 de46 d4bf 52f6 2987 b572 8dbf
00000030: e5bc d981 e0f7 d9bf f27a fe3d 7456 c7bf
00000040: 6448 2ddc 368e d93f d755 b9e3 8c8c e0bf
00000050: 21d8 cfb2 c8ef e5bf 0e1d edff 094c bfbf
00000060: f1ae a0a3 378c d8bf 5651 5ae4 d6f3 d3bf
00000070: f764 183f de1d c2bf 0cbd e988 d1ee da3f

conv1.lin_edge.weight f8 [16, 1]
-0.2467159481828865 -0.3274783240915773 -0.16154694387960228 -0.06505412314633727 -0.07104963315523573 0.2175493225209455 0.4775271972567836 -0.31085275858723355
-0.2934341908709909 0.4179071562739111 0.4053076513710246 0.10691899630086554 0.4418135657720955 -0.12248653034252935 -0.3686261558491526 0.554733301752453
00000000: b26e 6c60 6394 cfbf 58d2 07a5 67f5 d4bf
00000010: 5aa6 5dfc 91ad c4bf 6e2b 6213 63a7 b0bf
00000020: a166 cb0a 4f30 b2bf 1049 bffc a7d8 cb3f
00000030: 80c7 ca3b ce8f de3f 2f3a 00f8 02e5 d3bf
00000040: 966c 5433 a0c7 d2bf e77d 3da8 fdbe da3f
00000050: 7541 dd80 8ff0 d93f d8f0 6e18 0b5f bb3f
00000060: 1ee6 fa67 ac46 dc3f 828c 05fa 465b bfbf
00000070: b8a0 f428 9297 d7bf a0ec a00d 60c0 e13f

conv2.att f8 [1, 1, 32]
-0.20683007617896293 -0.28812169872442167 -0.009345757107207836 0.09066507199356608 0.008387046568053596 0.17238239007942527 -0.403154383832227 -0.04247138304784436
0.2925084328821687 0.42052459819268556 0.3689398694721906 -0.001533572195274183 -0.25470729868739983 0.1673082086866374 -0.07917730636045549 -0.20257081439898847
-0.1407385245297926 -0.2438393643691005 0.37675227832553126 0.2508371177156774 -0.36877013694780186 -0.14380281314417018 0.24392475901879163 0.29110995349351737
-0.04647688975924014 -0.20820762656886313 0.42610183903822907 -0.37555644394570226 0.05245698743893388 0.06826812448711476 0.09877363524683717 -0.3453628633573548
00000000: 6648 826e 6879 cabf cf84 52fe 9570 d2bf
00000010: 30f6 0d49 de23 83bf f612 1a7f d335 b73f
00000020: 9630 c255 3a2d 813f b912 e64b a010 c63f
00000030: be19 730b 48cd d9bf afaa 6922 cfbe a5bf
00000040: bb1e 424a 75b8 d23f 09ac 1901 e0e9 da3f
00000050: 54b5 64f8 b59c d73f 423a 2f9b 4420 59bf
00000060: 7e8d 7ad7 1f4d d0bf 6baa 54fa 5a6a c53f
00000070: af4d 67c5 f644 b4bf f3de 7b27 d7ed c9bf
00000080: bb45 1250 b803 c2bf ddaa b8d7 2036 cfbf
00000090: 6081 8696 b51c d83f 188d 4d20 b70d d03f
000000a0: fda9 7b0f ee99 d7bf 0f75 c36d 2168 c2bf
000000b0: 60cf 552f ed38 cf3f fddc 72a4 8ba1 d23f
000000c0: b14b 12a3 d1cb a7bf db0d 7229 8ca6 cabf
000000d0: 4ed1 dba5 4045 db3f 5520 23e5 1d09 d8bf
000000e0: 2d6a fe6a a4db aa3f cb0a 0812 057a b13f
000000f0: 539a 179d 3a49 b93f 3adb d7d6 6c1a d6bf

conv2.bias f8 [32]
0.06134251682648281 -0.08688563536885238 0.10088255671810545 -0.10150385746061347 0.09697614606011257 0.08758235081450377 0.09493836284346757 -0.09734032141974974
0.09521993305672617 0.09218969161728253 -0.009365537933235892 -0.09318275734374154 -0.10488014822286228 -0.09572046272786518 0.09864806258013868 0.05963972879667311
0.0044432283102871116 0.10002818410664469 0.09054615362531006 0.10751899511819976 0.09402246987877953 0.10753913609643057 0.10642033021940112 0.08562791111068951
-0.11008673920460632 -0.0986074788989261 0.09628054763269513 0.09492586006506415 -0.10186390883060976 0.10064955714952344 0.02444178788135543 -0.10166650700839162
00000000: 8c86 3f4f 4968 af3f 46c2 6612 233e b6bf
00000010: 2a54 d771 70d3 b93f ec0f 3624 28fc b9bf
00000020: 5cff d1bf 6dd3 b83f f480 7404 cc6b b63f
00000030: d868 8c6b e14d b83f d477 1499 4beb b8bf
00000040: 39ec 6762 5560 b83f 2949 865e be99 b73f
00000050: b4c2 0f39 3d2e 83bf 5cac 573f d3da b7bf
00000060: 4fe8 9de6 6cd9 babf 1163 f9e0 2281 b8bf
00000070: df6f 98da ff40 b93f cfb2 7239 1989 ae3f
00000080: 1363 8004 1033 723f 0693 6a73 729b b93f
00000090: a16b 9960 082e b73f 6a40 bb67 5d86 bb3f
000000a0: d3ef 3749 db11 b83f dc02 9350 af87 bb3f
000000b0: 40fe ebdd 5c3e bb3f 745f d8f5 b5eb b53f
000000c0: a068 9b00 a52e bcbf ba0b 03f9 563e b9bf
000000d0: 11ca 528b d7a5 b83f ec2c 86a8 0f4d b83f
000000e0: 45f8 11cd c013 babf f367 505c 2bc4 b93f
000000f0: 41bd 6c9e 4407 993f c718 b3f2 d006 babf

conv2.lin_l.weight f8 [32, 16]
-0.34792376226536725 0.09370935636445629 -0.14711657396189104 -0.04773374657369628 0.272116897763889 -0.3530150841197071 0.1488007744199326 -0.2984829940767059
-0.09642287783837582 0.1677778520367948 -0.18147709628909142 0.20790991031683287 0.3383185617171788 0.13864776008280047 0.1454572588250477 0.20821368246189023
0.245319098558172 -0.12871362163590225 0.029272190224693746 -0.21336171521018976 0.3856857878003233 -0.04057816313527384 -0.30951463163165716 0.03225387605103437
0.3862538237095702 -0.2686035706291374 -0.05441366429638158 -0.12771770204537042 0.205949118632983 -0.22111175725787888 0.2660485931403 -0.06461136295661404
0.1857089124991288 -0.15368026999140177 0.027785988410150907 0.3421605130785761 0.2629283635097553 -0.34309800441708044 -0.0910751716981868 -0.03206817097050187
-0.21138720396571925 0.3042937628824025 -0.08480819331564857 0.25003367042250346 -0.17794603900288755 -0.15741987232083135 0.22960508186693268 -0.14017268071866454
0.12607587373835674 -0.12050560089863636 0.26339464897851794 -0.2345935572256237 0.11513076090691889 0.02795910201148621 -0.060934348515291926 0.3919341153817669
-0.15133545754430155 -0.026945041794987506 -0.19667967060661656 0.07513295657755797 0.014437632708192847 -0.19571380965003943 0.40208812619628 0.022696175211932484
-0.31744041944301615 0.42474812294096065 0.4218535754496962 0.4028712515587679 -0.007577027707898278 -0.2192799379019626 -0.062416309061314325 -0.24505941163165712
-0.4380983581613695 -0.14975331241207582 -0.44134569788338224 -0.20658446638382122 0.038237913447734126 -0.44648757833914443 -0.23647836256873114 -0.3492533833555337
0.06475343542823939 -0.22186234082106043 0.3013351339898127 -0.05735206100315216 0.14914368179818938 0.08488288176294792 0.15557669355871384 -0.24492609556817196
0.22270235803362304 0.4232970731546272 -0.40828782591620805 0.3633977477075304 -0.24829316548603303 0.02614899604687782 -0.18745210273957577 -0.3186822557614935
0.1763833726137111 0.3805567132071479 0.014206608497827943 0.03378223678824092 0.11853659022448984 -0.3469334885971348 0.06729819945525442 -0.25955052894937364
0.2820792391533513 0.2974262507271687 -0.2116316701360757 0.35681323967917333 -0.24602744576923113 -0.09201849757312659 0.07286929770164796 -0.07416087040112761
0.22981644452485217 -0.23706584486945637 -0.12312739224404896 -0.19837256182597285 -0.2196728795605691 0.422236159589927 0.05326088653138959 0.24626208561113155
-0.2004558751795718 0.209529840345536 0.34772078181449684 -0.08568702361688904 -0.0019686259263246965 0.28748229918364726 0.20486010899979148 0.3698765368739571
-0.1477461561139759 0.3765085353783445 0.07524750208537738 0.38378760530491035 0.2690177216827374 0.1913662772318396 0.11185868724363406 0.09646413209762597
-0.3187620898020009 0.24019914204142986 -0.21879218017873872 0.40108978569287357 0.12305925752291133 -0.037829659889255324 -0.1118846372311815 -0.35100475440428897
-0.3240562332001988 0.18413628489677297 -0.007640882409499622 0.0800835782279074 -0.2780537628413929 -0.30001901987278135 -0.13572669943420124 -0.17047245676906472
-0.3916900876116941 -0.15627210558151536 0.15952815002376766 -0.10243088923304236 -0.19761638987295865 -0.15631813031916675 -0.32720100540241637 -0.38838992814380857
-0.051363695611579795 -0.31402244708976174 -0.03100538710970899 -0.1771568001694785 -0.21627997930116127 -0.10331549793037705 -0.2646774629684716 -0.26702570654211644
-0.2967325934225941 0.27962943961488934 0.19818535547479432 -0.34608991957733237 0.011209591466758408 -0.06099914608555848 -0.2015616517575995 0.18979506007886457
-0.21217861288719808 -0.36809577567326884 0.10748905360910675 -0.38398399592885585 -0.16751725180245866 -0.18546933225299195 0.1688868963172667 -0.09109544264644627
0.2958200496731211 0.20281358865861795 0.2621930076796658 -0.24259695420374466 0.07639394677696587 -0.020826866685396427 0.2759419314774527 0.39223513285631895
0.21487693827477958 -0.2814606352714053 0.11419129357619237 -0.41784714705003384 0.18520366713775568 -0.10293382110979332 -0.30450555390878054 0.058628215158033105
0.2903153482051649 -0.2939688505869853 -0.21342092066374202 -0.09649504252123695 -0.21096749578504564 -0.22189721284195274 0.19963960897194746 0.26341165731205674
0.07985260537791299 0.16264895290036033 -0.27846262822409923 0.11506803695020566 0.16694267698611495 0.3872061650208847 -0.38428602469575235 0.3983191131905875
0.18979057040217653 -0.3320054058034453 0.3812043022933826 -0.28024693465914285 -0.023015210729390223 0.20559016469123226 -0.09239219321758302 -0.2656832090823474
-0.3445298827095533 -0.15816029063208925 0.08943484453976162 -0.1728900465456773 0.1338047731343902 0.17997743384072235 0.027303893348141203 -0.013727851620778832
-0.22065753339034488 0.18867110005481305 -0.014069090338262214 0.2113713722260605 0.12991469724290863 -0.1551183397984315 -0.22736866626504096 -0.28006253083121285
-0.11936782533822823 -0.22758109388569833 0.2938167913339908 -0.02582501646121989 -0.028457571047455693 -0.0923827732394218 0.2224065998408322 -0.27978260412858214
-0.17839939259323231 -0.10132070000693148 -0.3303741073891578 0.38504814726281894 -0.2829933102490475 0.2582532198350363 -0.3778399690002861 -0.06948757446516479
00000000: 0496 1b07 6244 d6bf e61f ea1c 56fd b73f
00000010: 64d5 ee44 b7d4 c2bf 082f e6c0 8e70 a8bf
00000020: a76e 25fe 5c6a d13f 357c 5294 cc97 d6bf
00000030: 0e65 e05d e70b c33f eb2e 7e6a 581a d3bf
00000040: 43eb e672 2baf b8bf 5ade bea1 be79 c53f
00000050: be70 c438 a43a c7bf 8e9c a9bc ca9c ca3f
00000060: 621f 8de5 02a7 d53f 7111 9cb5 35bf c13f
00000070: 1548 cfec 579e c23f 3d74 60f6 bea6 ca3f
00000080: 4b1e b2c0 9d66 cf3f e3ea bc1d b079 c0bf
00000090: 4216 ca6e 87f9 9d3f e4ea 85ca 6f4f cbbf
000000a0: c199 4871 13af d83f cf0c 3237 a9c6 a4bf
000000b0: fe73 1f75 16cf d3bf 92ea 9d7d 9483 a03f
000000c0: 4667 32f5 61b8 d83f e038 dc07 cd30 d1bf
000000d0: eb8a 3799 1bdc abbf 92db b3bc 0d59 c0bf
000000e0: 8397 956c 8a5c ca3f d782 17db 634d ccbf
000000f0: 2fcd abad f006 d13f ae40 d9ca 5e8a b0bf
00000100: c436 e144 4fc5 c73f 92a6 d38a cbab c3bf
00000110: 23d7 081e ee73 9c3f 94ec 6935 f5e5 d53f
00000120: d1c5 9d7c d1d3 d03f 91d4 1255 51f5 d5bf
00000130: 20da ebd3 b350 b7bf b326 1f43 3d6b a0bf
00000140: c2ae e963 bc0e cbbf 883a fd8b 8c79 d33f
00000150: fe3a b960 fdb5 b5bf 8043 5739 8d00 d03f
00000160: a12d fc90 efc6 c6bf 39e2 ad99 5526 c4bf
00000170: 9293 ce06 b363 cd3f 295a bdab 2df1 c1bf
00000180: c9ab 4215 4123 c03f 472f d87e 74d9 bebf
00000190: f076 d33a 75db d03f 3074 1164 2907 cebf
000001a0: 19db dba4 3579 bd3f bf37 0f93 4fa1 9c3f
000001b0: 9509 2774 c932 afbf 9a16 f0d3 7215 d93f
000001c0: 6061 70d4 f55e c3bf 0bff 3125 7b97 9bbf
000001d0: 7290 85a8 cc2c c9bf dc36 5ad7 e93b b33f
000001e0: b2bc 8142 7a91 8d3f 4e47 e96d 260d c9bf
000001f0: 4ede 07d6 cfbb d93f a83e 1e89 aa3d 973f
00000200: f6eb fb9e f150 d4bf 7067 44c0 122f db3f
00000210: 8d74 9023 a6ff da3f 4262 7c80 a4c8 d93f
00000220: 9c0a 4de3 1609 7fbf 829a fa70 5d11 ccbf
00000230: 1d8d 4fcc 07f5 afbf e079 4457 1b5e cfbf
00000240: 0700 2fb2 cd09 dcbf 5186 a3d5 1d2b c3bf
00000250: 4fec a806 023f dcbf b074 7d1b 5c71 cabf
00000260: 165a 7377 eb93 a33f f85b c2a2 4093 dcbf
00000270: d5df b848 ec44 cebf 2ae1 e1dc 2a5a d6bf
00000280: a6ca 775f ae93 b03f ce2d 0535 fc65 ccbf
00000290: 3ccf 6728 1349 d33f c1c4 bbd4 3f5d adbf
000002a0: 6c37 dde1 2317 c33f 227f 2971 e2ba b53f
000002b0: ec5f 6de5 efe9 c33f 8e7d 3301 bd59 cfbf
000002c0: 1c8d 3fc8 8281 cc3f e343 6c9b 4c17 db3f
000002d0: 4290 ea42 6321 dabf 7e02 76a0 e841 d73f
000002e0: 1a9a ca08 12c8 cfbf e1d7 606b cdc6 9a3f
000002f0: cb9c 6a35 6efe c7bf 6de9 9342 4a65 d4bf
00000300: a58f 77f8 ba93 c63f 70de 5f8b 0a5b d83f
00000310: 39fc 14b7 5a18 8d3f f5e7 61c4 e74b a13f
00000320: dabe 64fa 6958 be3f 4a5c da84 2834 d6bf
00000330: d270 bd6d 743a b13f d9cf 5fd2 799c d0bf
00000340: 48d4 c214 960d d23f e315 f61c 0809 d33f
00000350: 9222 041f bf16 cbbf 42eb cc32 07d6 d63f
00000360: 42a6 bfcc d37d cfbf 5d21 b435 868e b7bf
00000370: 38d5 82f2 8fa7 b23f 5f07 04f1 34fc b2bf
00000380: 449b a810 a06a cd3f 1c41 5b71 2c58 cebf
00000390: 7d11 eeda 4685 bfbf 70af bba8 4564 c9bf
000003a0: f7f0 c3ac 3d1e ccbf e226 28d0 ea05 db3f
000003b0: 8ed7 9dcb 0245 ab3f 6ae7 f819 8485 cf3f
000003c0: 12fa 17c2 89a8 c9bf 9cfb e8b1 dfd1 ca3f
000003d0: a619 82aa 0e41 d63f 4649 20b4 95ef b5bf
000003e0: 9a87 17ff 8120 60bf bd0c 4b28 1c66 d23f
000003f0: 615d 3426 db38 ca3f cb9b 5ba3 0eac d73f
00000400: 2843 4f96 58e9 c2bf ae59 8741 b718 d83f
00000410: a3f8 8f98 6b43 b33f 8543 59e3 f98f d83f
00000420: 90fe 2a1b 9637 d13f 7f4e 22af b07e c83f
00000430: 7322 7c5b c5a2 bc3f eaa8 9894 dfb1 b83f
00000440: 8fde b91b 9966 d4bf 832f cc71 d8be ce3f
00000450: 117e 3ed5 6101 ccbf e6df 137e 74ab d93f
00000460: 16ec 87be cf80 bf3f 5c18 16c0 685e a3bf
00000470: 022f d5b9 78a4 bcbf 310b 3aa5 dc76 d6bf
00000480: 373a ea5a 56bd d4bf f2bc d11c c791 c73f
00000490: 466c fbc0 0b4c 7fbf 3c7e 6f7d 5b80 b43f
000004a0: d5be 7b02 a2cb d1bf 3e05 a2f9 8233 d3bf
000004b0: 00c8 a113 7e5f c1bf 6790 589d 0ad2 c5bf
000004c0: 1a6a 1d4d 7311 d9bf 1bf5 5f6f b900 c4bf
000004d0: 055d 921d 6b6b c43f 622a 5b27 e938 babf
000004e0: 7a37 d46d 7e4b c9bf 6010 bf84 3b02 c4bf
000004f0: 18fd 5a7c dcf0 d4bf f84c de6d 61db d8bf
00000500: 4bf5 b4a1 574c aabf 7977 1d9b f118 d4bf
00000510: d948 8b4e e0bf 9fbf 26f7 7ef3 12ad c6bf
00000520: c463 f0f6 0faf cbbf b5ea c76c e272 babf
00000530: 8405 dcbd 79f0 d0bf 2c8a 32fd f216 d1bf
00000540: 4f11 1ab4 aafd d2bf b143 89e0 72e5 d13f
00000550: 68ba 2742 235e c93f 9cd5 8355 5626 d6bf
00000560: 548e 02e6 0df5 863f f4f4 0ab3 473b afbf
00000570: d69b 36af c5cc c9bf fb93 fd5b 344b c83f
00000580: b06d a135 ab28 cbbf 0dff 9395 e18e d7bf
00000590: c7d9 ed11 6784 bb3f d5ea 2c9c 3193 d8bf
000005a0: 13f1 008f 3471 c5bf ea01 3886 75bd c7bf
000005b0: cfea 33f8 159e c53f 5d2b fbea 0752 b7bf
000005c0: b737 b637 b7ee d23f 8790 3cb1 cbf5 c93f
000005d0: b256 4e2e c5c7 d03f 8e07 35c0 6a0d cfbf
000005e0: 90f9 04bf 8d8e b33f 96ef 2a5d a353 95bf
000005f0: 5c9b d258 08a9 d13f 5c72 fd62 611a d93f
00000600: 5303 4767 1681 cb3f 5088 e677 7303 d2bf
00000610: 6ece 65ff a33b bd3f 95a2 d3f5 01be dabf
00000620: ef5b baf6 c0b4 c73f e8a1 51f3 de59 babf
00000630: da44 dfdc 047d d3bf 6505 7475 8404 ae3f
00000640: b25a 84d3 8694 d23f 8015 d4b9 62d0 d2bf
00000650: c638 4471 6051 cbbf eed6 da2b e6b3 b8bf
00000660: 9238 759f fb00 cbbf 1068 1dbc 2067 ccbf
00000670: b1a7 c26b ca8d c93f 9e96 6291 bcdb d03f
00000680: 4339 9968 3871 b43f c1c4 b74e aed1 c43f
00000690: 995d 58ea 54d2 d1bf 0b1c 844f 1975 bd3f
000006a0: a324 fbac 605e c53f fcc0 e45d fcc7 d83f
000006b0: de32 1869 2498 d8bf 719e 2173 0f7e d93f
000006c0: 61b7 7bb2 0e4b c83f 2a58 019a 933f d5bf
000006d0: ef73 dcba a665 d83f be93 cad6 90ef d1bf
000006e0: d0b7 92a5 4c91 97bf 4432 dd4c c750 ca3f
000006f0: 9c75 46c8 03a7 b7bf 85b8 8625 f400 d1bf
00000700: 24dd ae10 c70c d6bf f434 e5ad 983e c4bf
00000710: 8bce 6bb4 33e5 b63f 60da dbd3 4221 c6bf
00000720: 8c98 54ca 8320 c13f 7a94 2e24 8009 c73f
00000730: 1f59 ef43 8df5 9b3f 8170 0b0e 591d 8cbf
00000740: 1087 c38c 813e ccbf 2dc7 37e6 5f26 c83f
00000750: c733 1957 41d0 8cbf e4c2 8295 370e cb3f
00000760: d1c9 f677 0ba1 c03f 91d7 38f2 eada c3bf
00000770: a92a df9c 6a1a cdbf c152 b064 8bec d1bf
00000780: 72b7 05ca e38e bebf 47a7 b695 6021 cdbf
00000790: afe3 72f1 e4cd d23f b578 7a84 df71 9abf
000007a0: b8c1 e343 fb23 9dbf 11f0 c6bd 65a6 b7bf
000007b0: 378f 5dc8 d177 cc3f d634 ae4b f5e7 d1bf
000007c0: 9f37 6892 cad5 c6bf 6706 f044 27f0 b9bf
000007d0: bd9f ab70 d924 d5bf cd44 f8fb a0a4 d83f
000007e0: 8669 20f9 8f1c d2bf b1cd 5183 3887 d03f
000007f0: a195 7eb1 872e d8bf 3c66 ce0b f0c9 b1bf

conv2.lin_l.bias f8 [32]
-0.001755986851437268 0.057936452537865876 -0.08733343761700935 -0.09086380405375287 -0.14570940342763183 -0.10832512737346667 0.09300318159234988 0.017672721034491298
-0.014243874181106193 0.01954072179107526 -0.2644880267353434 -0.0977879597335622 -0.10439597406498556 -0.07545478610063128 -0.08087302586620919 -0.13836773811433697
-0.13013496820661893 -0.13207239573422136 -0.1238026828730291 -0.09039365328746568 0.19613665972502498 -0.11548739032480335 0.2242230196157166 0.05456332001772703
0.02145478710669277 0.03143954475178206 -0.0455998793875574 -0.07732812083839219 -0.1281444095208537 0.117863104557979 -0.006258389622370269 -0.2220673712450295
00000000: 7c21 5886 24c5 5cbf a6f3 cac1 d8a9 ad3f
00000010: 3c8d 69f2 7b5b b6bf b30f cdaa d942 b7bf
00000020: 207e 3811 9ba6 c2bf 6071 670f 32bb bbbf
00000030: 98f3 5c77 0ecf b73f 6f75 7f3b cc18 923f
00000040: 0aa3 356e e42b 8dbf 45b1 21a4 7b02 943f
00000050: 89c2 4030 5fed d0bf fd8a ffb8 a108 b9bf
00000060: 0f74 71ce b1b9 babf b8fe a03e 0151 b3bf
00000070: 8353 3939 18b4 b4bf 93e3 02b7 08b6 c1bf
00000080: 03b8 413c 43a8 c0bf 4001 318e bfe7 c0bf
00000090: 99c2 185a 88b1 bfbf 84b8 a2d8 0924 b7bf
000000a0: a267 888d 011b c93f 76a0 8be4 9490 bdbf
000000b0: 6643 2104 57b3 cc3f 921b 1336 b9ef ab3f
000000c0: b811 dd63 3ef8 953f f722 0511 d818 a03f
000000d0: e29a 570d de58 a7bf 3ce1 0f96 c6cb b3bf
000000e0: 8855 0738 0967 c0bf c146 7bc3 462c be3f
000000f0: 1f2e 0fac 65a2 79bf a4c7 8020 b46c ccbf

conv2.lin_r.weight f8 [32, 16]
-0.1712404681001634 -0.17048874324884228 0.16225227844548573 0.18730327057810212 0.08130905258301883 -0.11406089597296723 -0.00820928638977873 0.2478698287572415
0.17004893321135717 -0.13871569770678538 -0.24448629887632578 0.337772033266567 -0.04554316408666876 0.15310306710764493 -0.08444502114269475 0.3612476892006972
-0.08584729868177995 -0.10038093141471273 0.11610349276756586 -0.18053138087371523 0.23251050624203076 -0.22857653994005978 0.22453501626689243 -0.11137797216107302
-0.2158516626760613 -0.2038636938536165 -0.209944127346736 0.13844630811902411 -0.03452253076734763 -0.21591639493741935 -0.19827360871953953 0.00029360712240764894
0.17884216122142646 0.23878962643717758 -0.018003497302743324 0.11854002184478658 -0.15262068123017122 0.0023508654168544903 -0.2274552528882904 0.2056168744086173
-0.22918059923439496 0.06838295902020097 0.25835361815738705 0.016946961293555725 -0.0020290144731773038 -0.17369603043490117 -0.03030741006054077 -0.21122762196305142
-0.2256970552973518 -0.2521039259065368 0.035944893296170885 -0.07412172632826944 0.2028194158620915 0.07424827719886763 -0.1953899363758743 0.1303002449589275
-0.12808117451411505 0.15037445558243395 0.11482044836179615 0.09970668510609669 0.08077118465981924 0.025692713499052743 0.2157562635534205 0.07514032661074076
-0.20406477273754905 0.11123928277318125 0.2504404991643159 -0.010892819901179001 0.06721595208559215 -0.04399645555720574 0.22407863337205833 0.2745048757368627
-0.13048811992947082 -0.256510972832628 0.26157131315446797 0.22141280755422119 -0.3323563836046145 -0.2859225184905638 -0.06970156669000294 0.21940982675987306
-0.18541937592134122 -0.32433201717311033 0.24216366601196032 -0.2383938245482714 -0.2948665870402685 -0.0440562114071607 -0.12017468112395115 0.12321771551921372
-0.07804394199996251 0.10701718157777546 0.18777951842523335 -0.3001963796873974 0.21908396327039062 -0.3063658551134665 -0.0800918711422872 -0.22217508838019429
-0.039086529949975746 -0.053752172818873185 0.256008833625986 0.1620090768073119 0.190932836521357 -0.24266258320427914 -0.1934188930371329 0.32885265672034225
-0.23575124327724767 -0.11916820117450924 0.31353058137352385 -0.017536488368997852 0.06967668456736392 0.13622586191353134 -0.08906131847146552 0.19929654231009022
-0.19070498407503664 -0.036044151301257876 0.09417788797904658 0.3112934929810748 -0.21708611166778255 -0.252186594431785 0.03221097797507042 0.2833208747616671
0.019085078732179833 -0.3083301907924035 -0.13164138719000174 0.020608212488774952 0.2000567005255172 0.01514524858503598 0.3027528339850487 0.3344894839510512
-0.3207014381252885 0.04677822917444165 -0.27180631363678137 -0.22528878229750707 0.2831015661554105 0.08212024341734818 0.12394014991804862 -0.13580785000352766
-0.2967579765537756 0.13603587688266433 -0.3215797743902526 -0.027981581023325007 -0.07783187551684641 -0.17908549475313165 0.25987554185413064 0.06693412224375675
0.30833453149012535 -0.06047454929562851 0.1651629535716666 0.31165482209039447 0.28352917670467614 0.07950850038629396 -0.3044645584801218 0.20377687361458866
0.3378597635156428 0.2730782633890317 -0.09871615427640852 -0.045599330925388176 -0.10697572045432434 0.06022381308477839 -0.19157582247130756 -0.10917511537661118
0.021761498650409796 0.11773350165963375 -0.08805582051040153 -0.15347198363737002 -0.06738041866956086 -0.02897885383872134 -0.07995639735185456 -0.3406856211176513
-0.1453055142676148 0.20913145208751144 -0.3165536073333948 -0.29087122159168655 0.20785511671347204 -0.015011635411564637 -0.22654091151187647 0.16533829079477455
-0.009272306102788471 -0.027107097604595624 0.11624155437330065 0.017411136946804087 0.12095967217516382 -0.26306475548444264 -0.35255704632676366 0.2699984612875303
0.32773675177259337 0.3051959325259279 -0.21136479512049863 -0.203222915414669 -0.05813022907292468 -0.27180052149811856 0.14829936462426543 0.3159470622733122
-0.18928313764785704 0.2998680794066107 0.22540555064192241 -0.007124858231362595 -0.11531735390500159 -0.14086330414662462 0.011781496887137796 -0.11726052166817766
0.15031957813352975 -0.05044711577979211 0.16124626912843615 -0.1814442453006934 0.30700087746282684 -0.3397810237912104 0.08492959303516862 0.16644773230890064
0.35585403708229485 0.2620771838978533 0.06973662361191052 0.1810952034410472 -0.25776845082445915 -0.13252199398232045 -0.17984995950675686 -0.09411440093614873
0.08915523699923414 -0.002010488686602804 -0.04415172875597642 -0.20324450526910823 0.11519429097338005 -0.19185689467699044 0.2200649182848639 -0.14747522480884676
0.14727011401185247 0.20518925193403492 0.14724551240068984 0.06487657157661253 0.05494757391689636 0.1157792271756154 0.3321592436657992 0.05474845593726778
0.16408968024190845 0.3414122142377067 0.18552163294151783 -0.33007223957897946 -0.19794962198352195 0.19813853895237643 0.11486688558919855 0.20484189681254744
0.0027360574930106905 -0.2259434115860372 -0.04089263072243154 -0.07518787576185786 0.30430897831387455 0.2898833286787933 0.18420108551687436 -0.03732376913822675
0.29948773566003284 0.18524267395823 -0.1816324823806784 0.27771268006115024 0.14288883286139226 0.1737715426607383 -0.10033557949688336 -0.11469389458227941
00000000: aaf7 1e29 35eb c5bf 7282 4b3c 93d2 c5bf
00000010: fcfa cfc2 aec4 c43f 7f8c c8b6 8df9 c73f
00000020: bb7a b689 abd0 b43f 82d3 f449 1833 bdbf
00000030: 9670 8ac4 07d0 80bf 6cb7 16d4 32ba cf3f
00000040: 5465 6ed7 29c4 c53f e8d5 8b9c 6fc1 c1bf
00000050: 2438 ffb8 534b cfbf 7888 1897 0e9e d53f
00000060: 5901 9e00 6f51 a7bf 2e83 129d e198 c33f
00000070: dc2e 1e5c 309e b5bf 23d8 b7a0 ae1e d73f
00000080: bec6 49ac 16fa b5bf 3976 9191 90b2 b9bf
00000090: 6b58 6360 f5b8 bd3f c88d 60fc a61b c7bf
000000a0: 3999 247e e7c2 cd3f 5473 d6fd fe41 cdbf
000000b0: 2829 d63b 90bd cc3f 1f36 ed4b 4483 bcbf
000000c0: 5d8e fdfb 06a1 cbbf 81b5 f89c 3418 cabf
000000d0: c282 78fc 72df cabf 4fc3 cfce 9bb8 c13f
000000e0: 29e8 3de9 efac a1bf 7595 76ff 25a3 cbbf
000000f0: 0e1f 8e94 0761 c9bf 95c6 15fd e83d 333f
00000100: 33c6 cbc8 4ce4 c63f 67fb 1592 a890 ce3f
00000110: 2400 8440 826f 92bf f529 178d a358 be3f
00000120: 73d5 4911 1389 c3bf 2360 a542 1f42 633f
00000130: f5b3 3af4 401d cdbf b89d 8b5b a751 ca3f
00000140: c171 4b35 ca55 cdbf d070 98ac 8b81 b13f
00000150: 0f83 329d dd88 d03f f2ef 1652 8b5a 913f
00000160: 4ce5 c5d9 269f 60bf 9ada 14e9 ab3b c6bf
00000170: 0f5c 25dc e708 9fbf 93ec 2bb8 8109 cbbf
00000180: de1e a71f a4e3 ccbf d98d 3d81 7822 d0bf
00000190: 6e9d 547a 5e67 a23f 42c3 8036 a4f9 b2bf
000001a0: 888d 0f93 fcf5 c93f 997d 5a62 ef01 b33f
000001b0: e3d7 5995 8902 c9bf 7233 61ad adad c03f
000001c0: 00bd e2c3 f664 c0bf 96af 705c 783f c33f
000001d0: a73f a076 df64 bd3f 4727 b997 6086 b93f
000001e0: b7b6 929c 6bad b43f b64d e5d0 304f 9a3f
000001f0: 993e efb7 e69d cb3f 5765 677d 653c b33f
00000200: 7733 9662 cb1e cabf 4593 8a79 2d7a bc3f
00000210: 384c 6096 3707 d03f d6ed e489 f94e 86bf
00000220: 9f24 fa8b 1035 b13f cb27 8413 b486 a6bf
00000230: df5d 08d1 9bae cc3f bd78 f8e5 7c91 d13f
00000240: 8b8a ceaf d5b3 c0bf ec66 d8ff ac6a d0bf
00000250: 657e e49a 95bd d03f af32 ae3f 4157 cc3f
00000260: aeb6 8cb5 5345 d5bf e4d7 86f6 8d4c d2bf
00000270: d0dc 693d f6d7 b1bf 2b66 2d07 9f15 cc3f
00000280: f23d d075 d2bb c7bf 5478 b313 dbc1 d4bf
00000290: ce81 e610 38ff ce3f 7468 0058 b083 cebf
000002a0: 8d59 011b 18df d2bf 97dc 5b26 898e a6bf
000002b0: a90e 3c95 c4c3 bebf eb5e 713a 328b bf3f
000002c0: 3c6f 8a12 b0fa b3bf 6494 fc5e 7a65 bb3f
000002d0: 615c 3fc5 2809 c83f 5ba3 48e0 6a36 d3bf
000002e0: b585 a97c f10a cc3f ccb2 1488 7f9b d3bf
000002f0: 2748 3b9f e680 b4bf 9017 4ab9 3b70 ccbf
00000300: 90d3 b24f 2603 a4bf f926 b1a0 6785 abbf
00000310: 2749 fadf 7262 d03f 8072 45a3 b6bc c43f
00000320: 3abe 4bb8 7c70 c83f 0ca2 6949 910f cfbf
00000330: ecf1 0246 f3c1 c8bf ec42 7403 ec0b d53f
00000340: befd eec3 182d cebf c285 c4a6 ce81 bebf
00000350: c4e3 5292 e210 d43f 7149 20d0 15f5 91bf
00000360: 7cb2 82c9 54d6 b13f 23de e45a d96f c13f
00000370: 1370 2cfa b8cc b6bf 75bf b691 8c82 c93f
00000380: 7bab e45a 0569 c8bf d819 1a06 6174 a2bf
00000390: e858 e0c4 0a1c b83f b2ec f38a 3bec d33f
000003a0: fbb3 034b 7ac9 cbbf 95be e43d d323 d0bf
000003b0: cd40 f311 f57d a03f bc07 d8e0 ed21 d23f
000003c0: 6b35 fcf3 098b 933f f9a8 748d aebb d3bf
000003d0: 18fc 63fe 9fd9 c0bf b858 acba 511a 953f
000003e0: 5127 0d3d 759b c93f c970 e6da 7804 8f3f
000003f0: ac2c 2f6c 4d60 d33f 5f3e 9b94 4668 d53f
00000400: 5ecf 2153 5f86 d4bf 6323 f0e8 50f3 a73f
00000410: 93a4 fa4e 4665 d1bf 6dcd 0f48 43d6 ccbf
00000420: 1a5e 0508 561e d23f 7b2b d10f d505 b53f
00000430: f331 8faa 8aba bf3f 9b11 27d1 2662 c1bf
00000440: d909 082b 15fe d2bf ce98 25a5 9f69 c13f
00000450: 97ea 8355 c394 d4bf f6ce 8a1d 34a7 9cbf
00000460: 0563 ee2f caec b3bf 058b 9303 46ec c6bf
00000470: 22cd 5206 cda1 d03f a2fd 053a 9822 b13f
00000480: 8490 3ec2 c0bb d33f e81c ee26 85f6 aebf
00000490: 02f0 0c46 0f24 c53f 5b36 2111 27f2 d33f
000004a0: 0c23 5a8f 5725 d23f 47c3 e948 ab5a b43f
000004b0: 1da5 5dea 587c d3bf 518a ed4f 5c15 ca3f
000004c0: 53c6 bb8e 7e9f d53f 8547 a040 1d7a d13f
000004d0: 9d3d 343e 7645 b9bf 448a 16a6 cb58 a7bf
000004e0: 973e d1c4 c262 bbbf cb71 47d7 a7d5 ae3f
000004f0: 08fa 1b7a 8e85 c8bf d05e 147e e6f2 bbbf
00000500: 47d4 0f74 a548 963f 648d 4563 c823 be3f
00000510: fa8a 5085 d38a b6bf 7491 494f f8a4 c3bf
00000520: e598 93d6 d73f b1bf 602e 0df6 a1ac 9dbf
00000530: 3871 bbbf 0578 b4bf 92bc 3a10 cbcd d5bf
00000540: 629b daff 5e99 c2bf faf2 a3c5 d1c4 ca3f
00000550: 5d60 bb0f 6a42 d4bf 025e 0554 a29d d2bf
00000560: 9d99 4b18 ff9a ca3f 1f98 3799 6bbe 8ebf
00000570: 1b24 13e7 4aff ccbf 6bbb de1b ce29 c53f
00000580: ab83 c2db 5bfd 82bf 210c ce86 f6c1 9bbf
00000590: 4133 78aa 01c2 bd3f e43e 179f 39d4 913f
000005a0: d290 208c 36f7 be3f 7a4c 628e 0dd6 d0bf
000005b0: dea8 fc6d 4b90 d6bf 23d1 4ca0 a747 d13f
000005c0: 31e0 a391 a3f9 d43f a08c 4485 5488 d33f
000005d0: 77bd 4869 000e cbbf c97b c05f 3503 cabf
000005e0: 25ed 8dd1 3ec3 adbf c5b0 b703 2e65 d1bf
000005f0: 1916 8a3c 79fb c23f 2fcb ee06 7a38 d43f
00000600: 3adf f00a 6e3a c8bf 399b 8ae2 0931 d33f
00000610: da05 2cce 16da cc3f 3238 7a91 f42e 7dbf
00000620: cce8 ae27 7085 bdbf 9c14 420a cf07 c2bf
00000630: 381e a0be e520 883f ae3d ad19 c904 bebf
00000640: 7619 0404 ac3d c33f 8049 e750 34d4 a9bf
00000650: 5e1b 41be b7a3 c43f 9d93 cea5 9039 c7bf
00000660: 09f4 2202 e7a5 d33f 7304 3fe8 f8be d5bf
00000670: 9473 8c20 f2bd b53f a84a 61c7 284e c53f
00000680: f7c0 da02 50c6 d63f a49e 7761 dfc5 d03f
00000690: 4c22 bf65 42da b13f 23f2 1eac 202e c73f
000006a0: 21d3 8e3e 477f d0bf accf 130f 7bf6 c0bf
000006b0: 685c 22cf 5205 c7bf ce77 1aa2 e117 b8bf
000006c0: 72c8 2dab e0d2 b63f f9d1 0de5 4c78 60bf
000006d0: 5437 232e 0e9b a6bf 857b 9c7b ea03 cabf
000006e0: aea4 6a80 5f7d bd3f 552c 1348 c48e c8bf
000006f0: 3ee4 8355 162b cc3f 731a c3d9 77e0 c2bf
00000700: eaf6 ad41 bfd9 c23f b410 4633 a443 ca3f
00000710: 6432 1fe2 f0d8 c23f 38ba 3241 c09b b03f
00000720: e76a efa1 1622 ac3f 1882 461a b5a3 bd3f
00000730: fcf4 26d8 1842 d53f a69d 8357 fd07 ac3f
00000740: 1603 2001 e400 c53f ffc6 a69d b2d9 d53f
00000750: 4d98 1741 2cbf c73f d4c9 9350 e71f d5bf
00000760: 805f 56c8 6956 c9bf c857 7088 9a5c c93f
00000770: 40bd ff8c ea67 bd3f 328b d45f 4238 ca3f
00000780: 6686 7aae ed69 663f fe1c c1b5 b6eb ccbf
00000790: bf53 33ff e0ef a4bf a3f0 733b 833f b3bf
000007a0: 572f 6f5d cc79 d33f b22f 15ce 728d d23f
000007b0: e261 17b3 e693 c73f 8dd0 9fdf 191c a3bf
000007c0: b6a0 8d9b ce2a d33f 37b2 3c2d 08b6 c73f
000007d0: 0bb0 dbb1 bb3f c7bf 8804 a367 0bc6 d13f
000007e0: 9a38 0d68 2e4a c23f 0a07 5a5a 253e c63f
000007f0: 6b77 90b0 97af b9bf 8821 483e 945c bdbf

conv2.lin_r.bias f8 [32]
-0.07857376881929726 0.23109465326062686 0.043128157026601624 -0.0997684122664644 0.01225143896159782 -0.18246237756632538 -0.15438308379724786 0.04306060555405176
-0.04485971697019142 -0.0038121185015803994 0.15047263404404893 0.1690594329777635 0.041385981539357006 0.17021114282227898 0.2065593711262573 0.186897080161074
0.20656405837309252 -0.24973712273512028 0.23909261572505539 -0.03125226881990238 0.19789247564861306 0.07512656084639116 0.16106310004825797 0.1748337769274014
-0.21744860287521509 0.19178159904040015 -0.21475392890088665 0.13949855352983595 -0.013037909640616237 -0.12274738509189374 -0.2136789959335744 -0.1074998470628484
00000000: 2a00 6717 691d b4bf 0976 0475 8294 cd3f
00000010: 6a98 eecf e414 a63f 32ba db33 6c8a b9bf
00000020: 291e 5a4d 4817 893f 2eea 325c ed5a c7bf
00000030: cc7e fb2b d3c2 c3bf ed82 3329 0a0c a63f
00000040: 80ee 9652 daf7 a6bf 5253 5e89 973a 6fbf
00000050: dec1 14f1 af42 c33f 5822 dc4f bda3 c53f
00000060: 4ee4 721a 8b30 a53f 8f11 eb8d 7ac9 c53f
00000070: 83b5 d597 8970 ca3f f53d 8157 3eec c73f
00000080: 67e8 9ee9 b070 ca3f 1c4b 5fd3 62f7 cfbf
00000090: e589 a03a 969a ce3f 5eba 0321 4c00 a0bf
000000a0: b683 8467 8a54 c93f a26d e589 7e3b b33f
000000b0: bc5a a635 b79d c43f 2bd6 1105 f460 c63f
000000c0: ed78 f416 5bd5 cbbf 8032 eda7 4c8c c83f
000000d0: 798d a886 0e7d cbbf 63fe 9fae 16db c13f
000000e0: be00 1e9c 9eb3 8abf b7a2 a364 5f6c bfbf
000000f0: 9b3b b055 d559 cbbf 56be 7527 1c85 bbbf

conv2.lin_edge.weight f8 [32, 1]
0.2715538403420041 -0.2804402044480149 0.22894016191130295 -0.283194978314352 0.037200553915122996 0.2968793918130649 0.29553442908829436 -0.2260873368075097
0.1355429577138164 -0.32752541856834855 0.1013916801110509 -0.28291765635114313 -0.1950728470072355 0.22194359138036587 0.08371320232438692 -0.39636356951423174
-0.170537500727106 0.34260505677716196 0.07569813380734725 0.1861973146550965 -0.4260166779676242 0.3281747062859 0.3264898917468102 -0.3286279295605584
-0.054402339174737635 -0.25896649248291925 -0.3545545179936723 0.12949194120294252 0.22617312496439848 -0.31531052434261114 0.1279119662569998 -0.19497383100763496
00000000: b3d0 d75b 2361 d13f 269e a578 bbf2 d1bf
00000010: e832 1346 e94d cd3f bd19 90d4 dd1f d2bf
00000020: 7fc5 ea74 f30b a33f 0a62 ac6b 1200 d33f
00000030: 2bae f13c 09ea d23f 0462 d00a 6ef0 ccbf
00000040: f3be 4abd 7859 c13f 7106 572c 2df6 d4bf
00000050: 56d8 291e cef4 b93f d94d 5fa8 521b d2bf
00000060: 7de9 1da5 25f8 c8bf eb89 44c9 a568 cc3f
00000070: 3e07 3a7a 3a6e b53f b7ec 184e 055e d9bf
00000080: d2a7 2e3e 2cd4 c5bf 2956 93c2 3ded d53f
00000090: 301f 12f1 f360 b33f fdf8 8548 50d5 c73f
000000a0: 04fa da74 db43 dbbf 85d4 b77b d000 d53f
000000b0: 80bc e1db 35e5 d43f 52f2 8070 3d08 d5bf
000000c0: f8ac 2997 9fda abbf 7e55 fe31 e892 d0bf
000000d0: b2a3 db6e 05b1 d6bf f1f5 4722 3193 c03f
000000e0: 2d65 7aaf 3df3 cc3f 4db6 8831 0c2e d4bf
000000f0: 9ea1 eb57 6b5f c03f b776 e009 e7f4 c8bf

conv3.att f8 [1, 1, 64]
-0.26160751875990385 0.20178975143568179 -0.09692765173292207 -0.12737400866214776 -0.20562506345691364 0.31220668903327575 -0.18394735325023412 0.2373072722265876
-0.2685952166002367 0.2605195792518926 0.12250884216699243 0.007697547715692232 0.14512634068730335 0.11932480846577066 -0.20627221318840744 0.154263391005843
-0.0986718215521942 -0.10154145485206774 -0.262320233981867 -0.1740242376111188 0.10774915460247558 -0.26456785493235147 -0.07162469959997704 0.2108925081565356
0.259759922143272 -0.1888771122671717 -0.2860155932138807 0.21800348494800995 0.17161382985806883 0.04526459627519038 -0.03707169536394784 -0.036343405027358194
0.1370213201674622 0.18551612701610573 -0.19505237914718698 -0.05339885608886559 -0.06531601862072156 -0.3200877881579168 -0.012129588452770823 -0.2815588555621646
0.1445950460547294 -0.09520177818568971 0.24593022255560237 -0.043144151011456314 0.040466101157934135 0.22600571223316543 -0.02454214377376135 -0.1876916785727071
-0.02469932149092203 -0.2944798788441546 -0.246229854950821 -0.2021263147187142 0.13675267237907918 -0.07697063817174878 0.12473461770311117 0.2666606679605734
0.24930331582002976 -0.15326679531568638 -0.1130774587114911 0.07828568450217184 0.2626087414414656 -0.20061746814050402 -0.11517146325896338 0.2202547757192451
00000000: 1c89 5d76 2dbe d0bf ccc7 8a1f 3fd4 c93f
00000010: d15e 4526 40d0 b8bf 783c c8a0 ca4d c0bf
00000020: f786 640d ec51 cabf 1462 bfc3 31fb d33f
00000030: 3ba0 323d 968b c7bf 0678 a8ae 1560 ce3f
00000040: 4f3e cafd a930 d1bf 18b1 3650 5aac d03f
00000050: a0fb 934e bd5c bf3f 263a 2cbb 7687 7f3f
00000060: b822 85fb 7f93 c23f 4942 f615 128c be3f
00000070: 3adf dbbc 2067 cabf 3d8a ab1d e7be c33f
00000080: de79 9a76 8e42 b9bf e523 c7eb 9efe b9bf
00000090: f6fe 81ce dac9 d0bf aa23 a01c 6d46 c6bf
000000a0: b074 30d7 7295 bb3f f677 2003 aeee d0bf
000000b0: 4523 5e0e ff55 b2bf 587a c094 86fe ca3f
000000c0: d3ad 9a14 e89f d03f 0e41 130e 202d c8bf
000000d0: 62fa bf58 144e d2bf 7903 22c7 89e7 cb3f
000000e0: 340f 6425 71f7 c53f eb50 56d1 eb2c a73f
000000f0: 810f 64ae 0ffb a2bf 2c1b 0950 9a9b a2bf
00000100: e2ab 7c24 ea89 c13f bb16 3511 febe c73f
00000110: 40da b8f2 79f7 c8bf 3a4a 1749 1857 abbf
00000120: 6084 e1f3 8cb8 b0bf c12e 7f7d 517c d4bf
00000130: 13ac bfcd 65d7 88bf cf79 226f 0f05 d2bf
00000140: 98fd fb28 1782 c23f 0d1e d4cb 245f b8bf
00000150: 50b6 7c3b a47a cf3f 623d 377b fd16 a6bf
00000160: 1fd1 230a f9b7 a43f bb14 6053 c1ed cc3f
00000170: 3034 8763 9321 99bf 55be 99ea 4706 c8bf
00000180: 22c9 2568 c74a 99bf cecd 3d22 c2d8 d2bf
00000190: 4603 28bb 7584 cfbf 675e b06b 46df c9bf
000001a0: a41e c18f 1c81 c13f 512d b305 59b4 b3bf
000001b0: ccc3 b69f 9bee bf3f 984a 01e8 f710 d13f
000001c0: 199e 1dca 2be9 cf3f dac7 b810 3f9e c3bf
000001d0: 1fa5 14f3 a4f2 bcbf 958a aed6 870a b43f
000001e0: cea0 08e5 94ce d03f 92bb 554c d5ad c9bf
000001f0: e434 2184 e07b bdbf a340 40f9 4e31 cc3f

conv3.bias f8 [64]
-0.10400139327442652 -0.0944782302807761 -0.09608852536426968 0.07935283423785042 0.0904614190714324 0.09244628173448431 0.08055492050118172 -0.07833309251618005
-0.05373526524922054 0.10115941557466165 0.09999510092646473 -0.07642640380031925 -0.0996351155962583 -0.06848374300323766 0.09050316394159788 0.0596833946079488
0.058821224683986616 0.07225769659924915 0.06836993153943619 -0.09732027866801829 -0.07234399979786399 0.05498715274083452 -0.08890991133591035 -0.08085090367855087
0.06902673383745087 -0.10336280920859088 -0.09600842313651778 -0.10518072877276087 0.09859636177081031 -0.09318464624023402 0.09005660024833588 0.10370393224428956
-0.09267271085055787 0.08619402526229195 -0.09413810983268321 0.08892567053672305 -0.09588695673630389 -0.09101466522571211 -0.1018145837077477 -0.09732702477077392
0.08773427769383911 -0.09963817139421738 0.07398094522999413 0.08024956043468076 0.1038688906535675 0.09452774297588507 -0.031042953237029495 -0.09211097681123426
-0.10654747084231442 -0.07487725223878178 0.08982262283140238 0.10231018989347776 -0.06797563431110742 -0.08982796966871211 -0.07294809360176996 -0.08628611724510823
0.10076928082710376 0.05648175652289078 0.0918985544955178 0.10007431535537491 -0.0739621674620578 0.1041219107699208 0.08204109069290678 0.05458506974913674
00000000: fb22 dad6 d59f babf 7269 3dad b92f b8bf
00000010: 16dd f5f1 4199 b8bf 7e7f e5a3 7750 b43f
00000020: 5428 76c4 7a28 b73f b7b8 af3c 8faa b73f
00000030: df9e 154d 3f9f b43f 7131 8d36 a30d b4bf
00000040: 8c4a c64d 3083 abbf 765d 935d 95e5 b93f
00000050: 5b48 3d68 4799 b93f 0d8e df48 ae90 b3bf
00000060: 53e4 04db af81 b9bf dfae 818c 2688 b1bf
00000070: f24d 5021 372b b73f 902a e967 d28e ae3f
00000080: cb22 a8c8 d01d ae3f 4d2f c7fb 7a7f b23f
00000090: f2db fd1b b180 b13f 00e3 1d56 fbe9 b8bf
000000a0: 7893 31e9 2285 b2bf 5daf 71ad 4627 ac3f
000000b0: db5d 7ac9 ccc2 b6bf 99c3 2613 a5b2 b4bf
000000c0: 22ad 616c bcab b13f 1970 2c2d fc75 babf
000000d0: 260a 830d 0294 b8bf b19a 3fce 1fed babf
000000e0: 3f6a 4f75 9c3d b93f 9754 17f0 f2da b7bf
000000f0: 3305 db08 f30d b73f dab0 7445 578c ba3f
00000100: 22b6 5516 66b9 b7bf 52b5 9cc7 cf10 b63f
00000110: afe3 0967 6f19 b8bf 97e7 ba2e d5c3 b63f
00000120: d19e 4b2f 0c8c b8bf 78cf 99b2 bc4c b7bf
00000130: 6bd7 4743 8510 babf 074f 6884 6cea b8bf
00000140: 97e7 6eed c075 b63f b047 921f e381 b9bf
00000150: ea3c 4a4c 6af0 b23f 26d8 9535 3c8b b43f
00000160: 96ca 6dd0 2697 ba3f 2068 a55c f832 b83f
00000170: 717b b253 b9c9 9fbf f0c1 01c1 9594 b7bf
00000180: c03f bdee b146 bbbf 0475 94d5 272b b3bf
00000190: 0677 808b 9dfe b63f 72d9 a327 0031 ba3f
000001a0: 0883 4ae6 d966 b1bf 4142 fe3f f7fe b6bf
000001b0: f43c 53ec b9ac b2bf c6a3 aad3 d816 b6bf
000001c0: 9606 98fd 03cc b93f 4043 2c42 2deb ac3f
000001d0: d3a0 1be6 a986 b73f fff4 9e67 789e b93f
000001e0: 5c0c 6442 2fef b2bf 76c8 8dc9 bba7 ba3f
000001f0: c146 7419 a500 b53f 9847 d802 93f2 ab3f
