src/gat_wax_120.pth (torch, 24527 bytes, 8 tensors)

conv1.bias f8 [16]
0	0x4023643ca63617a9	9.695775217154578
1	0x0000000000000000	0.0
2	0xc0252476b838f3a6	-10.571218258812063
3	0xc0284c7785feff1a	-12.149349391343595
4	0xc02676e53005e917	-11.232217312547204
5	0x0000000000000000	0.0
6	0x0000000000000000	0.0
7	0xc024e9e0fc457679	-10.456794627646774
8	0x0000000000000000	0.0
9	0xc0251561d32017fa	-10.541761968295749
10	0x0000000000000000	0.0
11	0xc0258c95c4fcb5e3	-10.774580150459718
12	0x0000000000000000	0.0
13	0x40236b05b5a1d63b	9.709027935033296
14	0xc025a5ccfdd26e05	-10.823829585969188
15	0x0000000000000000	0.0

conv1.lin.weight f8 [16, 2]
0	0x40122a0a401bcaa6	4.541054727264656
1	0x3fd2facd963c5eb6	0.29655780478922666
2	0xbfa66d16d6a88df6	-0.04380103464452738
3	0xbfc8806463ebf15a	-0.19141821745859994
4	0xc008f346617f712d	-3.118786584569668
5	0x3fd3192d4291dbfc	0.2984116697402326
6	0xbff9ef25a4046f84	-1.6208855063368626
7	0x3fd36cb2d9204112	0.3035094375964188
8	0xbffc74c536dd73b8	-1.7785083907285593
9	0x3faa52402755fd10	0.05140877227949592
10	0xbfdd969f347bd6d8	-0.46231823087087554
11	0xbfe138bde3348089	-0.5381764829253523
12	0xbfca275e05b20132	-0.20432639387218782
13	0xbfdc15ef45f829a4	-0.4388387854857234
14	0xc0074c2a541451f4	-2.912190110082742
15	0x3fe0c0d71ee719ae	0.5235400775498442
16	0xbfc80c38d74d5c37	-0.18787298691560902
17	0xbfdc5179025b061d	-0.4424726984981094
18	0xc00777185dbcb010	-2.933151943512719
19	0x3fdff63b71b0571b	0.49940382101464004
20	0xbfdad4910550100b	-0.4192240287668489
21	0xbfc3ded95b61d663	-0.15523831331272495
22	0xc0073f44144ad7cb	-2.9058915696468595
23	0x3fab5207b9c86ba3	0.05336021559579442
24	0xbfd49aae1c04b53d	-0.3219409249894232
25	0xbfc7cb59872773c2	-0.1858932409221819
26	0x40122cc44fba9074	4.543717618715267
27	0x3fd9a4319b37ffa8	0.40064659269409697
28	0xc00d3738e0bcb980	-3.6519639546961002
29	0x3fc792dbc3e4e142	0.18416926446094278
30	0xbfccc123bf8fb107	-0.2246441541059385
31	0xbfda8c7f2244bbe0	-0.41482523294956586

conv2.bias f8 [32]
0	0xbfb2334cd63ad8c1	-0.07109527807446893
1	0xbfc68eafe3f2e633	-0.1762294638663647
2	0xc01804b9262ec12e	-6.004612537959742
3	0xc01528f3312e227c	-5.289990204277839
4	0xc017827d1ebbd925	-5.8774304201272445
5	0xc0259a59a8e4f590	-10.801465299557805
6	0xbfbb43e0990a27e1	-0.10650447593994229
7	0x0000000000000000	0.0
8	0x40160c230d8ad9a3	5.5118524662015345
9	0xbfb5b357b0e8b07d	-0.08476780003610603
10	0x4015433ad14d987e	5.315654058800758
11	0x0000000000000000	0.0
12	0xc0189b7b7576e942	-6.151838145621072
13	0x3ffc580b9b7bd3ee	1.7714954446394091
14	0xc027ebf595d8c790	-11.960858042442652
15	0x0000000000000000	0.0
16	0x0000000000000000	0.0
17	0xc024c5f388e32a83	-10.386623647432549
18	0xc019934ad994a265	-6.393840217301293
19	0x0000000000000000	0.0
20	0xc023de77f6b374b0	-9.934509000211932
21	0x40183842608594f4	6.054940708306493
22	0xc0266f225e2a6283	-11.217059080766608
23	0xc0198df74746d0b5	-6.388638604829045
24	0xc018abe9b18bfb83	-6.167883657616474
25	0xbfaccb10b52b5edd	-0.05623676501789785
26	0x0000000000000000	0.0
27	0x4018ccf9396df34e	6.200169465385285
28	0xc02be6240a5b33d4	-13.949493716843712
29	0xc016efb1c34bc0a2	-5.734076549051823
30	0xc01a78c4f6893364	-6.617938854335851
31	0xc024b6b2df1c0e52	-10.356833431410596

conv2.lin.weight f8 [32, 16]
0	0x3fa3eabe78e6c833	0.0389003298363523
1	0x3fab65db08c67a71	0.053511471577839205
2	0xbf8071b4cce4fc3c	-0.008029377463229286
3	0x3fd01bacd8736952	0.25168915879989584
4	0xbfd9de6f73a87508	-0.4042013768647199
5	0x3f9b6c12820481d9	0.02677945059360973
6	0xbfa161117b7872af	-0.03394369728286983
7	0xbfbd8fa5233043ad	-0.11547309979529415
8	0xbf9432643fb3b3c7	-0.019723478687342835
9	0xbfc14ca5efc9cf42	-0.13515161713041307
10	0xbfb73b64e12126bc	-0.0907500314362108
11	0xbfcdd019c539a03e	-0.23291322832233335
12	0xbfba582b9b17851f	-0.10290787254736643
13	0xbfd68c187fca68df	-0.35230076293522744
14	0xbfb6b8998fd01c04	-0.0887542701822071
15	0xbfc9fd42e22547b4	-0.20304142038599837
16	0x3fc935c58d214d54	0.19695348158948411
17	0xbfd19dbd00d8b99d	-0.27525258143114134
18	0x3fb2da8ec18af03b	0.07364742493786107
19	0x3fc238115b22411b	0.14233605337040775
20	0xbfd51301d9e0ea3d	-0.32928510930256377
21	0x3fbabcc9e462183e	0.10444318605195321
22	0xbfc1104c485a0a98	-0.13330987484740286
23	0xbfd65b37c6bfbd94	-0.3493174973400184
24	0x3fc42679c4a4078f	0.15742418386076593
25	0xbfdce0600ae0278d	-0.4511947733122888
26	0x3fc72fb322f60bf1	0.1811431809147446
27	0x3fbaedeb59f7c10c	0.10519286104659303
28	0x3fc835f560b19bb4	0.18914668294311598
29	0xbfd4066e47b5c005	-0.3128925037663069
30	0xbfd3d676645c884a	-0.3099647502987223
31	0x3fc0105f0e68ac28	0.1254996128421635
32	0xc00305581d23be27	-2.3776094700367767
33	0x3fd412244dbe0b63	0.3136072882845637
34	0x3fe13e5b60c4f368	0.5388619318033365
35	0x3fdbf93c753122af	0.43708716816449117
36	0x3ff1734dd3194918	1.090650391201569
37	0xbfd470654086ae90	-0.3193600778711039
38	0x3fd015931b4790a6	0.2513168112184395
39	0x3fc05dda753ac5fa	0.12786417698002578
40	0x3fb98ec0607c5d8b	0.09983446460352334
41	0x3fd203311dcc0e51	0.28144481572983177
42	0xbfa521842eb7f4c0	-0.04127133436484476
43	0x3ff6525dd343291b	1.3951090099749937
44	0xbfd4c582958cfc01	-0.32455505947649504
45	0xc00082f8f216dffa	-2.0639513886671894
46	0x3fcd36fdd989ef1d	0.22824071046840624
47	0x3fc36461efc2ec2e	0.1515009327611962
48	0xc00138c7b7247a61	-2.1527246768958297
49	0x3fca801ef50ec1da	0.20703494039254516
50	0x3fd5a28f67585906	0.33804688541694394
51	0x3fe2cd5186552f6d	0.5875632880865688
52	0x3fef86ed7250506e	0.9852206452074037
53	0xbfd13b2ab8be4b1a	-0.2692362598547092
54	0x3fd41cc3f84684bf	0.31425570722246826
55	0x3fe4fec043142988	0.6560975370532995
56	0x3fc512c9758be8d1	0.1646358322103141
57	0x3fe5ce459278c86c	0.681429658963919
58	0xbfd51640a20d86b1	-0.3294831831500274
59	0x3ff5a748dbe3e9ef	1.353340968080939
60	0xbfafa3bb9d0cf283	-0.06179605762597353
61	0xc002ba136170ebc2	-2.340857278116773
62	0x3fda2fe6dbcae185	0.40917369331466374
63	0x3fb393c81a29c73f	0.07647371901273646
64	0xc00244dced51c2c4	-2.2836245098663728
65	0xbf8b426409d6d045	-0.013310224104181265
66	0x3fd3393a6f80ffd9	0.3003679360299408
67	0x3fd37267979dcb24	0.3038577061299057
68	0x3ff6588f3bdbae4c	1.3966209734161508
69	0x3fcebf1fea339649	0.2402076619684286
70	0x3fd14480bed972a1	0.26980608594548455
71	0x3fb16979ec35943a	0.06801569001034205
72	0x3facc2d450dd3b89	0.05617393004523936
73	0x3fe07d7849c44299	0.5153161469225608
74	0xbfd253fcfe45a4b6	-0.28637623625997877
75	0x3ff0f64ec1e30c95	1.0601337026317073
76	0x3fc1f93e1eef4d41	0.14041878233420316
77	0xc002eb6556f795e4	-2.364939383917532
78	0x3fe5cfd39cc19fa2	0.681619459309321
79	0xbfcdb49bee7e6dd5	-0.23207425255973982
80	0xc00479d64867d962	-2.559490743321633
81	0x3f6e1bcab065882e	0.0036753615160458808
82	0x3fea191eb655f103	0.8155664025539696
83	0x3fcf5518cf031e57	0.24478445156113324
84	0x40031af7865bf025	2.3881674286658545
85	0xbfd408aa688afa36	-0.3130289097715918
86	0xbfca4b276dbcffe5	-0.20541851862253604
87	0x3fe7ee6a2f062dc7	0.7478533667030484
88	0xbfb729f3f0174172	-0.09048390018074828
89	0x3fe8a3a17011f93e	0.7699744404670026
90	0xbfd39b8c63a005de	-0.3063689206029191
91	0x4002f694e271aa81	2.370401162236988
92	0x3fce69c79e178ba3	0.23760314196905793
93	0xc00540bc02df01f8	-2.656608602934508
94	0x3fef4dcf662860de	0.9782483096378447
95	0xbfb88b7f9d1c1dfb	-0.09587857804955739
96	0xbfd4616ca36fb66a	-0.31844631157478054
97	0x3fd023d5520f3297	0.25218709004983836
98	0xbfc5ed6e5ea88fd0	-0.17130832311624866
99	0xbfd41dd7bc1c10e7	-0.31432145471650447
100	0x3fc80e58cf39081a	0.1879378330068569
101	0x3fd278c8c4987bb3	0.2886220855597756
102	0x3fcc288fb72e43b5	0.21998783535357594
103	0xbfa8ac3890340015	-0.04818894157688206
104	0x3f92ac0ff6a1e044	0.018234490802996342
105	0x3fa4bc60e9a9a6a1	0.0404997143967425
106	0xbfc540596d667e09	-0.1660262855702828
107	0x3fbaba3fd7d8430b	0.10440444011352328
108	0xbfc38725cf40328c	-0.15256188029924933
109	0x3fc7843b58e442f8	0.1837228950539822
110	0x3fb110b4f78bbef1	0.06666117709732668
111	0xbfb17f9b95ac1b5a	-0.06835338977917385
112	0xbfc5fb070094e68b	-0.1717232468452504
113	0xbfca369dcc57606b	-0.20479176023104925
114	0xbfd2d5f05f1e0972	-0.29430779732515255
115	0xbfceb9360ba6c81f	-0.2400271946804091
116	0x3fcc3aaadee5dd6f	0.22054038890540137
117	0xbfd202cec2186e9b	-0.2814213653052577
118	0xbfd0b81be3743ba3	-0.2612371178847132
119	0xbfd02b18c6694890	-0.25263041854953716
120	0x3fc4139933e65184	0.1568480971733487
121	0xbfa9a0b334b9b618	-0.050054168878755856
122	0x3fa2b05c057f364f	0.03650176589108566
123	0x3fada0f979083ef1	0.05786876299327826
124	0x3fc14c6ec3e900cf	0.1351450401871319
125	0xbfb28651a5649071	-0.07236204421912064
126	0x3fc3ee93a2979e3e	0.1557182830722343
127	0x3fd003b380b2a4be	0.2502259022536001
128	0x40057e1887d64dce	2.686570225932633
129	0x3fc6dd2cf51fc921	0.1786247441191984
130	0xbfc7c929ca817cc9	-0.1858265150831129
131	0x3fd33ca72a67517e	0.300576964769128
132	0xbff3fbbbb633fe8b	-1.248958312731619
133	0x3fb4488e8106e7a5	0.07923212671349107
134	0x3fd22c9236155e87	0.2839704063567087
135	0xbfbbe2e96c99df0e	-0.10893114949601232
136	0x3fd365dd667c1f0a	0.3030923367336845
137	0xbfc98ba645d28794	-0.19957426461502037
138	0x3faf43432b540986	0.06106004623326826
139	0xbffaf3d1e665d26e	-1.6845263481056025
140	0xbfd15bc21e3e8fff	-0.27122548059037394
141	0x4003afca11985ebe	2.4608346342682514
142	0xbfe09e2033fe2731	-0.5193024650081722
143	0x3fb8ed698eb24034	0.09737262471958347
144	0xbfb371abf406fb05	-0.07595324237534491
145	0x3f6ee3a9ecda95f5	0.0037706679202809076
146	0xbfc9e13e66e24a81	-0.20218639396314944
147	0xbfcc5c119cb0c6a2	-0.2215597167101367
148	0xbfcc2edb37e7ee32	-0.22017994146141145
149	0x3fc6da2a12a56ad4	0.17853284750420662
150	0x3fb323f1852d3784	0.07476720334417847
151	0xbfc6cbc2ee4530a7	-0.1780933059147902
152	0x3fcd4a6ebe7f4c89	0.22883400251030064
153	0xbfc4fc8d1499796c	-0.16395724778972054
154	0x3fbdaa1379f65e79	0.11587640502545495
155	0x3fcccd520977ddb8	0.2250158830863549
156	0xbf9ecf6b8df26d9c	-0.030088120020634088
157	0x3fa29c06bd21d43f	0.03634663637868884
158	0xbfa9f5af021e43ca	-0.05070254231316758
159	0xbfcef7dd82d4a71d	-0.24193924797264624
160	0x4000c2e17bdd2791	2.095156638800241
161	0xbfcf4a7aaaa62703	-0.24446042377922347
162	0xbfb86fcf18e0d327	-0.09545606953981843
163	0x3fc41469cb28e7f5	0.15687296314155189
164	0xbff3bb216d3b5989	-1.2331861750477364
165	0x3fc9c429f7a43329	0.20129894821038732
166	0xbfac11ff01053122	-0.05482479941801645
167	0xbfd5c353a788a680	-0.3400468002388166
168	0xbfc09374383e7b6d	-0.12949993845264932
169	0x3fb5d6e9678227c1	0.08531054284153951
170	0xbfc34f5d37bff369	-0.15085950109633053
171	0xbff7b2a11bc5a54c	-1.4811106762739028
172	0xbfc0b3d95368852b	-0.13048855374021548
173	0x4000dde1fff67607	2.1083412167633955
174	0x3fb0b31219dbb9b5	0.06523240214639865
175	0x3fca6e99da47bbfb	0.20650027425969583
176	0xbfc2aa6d58884d02	-0.14582602331993405
177	0xbfd106e0b062b431	-0.2660447809710745
178	0x3f82799c5cd7bc4a	0.009021016677222122
179	0xbfd1ddb434fa7d40	-0.2791567342155368
180	0xbfd341597c5bb231	-0.3008636202273776
181	0x3fa3fe38cffb9177	0.03904893435336281
182	0x3fd0f020f82bdcdb	0.2646562980221014
183	0xbfb4b7eba38a5958	-0.08093140356718231
184	0xbfc567c7b9e4679a	-0.16722961975829947
185	0xbfd32cde2831cda0	-0.2996135132336466
186	0xbfc8ae1caf40c7c7	-0.19281347806241753
187	0xbfcb95f1dc696076	-0.21551345121656923
188	0x3fcfb999abcdfb4b	0.24785157097718477
189	0xbfc42a1a52b73168	-0.15753487624023
190	0x3fc471f13eacc830	0.15972724495219515
191	0xbfb544965cf5fb8e	-0.08307780999710543
192	0xc0020684d05f73a3	-2.2531830100183057
193	0x3fc6bb9f085d0e06	0.17760074528096953
194	0x3fcdf03db35af32c	0.2338940740354699
195	0x3fc16b43ffcefd90	0.13608598700191665
196	0x3fed10823fc3ea9a	0.9082652326026903
197	0x3fc3a6db13404f07	0.15352953376770292
198	0x3fcd029a0cbae179	0.22664189931471038
199	0x3fe22c671e5af4ce	0.5679202645184434
200	0x3fbf8b33ff859043	0.12321782100986049
201	0x3fd0760b7baace58	0.2572048862159355
202	0xbfc064d6fb2b600e	-0.12807738556034604
203	0x3ff846a9407ea8fa	1.5172512549711983
204	0x3fbf338e48954d61	0.12188042900134156
205	0xc003ff320691c832	-2.499607135127939
206	0x3fe43621c7c51423	0.6316079046015414
207	0x3fd4b517c31dbf9a	0.3235530286246956
208	0x3ffe796b88776834	1.9046435671539372
209	0xbfd40a580b97d1ba	-0.31313134319432445
210	0x3fd25cd9e8731d54	0.2869171876922867
211	0x3fe212e2ca414ec5	0.5648054075522501
212	0x3fbe0dcc5d33f249	0.11739804530584154
213	0x3fc2974c3038a0fe	0.14524223665762998
214	0xbfcf9b3a01432964	-0.24692463933599662
215	0x3fe539abb0850363	0.6632898757598976
216	0xbfb4e543748d4d6e	-0.08162328334338095
217	0x3fd421e4fafaf3fa	0.3145687533358906
218	0xbfc37795079e8d36	-0.15208685752905077
219	0xbfaa29a8934c65bd	-0.051099079113736214
220	0xbfa4712f59f44f82	-0.0399260327632467
221	0x3ffc313e63fdf0b8	1.7620223909316746
222	0x3fde0e2f43bcbd2f	0.46961576094595875
223	0xbfbf920419ed1afa	-0.12332177765811628
224	0xc000f79593fa38eb	-2.1208907662140652
225	0xbfbdc38897f8f152	-0.11626485548271617
226	0x3feb83d6fbc00763	0.8598437230104817
227	0x3fd72bbd34926323	0.3620446217915278
228	0x4003e446bd02c0c0	2.4864630476441505
229	0x3fcd77e7da613b2d	0.2302217308337843
230	0xbfd50f2f7809abc6	-0.3290518448108596
231	0x3fdbc121795315f1	0.4336627659616559
232	0x3fd16f47db3ab285	0.27241703423604974
233	0x3fdc82a88ff9510b	0.44547475871992565
234	0xbfca4527a34c3f53	-0.20523543809440045
235	0x4001d34636c2c38b	2.228161266154023
236	0x3fc71b241d1960c0	0.18051577969413835
237	0xc0015b15e218c6a7	-2.16947533262358
238	0x3ff0006874d8e457	1.0000996174187742
239	0x3fc9be529eb04a8d	0.2011206889006484
240	0x3fb084d3fd5b5007	0.06452679572549878
241	0x3fd006663442da82	0.250390578304554
242	0xbfd0cc1d4d1aa813	-0.2624581578226081
243	0x3fb0eac85825879a	0.06608249809280978
244	0x3fd073b2e133cfeb	0.257061691211901
245	0x3fc6dd9aae961bc6	0.17863782429432556
246	0x3fb85368b6db1e71	0.09502272094970877
247	0xbfd487eaf7d092b3	-0.32079576683672
248	0xbfac8cac954fbda4	-0.055760758615970546
249	0x3fb16d8e0720b54c	0.06807792352693304
250	0x3fd0dd4247978f34	0.26350457183274334
251	0xbfc544dc95042a5d	-0.16616399074730995
252	0x3fd4bf7ab469a9e7	0.32418696993286605
253	0xbfb7d5b6d7f72543	-0.09310477039902758
254	0xbfb4ecad983d699f	-0.0817364212684084
255	0xbfc41d86910e84a5	-0.1571510513577198

conv3.bias f8 [64]
0	0xc01965b74271d86e	-6.349331892202924
1	0xbf8b021960ec66a2	-0.013187597532623944
2	0xc00989e53e2b5634	-3.192331777284176
3	0xc01b825be3afd910	-6.877303655250458
4	0xc0084a2640b830d9	-3.036205773945863
5	0xc00b5bd5325af270	-3.4198402341847256
6	0xbfb1f7c1536f73ab	-0.07018669402118742
7	0x0000000000000000	0.0
8	0xc00b478d3368c51f	-3.4099372879360454
9	0xc01941d3399c0543	-6.314282322070826
10	0xc01eeacc032e2429	-7.729293870631445
11	0xc01af00c7cb9be32	-6.734422634922838
12	0x0000000000000000	0.0
13	0xc00884077a4b96bd	-3.0644673876111868
14	0x401c2054ca25a37a	7.031573446795727
15	0xc009f80fb2c3c185	-3.246123692130086
16	0xbfca2681debb46e1	-0.20430014968456248
17	0xbfca25e2be52b31c	-0.20428118031613784
18	0xc01f9f336937af03	-7.905469554923687
19	0xbfac946c791423fa	-0.055819883136855666
20	0xbfa12f6901726989	-0.033564835955263446
21	0x0000000000000000	0.0
22	0x400cfef27284b1c8	3.6244858690972457
23	0x3fb7761d8956e7d4	0.09164604762091183
24	0xc0081105529ea5f7	-3.0083109335580462
25	0xc007bb01709e6a52	-2.966311340174152
26	0xbfc01d932184e5db	-0.12590254913975127
27	0xc01a3de064382c69	-6.560426298073346
28	0x401c5ed6c62cc19b	7.092616173249918
29	0xc0196f75a36e2829	-6.358847192381327
30	0xc008a7b9a2a93a2e	-3.0818970401662886
31	0xc01c08ae3db9f1aa	-7.008477177118417
32	0x0000000000000000	0.0
33	0x3facd84d2e035388	0.05633774935419128
34	0xc01932a2ad6d6816	-6.299448690226219
35	0xc009dea0cf4e2d17	-3.2337051578266585
36	0xbf821598f9638ee4	-0.008830256567712032
37	0x401a9a9d01c27fd1	6.650989558693213
38	0xc01924b13eb084f8	-6.285832385562792
39	0xc0090a5360f710fe	-3.1300418448828387
40	0x401beaebc0dc187e	6.979414952691625
41	0xc00a8860b46b427f	-3.316590699694927
42	0x0000000000000000	0.0
43	0xc0207447479a6046	-8.227106320948348
44	0xc00a66af454e8870	-3.3001389898864133
45	0xc00d58c578b0acc2	-3.66834539689225
46	0x401b9e70894202ba	6.904726166395159
47	0xc00b516afc9d8c52	-3.4147548423366425
48	0xc00968e46af14afb	-3.176216922272372
49	0xbfb40abe6b447aee	-0.07828893774829357
50	0xbfac50e1f2e21518	-0.055304585360355485
51	0x0000000000000000	0.0
52	0x401beb2942a8db98	6.979649583393346
53	0xc008c5f75c62f8ea	-3.0966632096961932
54	0xc0195aa20c343efd	-6.338508787812086
55	0xbfacd96d7b978a5c	-0.05634634145441872
56	0xc0086bce2aef07fb	-3.052639327449467
57	0x0000000000000000	0.0
58	0xc0198b4afd022162	-6.386028245215444
59	0xc00aaf714e6b1c95	-3.3356653334081536
60	0xc0198fa2aa777bde	-6.39026895860931
61	0xbfb7c0a3e2b6234b	-0.09278320584247728
62	0xc019d1e8f4945412	-6.4549902167828055
63	0xbfb7f2f94476a38c	-0.09355123445005925

conv3.lin.weight f8 [64, 32]
0	0x3f85569652552dd1	0.010419058215709239
1	0xbfbacec52959c5e0	-0.10471756228960016
2	0xbff1a6f297218e94	-1.1032586959417232
3	0xbf7f25c0130129d7	-0.007604360856996859
4	0xbfea4722b54ef2c5	-0.8211835423640755
5	0x4005911022b27c49	2.6958315573424767
6	0xbfcee2f2329140e2	-0.24130084485160014
7	0xbfc1b727ebfa25a1	-0.13840197584458472
8	0x3ff1d5761e1a5b7c	1.114614598836595
9	0x3fa6f878789776c2	0.04486443016115295
10	0x3ff4926f1db8611c	1.2857504998156122
11	0x3fba87f16dbe24f2	0.10363682679430378
12	0xc003271b06af1c87	-2.394094516962983
13	0x3fe59fc90bee1b6f	0.6757550461778531
14	0x4011c5892a887d26	4.442906059818858
15	0xbf71e3ad6eda50d7	-0.004367520783166343
16	0xbfbd2d14427a6f36	-0.11396910307888394
17	0x4004600409bf0727	2.5468827020094014
18	0xc002801689c115bc	-2.312542988018974
19	0x3fbd16492b48900b	0.11362130457615664
20	0x3fffcb974989d260	1.98720482564854
21	0x3ff66779681e01b1	1.4002622668341298
22	0x400886c1f4430098	3.0657996256778226
23	0xc0024597e5ef4f42	-2.2839811290413374
24	0xbffe2d55a335f34f	-1.8860679984492952
25	0xbfb18b71aaf979e8	-0.06853399681265382
26	0x3faaad78e2404b55	0.05210473787169315
27	0x3ff573eaaaaa06b0	1.3407999674385955
28	0x401bafe51a10bd65	6.921772391578405
29	0xbfda23a038c1ed8c	-0.4084244303009761
30	0xc00302fc3b3de7eb	-2.3764576557414236
31	0x3ff7a3437c0c5c16	1.4773592801700537
32	0x3fb114b0220c2422	0.06672192412601466
33	0xbfcde2a46c610651	-0.2334790734476422
34	0x3fc470374ab0b174	0.15967456004126357
35	0xbfb748ac64c35ff4	-0.0909526582721581
36	0xbfbeb8d781ebcfc3	-0.12000796243574911
37	0xbfcc0ead58a5f3e0	-0.21919791058090166
38	0xbfac15a0b33880ca	-0.054852506520775515
39	0x3faaf3c952896ac5	0.052641192746440114
40	0xbf9446f9b9daa876	-0.01980200001586537
41	0xbfbbba15c4424532	-0.10830818215824392
42	0x3fb9ca8eb0c92da3	0.10074703041134696
43	0x3fb1568672b7740c	0.06772651959131809
44	0x3f9d2f398c32cbec	0.028500460798294755
45	0xbfcceeed0a5bc83e	-0.22604144101893725
46	0xbfc41ce3c8c52c81	-0.15713164618714262
47	0xbfc6c23e228ad522	-0.17780281721722085
48	0xbf56c3d2916b43da	-0.001389461167196729
49	0xbfc4dd3d6bdd00c0	-0.16300170676004733
50	0xbfcafb8254d18915	-0.21080044881370755
51	0xbfc2535facb49caf	-0.14316936428915514
52	0xbfc5166aa0234161	-0.16474659747337753
53	0xbfb578e5e7cb34af	-0.08387600811984684
54	0x3fafb7924436adcf	0.06194741327939434
55	0x3fa2d431f36ad1df	0.036775170291921226
56	0x3fbbb2d13efca04e	0.10819728648914514
57	0xbfa14822b50baab3	-0.033753475761689876
58	0x3fa45194d0424093	0.0396849159452596
59	0xbfcf45ad21dbfc7f	-0.24431385186469254
60	0x3f9c79280b907977	0.02780592508872234
61	0xbfca76ca890c8076	-0.20675021831357626
62	0x3fc1fa9254069a62	0.14045933821508344
63	0xbfb8dc19310c6ed8	-0.09710843512987866
64	0x3fb78f1ab4585140	0.09202734854654171
65	0x3fbd34775392b875	0.11408181944236324
66	0x3fffd4f8a33efcce	1.9894949318693764
67	0x3ff60fdf77ded775	1.3788752252998766
68	0x4000fe31fa3626f2	2.1241187618041915
69	0x3febee4b12688a42	0.872838531450107
70	0x3fafa21e56eeb087	0.06178374110399525
71	0xbfc17e3772f5e904	-0.13666432488737013
72	0xc007a26ccd52206d	-2.9543090859115666
73	0x3f9f4f963ade8791	0.030577037184805148
74	0xc005f71d23056232	-2.745661042787355
75	0xbfc3c3b243f2aaf1	-0.15440967862863134
76	0x4002e022d47ec920	2.35944143306655
77	0xbff4bac4bde1ebd1	-1.2955977837834676
78	0x3ff7ef070e423b9e	1.4958563382130943
79	0x3f8039d5f5cbad70	0.007922812999331369
80	0xbfc3257b6724bbd5	-0.14958136116317058
81	0x3fed876eee4da24d	0.9227823881493095
82	0x4007485ae46edfdc	2.9103296133362004
83	0x3fa2e99965252530	0.03693847045594578
84	0x3fee313b18830a84	0.9435096243617669
85	0xc0099fd309e6a5e6	-3.2030392430794903
86	0x3ff29837016135f5	1.1621618322272955
87	0x4006dc2d1dd31549	2.857507927898642
88	0x40036c7e23e90f48	2.427974968480985
89	0x3fc8c8be412c460e	0.19362619573853163
90	0x3fb75f3ed0990c03	0.09129707901688282
91	0xc00d3826d30637c6	-3.6524178015015165
92	0x3ff86b687a2860e4	1.5262226840769069
93	0x3fff4f9c9a121069	1.9569364565259326
94	0x40045b6f75591707	2.544646183759031
95	0x3fe045d402fbc586	0.5085239465972087
96	0x3fa77820edee545c	0.0458383837168774
97	0xbfc941312c40acad	-0.1973020044400519
98	0xbff1f95d13b365be	-1.1233797807275177
99	0x3fd18eee3707fada	0.27434878706109844
100	0xbfed38df0dedde4d	-0.9131922981313864
101	0x400479e0c2358a13	2.559510724314586
102	0xbfb98da611c0ec92	-0.0998176377624296
103	0xbfa087d6dfd5ae7f	-0.03228637201649764
104	0x3ff49809162e6413	1.2871180407003109
105	0xbf8349269e847985	-0.009416867935723836
106	0x3ff0a89c8ed73605	1.0411649303163142
107	0xbfc676d4f5bdcf57	-0.1755014610204124
108	0xbff8011568f73362	-1.5002645588130794
109	0x3fe63a27ea198145	0.6945991108187078
110	0x4011aabbeedac9c3	4.416732532600181
111	0xbfbb2f2178a5932d	-0.10618790812948183
112	0xbf90c981397debcf	-0.016393679746652453
113	0x400122072016e702	2.1416151530255556
114	0xbff81f76fd33e1fa	-1.5076818361977744
115	0x3fc783122f800479	0.18368747062052984
116	0x3ffefcc30af0c877	1.936709444748457
117	0x3fe71afb378a31ab	0.722043617702686
118	0x400934303c284b5e	3.1504826259419323
119	0xbffc7376bd031edf	-1.778189409569613
120	0xbff5781314a5c783	-1.3418150717302246
121	0xbfb82cf21db98c2e	-0.09443581796362885
122	0x3faa5bc796c5c0d5	0.05148147311672494
123	0x3ff42acefb76ce13	1.2604512999358846
124	0x401b6eae6f069e65	6.858087286738372
125	0xbfb086c15116f35f	-0.0645562003109723
126	0xbffa1b0e8aaa0501	-1.631605664879601
127	0x3ffa52bcc71979d8	1.6451995637249777
128	0xbfb36d17342cd0ba	-0.07588334106259512
129	0xbfbba24370dc289b	-0.10794469361659013
130	0x3ffc2306c5c9ef6c	1.7585513807416318
131	0x3ff39d1369b51f05	1.225848591728153
132	0x3ffe4c1ac1b61276	1.8935802046627521
133	0x3ff17b4f0e5fa24c	1.0926046906917177
134	0xbfaf996c8b018c3c	-0.06171740719653271
135	0x3f72b60a92ee839f	0.004568139366626505
136	0xc008ae6e04af8190	-3.0851707807598316
137	0xbfc987ff3ccd20d7	-0.19946279972851386
138	0xc0030b78fb944032	-2.3806018499963324
139	0x3fb1c6c868f69408	0.06943943560197863
140	0x400427ac2093de83	2.5193712754369826
141	0xbfeeb7b1cda1f1af	-0.9599236503850558
142	0x3ff45d255f8190cf	1.2727407198627139
143	0xbfc82fd7b1acedbf	-0.18896003890573174
144	0x3f8b791f0216c5b7	0.013414613963365392
145	0x3febc2266d9af498	0.8674499645927822
146	0x4006e1d550621e56	2.860270145410861
147	0x3fa0e7788f0976ec	0.03301598306710027
148	0x3fe38e46d2c3ffdc	0.6111177555576393
149	0xc00ae9e5419f5e94	-3.364206803012914
150	0x3ff245942808dfa6	1.1419869960645683
151	0x4005b289b3c2afc5	2.712176708582748
152	0x40002339755cec4c	2.0171994370444164
153	0x3fb88a7da76ef531	0.09586320245485493
154	0x3f8ae10c64de717f	0.013124558285021902
155	0xc00f355c4aaafdfa	-3.901054938643708
156	0x3ff0e39b47128ca0	1.0555680061595822
157	0x3ffa615fa0a54a2c	1.6487728381367885
158	0x4002495f6c6be217	2.285826537172635
159	0x3feaaae9503ca7f4	0.8333632056358042
160	0xbfa0a8e58dad25d2	-0.032538579506375634
161	0xbfb81ac3a45c147e	-0.09415838968932808
162	0x400217d4f821dd22	2.2616366753897106
163	0x3ff2df09e4d9a3ba	1.179452794977108
164	0x40013f71c549c4b7	2.155978719056829
165	0x3ff399754e57f308	1.2249653873724942
166	0x3fcabf2ef486eb57	0.2089594549159652
167	0x3fb4670dd24c78f0	0.079697479097806
168	0xc00681510b121ae3	-2.81314285897257
169	0xbfd599d3d4d6ac2f	-0.3375138834478006
170	0xc00241c22f27c9ac	-2.2821086582200305
171	0xbfc80a5bf62d92d2	-0.18781613846217354
172	0x40031d410fb648c1	2.38928425097501
173	0xbfe8171afc451c65	-0.752820484843039
174	0x3ff1c1a41b425a1e	1.1097756447612777
175	0xbfbbc93eeaf42ad0	-0.108539516793978
176	0x3fb3e30767a8a89f	0.0776829364846514
177	0x3fefa903ad5531de	0.9893816361814591
178	0x4004ac128a16095f	2.5840197360968626
179	0x3f92d0815b2967b0	0.018373509587355563
180	0x3fef1a769fe59dcc	0.9719803927409258
181	0xc0072779f10f0ae0	-2.894275553962288
182	0x3ff24699304e03cd	1.14223593586961
183	0x4006ecc44d666411	2.865608792006704
184	0x4003a839f798db9b	2.4571418136142262
185	0x3fc26fa3e0dc817e	0.1440319869952979
186	0xbfbb5104bcc455c6	-0.1067049942833683
187	0xc00c28ac9783bd9c	-3.5198604428366718
188	0x3ff8de1089c963f2	1.5542149908344496
189	0x3ff8e4f6a6b125c9	1.5558992873578623
190	0x4005b6be9d750f0a	2.714230756888246
191	0x3fea8f05f3ded6da	0.8299588931174313
192	0x3fb97d352d2ec4ea	0.0995667681989009
193	0xbfc11bee15252f2d	-0.13366485626681293
194	0xbfa9fc52d3a64c48	-0.05075320085156726
195	0xbfd0d01cf7d83212	-0.26270221904340574
196	0x3fbaf72965d27c43	0.10533388839620365
197	0xbfc4b86cc75d079a	-0.16187820181408769
198	0xbfbdabea428f9509	-0.11590446591397464
199	0xbfa67e7e66e369ee	-0.043933820781336994
200	0xbf7ff625f51087cc	-0.007803104658735859
201	0xbfa9847b35c1ca47	-0.0498388770219163
202	0x3f89c17bda8490a1	0.012576072317252164
203	0xbfb19199aae1e54a	-0.06862793371137346
204	0x3fa873ec0abfd471	0.04775941497056458
205	0xbfc020d05dde9bde	-0.12600140174364943
206	0xbfd210c46974ccd5	-0.2822733907552906
207	0x3fc9dda74a5bee22	0.2020768273431353
208	0x3fbf89effb947730	0.12319850818718403
209	0xbfd17a65e112d086	-0.27309557895501546
210	0xbfaa7e29b0ca7f08	-0.051743796187336655
211	0x3fb142ea51cd050e	0.06742729661074895
212	0xbfb267d6fb58315a	-0.07189696918812186
213	0x3fb5f5301fab5802	0.08577252171684793
214	0xbfc7d90199c083e0	-0.1863100052587745
215	0x3fbd04b54ccff926	0.11335309148123382
216	0x3fae679783c8bc8d	0.059384093129090855
217	0x3fb7a4c68f9398cb	0.09235802655493612
218	0xbfc7976043c2f620	-0.1843071299426109
219	0xbfb2445cbd4e633b	-0.07135562535985411
220	0x3fa67d8a3348375d	0.04392654300691732
221	0xbfc4e99b5ec91b33	-0.1633791172809765
222	0xbfc44f215dc52e53	-0.15866486624359996
223	0xbfbc9d3e53550d02	-0.11177434477308526
224	0xbfc1027b135131a5	-0.1328882068941201
225	0xbf94bf976ce3b628	-0.020262113591277636
226	0x3f96f91c09ce0047	0.022434652422362224
227	0x3fb7fc5a74fa7d69	0.09369435649795367
228	0x3fbba7b626a34e48	0.10802782481487683
229	0x3fc05ad0e1e11e19	0.12777148274675268
230	0xbfb136ad8ba49afa	-0.06724056872608833
231	0xbfc09116dc0a4cf9	-0.12942777389671514
232	0xbfcb09d0a4d96906	-0.21123703049926962
233	0x3fa6fed307f7a2a6	0.044912905428480074
234	0xbfaeb0dd3b619a5b	-0.05994311666363635
235	0x3fca4ff2718d1672	0.20556479019630874
236	0xbfc78b457c890d6c	-0.18393772679165055
237	0x3f961d40141a0a83	0.0215959560650938
238	0x3fb55b498a17e98b	0.08342418309613302
239	0x3faa515b80affa62	0.05140195794955528
240	0x3f983891564bc166	0.023653288738331744
241	0xbfc22b43c33df192	-0.14194533379840074
242	0x3fb7e70ba693eeb6	0.09336922470896067
243	0x3fcded08a425ceea	0.23379619612716535
244	0xbfb2b1e29f2e4437	-0.07302681337593318
245	0x3fc84c81a278569f	0.1898347895918748
246	0xbfc23bd97d605ead	-0.14245146390816413
247	0xbfaff522d223e730	-0.062417114402661844
248	0xbfc81d30cde87d5f	-0.1883908276949837
249	0x3fc467403aa54aa6	0.15940096725042457
250	0xbfa8db1d2abbb5d5	-0.04854670664449726
251	0x3fc415370395c977	0.15689742732099507
252	0x3fcb11873720dd43	0.21147241775336498
253	0xbfc843099d6ead89	-0.18954582392812494
254	0x3fc5ae8877dcc8fa	0.1693888268724278
255	0xbfa9834b5b8dd1f4	-0.04982982151605944

linear.weight f8 [1, 64]
0	0x4003e049f9317843	2.484516093084524
1	0x3f80312dfe97698e	0.007906302768721198
2	0x400bf8eaf915aa33	3.4965419254051766
3	0x4001949fa4403bec	2.1975701171972926
4	0x4008308dbf6e3179	3.0237078624251663
5	0x4006fd7d929572db	2.873774666963397
6	0xbfa50cb4965f52c1	-0.04111255965805106
7	0xbf9e88a5e38d5a79	-0.029818145765001056
8	0x4002428cd855ce34	2.282495203131271
9	0x400a8c5f23c2ad3d	3.318540839556276
10	0x4013e60b4ce6dc17	4.974652482595977
11	0x400accaaed01d355	3.349935390108309
12	0x3f9310314925b1b3	0.0186164570708784
13	0x4007d6bee4082530	2.979856282709669
14	0xc00f2ba93efc2f5d	-3.896318904944492
15	0x4007e3e4c71736a2	2.986276202579419
16	0x3fc0c69bcddeb034	0.13106105377426192
17	0x3fc4dcb5900ffbdb	0.16298551115320845
18	0x40049ae44849e6ba	2.5756307265808944
19	0x3f8fdce0c3deb59f	0.015558010079838534
20	0x3fb0c9f03c3dc3d3	0.0655813357423221
21	0x3fb73e683ba5df1e	0.09079600769279891
22	0xc01991136e968506	-6.391675689637173
23	0xbfabc6f39df9b5b3	-0.05425225547228809
24	0x4006ef20978daa73	2.866761383066938
25	0x400a70c9833a73a1	3.305071854802421
26	0x3f915fc4bb54f250	0.016966890271975565
27	0x400d48446428d447	3.6602866959533773
28	0xc00eb5e87e5a5893	-3.838822352535382
29	0x400a1a2c7478fda0	3.2627801036284865
30	0x4007da0bcf62aabe	2.981467838476731
31	0x400786d117303439	2.9408284961305324
32	0x3fa8186b108cdc10	0.04706129624394617
33	0xbfc383c88bbc850b	-0.15245920966211943
34	0x400a9483da88ac80	3.3225171158752005
35	0x400180aa43c85242	2.187824754286596
36	0x3f993a748d130ed1	0.024637051687718185
37	0xc0176b887c8642b6	-5.855012841887108
38	0x400b65f0da52dc30	3.4247757965599916
39	0x40052a623724a621	2.645695143514573
40	0xc00ecbe309eb3412	-3.8495541357901937
41	0x4008bb05485d0a5b	3.0913186696428006
42	0x3fb1aeb3354d08fe	0.06907196093837695
43	0x4011b23470bef6d4	4.424028169303444
44	0x4008d27282a545d9	3.102757473629691
45	0x400313f6a146283a	2.3847477530989893
46	0xc010836eeb79edc1	-4.128352813069285
47	0x400a56562e9401fe	3.2921565665167227
48	0x400320bd84a95450	2.390986477296373
49	0xbf7ef8e3447ccbdb	-0.007561576617990585
50	0x3fa26fd8b90a3370	0.036009571636077875
51	0xbf922e670082964e	-0.01775513592351379
52	0xc00fb5cb696478d8	-3.963766883257545
53	0x40089c0ca90bc6b2	3.076196022674446
54	0x400a2b1cf015de77	3.2710512882875338
55	0x3fa1cc0eb988d3f7	0.03475996031594513
56	0x400b1652794b294c	3.385899493795625
57	0xbfbc7f316bb27323	-0.11131581191370947
58	0x40003303ce3cbac6	2.024909602382965
59	0x400acda4116a9d35	3.35041059118853
60	0x400a6fa9fc95f197	3.304523442579192
61	0xbf87c18ee9ac10cd	-0.01159965181933167
62	0x40047cf3beb6324d	2.5610117816307025
63	0x3f9a8353546aa0a9	0.025891592051863786

linear.bias f8 [1]
0	0xc00742ab75e45a58	-2.907553597480085
