src/meta_layer20T.pth (torch, 93213 bytes, 88 tensors)

layer_1.edge_model.edge_mlp.0.weight f8 [16, 6]
00000000: 8517 12b5 6ca7 aabf adaa b2bc c08e d0bf
00000010: 3376 7127 1867 debf 1a07 61fc 2b71 aa3f
00000020: 34a3 ba9c b91f d13f 54c2 4d43 2153 bbbf
00000030: 03e6 a537 9638 cdbf 4d65 b5d6 8fff d23f
00000040: c1fd ab85 5158 d53f 18b0 3bea 4cce d33f
00000050: db8f 5bec d224 a7bf 3a02 f17c b6b8 c4bf
00000060: d25b 2edb 6a1d e2bf 44e2 73c8 a483 d3bf
00000070: 8392 a33f e156 d43f a14c bc5b 03b3 c93f
00000080: 61ce d37f de1c d83f 5b29 9a0c d7fa d2bf
00000090: fb5c be90 e7ef 703f e93d 49b6 373c d2bf
000000a0: 7f39 8316 67c4 d7bf 7f2c 8b30 f3b8 d33f
000000b0: 8873 445f 246f c53f 85c0 b205 f4d7 aa3f
000000c0: 1105 eb20 d2c1 c83f 0374 529e c9e1 d43f
000000d0: 1231 391b 5669 c33f 121f 2e47 71b3 dc3f
000000e0: c3b2 6805 c41d d43f fc86 4fa8 ed8a d53f
000000f0: 8e2f 4943 501c a43f 52ab 8448 54cb d23f
00000100: 80e3 cecf 134a 553f 2640 be0e d6c8 ca3f
00000110: c491 0c1f c9ec c43f af47 d01b 582e bcbf
00000120: e28e 1a4c 5eec 483f 26e4 cc4d b485 b3bf
00000130: 4cf9 79b2 76fb a4bf 8c46 ccac 5c35 c8bf
00000140: 8e92 877d a5cf a1bf 64b6 1734 00a1 8b3f
00000150: 325c b348 8900 e0bf e709 805a 4cc4 c63f
00000160: 27d0 1fa9 4841 d7bf d59f a2b2 0ecb cabf
00000170: 8a19 39ff cbd7 ddbf 8240 2476 13e0 c43f
00000180: 9c3b 4009 9caa d3bf 1f79 9c26 b9dd bfbf
00000190: c91f 348b 0029 c8bf a62a 092f 4e28 b13f
000001a0: 55ee b564 9424 c4bf 9fa7 8d5c 565f 873f
000001b0: fbfb e667 4b07 e1bf 82cf 59e3 4d3a c63f
000001c0: f8f9 a057 d39b d03f 5f42 cb46 8a79 cb3f
000001d0: 2522 5659 1185 d93f 360c f054 2609 da3f
000001e0: cfd1 ef34 69f7 c33f 0af8 7534 3bd0 963f
000001f0: 7283 5d32 1526 ca3f fba6 22ee 0ef0 d33f
00000200: 0c4d 217c 643f cb3f fcb8 474e 8608 c03f
00000210: 0a0e 4bb8 97de cc3f 877e e51f 8973 d33f
00000220: 253a 7aa3 8ce4 c1bf 41db d847 6b34 cebf
00000230: 9246 bdc3 8c79 c2bf 1792 d9e8 ad9e ce3f
00000240: 514c b852 598c c6bf 0a72 a11d 0eb4 d7bf
00000250: 8b4e 0e6c d67f ca3f dba8 2776 f69a d03f
00000260: 1e2a 14e3 a90f d5bf 23be f4e6 7eda be3f
00000270: 88a8 4d72 9258 debf ab2e 8298 fb41 b9bf
00000280: 4342 b7aa f2e2 d53f 6dea 45f8 a68c d73f
00000290: 1c24 8015 d3ce d23f 20f5 73f2 4cdc d83f
000002a0: e2f2 9ea5 fc72 be3f bc44 f24f 80cf c9bf
000002b0: db6d 074c 5440 ccbf 4c8a f7ad f364 c1bf
000002c0: 0940 28dd 8883 d0bf 0ddd 28d3 bc42 c1bf
000002d0: 74f4 fe7f b31f b1bf decf d4e7 5906 e4bf
000002e0: ef99 6afb 0389 62bf 4171 c12d 243c d9bf
000002f0: 295f 4a1d aa21 d8bf 95d9 fe93 cd90 c6bf
-0.0520585986169371 -0.2587129442933172 -0.47504237987400016 0.05164468246267813 0.26756134324618874 -0.1067372121158397 -0.228289391681571 0.2968482586635062
0.3335155301465101 0.30946658014613737 -0.045202819206479915 -0.16188698864609014 -0.566090992057861 -0.30490989280182057 0.31780272688619265 0.2007755468299353
0.37676203234807387 -0.29656006079371416 0.004135040809976727 -0.2849253921640114 -0.3713624687051364 0.30816344967451664 0.1674542870686333 0.05242884225424497
0.19341494185759037 0.3262809797395791 0.15165211037891219 0.44845230055987984 0.31431675461025693 0.3366045135172582 0.03927851506577361 0.2936602314172677
0.0012993997072341112 0.20925403327828568 0.1634761239630632 -0.11008215598147218 0.0007605991779268929 -0.0762589158956791 -0.04098101547878005 -0.1891284793605802
-0.034787341664729174 0.013490678395977791 -0.5000654621061413 0.17786554736092272 -0.3633596088031958 -0.2093218204729498 -0.46629619526029187 0.16308825749047534
-0.30728817847642076 -0.12447697823197189 -0.18875128552485723 0.0670212616761697 -0.15736632268441278 0.011412310313705208 -0.5321404485074476 0.17365430451502212
0.2595108371496333 0.21464661080109956 0.39874681209815527 0.40680845541664057 0.15598788342289402 0.022278714253381827 0.20428719481699492 0.3115269971409444
0.2128720861534038 0.12526015112184286 0.225542988764673 0.30392673601998194 -0.1397872732381568 -0.23597470291289294 -0.14433440740190356 0.23921750898001967
-0.1761581090837319 -0.37036469358079727 0.20702629352728183 0.25945817507330354 -0.3290810315672007 0.12052147997450695 -0.4741560093158417 -0.09866306756355907
0.341976801600172 0.3679597305814813 0.29387356853163893 0.3884460799889258 0.11894206088522766 -0.20164493468886302 -0.2207131739840936 -0.13589330667953659
-0.25802823636422595 -0.1348491698315474 -0.06688997149372417 -0.6257752922015205 -0.0022625997329044282 -0.39429573505710286 -0.37705471859361467 -0.17629403807013647

layer_1.edge_model.edge_mlp.0.bias f8 [16]
00000000: efc6 f9f9 a130 b8bf 534c 3f0d ab86 a93f
00000010: 05e0 4c68 ed25 d93f a6e6 5507 bc1f c23f
00000020: 7aa0 d897 b068 b3bf 8723 150b a99a c63f
00000030: af31 86d7 b1b0 bfbf 1e0c 05a0 b5ed ca3f
00000040: 1372 df92 1710 ba3f 2d06 524a 4138 c0bf
00000050: b035 8304 ae55 b7bf 6a3c 5eee 6da9 c63f
00000060: 6051 08ae 37a7 a43f 5932 cda7 137d ac3f
00000070: fe3a af8d c504 cdbf e01e cb09 6a6c dcbf
-0.09449207642481004 0.04985556160649964 0.39293990312171473 0.1415934596841925 -0.07581618983442864 0.17659485856190946 -0.12378989707776243 0.2103793174120207
0.1018080457283264 -0.12671676758695707 -0.09115111932916053 0.17704557551448669 0.0403382682744986 0.055641760095203004 -0.22670812051952532 -0.4441170783652364

layer_1.edge_model.edge_mlp.2.weight f8 [16, 16]
00000000: 22d0 988c a705 d0bf bf4f b2af cd2f 903f
00000010: 7fe7 d688 99e7 c1bf d548 12fe d31f c53f
00000020: 4aca 8dc8 81b8 933f 094b 8ef3 6de6 a8bf
00000030: 07ce 66e4 23a9 b23f be36 7ee0 dbb6 c9bf
00000040: 7b22 7267 b5c9 b9bf 5f96 911b f028 a1bf
00000050: ee8d 806b 985f bd3f fedc d9bf 1f8a ce3f
00000060: 2099 7743 8104 b2bf 55b2 158b e99c 9f3f
00000070: 6dfe 4b70 4292 c63f 011c c894 630b 913f
00000080: e4f1 787b 84f3 c0bf 6f44 233d 79c9 bdbf
00000090: 1b90 e4e5 7128 b33f ea74 450a 2083 d2bf
000000a0: 6582 aad2 9285 bf3f a306 e3f1 cdba 8abf
000000b0: 9200 a0e0 5b54 ce3f dd6c de82 6635 97bf
000000c0: 9dbb 4859 aea5 d1bf 9b51 de7c 5f62 d0bf
000000d0: f6d6 5765 2e47 babf a70e ef19 436b d2bf
000000e0: 26f2 4676 c323 9e3f c873 7bac b8ae c03f
000000f0: f980 a84c 83b8 c5bf 2eba a1c0 af1f 91bf
00000100: a7c6 5d45 af7a a33f 0edc a518 b92e a13f
00000110: e261 5dc4 d034 b13f 26c2 bd98 0532 d33f
00000120: 9164 6b88 a584 d63f 49ba bb58 983e ca3f
00000130: 256c 9bdb aba5 a1bf d3fe 8d47 cc91 9c3f
00000140: d442 943b 87b9 bcbf b99d 40e7 2070 cc3f
00000150: 9dfa 342d 8d8f d53f a9f2 95d4 8a90 d13f
00000160: 6b48 4f00 e11b a4bf 86fc e5b3 2f9e d33f
00000170: 405f 1d8a de4a bcbf 9bff 57ac eabe d63f
00000180: 3d51 e332 817d 86bf 7dd3 2a9c cbe2 bfbf
00000190: 2513 6e79 6156 aa3f 089a e66e 28a1 e0bf
000001a0: f674 54bb 831f c1bf b52e cd75 c25d e2bf
000001b0: b29c 21ef b8c4 a63f 4649 6522 8961 c8bf
000001c0: b4ec b077 a882 a33f 3859 3c5b 3619 d2bf
000001d0: b27f 9963 1466 bfbf 3594 e738 8882 cdbf
000001e0: 9520 466a 0242 abbf 5183 2d9a c005 ddbf
000001f0: ddaf ff77 f1db b33f d4db c795 cc22 ca3f
00000200: 1ed1 d0fe 9309 ccbf cbea c805 544f 453f
00000210: 6dc1 d076 4112 ba3f dc38 47ef 2463 9e3f
00000220: 8b27 ea29 97d2 cabf 6ae2 6d00 52f8 b63f
00000230: 4747 a243 3d9a b2bf 9b7c 9eed b791 b83f
00000240: 17f2 94a0 bec2 b13f 0dee d757 442c b5bf
00000250: 2ddb a6e6 1a00 b2bf ac56 fb8f 1dde 9abf
00000260: 3247 0627 cd00 c53f 4705 b972 42c0 c5bf
00000270: bb10 2fd0 dfdd a43f 8fe1 daa1 fa64 b53f
00000280: bf8d 4a66 2df1 c0bf f32f 9d0c 7ea6 cabf
00000290: 669d 254a 82b0 c6bf 3879 00a9 f779 c03f
000002a0: b493 502c 0de7 c6bf 0635 7d50 d8bc 98bf
000002b0: 46e9 bfe4 c985 903f 660f 91ac 6978 953f
000002c0: e02d 8bc1 48eb c73f 7599 7449 da14 bbbf
000002d0: ca89 c082 7a94 9ebf c0c2 67ff f8ec 943f
000002e0: 33c5 4082 13d3 c23f 37fb aa67 d0f6 b03f
000002f0: 4e99 9150 a026 c1bf 49e9 67f6 269c c5bf
00000300: c652 e9e8 9e95 acbf 5333 0371 3959 a83f
00000310: 0ba1 924f bd80 883f 2e5f 1960 e38f d0bf
00000320: 84d1 1adc 9e7d b3bf 614a c438 b00d cdbf
00000330: 328e e1df 9b79 a53f 29f5 83b8 dba8 afbf
00000340: 773d 177a 9218 c6bf cf12 4137 b409 81bf
00000350: e9d5 a635 be70 bebf 84c0 70fa d532 7dbf
00000360: 4ced 3577 d7ff acbf cce8 b3ae 3eff b13f
00000370: ba08 3a1b 8cbe c03f 3cbd b016 be5c c43f
00000380: e46f b1e8 b388 c4bf 94fd 2510 1d86 c73f
00000390: 7621 9542 c807 cbbf c9bb cc55 e75b 97bf
000003a0: 8f85 b4e7 55c8 c2bf 2e44 2cfc 1cc7 933f
000003b0: 2ff2 fdc0 3735 c7bf 923c ca74 0953 c93f
000003c0: 5655 e26f 9fcb c3bf 5165 f253 dde8 c4bf
000003d0: 1348 1967 5563 b73f a4e2 5a16 1565 cbbf
000003e0: 0e0e fcf6 3a30 c7bf 4200 85b3 cae2 aa3f
000003f0: ac58 b86e 7aa3 c8bf 798c 5755 f6c4 793f
00000400: 74ab 44c4 8143 a6bf 1cf7 3634 a27d 063f
00000410: 882d af49 6a8b c13f 0988 1d6e 01e8 a7bf
00000420: 1623 48e7 57d0 d33f 894c bf3d 3607 b43f
00000430: 13c5 e52e 991f c33f fce1 544e 9d7f c63f
00000440: 287f 0462 f7a2 c43f 4d6e 48fb 8054 bbbf
00000450: cfdf 1cec 3765 b53f 2056 ec82 89dd c1bf
00000460: 96b6 583e a60c ca3f fb9c a8ce 2c5d c23f
00000470: d4ed 93fd f62f c9bf ab89 1995 48f2 9d3f
00000480: db6a 6af8 ddc7 b5bf b0d5 1a82 bd22 99bf
00000490: eefc 57a1 9c26 b13f bafe c5ec b033 cb3f
000004a0: 91f0 ba01 5b1c a73f 7e45 57a5 8f13 be3f
000004b0: 0a34 17f1 8e76 b93f 4a17 9afa 945d 8f3f
000004c0: f61e 7884 f5cc c5bf 6062 1fb8 d9e3 c13f
000004d0: 5bb4 f040 85f8 ac3f 75a4 a3b5 6412 933f
000004e0: 4f93 b123 252b b2bf 5d50 03e5 b28f 913f
000004f0: a848 dc15 2252 933f e64b 9c74 9bad ce3f
00000500: 2960 be72 4856 c13f d923 9ff8 f1ff d43f
00000510: b713 058a a3f1 d03f 1706 a690 1b2d 973f
00000520: b8a1 ec2b ce52 b13f f8c6 e76f 9902 c03f
00000530: caca b6de f6de a33f dd19 9a73 26e7 c2bf
00000540: 4610 e70c 50e3 983f d7d9 b866 24f2 c53f
00000550: 17ca dc2c 45ea 83bf 0001 95f1 a88e cc3f
00000560: 1a21 4e4b f04d c13f c0f2 92bd 36cb c63f
00000570: 351a b21a 2070 bfbf b7af 6b4a d25c bf3f
00000580: 4f3e c467 afca c63f e6bb f0fc f4a7 b3bf
00000590: 30e2 8447 cd91 c5bf 6667 24fa f112 b93f
000005a0: 664b ce71 5687 ccbf a298 1a96 5870 bebf
000005b0: 3c32 423e f18f c6bf 5719 24a5 8c78 c7bf
000005c0: ecc1 1b40 7b90 c2bf 7bc7 c7e2 5cc1 c3bf
000005d0: 9560 db5c 6a5d bd3f 9aa2 a05f 00a6 cabf
000005e0: 5cc8 0e6f 0371 c6bf 4f25 b636 bd52 cdbf
000005f0: 5093 0fbd fa48 c73f a9ea 9751 99ce b4bf
00000600: 7925 2307 5a49 bfbf 4348 c5c9 6906 c9bf
00000610: 4e06 365b 2eb1 c3bf 12fe fe39 d807 90bf
00000620: ce03 8d3c f9e1 bc3f e96e 0c87 c831 ccbf
00000630: a890 f1d1 8465 c8bf 0d09 7e00 864f cdbf
00000640: ecd5 07e1 bb9f cbbf 7b2c 7b0f 12f6 c1bf
00000650: ea46 a2c4 7727 c4bf 24e0 f3b8 eafb 71bf
00000660: b68a 6ddb 8059 7b3f ffde 14aa b01a c3bf
00000670: f32c eb70 66ab ad3f c71e ae78 729f babf
00000680: 32e4 fcee 37fe c83f ef52 ff70 8f6f cbbf
00000690: 6021 dadd af07 b73f e61f 5241 63b1 a43f
000006a0: aaa3 d03b ad65 cbbf 3822 ff0f 0ec1 c63f
000006b0: c57d a812 de54 c33f f462 c52e 4ef6 c6bf
000006c0: 5b5f bf40 93d7 c4bf fbad 4f4d 512a c33f
000006d0: 1c52 ef05 093b b73f 4f3b 09fa 5a0b b73f
000006e0: 5122 0f03 7b90 c2bf c477 fcb3 984f 75bf
000006f0: ad1c 252f 0746 b33f a9f1 493b 7aeb 7abf
00000700: 44f8 3000 623b ac3f ec3f 020a 5d7f b8bf
00000710: 8c3f 360f cb0b c7bf cd82 c4fd 66cd b73f
00000720: fce3 4bc9 7612 c1bf 5c94 da3e ebf2 b8bf
00000730: fc16 950b 010b b2bf 32c8 0da5 9f87 91bf
00000740: a8b3 74dc c157 b2bf 08c0 6846 9297 c2bf
00000750: d601 6aa2 fa73 9e3f 3ea1 cc01 c1d8 c2bf
00000760: 2eba 9484 9448 a53f bee5 09f3 714e a5bf
00000770: 4979 734a ef11 b23f 52e2 02f7 08d7 c93f
00000780: bec4 3077 765f aabf ec5c 6d91 1107 b3bf
00000790: a3a5 3ad8 785c bdbf a2ed b8e7 fadb a6bf
000007a0: fecc 5ea7 6779 d13f e96b bb8e e67a b5bf
000007b0: 3821 bae1 3c90 b5bf 5652 817c 7a53 a73f
000007c0: 59b5 9ab9 da2d cf3f e4de b02c 32b8 ca3f
000007d0: d3bc 06c2 f8a7 d53f 1e4f 4ddb 56eb ce3f
000007e0: 0041 9336 d8bc ca3f d71b 72a4 da8c c53f
000007f0: f8b0 2f4c d5cd 863f 4e97 3723 4988 b33f
-0.25034512262505093 0.015807355736413117 -0.13988036328901995 0.1650338163931965 0.019258525720440546 -0.048633037548958376 0.07289337469301681 -0.2008929105908716
-0.10073407912762804 -0.033515456548042215 0.11473991989674179 0.2385902106068229 -0.07038123986385303 0.03087201033979377 0.17633848651165654 0.01664500804511349
-0.1324315646069315 -0.11635549299832502 0.07483589041345377 -0.289253244429189 0.12313192027296223 -0.013051613754558494 0.23694942920701983 -0.022664643991089462
-0.27573736876632343 -0.2560042113703049 -0.10264863943288191 -0.2877967599162993 0.02943330201536489 0.13033207342132713 -0.1696933864886956 -0.016722437031086716
0.038045384614531934 0.033559593447471156 0.0672121505171002 0.29992809215676386 0.3518461067411148 0.20503525097542966 -0.03446709686041797 0.027899925105429112
-0.11220593647545779 0.222171891132559 0.3368866864656555 0.2744471622498091 -0.03927519921093466 0.30652992790414435 -0.1105174147791077 0.35540263014262913
-0.010981568685033078 -0.12455437243154495 0.051440282891269264 -0.5196726003676426 -0.13377424857109305 -0.5739452648935727 0.04446962279399126 -0.1904765527675158
0.03810621701310293 -0.2827888384794224 -0.12265136176711058 -0.23054602411790062 -0.05323798701562158 -0.45347609573768916 0.0775748174634709 0.20418698609839103
-0.2190423006264916 0.0006503258005701949 0.10184106016891344 0.029675080398924844 -0.20955171152700944 0.08972656736831089 -0.0726660051462008 0.09597348738906179
0.0693778173490006 -0.08270671028724781 -0.07031410342356699 -0.026237928307486655 0.16408695607656792 -0.16992979623504764 0.04075526634508849 0.08357206775224867
-0.13236014837921847 -0.20820594421309088 -0.17726162548499785 0.1287221503452629 -0.17892613090330445 -0.024157886421837048 0.016135363184710337 0.02096715083850089
0.1868678040540166 -0.1057869366964946 -0.029863275747752195 0.02043522890920957 0.14706653461466032 0.06626608401255117 -0.13399127897282387 -0.1688278868821931
-0.05582901566655134 0.04755572800204413 0.01196430110060522 -0.2587822378604753 -0.07613556741381983 -0.22698023578466844 0.041943427161438854 -0.061835161470279516
-0.17262488328422496 -0.008319290100311431 -0.11890782174926752 -0.007128558972041902 -0.056639416982728535 0.07030097737507218 0.13081504182270526 0.1590802775185497
-0.1604218374440044 0.18378032005783196 -0.2111749959096973 -0.022811522113609848 -0.14673875631073627 0.01931424416676835 -0.1813115780204426 0.19784658625255652
-0.15465157473651442 -0.1633564624687929 0.09135946051654313 -0.2140222891955733 -0.18115937289995582 0.05251153413200928 -0.1924889603257659 0.00629135345431841
-0.04348378678181222 4.2897713253149515e-05 0.13706711385598802 -0.04669193715268711 0.30959127031432965 0.07823504455091003 0.14940180578154436 0.1757694847563157
0.16122333799375466 -0.10675817618214829 0.08357572092506803 -0.13957327740415426 0.20351102871193366 0.14346847620729605 -0.1967762697384915 0.0292445508006353
-0.08508097948871855 -0.024546586099594314 0.06699541987471822 0.2125149875755506 0.04513821025963794 0.11748597895281951 0.09946530710222148 0.015315212152255637
-0.17031735389922859 0.13976594438897205 0.0565835611126679 0.018624852739695236 -0.07097084161212062 0.017149729945984727 0.01886800058770946 0.23967307275651634
0.13544564821927566 0.32812165526826004 0.2647484634256289 0.02263300962795797 0.0676697594868817 0.12507932628755447 0.03881045788457056 -0.1476791443312341
0.024304629123222087 0.17145209327436703 -0.009724178725808703 0.2231036357498013 0.1351909988118301 0.17807659393829134 -0.12280464793921271 0.12251009289656066
0.17806046072699863 -0.07678157019903117 -0.16851202003614807 0.09794533116328594 -0.2228801780407494 -0.1189017645325259 -0.1762677721020668 -0.18336637557531318
-0.14503422384542775 -0.1543384654356109 0.11470665709510038 -0.20819096249876595 -0.17532389567128603 -0.22908749743900578 0.18191465598570256 -0.08127744905497515
-0.12221300768137223 -0.19550821640092594 -0.1538446374288917 -0.01565492490749249 0.11282308319370246 -0.22026926607292488 -0.19059810877945904 -0.22898936294593178
-0.21581219184706357 -0.14032197719493297 -0.157454463017124 -0.004390637287762931 0.006677153919414527 -0.14925201706659405 0.05794830444718881 -0.10399547048848055
0.19525813264206843 -0.21434205071877652 0.08996104399023386 0.040415860866289496 -0.21404042645124594 0.17776656895718346 0.1510274497131673 -0.1793916443227982
-0.16282883321286587 0.1497289302345591 0.09074455637830464 0.09001701931377436 -0.14503419541712728 -0.005202862259265421 0.07528729344368186 -0.0065722250625381085
0.055140554927206625 -0.09569341177325413 -0.18004739992875007 0.0929779405164581 -0.13337597683837987 -0.09745664867894405 -0.07048040898106572 -0.017118925522886914
-0.0716515696737604 -0.1452505916399789 0.029739299929589645 -0.14723980510576412 0.04156936758441919 -0.041614113729291344 0.07058616225865423 0.20187484799477545
-0.05150957303011115 -0.07432660866230706 -0.11469226149588123 -0.04464706495897565 0.27303496689565054 -0.08390656456633362 -0.08423214445986538 0.04555876512373362
0.24358686506949814 0.20874621565030005 0.3383771796024579 0.24155698497872263 0.20888807930760578 0.1683610251386358 0.011134783160706693 0.07629830465120088

layer_1.edge_model.edge_mlp.2.bias f8 [16]
00000000: 8b49 60c0 5cf2 c63f 6cdd c1aa 7d48 d2bf
00000010: 2259 0bc1 d3bc b53f 23a0 69b0 cd2c e0bf
00000020: 42b8 294e ccb7 b73f 93da 88a2 604f b03f
00000030: be0b 1d2b 46e7 b23f 685e b4bf 1031 8a3f
00000040: 3434 7979 77a5 a33f e05e d46e 1bf9 afbf
00000050: 0eac 2790 711b 853f 51f0 6bfd 4f01 c73f
00000060: 5298 4fae fd04 c8bf 9c0d 9fc6 258b b7bf
00000070: 0217 b791 29f6 99bf 5eb6 a048 7c8d d23f
0.17927131074300137 -0.2856744926025019 0.08491252387043294 -0.5054691739615048 0.09264828594470578 0.06371120422486802 0.07384146263670652 0.012788897371634536
0.03837178571539149 -0.06244741180324609 0.01030625077415517 0.17972755312064462 -0.1876523114326028 -0.09196697329666964 -0.025353097456693348 0.28988558857495217

layer_1.edge_model.edge_mlp.4.weight f8 [1, 16]
00000000: a84e 4d53 4321 a33f 29e5 a83b a974 9c3f
00000010: 6441 18dd 1016 d43f dd74 4dd6 d563 cb3f
00000020: 8b01 23fe 978d cd3f 96d3 5a76 0637 abbf
00000030: f7b5 69fc 8a8d b4bf fbda f27b 2d82 a23f
00000040: a37f 4f67 eb32 c33f 1229 aa8a 81fc c73f
00000050: eacf 5d3f 4749 d23f 5428 9583 3410 c63f
00000060: 6666 6f68 a9ce b73f 1385 d5fd fd11 c4bf
00000070: 9e0f fc56 46a2 923f ddaa 44f1 3508 c63f
0.037363151472758205 0.027788776651708567 0.31384679404529536 0.21398423160545735 0.23088359745998974 -0.053154184291464165 -0.08028477346825712 0.03614942682309238
0.1499914411970141 0.18739337225662972 0.2857225531399751 0.17236954140600125 0.09299715804754669 -0.15679907697907733 0.018197154101485695 0.17212557106662177

layer_1.edge_model.edge_mlp.4.bias f8 [1]
00000000: 7dfe c7bd adec d23f
0.29569572003672545

layer_1.node_model.node_mlp_1.0.weight f8 [16, 3]
00000000: 97dc 337e 8a36 d0bf 9ab1 2f36 2119 e53f
00000010: 5363 7c6f 020d dabf b5c0 f5a5 43b1 e3bf
00000020: f0bc 807c 6259 dfbf ad2a adc5 3deb cb3f
00000030: 12e5 3bf9 047f b4bf 7690 2564 4202 cf3f
00000040: 68b9 8b70 3a08 d53f c4e9 1be4 910c ac3f
00000050: 6ad4 fcc4 5252 b8bf 8a79 e579 221a dbbf
00000060: 287f c249 83e1 fb3f 44f3 c501 6032 d2bf
00000070: 56ba 7270 669a c4bf b2b4 8c6a f132 713f
00000080: 6c99 ce95 291f e0bf 8bb3 b30a 9619 bfbf
00000090: faac 9204 47c1 c63f a8f8 55bc a78a d23f
000000a0: 5c94 2b4b 0b2b dc3f cb85 9c9d f246 1940
000000b0: 2865 64c9 8f50 96bf e499 f343 bbd5 aabf
000000c0: 0974 aea7 d55e c43f a543 18d0 b6fd 83bf
000000d0: c8eb 914d f1a8 bb3f 776c ecb5 9dc6 e1bf
000000e0: 15fc c142 d0c5 e73f 8269 f92f 2abb 9dbf
000000f0: e385 0112 75b7 d8bf e164 5799 d3ed cf3f
00000100: acb3 e46e 6538 d2bf a3fd 2b3e 172c d23f
00000110: 6c59 96e5 7988 e33f ca8b 5718 5731 cf3f
00000120: d1fd f213 dcc5 da3f 9a4a 1ccc 16e7 db3f
00000130: d44a be5c 5d8f d13f 1a1e 4219 1995 b73f
00000140: a1ac 732e 56be ba3f 8268 756d a8d8 db3f
00000150: dff0 db64 4701 d83f 1c93 c795 9f27 ccbf
00000160: 0514 61ad b60f d13f 37eb cfc5 3f4f cfbf
00000170: 20d1 d8f5 cb0f aebf 906e 05d5 7c4d bbbf
-0.2533289177367321 0.6593175943685765 -0.40704403769773484 -0.6153887025266359 -0.48983060987934746 0.2181164946762996 -0.08006316265882088 0.24225644960381815
0.3286272143440301 0.05478340062650802 -0.09500615414875005 -0.4234701338190453 1.7425568467369406 -0.28432464764755516 -0.16096191874153715 0.004198973686283457
-0.5038040090483213 -0.12148416291502266 0.17777335856712978 0.2897128428666158 0.4401272043308546 6.319284880331405 -0.021791693369867776 -0.05241189198004628
0.15914412200518793 -0.009761265016125462 0.10804660934256483 -0.5554951241678187 0.7428971580374105 -0.029034289529911834 -0.38619734533685185 0.24944539058086604
-0.2846921523039849 0.28394108840435645 0.6104096874358169 0.24369324387143215 0.4183263964477791 0.435979556395219 0.27437528664556265 0.09211880556733157
0.10446680673674048 0.43509875001257836 0.375078056807764 -0.21995920957046955 0.26658408099712033 -0.2446059909705924 -0.05871426940976421 -0.10665111733163202

layer_1.node_model.node_mlp_1.0.bias f8 [16]
00000000: 1030 6b79 1f5d b9bf 1a9a 0b96 e771 c93f
00000010: a093 f8a4 5950 bfbf bd30 c3aa 1ee8 a0bf
00000020: 4f3b ef82 c3c8 e03f 96a2 c28d 3f49 d1bf
00000030: e1b9 8378 fff3 e43f 33b7 3b8c 15d7 d3bf
00000040: abe4 010e 3b17 a93f fcf4 bd21 9a3c c6bf
00000050: 16ca 964c 185e b9bf 56c1 327f 132e e13f
00000060: c319 4cff 725c e23f dfa0 9da4 fef7 e23f
00000070: 10b7 3e3f 2cf5 d1bf 5e1c 7ca3 42a4 d3bf
-0.0990771933967951 0.19878859354430817 -0.12231979634868972 -0.03302093348028865 0.5245072896303585 -0.2700957188012948 0.6547849038886931 -0.31000269598631575
0.04900536104191507 -0.17372442863044302 -0.09909202451562069 0.5368745312062326 0.5737853037142532 0.5927727904463856 -0.28058916260020883 -0.30690065350831286

layer_1.node_model.node_mlp_1.2.weight f8 [16, 16]
00000000: fc04 dd4c 26b2 d23f 581b fdb1 1d01 d4bf
00000010: 749d d0dc 6505 68bf 1d39 36ae d3d3 bd3f
00000020: 2767 b20c a384 0040 86a5 e4a2 3ed2 c0bf
00000030: 21f1 75ec 3d4a babf 1bc2 c5a2 b3d3 1140
00000040: bbdf 8e78 5912 c83f f5c1 da4e 5564 cb3f
00000050: 88bb 688f 6ff0 92bf 8cbf 6087 23e5 c03f
00000060: e03f c696 e1b9 c73f c24f 7631 7492 babf
00000070: 2e7b 1b12 ce62 cbbf a905 e32d 2e86 c2bf
00000080: 0ed3 83e7 0f8d d1bf 91b4 762e bd15 d7bf
00000090: 0b6e f5f2 6d75 c5bf 349e 9bc8 677c c73f
000000a0: 2c0f 7b14 1e52 f2bf 0900 a51a df0e b43f
000000b0: f40a bb24 6b06 cfbf ecda a0ab 689f c53f
000000c0: 11da 8179 df81 cdbf ce4a 9a49 7be7 91bf
000000d0: 17dd 224e 2eb5 ccbf 9877 af09 ccc2 a2bf
000000e0: 2675 f6b9 70df d8bf 1ec2 b202 6a78 d3bf
000000f0: 2ecd c901 3243 d2bf 7bda a3f7 6b71 b6bf
00000100: c464 3118 3ed1 b13f 0016 6540 5a94 b7bf
00000110: 3bcd 604b 31e6 b53f 9427 edf9 d998 cb3f
00000120: 8fdb 510d 4309 b1bf 75a3 05e4 2796 cb3f
00000130: 4674 5a5c 1e51 753f 0c19 8a6c a4a9 a3bf
00000140: 5d30 2ce6 efdf cdbf e4c8 023c 1869 c5bf
00000150: e1ff a7be cb65 adbf 25d4 f7b1 73a8 c9bf
00000160: 69fb 73fc 8287 a33f 490a 53bd bab7 d1bf
00000170: ccff 4d1a 0779 b13f 8c42 1992 5ef4 bd3f
00000180: 45e0 849a 7bbd 86bf 0f93 fd75 4290 bbbf
00000190: be31 d5af 773d d0bf dfc7 4ae1 d606 c4bf
000001a0: 96ea 1e58 4087 e7bf d6f5 b719 e0d1 b83f
000001b0: c12e 8d70 4f10 c0bf 0e28 77db 43df b0bf
000001c0: 1352 f8d9 480d b1bf f1a4 91d6 320f cfbf
000001d0: b892 c99b 4b8b c93f e90a 60c5 7747 ccbf
000001e0: 0283 7f18 d2b8 c43f e2ae f4a3 e6d7 b7bf
000001f0: 6e11 3416 d353 c93f 74af 1095 736f cabf
00000200: eede c873 79ac d13f 72e9 7c99 6c08 be3f
00000210: d840 9a0f 1747 d73f 26d0 9194 73a5 c8bf
00000220: 7611 de14 0287 c93f 4d6c b7a1 375c 833f
00000230: fd77 2fee 5b08 d53f a75b 6348 1260 1240
00000240: 1fe8 fa8f 7ad2 bd3f 82bc 9e4a 727a d33f
00000250: 1bb3 f9e5 66d1 d43f 8da8 4bf3 de29 8c3f
00000260: 47d8 a578 ef06 d83f d999 c601 4ff3 c53f
00000270: 88b8 6c9d 021a c0bf f671 5426 630a bc3f
00000280: 40ed 9c3d 3168 d83f 69d9 7f1f aec7 b8bf
00000290: ba13 84ea 0332 d43f 49fb c279 dbb0 bf3f
000002a0: 1a3e f839 4a7a de3f 7c01 63c5 14d8 c9bf
000002b0: 5ad1 1dca b6cc cc3f 1370 dba4 8564 1140
000002c0: 6c09 5d2b 01df c2bf ae9a 4d73 8d95 d73f
000002d0: 3321 99fa 6fec d63f 08cf 0048 bf9d ca3f
000002e0: a5ee 2dda fb37 b13f 653c d31f b574 b1bf
000002f0: d290 3a5f d010 bd3f 0bb7 d363 3fd1 c63f
00000300: a64e 8a66 1fe8 c13f da6e ccd7 75fd b9bf
00000310: 54b0 1e4a 6db7 a93f 93d1 1dd1 9eeb c6bf
00000320: 3baa 95cc 37df c83f 6059 7c13 85b1 a53f
00000330: d3d7 e2cd 7f86 c43f 5915 003d c4c9 1040
00000340: 686c 7414 5d27 b4bf 3f50 0324 2e02 a03f
00000350: 3697 a52a a229 d53f 5b35 b983 f438 d03f
00000360: 85d8 fa87 fba8 acbf 4f8f a96e 1947 ce3f
00000370: 21f2 e654 4d73 92bf 9cdd f8fc 8eb9 b73f
00000380: 5c01 bf75 89c7 b73f c953 25f1 7e99 cc3f
00000390: cc18 db1e 9b6c bd3f 256b 8589 83b3 b23f
000003a0: 195f 1baa 6f74 d63f 9e61 cc58 f1e5 c7bf
000003b0: 4264 f50c b667 b23f 7ea2 a529 b19e 1040
000003c0: 9163 1987 b0bf c33f 89c8 c60a 8609 d33f
000003d0: 2c73 cf50 cf1c ba3f 790a a615 4377 ae3f
000003e0: 6ab9 fbaa 1327 c73f 984b 6ea2 b86e c33f
000003f0: 3e21 4d14 344b 933f fea4 10e9 f85e b63f
00000400: 4bb2 c5ac d842 92bf a54c 8cba a19f c53f
00000410: 5c3b 2284 2ad5 c63f 7af6 680f bc3f c7bf
00000420: 36df 461a faab 8b3f 6638 dd8a 0b44 b7bf
00000430: 4c43 46a7 aa77 c6bf b1b0 b188 aa6c f73f
00000440: 7472 c9fe 4f7a adbf ea7e 0a5a e289 cabf
00000450: caa8 fb67 800a c23f 89dd 6822 cdd0 7d3f
00000460: 5493 370d 3873 ce3f 1605 49f8 b94f 973f
00000470: 6bb1 2182 2b00 c53f 5ca7 2325 978c b2bf
00000480: b491 3b23 fc25 d43f 7527 0775 2b09 bdbf
00000490: 5765 2811 da23 a2bf 670e 878e a96b 75bf
000004a0: bf5d 9a76 0c62 c93f b77c 4c5b 6a79 c3bf
000004b0: 7973 53f9 5799 bd3f d619 f71b 5891 1140
000004c0: 97ec eeca 5a75 933f 73fb 5590 3a59 d13f
000004d0: 19a6 2eb0 8c1e d73f f620 2001 9bde d73f
000004e0: e463 535a b37a 97bf 2e46 ae14 ecc8 b6bf
000004f0: 32a7 7360 a5cf d03f b607 bae9 004d b73f
00000500: 9b6f e1d8 8289 d53f db81 52a2 cb55 a33f
00000510: f6b6 3871 43c3 b23f 9813 ba88 0682 a1bf
00000520: 0c00 4a3a 26a8 db3f 70a8 0185 8f0c 58bf
00000530: 1341 bfcf 1d56 b63f 2e99 1732 4d3b 1240
00000540: 84a8 46c2 4ea1 c73f d4ac 8455 6ce5 b03f
00000550: e9b4 2191 175a cc3f 5114 66b1 66b6 d43f
00000560: b2ad f39a fe48 d23f ea40 ff54 9c64 bebf
00000570: 0479 88ac 25ff b7bf 5d23 9414 da9c cd3f
00000580: 1232 76ac dd72 983f 8358 909d ba53 b4bf
00000590: f584 97cc 6bf8 c5bf 2c81 c1d9 179a b73f
000005a0: d6d4 5acc ff49 c33f 35f8 fd19 b230 bf3f
000005b0: dd37 b712 98c3 a23f df62 139c 72ba 95bf
000005c0: 9b31 f7ac ccc3 babf 7100 c2d6 aea3 bfbf
000005d0: 707f 80f9 e960 94bf 6302 c75d 0a49 b4bf
000005e0: 07ad 79a0 29a9 bd3f 0c61 fa39 1f53 cdbf
000005f0: b1be e647 14e0 c4bf 234f 1ce6 41f0 933f
00000600: f44c 5ffd 8faa c33f 1858 a088 bf42 b1bf
00000610: 4afa 2cb9 99e1 aa3f 3821 daac 1601 acbf
00000620: 4d53 1ede 97e8 dc3f 6659 9c5d a6b3 9d3f
00000630: b060 ace4 024b 87bf f92b ff2a 416f 1240
00000640: a40d 2f0c ee0b babf 7eff fec2 3b28 da3f
00000650: 7fa0 ea2d 07a1 d03f a7a4 3adc eb4d da3f
00000660: 1805 7cc3 9f7f d63f d1e5 472a 7294 d23f
00000670: 2e7c f2ef c7ba c63f 9fa2 7072 8cc5 bcbf
00000680: 2864 bf8a 1f38 d93f 047b fc88 1909 af3f
00000690: d7ec 907f ac89 973f bc0d cb6e 0c97 b63f
000006a0: 275e 5581 91f0 d03f 1aea 4e5b e8e2 b83f
000006b0: 475b 55a8 d01f d13f 9d09 6fa4 1083 1140
000006c0: d956 d9b2 d282 d03f 7675 36c4 b1a0 973f
000006d0: 5a0e 099b d2c0 9c3f c3ad 0d5e 678c d03f
000006e0: e837 78d2 01fc b23f 2333 88c4 7aa0 d13f
000006f0: e2d1 bf7c 382a bfbf 995f 19aa e522 983f
00000700: d8bb bd86 1fff 9f3f 6856 709b 1fb2 b53f
00000710: c6c0 b1b8 b4d0 b53f 6f1d 1561 e2e6 d03f
00000720: 9c6c a6f3 01b2 973f 1f73 6986 8fc9 b73f
00000730: be23 f976 a4e7 aa3f 9cff 6b7b 9099 c5bf
00000740: 1cd8 7652 f4a0 7abf 72c5 9cc2 5d22 cbbf
00000750: 680d 4b93 3c0d b23f 0de7 5bf7 3138 b23f
00000760: b052 f5b3 2c66 d4bf b09e 263d 3ed8 d2bf
00000770: 68b8 f06f 6ac6 c73f 2176 c124 d657 a33f
00000780: 152b fc5e 87e4 c63f 7ddc 88d4 126a aabf
00000790: 157b e66b 024f d73f 54a7 1719 0c02 c6bf
000007a0: e213 ec36 9c7c d33f 10fd 3047 dbd6 c1bf
000007b0: 1bfa 83f8 aa82 cf3f f2c2 deeb 8f78 1240
000007c0: 63aa 9579 7c8d b63f e352 1eef ba82 d83f
000007d0: a99c 5f4f fb70 d33f 4301 6733 a4cf cf3f
000007e0: 45c5 79b2 1b91 b63f 3bac 1960 e21f 703f
000007f0: 08df 7b6c 25d7 ce3f aa52 ab53 75d4 c8bf
0.2921233893030857 -0.31256811505993687 -0.0029322614195909594 0.11651347163408272 2.0647641174263245 -0.1314161582352364 -0.10269534132925574 4.456739943809704
0.1880599821722607 0.21399942732161006 -0.01849531472015145 0.13199276075601707 0.18536014425308078 -0.10379720885822422 -0.2139527882017886 -0.14471986046377808
-0.27423474892502575 -0.36070184266538613 -0.16764616358965187 0.18348405165964865 -1.1450482177760462 0.0783519210863234 -0.24238337796676712 0.16892727260866225
-0.23052590783090968 -0.01748459469542745 -0.22427920165294132 -0.036642433340360714 -0.38863771591589324 -0.3042244936323487 -0.28535127806317717 -0.08766817851924628
0.06959903803489725 -0.0921074301923781 0.08554370966230788 0.21560215667187477 -0.06654757571400992 0.21551989206207237 0.005204313847255787 -0.038403642892307216
-0.2333965181245529 -0.16726973467081685 -0.05741726591440944 -0.20045324506614395 0.03814324695303279 -0.2768389557715279 0.06825298683361253 0.11701003138410665
-0.011103597310111133 -0.1076699770033651 -0.25375168009921 -0.1564587211665289 -0.7352601739033442 0.0969524443425692 -0.1254977511947484 -0.06590675457042058
-0.06660895654233227 -0.24265132405279347 0.1995634566002502 -0.22093102586230565 0.16189027973361908 -0.09313813689066877 0.19787062248372983 -0.20652622965405565
0.27615200335593115 0.11731604335083093 0.3637139942520782 -0.1925491786420263 0.19943262118261956 0.00945323431272107 0.32863519916816114 4.593819743217785
0.11649290099276798 0.3043485382758676 0.3252808805325899 0.013751737403669995 0.3754233053399542 0.17148768984516385 -0.12579376875641324 0.10953349767482465
0.38135939614194925 -0.0967968775656566 0.3155526914782133 0.12379237864204841 0.47621398602584153 -0.2019067729761551 0.2249973761460165 4.348166061299724
-0.14743055932383287 0.3685029626853219 0.3581809947250065 0.20793906226901293 0.06726049496313154 -0.06818706538182225 0.11353781056328963 0.1782607304989415
0.13989632136200675 -0.10152374762077035 0.050227561281048466 -0.17906556330457288 0.19431207169994189 0.04236999380934736 0.16035459092171198 4.197037652139749
-0.078725640767901 0.03126663388835071 0.3306661049340279 0.25347626556034236 -0.05597673449430921 0.23654477981028285 -0.018017967516913317 0.09267514873578481
0.09288844227467535 0.22343432211587658 0.11493844512287693 0.0730516634697947 0.3508567010116948 -0.18670479617936747 0.07189500633593673 4.154972697004835
0.15428740116729192 0.29745627453224494 0.10200210307034457 0.05950364722504715 0.1808800301436791 0.15181644374078185 0.01884156583699447 0.08738666238845735
-0.017833123727017768 0.16893407448569522 0.17838031246034347 -0.18163252594415608 0.013511613776116965 -0.09088203563917005 -0.17552693526934104 1.4640298213590024
-0.0575737951773804 -0.207332891431171 0.14094548299119075 0.007279206568049709 0.23789120335927783 0.02276506975090794 0.16406768659670531 -0.0724577394172718
0.314818415076185 -0.11342116934897979 -0.03542977771230465 -0.005229627924964931 0.19830470839654699 -0.15214280565212387 0.11562108838138653 4.391937672573894
0.019002359996858145 0.27107109160709014 0.36123959737105477 0.37296176061546704 -0.022929003131910167 -0.08900332932378127 0.26267370623701247 0.09101873117654588
0.33651801280734056 0.03776394230340304 0.0732919837398319 -0.03419514102009841 0.4321380204419263 -0.0014678384359521311 0.0872515327639614 4.557911665621118
0.18461021886952633 0.06600071990822026 0.22149939142710842 0.3236328823480266 0.2857052338792655 -0.1187226970207608 -0.09373698675378611 0.23134923939530952
0.023875678683497333 -0.07940260264180847 -0.17164371003949666 0.0921950251226959 0.1506957767320844 0.12183678755352008 0.03664851406539047 -0.021219054008585366
-0.10455016348641381 -0.1235913538275797 -0.01990094743098275 -0.07923950948225804 0.11586246650556485 -0.22909918147048136 -0.16308835516746492 0.01947119681342636
0.15364265319531223 -0.06742474637607676 0.05250244508214459 -0.054695805168253064 0.45169636431937904 0.029005622352167214 -0.01137354145389255 4.6086470335239875
-0.10174453542190648 0.40870565455042385 0.2598283718493874 0.4110059405016479 0.35153955545691096 0.2903104222201281 0.17757510391399606 -0.11238935274071558
0.3940504889447447 0.06061630055613956 0.022986121450441068 0.08824231820022183 0.26468312864514804 0.09721233586507375 0.267566837680921 4.377993172909922
0.2579848047802052 0.023073937989115355 0.02807931014309726 0.2585695665827325 0.07415782345216793 0.27541989510136683 -0.12173798604619138 0.023570621974016246
0.03124665508169841 0.08474919838803319 0.08521584996356343 0.2640920589514825 0.02313998269674454 0.09291932136097757 0.05254854156789389 -0.16874891306360673
-0.006501154311470383 -0.21198627474363324 0.07051447483086337 0.07116997040784785 -0.3187362439542012 -0.29444843265307963 0.18574266877971302 0.03777951430013738
0.1788491452974418 -0.05159052700440101 0.3641973546709079 -0.1719374773522825 0.3044806038236044 -0.13936940170422263 0.2461751664595376 4.617736516448291
0.08809640854239258 0.3829791388646255 0.30377085448567215 0.24852421293145185 0.08815167529407571 0.003936657217859236 0.24094074055732784 -0.19398371301089884

layer_1.node_model.node_mlp_1.2.bias f8 [16]
00000000: 5bf1 4764 5336 b83f 95bc 6a16 4085 d9bf
00000010: eb5b f7ae 4f8e c7bf b7d3 d7b0 0661 c3bf
00000020: 7a6f 4805 d4eb c83f 5e8e 33a4 d4e1 a43f
00000030: 8061 ff7d 98b7 c33f 0cb1 e47b 7d8d bf3f
00000040: b684 5b06 58eb 71bf 1fcd fbdf bcd9 9a3f
00000050: 22fa 09f7 260d d13f 1d29 b2a3 a78f b4bf
00000060: dc4a 085b ee52 d83f 6322 a4e2 3350 cc3f
00000070: 2c83 d180 59f7 a03f f374 7db2 886a 8fbf
0.09457894514338731 -0.3987579554477148 -0.184030495102632 -0.15139850268283592 0.19469690568882553 0.04078545097743523 0.1540403952810827 0.12325271868457238
-0.004374832007415444 0.02622122876250643 0.2664277470102282 -0.08031699892504603 0.3800617112148481 0.22119759146177662 0.03313712785234765 -0.015339916178783919

layer_1.node_model.node_mlp_1.4.weight f8 [16, 16]
00000000: 2804 0fa6 39c2 d5bf d291 69b9 cc00 9ebf
00000010: 6270 ef09 d4e0 d4bf d6af 5586 a912 a9bf
00000020: b4ec 4193 2875 d4bf 2bd6 7e64 8f7b d9bf
00000030: f6e0 c0e4 c35c c0bf 39ba b745 e60d a0bf
00000040: e05c 3335 930a acbf 4025 c669 4e78 d7bf
00000050: 4d0c 0a36 ce68 d0bf d09d 4b85 57cf cc3f
00000060: 9f51 408c 20ed d3bf 05b9 caea 22f4 d6bf
00000070: 737c 3c0d 839d 9ebf 020e 5e0f 090c ccbf
00000080: 44cb 38bd 78c2 b6bf 2afa de8b bada a4bf
00000090: 7925 1024 51b2 b0bf 7e6a f399 6faa cb3f
000000a0: 9e20 9abc 1f00 b5bf 893d c1c2 88d2 d7bf
000000b0: 5d59 b192 0adf d3bf 3f7c 6a19 cc7f cabf
000000c0: 72f1 bc3a 228e c43f 3530 bf49 1a58 d4bf
000000d0: 63a5 4f0f c910 d5bf f0ce 0e47 43df ac3f
000000e0: 26d9 3803 faa5 c1bf e7bd 75d8 9e1d c4bf
000000f0: 67b2 f7ad 5330 cabf 5b5c b910 f108 d1bf
00000100: 5d4d c927 3259 c6bf 77f2 4649 aa7a cb3f
00000110: 61fd 6701 20fb ae3f 3715 cb44 24be c7bf
00000120: 97eb ee1b 9cd0 d6bf 56df dd05 77a9 d3bf
00000130: 26a1 00b2 4f6a b13f d36a 991c f072 c0bf
00000140: 7435 b4fd cd88 c53f 466b e918 a3df d5bf
00000150: bb37 b9db 7a80 9e3f 986e 9c40 9604 cc3f
00000160: ca44 3590 20e6 a9bf e89d 7950 7ae8 cfbf
00000170: bc3e 81a9 cce2 acbf 7420 cdc2 b7d4 d1bf
00000180: c3ab b02f 6449 c93f 6dc0 3e64 c3b0 c8bf
00000190: 2b09 205b 4130 acbf 62ff 0a69 9a75 c13f
000001a0: e2a0 82ef 13e5 ba3f 5f12 fc52 dbec 89bf
000001b0: 690f 15c2 0e78 cf3f 0886 00db 04c0 c73f
000001c0: 84d3 1737 c165 c83f 5198 7d9b aae8 d83f
000001d0: 2f55 dc29 bca6 c63f cda3 5fc5 ac8d 913f
000001e0: d1d7 7e85 a9c7 c83f 9f86 bed5 5801 96bf
000001f0: 2a8c bb5c 6530 b83f b422 0afc 8c3f bc3f
00000200: 061c cc8b caa9 d73f a680 71e1 fabd c73f
00000210: 1e48 591b 391a 863f 4e8c f5b5 a6b1 d1bf
00000220: 8088 fc41 bb71 c73f 3059 ae7b f86f b1bf
00000230: 1875 7b83 e4b8 cb3f 1447 b522 abbc d23f
00000240: 3f80 4de5 8ae2 923f b1e7 19e4 72b2 a83f
00000250: bbfe c077 61e8 d43f eb27 4e91 755b cdbf
00000260: 661d d893 f523 9cbf e2d9 09e8 5d17 c33f
00000270: bd40 3288 3515 82bf 4e57 3210 1893 d23f
00000280: d644 2597 a3ae cbbf dc63 e0f6 a628 acbf
00000290: 96e2 75aa 4b20 b53f 0c5f 94ad dec3 a53f
000002a0: f7d7 5a72 0f6f c9bf 696c eb51 1b05 a2bf
000002b0: 34ee 5dbb 315c b8bf 1770 21d5 38b3 b2bf
000002c0: 958e feeb 0637 c53f 12eb a932 088d cbbf
000002d0: 62ac 83b8 7458 c7bf 9ca8 666f 21be cd3f
000002e0: 6abb 902a 928a dbbf 826e 3f01 11f6 d8bf
000002f0: 54e9 c9c4 497b b6bf 677b f980 b90f cdbf
00000300: baeb 3acd e4fc cc3f b46d f85d 0ca2 c9bf
00000310: 40ec b707 ae81 d03f a1bf 3eb7 c77f cabf
00000320: 3bbc 20fe c3ec d13f c14a ed6b 11ac a13f
00000330: 8183 a1da 017d 713f 0adf b5d1 cc11 87bf
00000340: dbdb 30ad 6549 b6bf a625 fdab 6c44 9fbf
00000350: 6fbd aac4 9044 c83f 911b e95d bfc5 c93f
00000360: c84b f163 1681 d33f 81d0 4b59 a9b4 c33f
00000370: 6825 3b25 ee2f d53f bb4f 73e4 ef26 d93f
00000380: 8054 309f e96c be3f 43d4 db15 dbf5 d3bf
00000390: bdfb 366f 01cd b33f 74b1 7d4c bd95 a43f
000003a0: aea5 38cf 2065 b53f 3da4 731a 8c14 ba3f
000003b0: 34c2 0f23 8005 cf3f eda0 e9c8 173a c53f
000003c0: 228d 65fd 2fc3 b13f 9fca f8fc 1d7a c53f
000003d0: acee ea9f b4b1 b83f bea1 d20d 977d cc3f
000003e0: 1bdf 54bc dda6 ca3f f192 51c8 7be0 c4bf
000003f0: e575 a667 1c2f af3f c0a8 eee3 dc66 cd3f
00000400: 1cc5 53ff 8132 d43f a687 ad09 577d d1bf
00000410: 1597 6975 668a abbf 4c15 5d37 c21f b33f
00000420: 2a3d 7594 008d d83f 5692 040b 7112 af3f
00000430: a244 44f2 fa01 c53f 7f0a d4fe 37e7 903f
00000440: 4062 086a d66a b43f f38f 6b5a 7936 8abf
00000450: 51d3 73f7 b195 bb3f 4aad 5b97 983f a7bf
00000460: 02d3 a252 abcb af3f 9c7d 8980 050a d93f
00000470: ba3c b1e2 1105 be3f 5d3f 3db0 f524 ba3f
00000480: f02e 794f 718a d4bf 3ed6 2175 0a6e b2bf
00000490: 809f 4649 48b7 ae3f bb99 eb67 cac0 89bf
000004a0: 34c5 8b36 31c1 a0bf c73b 910d 3f61 d1bf
000004b0: 4fd1 09c3 990e 92bf 3ae7 b0d8 dacc cabf
000004c0: 4bb1 1937 eb54 b23f 024c 9d76 8f93 d0bf
000004d0: e510 3a5c 1e85 c1bf bd27 a47b 260e 953f
000004e0: 14fd a862 e70b d0bf b8aa f029 f101 abbf
000004f0: e850 0599 e921 c53f ce1b 857a 875a d9bf
00000500: 54a3 d199 127b 91bf 798d c9d9 b11c d03f
00000510: fc57 cc30 ddea bc3f 63f1 dc59 12fe ae3f
00000520: e22e 6445 23b3 d7bf 2d31 48b8 d19b dabf
00000530: c40a 6acd 5b61 d0bf 9716 c8b0 bd1a d8bf
00000540: b6af 07df 5dd4 acbf ecc5 d441 8939 b9bf
00000550: 2331 56e7 da13 d2bf a926 cea2 1e98 cabf
00000560: 268e 94e1 0252 d3bf a24d ca23 9148 d1bf
00000570: e49d 0912 20b7 a43f 7a53 6210 2081 d8bf
00000580: c57d 36ca 3c12 b93f f85a 79e7 4626 b23f
00000590: 28bf a829 e6bc 7abf 41f0 6866 2113 c5bf
000005a0: 625a bc3b 5614 c43f fa92 f8bd 8e2b 973f
000005b0: 0b51 2e83 7656 d43f 387d 6d22 5ad6 d53f
000005c0: 1d71 8a99 f229 d03f 5a23 f0ec c721 d33f
000005d0: b8ab 8709 57c0 cb3f ff7c e9a0 aaf3 b5bf
000005e0: c872 1bb7 4b0b d23f 5659 8d42 1513 a83f
000005f0: 1a4f 0cb2 9fc5 c43f a897 ed8e b494 d33f
00000600: a521 a911 8856 43bf db60 80b7 4507 b9bf
00000610: fd09 1d93 09ef b4bf 85f4 db3f 5c97 c8bf
00000620: 5c7e f584 b839 c9bf 373f 2963 7505 adbf
00000630: d663 ff6f d78a aa3f 2eff e56f fadd b03f
00000640: b94d b080 b743 a3bf eeda b8f2 8d30 bfbf
00000650: 012e 7df0 e6c3 bebf 29f1 1c43 6a68 ad3f
00000660: 8cbc 9c55 6473 d5bf e755 230a a4ea d0bf
00000670: 8331 703f b027 c13f 1863 f3a1 4bd4 9a3f
00000680: 8eff e21e 41d1 903f 2625 24d3 ffe2 d13f
00000690: 81c2 362e 7259 c13f 1b06 f765 535b a33f
000006a0: da7c 5872 34b5 d0bf 54e5 d387 4d15 d1bf
000006b0: ba43 065d a727 cfbf 6524 f115 a94d cfbf
000006c0: e4d3 b611 1be3 b93f 7c41 ab6c 3a09 d2bf
000006d0: 2f3b a982 f073 b7bf d1e6 a96f 3483 c43f
000006e0: 7a0e d7cf 50ba c5bf 4176 85ea 28ee 9ebf
000006f0: 8b7c b028 0ccf c73f e42e b7d8 59a1 cfbf
00000700: 63dd 3edf 700d c7bf 8979 06a4 90a3 cc3f
00000710: 411a 72d9 92b1 c1bf 8ad2 4b67 a83f aebf
00000720: 07b6 833a 4840 9b3f cd8d 1234 6e69 d8bf
00000730: e7e0 3371 fe78 d3bf 4768 a6bf 2d0b ccbf
00000740: 9ac4 76e6 d202 cabf 0f76 e506 11c9 c7bf
00000750: a54a 1ea1 b3bb ccbf dcd2 98e1 221d 993f
00000760: 559e 07f5 5126 b7bf 8bca c515 e69f b23f
00000770: 27a6 8775 23a4 903f 2d22 c7af 6f07 d1bf
00000780: 430b 00cd 42ec d13f e3f8 adc8 c593 babf
00000790: c57d f5a5 ca04 b83f 2746 5ce4 c1e4 c73f
000007a0: 9a09 7f00 08f4 d73f 961a 76e5 a767 933f
000007b0: 2e23 6dfb 8856 b63f f239 d36c 10b4 c63f
000007c0: 49eb 16ea ebfe d13f bb49 df78 e0e4 b73f
000007d0: 34dc f6e9 1633 c43f dc2e 381f d85f a63f
000007e0: d9a6 a6e1 151d d93f 121f d9af e40b d23f
000007f0: 8feb c3c7 5795 603f ed13 a9c2 0ff9 d23f
-0.3399795648256849 -0.029299925629304564 -0.3262224289917467 -0.04897050633266502 -0.3196507871686649 -0.3981665116692478 -0.12783096952058032 -0.03135604477926219
-0.05476818108007264 -0.3667179139088894 -0.25639682080526854 0.22507757195056266 -0.31134809204493225 -0.3586509030236729 -0.029897735293272065 -0.2191172909771098
-0.08890490169214355 -0.04073126752290464 -0.06522090082594002 0.2161387922013382 -0.08203314165632711 -0.37222498911884166 -0.3104883606478291 -0.20702506295217124
0.16058757656163497 -0.3178773613151436 -0.32914949889398865 0.05639086000829063 -0.1378777042134029 -0.15715394563038318 -0.20459981913099343 -0.2661707557030632
-0.1745970434445593 0.21468094423279968 0.06050968186536455 -0.18549016341254695 -0.35648253181323625 -0.30721831868094307 0.06802843185198934 -0.12850762745332264
0.1682374466694615 -0.34177472527305885 0.029786986981257018 0.21888998179280317 -0.05058385620453405 -0.2492821591324479 -0.056417842570792825 -0.2786082651478019
0.19755222633952316 -0.19289438624173574 -0.05505565869681769 0.13640146378565549 0.10505795094889295 -0.012658799619665815 0.24585136868165172 0.18554745381793247
0.19060530843821877 0.38920083222035823 0.17696334880808126 0.01714200930283365 0.19359320658048643 -0.021489513441003024 0.094488463535115 0.11034470704374649
0.3697382321556123 0.18548522956826224 0.010792204043500727 -0.2764679696030655 0.1831583091926099 -0.0681147863345799 0.2165799753192139 0.29276541127647815
0.01844231628945203 0.048236456245788324 0.3266833943816711 -0.2293536147593039 -0.027480923794454347 0.14915059881214093 -0.008829515665894733 0.29022790509894925
-0.21626706009059288 -0.05499765170697632 0.08252404128678345 0.04250999325648594 -0.19870179256184858 -0.03519521117205999 -0.09515677284610363 -0.07304721072563357
0.16574179194605124 -0.21524145578208526 -0.18238696107377722 0.23236482562544303 -0.4303327003171292 -0.3900187027154304 -0.08781872801219964 -0.22704237744889186
0.2264677049732578 -0.2002578219261132 0.25791502717737913 -0.20702454040065013 0.280076025172949 0.03451590006320294 0.00426960682133959 -0.011264419698576517
-0.087057451994823 -0.03053445625054043 0.18959245303038183 0.20134727559544932 0.30475387344375493 0.15395085201419437 0.33105043063968376 0.3930015307389529
0.11884937416501096 -0.3118808473075811 0.07734688725666579 0.04020492132881062 0.08357434329140886 0.10187602659029067 0.2423553630064973 0.1658353549021351
0.06938457428400516 0.16778921939984046 0.0964615717338641 0.22258270430508093 0.2082173509204431 -0.16310069352325443 0.06090630307447124 0.2297016251516819
0.31558275160121396 -0.273275145960833 -0.053790284950805546 0.074703348652368 0.38360609529350376 0.060687573046639784 0.16412293271472317 0.01650702946518345
0.07975521172228017 -0.012799213477997262 0.10775291720694936 -0.04540707442887511 0.06210074790707233 0.39123666336487317 0.11726486000519545 0.10212646057811754
-0.32094986687728433 -0.07199159011528253 0.0599920834968648 -0.012574750229259793 -0.03272393980831581 -0.2715604431622833 -0.017633821992107553 -0.20937667446724523
0.07160825820182486 -0.25900637229386814 -0.13687495711577138 0.020561791702710986 -0.25072655329491167 -0.0527491916366975 0.1650974270984371 -0.3961504646762791
-0.017071047438011647 0.25175138729374386 0.11295874062884076 0.06053216311417733 -0.37030870224474033 -0.41576045032776926 -0.2559422975538548 -0.3766321398146401
-0.05630772922071918 -0.0985341821404046 -0.28246185866807333 -0.20776732396580158 -0.3018805697376784 -0.2700541352762348 0.040459634973384145 -0.38288117980965064
0.09793453156316108 0.07089656020376 -0.006527804444473685 -0.16464631557926349 0.15687063137802953 0.022627096505078527 0.31777727900159 0.34120801317290583
0.252560281698395 0.2989368261192361 0.2168072506459262 -0.08574930599705864 0.28193943864407034 0.0470205920925532 0.16228100007776264 0.3059512515814
-0.000590149345336012 -0.09776721696869421 -0.08177242128025593 -0.19211915128827087 -0.1970739983762425 -0.056682270388249405 0.051840526982864496 0.06588711959738866
-0.03762601323992549 -0.12183463264305391 -0.1201767289286906 0.05743724889041097 -0.3351679645592831 -0.2643213366512484 0.13402369592257565 0.02620046783417526
0.01642324210183648 0.2794799386907293 0.13554217583216047 0.037806135365382874 -0.26105986754005317 -0.26692522301126087 -0.24339763681612486 -0.24455751010308116
0.1011216085669982 -0.2818132458897009 -0.09161284627883214 0.1602540536148838 -0.16974840305748612 -0.030205382646604887 0.18600608813082817 -0.24711154062094132
-0.18009768391287215 0.22374160775229893 -0.1382316171404501 -0.059079420670888075 0.026612404414597914 -0.3814349659462238 -0.3042598824972757 -0.21909114702140384
-0.20321117642518943 -0.18582356297240252 -0.2244782005987719 0.0245252084916555 -0.09042846901103847 0.07275236159856939 0.01625113873334363 -0.2660788742619243
0.28004522342250854 -0.10381733083156379 0.09382311393482386 0.1866686215440023 0.37426948593579257 0.018950103168686804 0.08725792063081592 0.17737012208677033
0.28118417606645046 0.09333613348943619 0.1578091280368611 0.04369998341652856 0.39240023647526595 0.28197590992611865 0.0020243372401841995 0.2964515114766176

layer_1.node_model.node_mlp_1.4.bias f8 [16]
00000000: f211 ada3 754f c2bf e893 450b d62b d2bf
00000010: bede f297 4dd2 cbbf 1b06 d7f8 3e0a cf3f
00000020: 163e 273c 71b7 d73f 797e 101d f56d c1bf
00000030: bbfb 5979 4149 cd3f 391b 6851 0e88 8abf
00000040: 5e6c aef9 566a bd3f 7f65 77f1 3924 9cbf
00000050: 6370 0276 7ba7 c4bf 87e1 304a 61ed ce3f
00000060: 04a1 744b c664 d1bf 7dda a0f3 6bca 74bf
00000070: 6a41 e7e7 27e0 d4bf a3e0 225a d8e5 a93f
-0.14304991237635495 -0.28392554379234847 -0.2173554412781779 0.2425001826323275 0.3705714309153064 -0.13616813582574475 0.22879808831564027 -0.012954818591436644
0.11490386577354303 -0.027481942522944443 -0.16136115324195818 0.24161926386456065 -0.2717757927771489 -0.00507585686323486 -0.3261813893014024 0.0505817041425314
