src/meta_layer20T.pth (torch, 93213 bytes, 88 tensors)

layer_1.edge_model.edge_mlp.0.weight f8 [16, 6]
-0.37567382941098976 0.21477322800584356 -0.18353066858756487 -0.340082802159031 0.3331991929946032 -0.0815217046537277 -0.2301009617437056 0.3625474764431164
0.5165346535491503 0.44026182048119256 0.03584541707762443 0.16746788524531797 -0.031807591130962626 0.31071055050112434 -0.22528668313325717 -0.15833155944477342
0.10955689462155326 0.4583008825806663 -0.22339569941404766 0.3954196662207236 -0.0455021978500763 0.3556171272443599 -0.2372924608875275 0.41622916787977354
0.0463401113601766 -0.4269658719204339 -0.10704507887971697 0.28664527565221204 -0.2953506290826783 -0.2776795169463438 0.4781840683206108 0.45243692516109074
-0.20106209498046937 -0.1109900755513037 0.4224389019205513 0.2872095204458823 0.287426954372375 -0.15669761877029356 -0.132866838003621 0.34037923944017107
0.3356272589460881 -0.25921475843354574 0.19639338818547925 0.4190294744072721 -0.35016683919040276 -0.3271028694493521 0.16215346612119905 0.27954603383700444
-0.0517821950940698 0.44818481556750267 0.12355039002350121 0.09173002171235077 0.4334484802057958 0.05603009825920502 -0.043197356315424394 0.4670525963941342
-0.08289498983281479 -0.27898508734429855 -0.0841274508606687 -0.22633271976790492 0.021339579114751966 0.23059433836430157 -0.12674438935276722 0.009939947144150403
0.4542617343454225 0.09436547354389091 0.5038197667845657 -0.22461631825105788 -0.5119037065220747 0.010339237929150867 0.4928912630117202 0.08237977643239419
0.18821907552009776 0.3027217763233748 -0.14309718574419344 -0.04236407541375373 0.04832937522325967 -0.2912233463880757 0.1798673988787224 -0.18938991867940838
-0.1220803009084227 0.17587633727999327 0.2240260534270298 -0.2315270332690591 -0.23302866461544425 -0.3449914255680513 -0.10961545849318216 -0.1853633966134837
0.3818290758374856 0.11896943582596796 0.15911987823281037 0.05658283235418142 0.150487418049417 0.24869127606728847 -0.1259067877024359 -0.3362490682288169
00000000: 5321 d23e 0a0b d8bf 9db4 2b6b b07d cb3f
00000010: f9c3 b2d5 ee7d c7bf f81f 4da8 eac3 d5bf
00000020: 54c9 3db5 2253 d53f fbe4 663f 9bde b4bf
00000030: 8ad2 bbc4 f273 cdbf 5383 a454 fa33 d73f
00000040: 3bd1 87ae 7387 e03f ac39 29ea 3f2d dc3f
00000050: 2da8 1e9c 545a a23f 5824 2171 966f c53f
00000060: 8c13 58a7 1549 a0bf c52a 3b81 aee2 d33f
00000070: 400d 24ac 31d6 ccbf b9b7 de62 3544 c4bf
00000080: 7f6d 73af eb0b bc3f 895c 9a39 cd54 dd3f
00000090: e372 86f3 3a98 ccbf 633f a749 8e4e d93f
000000a0: c70b 5367 104c a7bf 265e da56 6ec2 d63f
000000b0: 87b5 8c6f 995f cebf bfd5 eba9 7fa3 da3f
000000c0: d4e5 911d e4b9 a73f 4402 1aaa 6853 dbbf
000000d0: ab72 fc68 4e67 bbbf 7daa 1e6d 6558 d23f
000000e0: 1ed7 3053 06e7 d2bf 956e 034f 80c5 d1bf
000000f0: aaef b959 919a de3f b575 4401 baf4 dc3f
00000100: a903 3419 67bc c9bf 2965 ac78 d869 bcbf
00000110: 91a4 132d 3d09 db3f da8d 5a0a a461 d23f
00000120: c22a 4106 3465 d23f d15f fde5 aa0e c4bf
00000130: dd67 f9d1 c701 c1bf 3d81 6801 c6c8 d53f
00000140: dd73 34c1 ea7a d53f 2735 877f f996 d0bf
00000150: 4c21 b425 6b23 c93f 56ea 2800 61d1 da3f
00000160: a9da 9d2c 2269 d6bf 489d addf 40ef d4bf
00000170: 5338 f6dc 71c1 c43f c59c 430c 15e4 d13f
00000180: e263 e324 3283 aabf 1e47 5b5d 0faf dc3f
00000190: 7819 8f94 ffa0 bf3f e7df 5063 9e7b b73f
000001a0: e706 bfb1 9ebd db3f 00db 3a1f faaf ac3f
000001b0: fbfb 4bc1 f61d a6bf 9694 c192 30e4 dd3f
000001c0: 9c8d 5526 9b38 b5bf 31ca 8d44 e4da d1bf
000001d0: 9475 246a 6089 b5bf 3c7d b576 78f8 ccbf
000001e0: 0b10 a2e9 0ada 953f 756e f582 1d84 cd3f
000001f0: 3c5e 9cff 2839 c0bf 17c7 431f 655b 843f
00000200: 009f 35cf 9f12 dd3f b818 beee 5528 b83f
00000210: b960 ada1 4a1f e03f e8a2 843e 3ac0 ccbf
00000220: efd4 c6e1 8361 e0bf 5f8d 2b06 bd2c 853f
00000230: 71a5 c7cb 878b df3f 3401 a14d d716 b53f
00000240: 5ccc eb0a 9017 c83f 9623 4628 cb5f d33f
00000250: a2e1 7532 0251 c2bf 9ccd da7c beb0 a5bf
00000260: 243f 0abc a0be a83f ba61 243f 67a3 d2bf
00000270: 557d e619 e505 c73f c1c7 75c9 ed3d c8bf
00000280: 2834 e393 a740 bfbf cb00 61a6 1d83 c63f
00000290: b2e4 75be e2ac cc3f d8e7 0386 ada2 cdbf
000002a0: b8e5 c61e e2d3 cdbf d0c5 8dea 5614 d6bf
000002b0: 5440 5d39 c20f bcbf 354a 2adf fcb9 c7bf
000002c0: e491 5838 e36f d83f 379a 18ec c774 be3f
000002d0: 5ca3 9348 0a5e c43f 56d8 f3cc 6cf8 ac3f
000002e0: 34a9 7df5 2b43 c33f ac37 c1a0 1dd5 cf3f
000002f0: 5460 c3af b61d c0bf 819b d6cf 1a85 d5bf

layer_1.edge_model.edge_mlp.0.bias f8 [16]
-0.26337571673119897 0.119045809807857 0.46797177403398654 0.017086919149573263 0.07199781819158554 -0.17924180429406492 0.1478798415641951 0.07555558970411018
0.38943032936530536 -0.16252769099612377 0.0362871814959615 -0.2558609339358175 -0.14390165691971235 -0.17415152793914968 -0.3496227606384115 0.3047676222592302
00000000: a4f2 7ad2 25db d0bf bcbf d943 c979 be3f
00000010: 2f55 3be2 3ff3 dd3f fc4b bfbb 3b7f 913f
00000020: 9626 84f2 726e b23f f16f c23b 65f1 c6bf
00000030: a8c0 a005 baed c23f 4b24 cf72 9c57 b33f
00000040: 9b72 2c30 6dec d83f 51e9 c216 b5cd c4bf
00000050: 390e 94c3 3b94 a23f bb03 e589 0660 d0bf
00000060: 6cba 2797 5e6b c2bf a806 86e6 984a c6bf
00000070: 0945 b824 3860 d6bf b5ea 9e0e 5081 d33f

layer_1.edge_model.edge_mlp.2.weight f8 [16, 16]
0.30030697860321764 0.17443180469957684 0.16762820965756134 0.06846895367710017 -0.15014423233192783 0.3802771400542872 0.15611044448472558 0.029821867644511234
0.27587022812618245 0.29321356216721745 0.1371727362257638 0.32893754798681063 0.29691232515645577 -0.14809990328368638 -0.22334984953374074 0.3121670660909544
0.2946241787150393 0.33160552993729286 0.0634450340988917 -0.013651245117105745 0.15012775635472564 0.10429971686627033 0.12913546354791067 0.10355533130906196
0.3724811565508036 0.3512249669988677 0.3610675320695974 -0.0978532675633941 0.13045812989614602 -0.12340874859336594 -0.24755371818146413 0.27279053664370984
0.19680791849046214 -0.19468728675781727 -0.11089102869296406 0.1790159305702261 -0.2571217372844057 0.03734470885215786 0.006765484732413367 -0.18396781679990679
0.013275834942091669 -0.1509325640801287 -0.021493266573013103 0.17762653179223273 -0.12000945266575035 -0.24696676662326117 -0.06202755334167966 -0.04358564148854421
-0.016191255783360614 -0.1684552398716538 0.10695163789420006 0.09721930608541601 0.027559186645722284 -0.1485148098001859 0.07373720434190564 -0.07569621966096406
-0.3548643032868732 0.09060327279340305 -0.3108134054552582 -0.1686337315184859 -0.2613777024756142 0.01521583914272284 -0.13542349133523315 0.12338673568166449
-0.021608385641910702 0.3832677869631605 0.3934867635288278 0.3591175097585367 -0.2300306256812829 0.3929957682650469 -0.22466674130148964 0.14566633762814335
0.06712349488584869 0.20450183930275462 -0.02026068011244466 0.3497571909235334 -0.04495855788177554 0.21939398232415203 0.05581667223232704 -0.02903443882897135
-0.2015588871615597 -0.21301863846964353 -0.03533659689962241 -0.21513484840209454 -0.16463150549985694 -0.1680161748055253 -0.0006160187927172779 0.06962044060591813
-0.22698177074733097 -0.040319097468354555 -0.06279422454149662 0.23108250726685123 -0.07233631669167348 0.09094285526081379 0.0024594666997618583 0.2039017149442006
-0.043498074656465734 0.2667847023983754 -0.08371066278698917 0.3107541486278659 -0.012792827188106946 0.27947458536542275 0.15497208953728833 -0.05977881781118981
0.3399299749804992 0.052070501622845516 0.1746324932551392 0.30306929999667775 0.02134471834602503 -0.1972834937633161 0.013613364186682476 -0.0020765895603433917
-0.04172282052705877 -0.31037497477326764 -0.002584319506595649 0.04430102825340239 0.21432492664137354 0.10045388399075869 -0.1998323305553595 0.015149314283252202
-0.1787493717416948 0.11468926405445007 0.03711686124296488 0.049959280254635745 -0.18442667436308988 -0.11129203028633719 -0.1482527910601775 -0.12170809574043892
-0.004018200288593171 0.054791302276999194 0.23155194694628647 -0.24322758282669152 -0.05960272450540134 0.006635455092653041 -0.17497166591752342 -0.2064315574575809
-0.24590186374419457 0.05688446985391349 -0.18425830010800007 0.10180525951718283 0.09331788287706203 -0.24330806754467432 -0.1762797581422636 0.1606267143755823
0.08550364033931689 -0.18397189106170195 0.14088491611425952 -0.1872134896385441 0.06184404699539599 -0.18881078572431792 -0.1192107115874865 -0.15041963471066486
-0.17376079756711035 0.06374877270213113 0.212618206928531 0.12009431902514096 -0.0034950942198124506 0.104904768523563 0.10558265975740418 0.062102983607480296
0.13018145951298335 -0.03275680450585377 -0.2422646799539205 -0.22392861404066858 0.08033831726194916 -0.1089415216248718 -0.22725096492413766 -0.18294892940417837
0.19906183912322004 0.03085249504812177 -0.06097037006967577 -0.13517231479385178 -0.2336372355242108 -0.05243875210692552 -0.21494634706777185 -0.19807972933215678
-0.08638837337483085 0.12850426402018328 -0.3906095700559504 0.08436648572220569 -0.0016899258644710467 0.04273504130650792 0.04449097230590503 -0.15713432649430067
-0.299501750878942 -0.2923356647941312 -0.03289085080789273 -0.09840948693622205 -0.36479374764517586 -0.1933320195335243 0.2019115095314438 0.0025359843676341387
-0.16968557116507385 -0.17499194319039518 0.06253525819734075 -0.2182076282760525 -0.11742360595623691 -0.20113003175994038 -0.16272573917061361 0.08740057624327753
0.04467454864578367 0.09496102581733533 -0.07577735800520859 -0.16230381134169086 0.19047019210778887 -0.045584498698928805 -0.1183599580890159 0.12761983341499858
0.1593533657438968 0.013692735027347023 -0.22078329470016844 -0.17076026517500967 -0.028827062860075737 -0.0601753644546459 -0.14776811405004345 0.006087767830063149
0.16660081674287333 -0.10971714624133927 0.09922493425421124 0.12930189563707425 -0.05466279502168828 -0.09835514758359999 0.18597446501626924 0.21353762582519228
-0.11583933251784995 -0.14372266396174782 -0.053506965977515177 -0.09164881357030161 0.19466306831738264 -0.08447464307124644 0.001241641044580638 -0.14742796392819457
-0.13466437208161747 0.024119964741499834 0.047441177377861916 0.02001161681163443 0.10801426750602082 -0.1699615442542193 0.05790323928933296 -0.11144282134945897
-0.08803999196176956 0.3097306359623927 0.21709984021061 0.14524257726985906 0.10792743738237436 0.009225080565169066 -0.05881534955134007 0.3546561227182981
0.2839996870059773 -0.019726127012587018 0.19602901356209526 0.05665479013997863 0.17734366102909235 0.05504110691042969 -0.08608118583130665 -0.0952362933194628
00000000: 0a21 f7c2 3a38 d33f 8b91 4808 c853 c63f
00000010: 85e1 2e57 d774 c53f c1a0 d56c 2e87 b13f
00000020: 5b3a c61b ed37 c3bf d7c5 fced 7556 d83f
00000030: 251e d052 6dfb c33f 438c f4a8 9f89 9e3f
00000040: 247d ef99 dba7 d13f 811e 10d1 02c4 d23f
00000050: ea09 ff4f e08e c13f f4e7 c112 500d d53f
00000060: 07e2 948d 9c00 d33f 0475 9208 f0f4 c2bf
00000070: 192f a855 ba96 ccbf 4dee ef92 8bfa d33f
00000080: f648 0c5f 1fdb d23f 1038 9066 0639 d53f
00000090: 5160 8c0a ef3d b03f 5e06 9f1a 2ff5 8bbf
000000a0: b8f8 e1e5 6237 c33f 7535 ece0 62b3 ba3f
000000b0: f695 58c8 8287 c03f 7b82 4c29 9a82 ba3f
000000c0: eac3 7034 bbd6 d73f cd1f b348 787a d63f
000000d0: feb9 78fe ba1b d73f f2d3 fd67 e90c b9bf
000000e0: b85c b31c dab2 c03f e1b0 3f3b b797 bfbf
000000f0: f5d9 cb19 d7af cfbf e5c0 6270 6675 d13f
00000100: c253 c17a 0031 c93f b630 c954 83eb c8bf
00000110: bff4 a7bd 5a63 bcbf 678d a177 fee9 c63f
00000120: e08a 2ebb ae74 d0bf bab6 657e d81e a33f
00000130: 9f45 adfa 1fb6 7b3f ff07 56e6 418c c7bf
00000140: 201e 3a67 5c30 8b3f e912 501d c251 c3bf
00000150: 23ab 0fb4 5402 96bf a78a 7958 77bc c63f
00000160: a706 6982 f0b8 bebf 3a42 ec64 9b9c cfbf
00000170: 8358 1b52 13c2 afbf f875 8971 db50 a6bf
00000180: d066 48c8 7094 90bf dd56 0bf9 f08f c5bf
00000190: 7a5c 02bb 2e61 bb3f 9c3a 2d4c 5de3 b83f
000001a0: 3515 64b5 7938 9c3f 6a1f 8885 8802 c3bf
000001b0: c69e 2501 71e0 b23f 8fea dfd3 d360 b3bf
000001c0: f3a2 48c4 18b6 d6bf 56e8 8ead c631 b73f
000001d0: 9fad e5e8 5de4 d3bf 6bea ef44 ca95 c5bf
000001e0: 1254 028b 69ba d0bf ff57 fe5b 7b29 8f3f
000001f0: 3d8e 3295 8e55 c1bf 6150 83ea 4596 bf3f
00000200: c1fe 9a36 8220 96bf 117e a79c 7587 d83f
00000210: 0df9 301b e32e d93f 395e f501 c8fb d63f
00000220: 5e94 30bf a471 cdbf 9c8b 0ab9 d726 d93f
00000230: e3c3 3139 e1c1 ccbf 1ad8 1ece 31a5 c23f
00000240: 19f4 535f 012f b13f 967a e3c3 1d2d ca3f
00000250: a621 e939 37bf 94bf 82ac 23fc 6b62 d63f
00000260: e61a 8edf ce04 a7bf 62be 821d 1a15 cc3f
00000270: 2569 9ebb 0094 ac3f b59e e934 34bb 9dbf
00000280: e1dc 497e aecc c9bf 4831 d5da 3144 cbbf
00000290: 1d56 1270 a317 a2bf 09f7 0ee9 8989 cbbf
000002a0: 3cae 012a a512 c5bf 5f8f fed3 8d81 c5bf
000002b0: 0bb6 c248 8a2f 44bf 6a18 892b a5d2 b13f
000002c0: 39f0 1219 bd0d cdbf 89c7 0f6a b4a4 a4bf
000002d0: 778d c844 4813 b0bf 79c4 b191 1c94 cd3f
000002e0: 6efb 8002 a284 b2bf 1f6a 26ed 0748 b73f
000002f0: 4c83 5021 e025 643f d74e a48e 7319 ca3f
00000300: 234e 2d30 6145 a6bf 80f1 f724 0013 d13f
00000310: 5b21 ffde 0f6e b5bf 12fe 5c5e 65e3 d33f
00000320: cc9e 2b33 2033 8abf 274a 0d5f e9e2 d13f
00000330: f77e 2d1c 20d6 c33f 6636 fc46 549b aebf
00000340: 792a 5ea7 69c1 d53f 3ce5 1c1b fca8 aa3f
00000350: 0cc5 ac87 5b5a c63f ec11 fac6 7c65 d33f
00000360: a13b f4cc 63db 953f 2085 e0e4 9540 c9bf
00000370: 0741 c3cf 52e1 8b3f ece7 f687 ec02 61bf
00000380: 7f39 528b b15c a5bf fd78 89ff 2edd d3bf
00000390: f07c 6cf8 b52b 65bf 1a19 0ed7 9fae a63f
000003a0: d636 52cb ff6e cb3f be19 7f82 58b7 b93f
000003b0: f798 3516 1b94 c9bf 9326 3a8b 9a06 8f3f
000003c0: f8d2 e768 42e1 c6bf 9cf0 508e 465c bd3f
000003d0: 6160 5632 fb00 a33f 7795 a645 4394 a93f
000003e0: 3b23 7313 4b9b c7bf 62a0 626e a27d bcbf
000003f0: 9b74 928c f2f9 c2bf 5616 dd02 4328 bfbf
00000400: 39a8 406d 6375 70bf b919 c506 9b0d ac3f
00000410: 85ce ba83 7ea3 cd3f 13e6 dcd8 1422 cfbf
00000420: faa2 0191 3f84 aebf e551 df69 c72d 7b3f
00000430: cbd3 6bb7 7865 c6bf 8442 126a 596c cabf
00000440: 0944 6757 b679 cfbf a080 5813 f61f ad3f
00000450: 317e 7da6 c695 c7bf 54e5 2fd4 e80f ba3f
00000460: c2c4 1647 aee3 b73f f689 7a00 b824 cfbf
00000470: dc7a 15ca 5590 c6bf 1cb4 8d8a 6a8f c43f
00000480: 8741 f20a 91e3 b53f f323 bf13 648c c7bf
00000490: f6ef 9a55 8408 c23f eb0c af93 9cf6 c7bf
000004a0: 9a53 98de 05aa af3f 86b4 e8aa f32a c8bf
000004b0: 7ee4 99db 9784 bebf e318 e159 f340 c3bf
000004c0: b355 7037 cb3d c6bf 4371 eaed d651 b03f
000004d0: da66 a5ca 1237 cb3f a5fb a554 80be be3f
000004e0: 4168 db6b bea1 6cbf a7ce 00f6 09db ba3f
000004f0: 75c8 ae16 7707 bb3f 8903 2857 f6cb af3f
00000500: 19b0 933b c9a9 c03f 67f1 25f8 7fc5 a0bf
00000510: 2762 b06e 8702 cfbf 55bd f85c b1a9 ccbf
00000520: 6f78 414d 0d91 b43f 3828 8e70 97e3 bbbf
00000530: e0b3 2a43 8f16 cdbf 4788 50da de6a c7bf
00000540: 5b3a 75bc db7a c93f d23e ede4 cb97 9f3f
00000550: 21d4 f222 8237 afbf 729e ae8f 534d c1bf
00000560: a527 da2e d3e7 cdbf 7341 af8a 40d9 aabf
00000570: d57e 86a5 5c83 cbbf f0b6 bd33 ad5a c9bf
00000580: f847 6666 8c1d b6bf 8a7e aee5 d372 c03f
00000590: 7f46 3948 bfff d8bf bd29 0ec1 0a99 b53f
000005a0: 472e 8414 10b0 5bbf 7afc 9b09 5ee1 a53f
000005b0: 1ece 0a4e 85c7 a63f f39d af44 fa1c c4bf
000005c0: b9aa 4764 092b d3bf 8eb1 efa5 a0b5 d2bf
000005d0: 8972 1dd1 11d7 a0bf b5d8 0138 5d31 b9bf
000005e0: b3f6 fadf c758 d7bf 6c43 9586 1abf c8bf
000005f0: 45d0 0f81 3cd8 c93f 054d 823d 58c6 643f
00000600: c3e7 60bd 41b8 c5bf 767a 88d0 2266 c6bf
00000610: 59f3 cd88 4f02 b03f ae78 9741 3aee cbbf
00000620: 0845 5c33 790f bebf 5c81 53fe a0be c9bf
00000630: 6044 fa6f 32d4 c4bf 75ce 9d58 e25f b63f
00000640: 0e5e cb1a 95df a63f 77b2 47a4 5d4f b83f
00000650: 21df 681a 2566 b3bf 9246 dd0c 5fc6 c4bf
00000660: 069f fbc6 5361 c83f d49f 3bf6 d956 a7bf
00000670: f8f3 2595 d64c bebf 4350 6bc1 d855 c03f
00000680: 0054 30eb b065 c43f 7ffd 14c9 ef0a 8c3f
00000690: e8c3 1e83 a042 ccbf a504 31ed 78db c5bf
000006a0: bd21 e570 d784 9dbf 6215 b72c 4ecf aebf
000006b0: c546 9ec8 10ea c2bf 7eae c5bb 7cef 783f
000006c0: 45e2 b2f1 2c53 c53f 9cc0 ea42 6c16 bcbf
000006d0: 7bd0 9127 ce66 b93f 9338 89ea f68c c03f
000006e0: 252a da09 c3fc abbf f1ca 438e cd2d b9bf
000006f0: 8c67 91e2 02ce c73f 633d b16f 3355 cb3f
00000700: c02f c180 a5a7 bdbf 3471 b416 8165 c2bf
00000710: e595 f6d9 4365 abbf e66b 00f1 4b76 b7bf
00000720: 0fc2 142c b8ea c83f 1210 5555 21a0 b5bf
00000730: 1995 82eb d157 543f 0032 cb65 ebde c2bf
00000740: 3272 03a1 ae3c c1bf 0a4e fb6e e7b2 983f
00000750: 91af a4c2 354a a83f 7ef5 fbde ec7d 943f
00000760: c793 70b2 d2a6 bb3f c123 13c5 4cc1 c5bf
00000770: 1309 294e 7ea5 ad3f c3e4 1149 8487 bcbf
00000780: 6e45 37f6 c989 b6bf cac6 0172 a0d2 d33f
00000790: 4bf0 d574 edc9 cb3f 9e2e ae0b 4f97 c23f
000007a0: 9bfc e5ed 21a1 bb3f 1b97 a45a 99e4 823f
000007b0: 13d1 a6a5 0b1d aebf 21ae 1998 afb2 d63f
000007c0: 43f4 f005 0d2d d23f 7e4d 95f9 1533 94bf
000007d0: d17d 288d 7a17 c93f 2d3b a04d db01 ad3f
000007e0: 1fed 2274 32b3 c63f d95b 3b14 592e ac3f
000007f0: b144 f2a5 6a09 b6bf ff08 33dd 6761 b8bf

layer_1.edge_model.edge_mlp.2.bias f8 [16]
0.1841470479473664 0.02482708983198728 -0.24453780718115276 -0.18141559814625186 0.3019528574164888 -0.014785224059077805 0.04609645792323663 0.07000744556312083
-0.16919017538708034 -0.10485047776071245 0.1694523527949754 -0.10892279822260478 0.11415236450395046 0.0018088533806323809 0.1425277022696725 0.17538370411266915
00000000: 8160 4b66 2192 c73f f06f 88cb 456c 993f
00000010: ee42 3dce 034d cfbf fcde 8256 a038 c7bf
00000020: 8e67 e213 3253 d33f 0cd6 612e b747 8ebf
00000030: 88c5 7b76 f499 a73f f48b 2b09 02ec b13f
00000040: 1fc7 0b0f 06a8 c5bf b1c5 f31c 7bd7 babf
00000050: c809 be5c 9db0 c53f 2aa7 2750 5de2 bbbf
00000060: c537 4ee0 1639 bd3f 699f 3c87 e1a2 5d3f
00000070: b1d9 0206 593e c23f 1127 b524 f972 c63f

layer_1.edge_model.edge_mlp.4.weight f8 [1, 16]
0.23995426728356484 0.38267751431709734 -0.027149042624719184 0.004140985484399652 0.3200027124066414 0.16509366082173538 0.37615477702649625 -0.14957974549338318
0.21855686118976733 0.23046190973509859 -0.21574215569781555 0.01600608811280172 0.12214184787205774 0.04747865838418288 0.073436938520372 0.37641230374919515
00000000: f85f 4249 d2b6 ce3f 2d04 3ad4 c97d d83f
00000010: c275 c368 f5cc 9bbf e8c8 a853 23f6 703f
00000020: 89bd 1aa8 ec7a d43f 74cd 0001 ca21 c53f
00000030: c207 647c eb12 d83f f1df 84d9 6d25 c3bf
00000040: eb2f 90d5 abf9 cb3f 179a a49e c67f cd3f
00000050: ad9a 8b5f 709d cbbf 4aee ec63 e663 903f
00000060: f15f 152a b044 bf3f 233a 096a 1f4f a83f
00000070: 966b 4361 c3cc b23f 458c 9aa1 2317 d83f

layer_1.edge_model.edge_mlp.4.bias f8 [1]
0.20928987932072912
00000000: 1e7d 88c1 02ca ca3f

layer_1.node_model.node_mlp_1.0.weight f8 [16, 3]
-0.34252827209140396 -0.14341939683081867 -0.25465938598741555 -0.009696748215501576 0.5430131349772577 0.6667522184824772 -0.17747258911514205 0.43525841415872407
0.15115858405131083 -0.07766136601212656 -0.6349630370620261 0.12825687012952203 0.35173249454391975 0.15064670468061703 0.5093576124941611 -0.16870745297528578
0.6896951826926637 -0.03501089542124268 0.5589692037414545 -0.2790170755789267 0.13530833846747192 0.3543136300106587 -0.48091435574254165 0.24199827665541712
0.4223344629657489 0.6559853593301475 0.3693306845490197 0.5224301944377996 0.28504994372186954 0.00408834643789782 -0.4221496969400652 0.49683682755025355
0.5814115857700172 0.31028783892102524 -0.27527395053251114 -0.3896380800675983 0.3515437613348106 0.32886209617811396 -0.4653785212854402 0.4332242237568792
-0.2614572126992963 -0.5604877713523814 -0.5695621872165829 -0.519030405897677 0.30427369138568394 -0.5726504037115773 -0.2769211259822554 -0.1796610974559061
00000000: 4ba1 a5b3 fbeb d5bf 820d 8019 915b c2bf
00000010: 70dd 9be1 564c d0bf 367b b483 e3db 83bf
00000020: fdd2 0015 5d60 e13f b05d 9dbf 0856 e53f
00000030: 37ce 17fb 6bb7 c6bf fbb6 871b 46db db3f
00000040: 3a49 811b 2a59 c33f 0e4d 2f83 9de1 b3bf
00000050: 2635 cb00 9e51 e4bf 6cc8 589b b86a c03f
00000060: b06c 4002 c982 d63f e03c ed26 6448 c33f
00000070: ab31 f455 a84c e03f 5466 8fb0 3498 c5bf
00000080: a5f5 bba1 fb11 e63f fe02 adb5 f2ec a1bf
00000090: 7b4d 3162 13e3 e13f 6fc5 a86f 6adb d1bf
000000a0: 9c04 4c9c c851 c13f 890f 5b13 13ad d63f
000000b0: 03d5 8501 4dc7 debf 3631 f6ad ccf9 ce3f
000000c0: e557 9a20 8707 db3f 124a 1f02 d5fd e43f
000000d0: 7d07 e32a 1da3 d73f 64b4 f186 bfb7 e03f
000000e0: c2c5 801e 423e d23f 1e86 ed23 f1be 703f
000000f0: d6ed 9729 8004 dbbf f5b5 71b1 2ccc df3f
00000100: 25ba 4c78 ec9a e23f d7c9 2086 c1db d33f
00000110: 3695 bea1 169e d1bf fda8 ca8e d4ef d8bf
00000120: 0eef 8267 b17f d63f 09a8 fe9a 130c d53f
00000130: b4a2 4bfe c2c8 ddbf e6ba 3718 f2b9 db3f
00000140: dd31 7608 b7bb d0bf 6186 f80c 84ef e1bf
00000150: 3f45 e47a da39 e2bf 5fb9 5ea7 e59b e0bf
00000160: ae38 625c 3879 d33f ff6f 7ff0 2653 e2bf
00000170: fe93 ea62 13b9 d1bf 09e2 f784 22ff c6bf

layer_1.node_model.node_mlp_1.0.bias f8 [16]
0.4845618867942366 -0.07454093101763894 -0.0732816108724327 0.4698345281505757 0.515787259281897 0.27676529299774805 0.17150727640617294 0.3690813480233339
-0.3731101849586562 0.7372013120133594 0.015403014026255577 0.2714095395609504 0.46726983672989775 0.49599642093997426 -0.18713413729751543 0.036643945822570995
00000000: d2d5 2adc 0f03 df3f 8924 ef4c 1d15 b3bf
00000010: 5a65 186a 95c2 b2bf 560d 3cd7 c411 de3f
00000020: 21e5 4948 5481 e03f c1f6 85c6 85b6 d13f
00000030: c963 984f f3f3 c53f 5cb9 d45f 079f d73f
00000040: 94ec 8c8a 09e1 d7bf 2c4d b534 2797 e73f
00000050: 9251 058c 9d8b 8f3f 1826 0f1e c65e d13f
00000060: 0061 cabe bfe7 dd3f ffb1 b7c5 67be df3f
00000070: 6e39 d4eb 02f4 c7bf 6c05 cfc9 fec2 a23f

layer_1.node_model.node_mlp_1.2.weight f8 [16, 16]
-0.1030698834531563 0.16986644349428376 0.32165324769313797 -0.13294295583673024 0.043983320575893874 0.32340108643519183 -0.13340303974209766 0.19342109801510765
0.34125848610855497 0.24135624334952924 0.13606525410791503 0.20733284224925136 0.21452304780435563 -0.07782333065058789 0.1686439895002178 -0.18620738606565151
-0.09368935538037848 -0.1233118940880819 -0.14349637316434596 -0.14293372344025768 -0.12228911082298832 0.04447260841507108 0.027661886974176302 0.014195993862925934
0.14298245430570775 -0.20767780697326874 0.02536535202710963 -0.18026236914108 -0.07276781824767072 0.2007157450734339 -0.20123682936134177 0.21529165534802766
0.19892105776391167 0.33950120099745695 0.28043706073143243 -0.20184402137248136 0.2920019708323798 0.19163806535228242 0.0425138331246591 -0.1442328761840831
-0.047739719804168794 0.3310946599791347 -0.07595795299344775 -0.15847183967207348 0.31954925031331477 -0.09258477643555894 0.050953601497189104 0.16603545392362776
-0.10410720570129162 -0.14839275155647624 0.002559604317111714 -0.22630539584914453 0.1028537463317176 -0.19268532064265115 -0.03559884999476077 0.010453090141202763
0.02490602935847082 -0.0280977068817918 0.017488255889875907 0.0725092140852943 0.03275184112475332 -0.10470766395835684 -0.22769777849703954 0.2489039110196742
0.03726492987125543 0.031060538665258444 0.30168372860404336 0.2380560640622728 -0.04483683401557684 0.31347916681928467 -0.10688913521658952 0.24176379160092054
0.1710999907597999 0.24323917876696488 0.30845868650260955 0.14793889453549453 0.16563397472722394 -0.19119762420613734 -0.10011892623065874 0.033510066541352225
-0.010677292378215684 0.10595062887389152 0.09292859283300824 -0.11434444953132766 0.04064926415761441 0.2418685643261234 0.2436953931103206 0.18980798820080672
0.0832755211049994 0.41832189798424313 0.4058407372517569 -0.02063280766849365 0.3319212016815533 0.2673860761495958 0.132093698303416 -0.19471518863900258
0.13016198500604656 0.40913134790088307 0.1737215349178163 0.2832345615517075 0.3219437454236882 0.10953265672436953 0.08978368032822104 0.09252453201838103
0.01153806900627198 0.3174277769369772 0.14567584476849096 -0.17908295857660883 0.02026981610865125 0.11348839657690582 -0.08690567673279855 -0.09388644928341067
0.15169285121534784 -0.13121756274618046 0.13379916879632014 -0.1272279647105239 -0.07895651923156513 -0.09086507616135223 -0.23737268381132046 -0.042188977187104654
-0.08696839084963208 -0.1528183290559539 -0.012128187743137273 -0.03135999177928119 0.232143912493031 0.13358872519311313 -0.18280657224507207 0.017107982693348428
-0.0596610588299977 0.04355742441314543 -0.34344249733479004 -0.06093649635367485 0.1038738507610944 -0.1979605140195621 -0.07668396593253578 -0.15768542729520535
-0.256185336717086 0.040197362184059476 0.07145137828316497 0.24504795113487549 -0.25093283994096205 -0.26234843826135185 0.1388891479902503 -0.07470652771231294
0.0893354205386039 0.23833071443526535 0.36675408271025584 -0.10295493157903633 0.12879034066888662 0.41749352428612835 0.04900701938390021 -0.037343321680717925
0.3663012060699818 0.09412438618921579 -0.07603723686237958 0.19774033882061393 -0.08996010273828521 0.0660258386461133 0.19379539561014114 -0.2151178416571047
0.22695849053522155 0.30958699110501314 0.2579368031944615 0.07594841176754545 0.3861291035669182 0.3663404258967392 0.21547669810299175 0.03158824340870521
0.03870190942517319 -0.06989284190994347 0.2898223886675709 0.1964011604584265 0.0901623062730738 -0.1425329420699726 0.21481338429929578 0.2105940474899387
-0.16559595444035405 -0.1744662504313798 0.09330465210517357 -0.12364917470898962 -0.2293064619662592 -0.2292647478697211 0.07156013122892536 -0.1643946598170158
-0.1834031462629236 -0.22132111135611257 -0.17862888912409602 0.04344152990198437 -0.22453886481148355 0.018929934312583028 -0.14815083978645643 -0.23463340858516904
-0.24586826650321889 0.2409353521810331 -0.06484947920442172 0.06413284301164704 -0.0021644943769638 0.22127363892558696 0.0824924232489678 0.0877662908395796
0.014882978493004288 0.20091710962888865 0.3709711742380533 0.024670744007628635 0.28876624440534626 0.2510867065460402 0.04635058503410685 0.06594829189937224
-0.16448623459772754 -0.21591296644950012 -0.11569531036273056 -0.2255110143585405 -0.2179496430902611 -0.15333685638569905 0.0528950799427585 -0.19125024273985308
-0.191569446261191 0.11364843562139014 0.21985903673224683 0.07741211650127364 0.20896672201178876 -0.09085799992829717 -0.07409261989668336 -0.05279292054453573
-0.16182696837641228 0.04933169115434381 -0.07948215252643658 0.13743442000193673 -0.1142777446501392 -0.09653391187227665 -0.11783093533797478 0.09914388231877977
-0.13039454927056865 0.0939290850741706 0.06624198530322666 -0.13253469352070527 -0.21496799201594013 0.22710979704789774 0.06507196881927445 0.23979807755696025
0.18111157657182428 -0.13006404756199916 0.15176352434968304 -0.04535172630990503 0.06735006988191204 -0.17484911031814238 0.16753757764801935 0.04318366364447987
-0.04277142847091808 -0.13780981713871193 -0.004816209091939472 -0.2355401178425036 0.031061333119459522 -0.14406821009857684 0.07009410223952899 -0.22681271418787338
00000000: 3343 a2b2 c962 babf be75 bf01 2fbe c53f
00000010: 38a1 df80 f795 d43f b5b2 c657 4604 c1bf
00000020: 17ca e256 fb84 a63f 9eb8 6e78 9ab2 d43f
00000030: d48c 70ce 5913 c1bf f867 2ac5 05c2 c83f
00000040: cf65 54d5 2dd7 d53f 1592 efe9 c2e4 ce3f
00000050: 70f9 4114 966a c13f 1273 6cf0 e189 ca3f
00000060: f96a 47c1 7d75 cb3f e893 02d4 3aec b3bf
00000070: f602 c951 2096 c53f b27a b6c4 a4d5 c7bf
00000080: 6890 578d 06fc b7bf bbed 5048 5e91 bfbf
00000090: f1f0 ead2 165e c2bf f0f0 d5f9 a64b c2bf
000000a0: 7843 a4d3 564e bfbf 83cc 6b1d 1dc5 a63f
000000b0: 4b54 99cf 6553 9c3f 8bfd 000b ca12 8d3f
000000c0: c389 92c2 3f4d c23f 7710 87b6 2f95 cabf
000000d0: 19c1 a1f5 5ff9 993f 9588 145a d612 c7bf
000000e0: 5d34 9367 e9a0 b2bf 63fb 70b4 0db1 c93f
000000f0: f7c8 6de0 20c2 c9bf 5526 694d ad8e cb3f
00000100: 0c76 cac6 3e76 c93f bc27 cf3e 63ba d53f
00000110: 3162 1b49 aef2 d13f 2c0e 585f 06d6 c9bf
00000120: 70ed c508 29b0 d23f 6faa ad9b 9887 c83f
00000130: 46c8 cb85 5fc4 a53f dcfc 1b0f 3976 c2bf
00000140: 4fe7 8e2e 5771 a8bf 6066 1fa8 a730 d53f
00000150: cf5b fafb fa71 b3bf d93f 5d24 ce48 c4bf
00000160: f7a5 e3b2 7e73 d43f 3ff0 e5ca a2b3 b7bf
00000170: b372 1628 9716 aa3f 290c 4a56 a640 c53f
00000180: 88d6 c313 c5a6 babf a802 739f 88fe c2bf
00000190: 7570 a51a e1f7 643f df4a 0a41 93f7 ccbf
000001a0: ee0b c484 9f54 ba3f c22b 4a9f e9a9 c8bf
000001b0: d962 0131 033a a2bf 7c8b 6302 6e68 853f
000001c0: f479 4556 f780 993f be7c 9930 a5c5 9cbf
000001d0: 41c3 71fc 70e8 913f 2fae 27bf f68f b23f
000001e0: 187a 076d d9c4 a03f b079 5718 1fce babf
000001f0: 2821 0268 3325 cdbf ff86 d656 15dc cf3f
00000200: b467 2b8e 6314 a33f 34c0 0d77 55ce 9f3f
00000210: bebd 0545 c94e d33f 5687 e100 9f78 ce3f
00000220: 1494 817f daf4 a6bf 80d5 5dec 0a10 d43f
00000230: b28f 0d1c 165d bbbf 8036 24ad 1df2 ce3f
00000240: 1162 54c0 9ae6 c53f 447b f41e 7622 cf3f
00000250: 6488 ac80 c9bd d33f 420d eb64 a9ef c23f
00000260: 5fab 477c 7e33 c53f a2e5 84eb 2979 c8bf
00000270: 8e0e dfd9 64a1 b9bf 4d87 c33f 3b28 a13f
00000280: ff18 98ec f9dd 85bf f905 0196 941f bb3f
00000290: 07c1 1413 2bca b73f 3c57 3787 ad45 bdbf
000002a0: a4ab 53f8 facf a43f b107 db92 8cf5 ce3f
000002b0: d31e cc1f 6931 cf3f 45c7 ebce a04b c83f
000002c0: 730d b467 8b51 b53f 10c0 c235 c9c5 da3f
000002d0: 6f5f 786d 4bf9 d93f c7b2 a448 c420 95bf
000002e0: 0b90 846c 323e d53f 4bf8 1d7d da1c d13f
000002f0: 3845 1c41 72e8 c03f 1f97 9e63 6dec c8bf
00000300: db46 64de 25a9 c03f 172c c03f 352f da3f
00000310: e19d 8adb 813c c63f ef88 bdda 8320 d23f
00000320: 80c6 6ff0 b99a d43f 31a4 790a 550a bc3f
00000330: 0067 b932 10fc b63f 25be 180f b0af b73f
00000340: c7d2 5368 45a1 873f be52 3298 bc50 d43f
00000350: 1186 8c8e 81a5 c23f 2cc1 2dbd 30ec c6bf
00000360: 905f 2155 9cc1 943f 42f6 c557 930d bd3f
00000370: 4574 674f 733f b6bf 34b6 353d f108 b8bf
00000380: 85e2 80dd ab6a c33f 18ed 53b2 bccb c0bf
00000390: ac28 1bc7 5420 c13f 70bf c885 0149 c0bf
000003a0: 42d3 e793 7e36 b4bf 9a28 7602 ef42 b7bf
000003b0: ab78 f764 3a62 cebf 5c65 8a2a cb99 a5bf
000003c0: 6b23 7c7a 8f43 b6bf ff28 c30e 8d8f c3bf
000003d0: 3870 bbcd a9d6 88bf 138f 30b6 6a0e a0bf
000003e0: 3cc0 0f48 e4b6 cd3f dfcc e872 6f19 c13f
000003f0: 42aa a4ac 3466 c7bf 3882 ac48 c184 913f
00000400: 5c05 0af1 e48b aebf 8a74 b4a2 284d a63f
00000410: e401 873d f6fa d5bf 3597 f185 1133 afbf
00000420: 34b1 ed07 7a97 ba3f de82 ce26 c556 c9bf
00000430: 3fcd ce75 8fa1 b3bf e2f3 a43c 092f c4bf
00000440: 5689 ba2e 5765 d0bf e497 eea7 bf94 a43f
00000450: 22f6 fa34 a34a b23f 86bd 0934 bb5d cf3f
00000460: 447c 429d 480f d0bf bf4e 9f1a 51ca d0bf
00000470: 4797 319e 1ec7 c13f 4375 528d f71f b3bf
00000480: 3174 96a5 afde b63f 29de 10f0 9e81 ce3f
00000490: d18f ba1d e678 d73f 6f08 1820 415b babf
000004a0: 2856 9bae 337c c03f eb71 46c2 36b8 da3f
000004b0: f57b 0eb3 7217 a93f 3a75 aff2 a91e a3bf
000004c0: 5594 239d 7a71 d73f 4e52 7028 8918 b83f
000004d0: ed24 9a25 2d77 b3bf c4d0 2a30 8e4f c93f
000004e0: 0dab 3413 a007 b7bf 4610 adc1 11e7 b03f
000004f0: 6c66 219b 49ce c83f 1108 5a3f fb88 cbbf
00000500: 90fb 32cf f90c cd3f 6909 84f4 45d0 d33f
00000510: 87eb 895d 0982 d03f 2b89 b9e8 5a71 b33f
00000520: 32a3 f6d7 56b6 d83f 1e78 1b1d 1f72 d73f
00000530: 5482 b38d bd94 cb3f aac7 c190 552c a03f
00000540: 1539 8c96 bcd0 a33f e64a 3a4e 7fe4 b1bf
00000550: cd73 3e34 738c d23f b55e 8858 ac23 c93f
00000560: 7b58 c67c e014 b73f 6987 65fa 843e c2bf
00000570: bd7e 2746 017f cb3f a4cc 59e9 bef4 ca3f
00000580: c1ea 558c 3f32 c5bf 0ee4 edfb e854 c6bf
00000590: 973b 5b4d d0e2 b73f b070 8de9 78a7 bfbf
000005a0: de09 7405 ea59 cdbf 15f2 1c19 8c58 cdbf
000005b0: 4161 53c7 c351 b23f 5e8b c65b e20a c5bf
000005c0: ba64 9719 c179 c7bf 252d 980b 4054 ccbf
000005d0: a453 74ba 4fdd c6bf a238 6fdc f73d a63f
000005e0: bcec 8584 b0bd ccbf 39e2 2663 5e62 933f
000005f0: 7afe e051 9bf6 c2bf 250e 36b0 7708 cebf
00000600: 73b5 e081 9c78 cfbf ffac 0839 f8d6 ce3f
00000610: c67a 58b8 f999 b0bf 82a3 558f 026b b03f
00000620: 6847 f711 46bb 61bf d97e 53d1 b152 cc3f
00000630: caa8 0534 391e b53f 54e3 d804 da77 b63f
00000640: 9cfc 278f f77a 8e3f e00d 88df a6b7 c93f
00000650: 311d 47e1 fdbd d73f 4e17 b99a 4943 993f
00000660: 9c38 fa69 257b d23f 7fd6 44fa cd11 d03f
00000670: 0371 be8d 43bb a73f 5853 efbc fce1 b03f
00000680: 6ea5 1e8b e20d c5bf d96a d73c 09a3 cbbf
00000690: b4f9 4e36 359e bdbf 4d63 c77f 8bdd ccbf
000006a0: 84af 9f1e c6e5 cbbf ec58 b9c7 8aa0 c3bf
000006b0: 7968 f25c 1015 ab3f bab9 f550 e37a c8bf
000006c0: 0065 4dfd 5885 c8bf 4745 3c5a 1018 bd3f
000006d0: 385e 3f46 5724 cc3f 96e6 afcc 47d1 b33f
000006e0: 2f19 7fea 6bbf ca3f 3ba2 454a 7842 b7bf
000006f0: 70ca 54e3 bbf7 b2bf 6af1 6576 ac07 abbf
00000700: 5bcd 6400 bfb6 c4bf 661c 54e0 0042 a93f
00000710: 8b7b b73d f158 b4bf d463 a079 7397 c13f
00000720: 3ad8 ee67 4e41 bdbf 9745 724a 72b6 b8bf
00000730: 44d3 bb0d 2b2a bebf 8e5a 2854 7e61 b93f
00000740: e6cc 58c2 c4b0 c0bf 6569 898c bc0b b83f
00000750: 57dd 7f18 3cf5 b03f 39df 2097 e5f6 c0bf
00000760: 9e97 b237 1284 cbbf 6a01 760f ef11 cd3f
00000770: cf11 f779 8ea8 b03f bc1a 6012 b4b1 ce3f
00000780: 37c8 2605 aa2e c73f af03 554f f0a5 c0bf
00000790: 0e5f e7b6 fc6c c33f 20e9 a26a 5738 a7bf
000007a0: 3fb0 86ab da3d b13f 068b 46a5 7461 c6bf
000007b0: fcb5 6c10 df71 c53f 8c25 264e 2b1c a63f
000007c0: 50ba f8fc 22e6 a5bf 5ad9 d688 c0a3 c1bf
000007d0: 0035 a648 29ba 73bf efc7 83b7 2d26 cebf
000007e0: 3047 acc7 8ace 9f3f 6821 62bd d370 c2bf
000007f0: c3e1 c2e4 aff1 b13f 2b80 e0f2 3208 cdbf

layer_1.node_model.node_mlp_1.2.bias f8 [16]
-0.014097756700355136 0.23686694127238897 0.3014951018567522 0.20359821845510367 0.13762572041388907 0.22203235306581395 -0.001999904417376866 0.04196238906898616
-0.3759756204844041 0.14216970975230186 0.2787060521779256 0.06634985325920828 0.3391078676869088 0.16255011182331985 0.213562765113088 -0.051081631696018544
00000000: a7c7 ccdf 48df 8cbf 015d 22eb a751 ce3f
00000010: 8c40 981c b24b d33f aeee e4a4 810f ca3f
00000020: 570f 2238 b89d c13f 112a 895f 8e6b cc3f
00000030: 2016 2b82 1a62 60bf bb38 6d21 187c a53f
00000040: 85b9 840c fc0f d8bf f218 eff6 9d32 c23f
00000050: 1f4b d3e8 51d6 d13f 18bb d7d1 4dfc b03f
00000060: 3805 627c f1b3 d53f be03 1f2b 71ce c43f
00000070: dfea e651 0656 cb3f 4116 1f23 5f27 aabf

layer_1.node_model.node_mlp_1.4.weight f8 [16, 16]
-0.1701648128845763 0.23410313708711813 -0.09285011683108578 0.17240177508400675 0.006580196849976995 -0.26199848257950226 0.004803627410550128 0.20155514092053084
-0.12162123790660699 -0.3070872224870854 -0.06701922652079653 0.23789730621575553 0.08166707881301197 -0.23378717436159094 0.07464093876223162 -0.1283942944175907
0.05434414570250874 -0.05567598006923336 0.320782144311289 -0.2175830111099948 0.29787987086356843 0.19734017477917207 -0.06271483356731247 -0.21915703278828988
0.05928605880691024 0.30264822130043956 0.3990033383003739 0.18139617196175095 0.008590832763344741 0.0230826722254363 0.13761257457532158 -0.13074874744025028
-0.39024687415813214 -0.14970728400577 -0.10136856303264649 -0.05428550287799638 -0.12001578799580849 -0.19561167573042035 -0.189879107568892 0.056881972359894076
-0.0025097885071507678 -0.18306580857705518 -0.031203100675178726 0.19238107235335744 -0.3315292630566499 -0.19138252072666648 -0.24026115457306 -0.08916202309668457
-0.07888569722132922 0.15673859190050016 -0.2734607882887615 0.11156531563218904 -0.04731206960310522 -0.40392228010275244 -0.34947148069143164 -0.06609924162718853
0.1385541053497354 -0.37032504016280204 -0.29824216842668805 0.17493854438969414 -0.35593215086657354 0.1348233494687823 -0.08343470440080539 -0.1784934298056145
-0.2186562264038324 0.08899475046152719 -0.1655020505103267 0.12296157862515014 -0.24655103712749224 -0.38570559584460995 -0.01564817183062649 0.009822049336924503
0.012341575738232323 -0.3274568217160868 -0.3921636965276268 0.01252344590378129 -0.014577717681069035 -0.05988520891824018 -0.04456406426749632 -0.10414068401398036
0.3264066355016066 -0.23454730450564262 0.18649916869748037 0.032136070106486066 0.1681765764652912 -0.09654368854592639 0.31554695315819176 0.24758095275910447
-0.18172175502418014 0.2940509723367833 0.16472985339084117 0.19851117142401103 -0.07002097084934035 0.22981211530897575 0.1593835569953467 0.1955399860389138
-0.16815052137768013 0.23058731961335907 -0.002455976215433992 -0.018828790253061493 -0.41206237839945553 -0.14766638751978484 -0.11765100181051472 -0.14159539369863955
0.023639941231761604 -0.3518248339150239 -0.213545669524829 0.11450314348539144 -0.41209436918755593 -0.09405791414067187 0.06163363312426038 0.13738295378589369
-0.3325988064720343 -0.031094365451073427 -0.2942319892875448 -0.21016529170695697 -0.1415725170168493 -0.04271687537229105 -0.08834310694993733 0.009852881495235586
-0.2014628097243165 -0.3582992631860143 -0.11528571862162913 -0.2059657153588171 -0.3258734018700029 0.1565725382802807 -0.1722235008019456 -0.1732314477632811
-0.2583088230694103 0.19398939903771698 -0.08207648518938272 0.08118296531339893 -0.364781627468169 -0.3841986777228345 -0.30150133017123765 -0.23524660283107882
-0.24239538122965648 0.031500475313019874 -0.240266744037366 0.17742726744796944 -0.3236179835891186 0.20189717867290388 -0.17792352545604137 0.2118329829159984
-0.23514040306301917 -0.2470733073675865 -0.31426483442609326 -0.07528370620466514 -0.05592013770219732 -0.0491694680055257 -0.2793338348453938 -0.05170552948772568
0.06794442161403343 0.05889411206776235 -0.38133631866137996 -0.05277558674675819 -0.22424464301420044 0.04259440371625629 -0.14604250885299563 -0.07760153952981769
-0.0425984994134872 -0.0720871024670219 0.17734966356617823 -0.0750998903272343 -0.031838994895748325 0.2677129492524812 0.04627755957308473 0.09456163489873061
0.05615751011936251 0.29571095969575933 0.23359592340337723 -0.10637659526693294 -0.047233142302885354 -0.06758325851993915 -0.0810608363353518 0.07137231373225092
-0.41519008186206496 0.014740774611946564 -0.25747531446939576 0.03659045318682611 -0.3857054381826055 -0.04402721923522708 -0.39514076718142055 -0.24589240894540682
-0.152726424568322 -0.3272468430657133 -0.11004012849272023 0.010865080142818319 -0.1460499603564362 0.023732199062914044 0.22048418327096395 0.19719133503096503
-0.14659249031642366 -0.04751616166258763 0.04887098878115023 0.21866741922039762 -0.03130050787873632 -0.2968349532868135 -0.16855299543935867 0.2039974224828731
-0.15187781398071548 -0.40686945904932376 -0.21782908484355262 0.09373264527671499 0.060566969817834646 -0.1807822344140499 -0.1358612663583501 -0.08685065184585981
-0.29238130532351736 0.22444969832857578 -0.2450798245890753 -0.021023017377591685 0.010950013005813868 0.07528528942045587 -0.1888533800508237 0.05452374336413345
0.20079428501050847 -0.12860730069142592 -0.35344899754083153 0.20765078052013025 0.07413237482536517 0.1428325749324716 0.06837549930138348 0.2134309331073487
0.03688178232237482 -0.24642562391855163 0.07108079323259964 -0.10856021913846683 0.2603667756177094 0.3869526506810319 0.23301784744609122 0.03716613019713024
0.15335176078411283 0.3762141706089494 0.19831486612114807 0.05645270070927138 0.23512505229068473 -0.20907081399466898 -0.16478096862408984 0.16642107889305435
0.406149707469366 0.24321548187352593 0.13963667753535564 -0.1801369094060062 -0.042967739163879276 0.3779480996708548 0.17725989494476463 0.03987097568429964
-0.18614144564997515 0.39020581520617786 0.04986563488110296 0.21208448651016792 -0.05992680010522481 -0.10070722437871836 0.17835095371822102 0.20623461221490716
00000000: a075 22e9 f5c7 c5bf 0b10 d772 17f7 cd3f
00000010: 8f23 3877 06c5 b7bf 470b e1e8 4211 c63f
00000020: e8ac 5924 d6f3 7a3f 27f5 9148 95c4 d0bf
00000030: 4274 16ea f7ac 733f b413 4c11 8fcc c93f
00000040: 5bd3 4ec7 9122 bfbf 1a7f 662a 51a7 d3bf
00000050: 622b 1c0a 2c28 b1bf cb67 003f 6b73 ce3f
00000060: da67 a938 22e8 b43f 71bb 0df6 bcec cdbf
00000070: a530 ed26 ab1b b33f 3a1e c267 396f c0bf
00000080: 4aec 0af1 fed2 ab3f d1e4 23e3 8f81 acbf
00000090: 974b bdd4 b187 d43f 19fa 7096 c2d9 cbbf
000000a0: 09ba dfbb 7610 d33f 1f86 6e5e 7142 c93f
000000b0: f24b 254f 140e b0bf 2fce 4170 560d ccbf
000000c0: 496b 5e07 be5a ae3f ac63 2ba5 965e d33f
000000d0: efac 3f4c 4589 d93f 0000 1961 fd37 c73f
000000e0: d09c 1c0e 1298 813f 8e09 40e9 fba2 973f
000000f0: 07e1 a8f1 499d c13f f2d9 1ffd 5fbc c0bf
00000100: a306 7806 cef9 d8bf d68d 63b8 9b29 c3bf
00000110: d656 1147 4af3 b9bf 900c 0437 4fcb abbf
00000120: 3917 72cc 5ab9 bebf 3b2c fdaa cd09 c9bf
00000130: 03dd 9966 f54d c8bf ba12 0946 a21f ad3f
00000140: e7dd db71 688f 64bf 0258 6d4e b36e c7bf
00000150: bf18 bca3 b4f3 9fbf 2844 1067 f19f c83f
00000160: dfb2 9f83 c637 d5bf 8b06 c6f1 387f c8bf
00000170: b1fb b1a4 e0c0 cebf 43d6 3e85 52d3 b6bf
00000180: 8111 b061 da31 b4bf 26eb 1d9b 0210 c43f
00000190: 3212 9cad 6180 d1bf 6517 0266 8b8f bc3f
000001a0: f485 4d9f 4939 a8bf 54b1 cad5 dcd9 d9bf
000001b0: cc14 1da1 bd5d d6bf ea44 1441 e1eb b0bf
000001c0: 4611 9a13 24bc c13f 5de7 18cc 67b3 d7bf
000001d0: 6491 eb51 6616 d3bf 9c56 7bdf 6264 c63f
000001e0: 9f47 e4a4 97c7 d6bf 1151 5a3a e441 c13f
000001f0: 2abd c00e fa5b b5bf 3a72 c869 dfd8 c6bf
00000200: 5351 bc5e edfc cbbf 0279 bf26 5cc8 b63f
00000210: 0370 2ed3 2b2f c5bf a20b dcf6 687a bf3f
00000220: 7bf4 a000 fc8e cfbf d25a 0286 66af d8bf
00000230: bdd7 0409 1306 90bf e94d 7425 951d 843f
00000240: ec1d 6a41 8a46 893f 3eda 0775 0df5 d4bf
00000250: a1ef d0c2 3519 d9bf fe3f b874 e4a5 893f
00000260: 662b 8625 ecda 8dbf d9cc a22b 46a9 aebf
00000270: 6823 36dd 19d1 a6bf e8ea 05c0 f6a8 babf
00000280: 9350 2ba8 d8e3 d43f 73bc 1b65 a505 cebf
00000290: ffb7 246b 34df c73f 5936 4294 2374 a03f
000002a0: d992 ef5f cf86 c53f 75a1 f050 16b7 b8bf
000002b0: 1fae 0ad9 eb31 d43f 7a3f 9b8f bbb0 cf3f
000002c0: 5279 6691 a842 c7bf 75c8 622b bbd1 d23f
000002d0: 6688 7e2a de15 c53f 4611 9466 d068 c93f
000002e0: 9903 d5f3 e4ec b1bf 4502 bdbf 7b6a cd3f
000002f0: 5d57 682e ae66 c43f a178 8c4a 7407 c93f
00000300: 97ad 0fcf f485 c5bf 6b4b 4ea2 e283 cd3f
00000310: a826 cd30 8e1e 64bf 3ec9 70b9 da47 93bf
00000320: 11cf c8e1 3a5f dabf 12d7 8e70 bbe6 c2bf
00000330: fa27 1e45 601e bebf 5e96 9940 cc1f c2bf
00000340: 7f0d e199 1135 983f 717b e54e 4c84 d6bf
00000350: 58e1 67e9 7655 cbbf 7517 8ff8 1350 bd3f
00000360: f2ae a10f c15f dabf 7f06 2af1 2d14 b8bf
00000370: 9d68 348d 718e af3f c7e6 c4be c395 c13f
00000380: f61a 1f81 4c49 d5bf 1416 cf8a 33d7 9fbf
00000390: 6a54 db68 b2d4 d2bf f85d 513f b2e6 cabf
000003a0: 4ec5 4c59 0c1f c2bf 3c2f 6c7d fcde a5bf
000003b0: 9a50 2d63 a79d b6bf 52e2 585e bf2d 843f
000003c0: a727 9089 88c9 c9bf 2526 6408 60ee d6bf
000003d0: 4dfe 2c67 5d83 bdbf 531c c8a5 155d cabf
000003e0: 54bf ea1c 1cdb d4bf 27c9 aea5 910a c43f
000003f0: a403 c66f 6b0b c6bf 6219 64b5 722c c6bf
00000400: ce7c d6ba 2188 d0bf c59f 5106 a5d4 c83f
00000410: 01b6 a8eb f602 b5bf f56a 0325 68c8 b43f
00000420: 8413 0a0a 9558 d7bf eb1a ff0c b696 d8bf
00000430: 3b4d 323c cc4b d3bf 6dc9 d388 8f1c cebf
00000440: 129a 8ad5 cf06 cfbf ba45 8e8e d420 a03f
00000450: 5f7b fa87 0fc1 cebf 44c8 8dcb efb5 c63f
00000460: 276a fa33 28b6 d4bf 6303 c749 c4d7 c93f
00000470: 87e8 82b5 32c6 c6bf b84e ebda 571d cb3f
00000480: cbdc 8faa 1419 cebf 15de 6d1f 19a0 cfbf
00000490: b125 8940 ea1c d4bf fd19 1200 cb45 b3bf
000004a0: 56cd 3c75 90a1 acbf 6245 1792 bd2c a9bf
000004b0: 5df1 5405 9be0 d1bf 7223 58ac 2579 aabf
000004c0: 0d25 c73c ce64 b13f 5818 847a 5e27 ae3f
000004d0: ce5e 5b72 d067 d8bf ef85 35d6 6605 abbf
000004e0: b84b 0668 0cb4 ccbf 0a6b e805 efce a53f
000004f0: 5cb9 ac5b 85b1 c2bf 7c5a 66ca b1dd b3bf
00000500: 68e0 ad73 78cf a5bf a92b 8fe3 4c74 b2bf
00000510: 5996 7cce 64b3 c63f 187f e314 bf39 b3bf
00000520: e926 a163 334d a0bf cb53 707e 3522 d13f
00000530: 0a68 cf39 b1b1 a73f c1a9 58f9 3035 b83f
00000540: fb5f c65a adc0 ac3f 6692 3da9 edec d23f
00000550: e58a bfa1 78e6 cd3f d436 bb1d 7f3b bbbf
00000560: 83d7 f442 f12e a8bf 1eaa 19ed 224d b1bf
00000570: 72f7 0b29 67c0 b4bf f6e2 51b9 7445 b23f
00000580: 0627 ce6b 7992 dabf 8215 0247 6930 8e3f
00000590: 8018 cbbd 797a d0bf 7504 91df fbbb a23f
000005a0: 908d b8dc 65af d8bf fa8c 7f55 bc8a a6bf
000005b0: 4613 1780 fc49 d9bf bea9 6007 6779 cfbf
000005c0: 19c3 601b 8a8c c3bf 56ef 2bbe 9cf1 d4bf
000005d0: 05b6 1f01 972b bcbf 94f9 0d5f 6e40 863f
000005e0: 0e10 a8dd c3b1 c2bf 8879 59eb 404d 983f
000005f0: 4b8f 3762 d338 cc3f 069c 81cf 903d c93f
00000600: 35c6 dfef 8ac3 c2bf 3d99 bed0 0954 a8bf
00000610: fc91 1345 9e05 a93f 564c 2043 4bfd cb3f
00000620: 05ee 5fc3 9e06 a0bf 9f4c 2b08 58ff d2bf
00000630: 6506 8701 2593 c5bf 4720 0469 961c ca3f
00000640: 9e7f 0472 bb70 c3bf 67ea 1633 260a dabf
00000650: 3ea5 c2cd d2e1 cbbf 88f3 07d6 dcfe b73f
00000660: 06bc 2b45 a202 af3f 86c9 404c df23 c7bf
00000670: 6ab0 e6e7 e663 c1bf af72 5025 d83b b6bf
00000680: 10e2 1414 60b6 d2bf d18a f588 c4ba cc3f
00000690: d07e c293 c65e cfbf 5865 66d0 0e87 95bf
000006a0: b686 01de f56c 863f d045 ee8f e545 b33f
000006b0: 2257 87f9 582c c8bf 7f7a 353d 89ea ab3f
000006c0: d902 ac8b a0b3 c93f b98d 3f3b 3476 c0bf
000006d0: 917a 4f8b e89e d6bf 9a52 a9ff 4c94 ca3f
000006e0: 4823 73dd 56fa b23f 3cb8 117b 5648 c23f
000006f0: 64dc 5885 0e81 b13f 474e d36e b451 cb3f
00000700: e01b c941 2be2 a23f 9933 d0f5 df8a cfbf
00000710: f0c8 4ed2 5932 b23f aaa7 d83e 9aca bbbf
00000720: d68d 8f68 d9a9 d03f 84a2 f10c d5c3 d83f
00000730: dc27 1561 87d3 cd3f e35c 6e63 7007 a33f
00000740: 2007 adce 07a1 c33f 33a9 c399 e413 d83f
00000750: 8285 26ac 6162 c93f 9767 a24e 5ee7 ac3f
00000760: 2186 07e5 9318 ce3f acdd 531a d5c2 cabf
00000770: 8330 9ff3 8a17 c5bf 5cf8 9a31 494d c53f
00000780: e318 b757 5bfe d93f d88a 4356 af21 cf3f
00000790: ce10 ab59 9ddf c13f 93c4 59eb b90e c7bf
000007a0: ecdc fb14 deff a5bf a3fc ea39 4d30 d83f
000007b0: 7a0f d7c5 73b0 c63f bf52 3ff1 f769 a43f
000007c0: 4c97 bf9e 7bd3 c7bf 5d40 c1cf 21f9 d83f
000007d0: 1069 040e fd87 a93f 7a6a c69e 9525 cb3f
000007e0: 9534 36bd b9ae aebf 8f72 2ddb f2c7 b9bf
000007f0: c60f b73c 34d4 c63f 1515 6251 e565 ca3f

layer_1.node_model.node_mlp_1.4.bias f8 [16]
-0.30655286599985115 0.2766778932740375 0.046291143503170026 -0.1364609720627198 -0.2757353089603906 0.12063324533778416 -0.1887232790845048 -0.1815800096580017
-0.13485979466177148 0.0048387613459596815 0.18213792192999656 -0.33519211748150074 -0.010559784387617217 -0.3953418805671789 0.13494457232488502 0.2665729020964693
00000000: 3db9 7de9 8f9e d3bf c5d7 c831 17b5 d13f
00000010: d690 e106 79b3 a73f c449 189a 8d77 c1bf
00000020: df96 95b5 a5a5 d1bf a63f 8903 d2e1 be3f
00000030: d0b6 d49b 1528 c8bf 5c53 8b85 033e c7bf
00000040: fd0c cff3 1543 c1bf c8a6 be1b cfd1 733f
00000050: 887e 06a1 4b50 c73f 3971 9da3 c973 d5bf
00000060: d7f0 c744 5ea0 85bf 689c f107 484d d9bf
00000070: 393c 741e dd45 c13f eb43 20ca 870f d13f
