src/meta_layer.pth (torch, 93213 bytes, 88 tensors)

layer_1.edge_model.edge_mlp.0.weight f8 [16, 6]
0	0x3fadb9c46af28ed9	0.05805791669379596
1	0xbfd44a2201df6c55	-0.3170247095383208
2	0xbfd240fa9163b95f	-0.2852159900493429
3	0xbfb72f33df25acbf	-0.0905640048783196
4	0xbf44da0c81e6b193	-0.000636345011846328
5	0x3fc16a12abd3e017	0.13604958906194106
6	0x3fb0bccdabebccf3	0.0653809113244284
7	0xbfc60b76de807bb7	-0.17222486366605746
8	0xbfcd745a38d7d8ff	-0.23011329436821623
9	0xbfcef881f8c42664	-0.241958853214146
10	0xbfb68451ad18db03	-0.08795652843478412
11	0x3fc2d6262532a6f6	0.14716030899335636
12	0xc00b26508b703fcc	-3.39370831428821
13	0x3fc8767441f9f043	0.1911149332189571
14	0xc01194cba622a25e	-4.3953081091536585
15	0x3fc29b626fcbdaf8	0.14536695917896458
16	0xbf9905670684f411	-0.024434671185407156
17	0x3fcd635448da7b94	0.22959378773972772
18	0xc001dcb95b76f4d7	-2.2327754159619917
19	0xbfd7dee1bf213c4f	-0.37297862687131994
20	0x3fd887dba0980846	0.38329210932727553
21	0x3fc93dde8320c0c3	0.19720059778911123
22	0xc007e23ab533d7a4	-2.985463538784602
23	0xbf7990f9a87324a7	-0.006241774775113707
24	0x3fe86c972ae6aecf	0.7632556760704235
25	0xbf9034440022bffc	-0.015824377544674903
26	0x3f853ab433771968	0.010365875073045941
27	0x3fd261f413383adc	0.28722860218924295
28	0xbffbd93d4a02c7e8	-1.74053696547025
29	0x3f9025e3ba5258cf	0.015769537207767578
30	0xc01040a3ebd80173	-4.063125310000362
31	0x3f96ebd0b778bb5e	0.0223839389784034
32	0xc012d9af5cf7cabc	-4.712583019851703
33	0x3fc135c3238c9c66	0.13445319400600225
34	0xbfd1b728e093706a	-0.27680417948955116
35	0xbfa7986b3e948802	-0.04608473910253964
36	0x3fd6af9f423cc46c	0.3544691225861871
37	0x3fc406d7d5dfda72	0.1564588350590444
38	0xbff3fef64340a203	-1.2497465731668178
39	0xbfbd92dac334038e	-0.1155220724649679
40	0xbfd1381858752f44	-0.2690487731786002
41	0x3fa88aadc314dfae	0.04793303495756561
42	0xbfb8f7195f75c5bd	-0.09752043324058142
43	0xbfceb3b99cbb94dd	-0.23985977318731147
44	0xbf8989773f64918d	-0.012469226476760987
45	0xbf2ead7df0d35a60	-0.00023405229914060226
46	0xbf7e88d2af774c31	-0.007454703321360377
47	0xbfc01ef274912655	-0.12594443027255645
48	0x3fe34114f5750b00	0.6016945642553253
49	0x3fb4d69de3fa4832	0.08139979186879101
50	0xbff84a4e1c345a8b	-1.5181408979166544
51	0xbfb682cd83f5629e	-0.08793339225429483
52	0xc010ae4d4542de37	-4.170216638761807
53	0xbfb5a0884664b835	-0.08448077887143841
54	0xc013cce4dfc3089d	-4.950091835287961
55	0x3fb59eca637ba085	0.08445420197279148
56	0xc0165cd6b990722e	-5.590662860337529
57	0x3f809068f50c9e30	0.008087940195380033
58	0xbfd0f93cc43af207	-0.2652122417746629
59	0x3f85496bd405598e	0.010393946082939445
60	0xc00976aee7024694	-3.1829507873124587
61	0xbfcc1675f1eaf5ec	-0.21943544685738858
62	0x3fe07bcbe8af9f4c	0.5151118797921099
63	0x3fba48a0343a8837	0.10267068171609216
64	0xbfde11c718bd5474	-0.46983506599401115
65	0x3facb96d5e086ab4	0.05610219738828928
66	0xc00fffd66dbad16f	-3.9999207089078292
67	0x3fa861f2eb6b0c49	0.04762229083782949
68	0xc012ef4110a22710	-4.733646640679368
69	0x3fb8d9625d5b80bb	0.09706702021822171
70	0x3fb59074f74fd6f5	0.08423548734557669
71	0x3f319bd332fcbbd7	0.00026868730764112225
72	0x4003a90380ffc2aa	2.4575262144138224
73	0x3fa46155d08cfb24	0.03980510874543189
74	0x400a2aa3ef107ba1	3.2708204914956274
75	0x3f7b11b809c46b52	0.0066086949339262
76	0x3fdbabf6df9dcd1b	0.4323708709482205
77	0x3fad1aee96f390df	0.056846099783599995
78	0x3fe37953e4983c04	0.6085605110873762
79	0xbfc35e2aae2e5792	-0.15131124024327086
80	0x4004624c6c2a0c15	2.5479973268825327
81	0x3f113e519dc8583e	6.577847620578643e-05
82	0x400561fa5fd3c1f6	2.672840832376319
83	0xbf9ff4f8f3feb7c2	-0.0312079333231663
84	0x3ffdc64a1d3edc92	1.8609105245975894
85	0x3fc68d34bba5d2bc	0.17618426477897298
86	0xbff80bdbc4148343	-1.5028951320056911
87	0x3fa86004cac6eb49	0.047607564690642486
88	0xbffd390a6f8f40f3	-1.826425967960003
89	0xbfbbb70cf45a963c	-0.10826188054724012
90	0x3ff86fe9702d45c5	1.5273222333820382
91	0xbfb782905c823627	-0.09183599718581857
92	0x400611f76a97ad58	2.7587726905382333
93	0x3fbbb7e64feab369	0.10827483607381584
94	0x3feb0ca949b9543e	0.8452955665512787
95	0x3fa07a58042c90f9	0.03218340922311031

layer_1.edge_model.edge_mlp.0.bias f8 [16]
0	0xbfccff50bd577766	-0.22654160733412282
1	0xbfc33f159d3c79af	-0.15036268403578165
2	0x3fd473e727186b07	0.3195741540709353
3	0xbfed0a98ee7fbb8d	-0.9075436266119695
4	0xbfb272cb163bccb8	-0.07206410687267606
5	0x3fc6519c89f20405	0.17436558471311528
6	0x3fe69fdb7de0f23f	0.7070138414924897
7	0x3fa68622e863dfca	0.04399212919992086
8	0x4002a53e54f656b8	2.3306852948834056
9	0x3fc07f2c2b2172e0	0.12888099771489347
10	0x3fd7517cefcdb19b	0.3643486348944635
11	0x3fd0ce7d4cbaf2f4	0.26260311597052
12	0xbfc5203ac18c4e29	-0.16504606676663627
13	0xc00e39a10b708d66	-3.7781391996119735
14	0x3fefafa6df891673	0.9901918760230742
15	0xbfb4b027381ef590	-0.08081288452281954

layer_1.edge_model.edge_mlp.2.weight f8 [16, 16]
0	0xbfaf6f3dae7d3b64	-0.061395576047849315
1	0x3fb45ab5459905f6	0.07950909566081762
2	0x3fbe0d5e5d35e3f1	0.11739148879668428
3	0x3fd1259a0d16afde	0.26792002943215987
4	0x3fc88efc77471148	0.19186359237768102
5	0x3fd2d7e5bc77e841	0.2944273319732283
6	0x3fc9398ecacb86e5	0.19706902410603458
7	0x3fab9a23c5f23c42	0.05391036788307037
8	0x3fc455343b1efd72	0.1588502205540681
9	0x3fdb433b5bbfa93e	0.4259785076125303
10	0x3fcb04fab7519235	0.21108945799928028
11	0x3fd1747da9da3f86	0.2727350386348849
12	0xbfca7684d6f36c67	-0.20674190993927086
13	0x3feacdc5f547630a	0.8376188078501354
14	0x3fb60c1a6ce37adb	0.08612218054211544
15	0xbfb3dfc68b5d6be4	-0.07763329412902881
16	0xbfa5beb9c9a9bac8	-0.042470746867243
17	0x3fc1faae44181968	0.14046266865643564
18	0x3fa1baba82e27251	0.03462775085174442
19	0xbfaca716c5c17931	-0.0559622875596112
20	0xbfb6b77a51908bd7	-0.08873714915584628
21	0xbf96ef451055f570	-0.02239711677747408
22	0xbf9e04d366b739bd	-0.02931528391291648
23	0x3f97f92ce887d566	0.02341146630529547
24	0xbf8319f5b774cf64	-0.009326858197347306
25	0xbfbf84102c7bb17e	-0.12310887418761315
26	0x3fbaafb7d3f71af6	0.10424374508793818
27	0xbfb8a9b26b98e584	-0.09633937003026999
28	0xbfbc18f358ca345c	-0.10975571553918101
29	0xbfbb55b86a6c22f0	-0.10677673910334895
30	0x3fa6610149a35528	0.04370883964444722
31	0x3faa4af17123cd1b	0.0513530207262198
32	0xbfa73584b9c7e00b	-0.04533018844443867
33	0xbf5646be9d379572	-0.001359640261278852
34	0x3fba969d51f4e299	0.10386069537060862
35	0x3fb7c0b71c3bab52	0.09278435172352076
36	0x3fcc2a3886e2586d	0.22003847681179725
37	0x3fcc1dc530fc9838	0.2196585168068752
38	0x3fc4425e5388bec4	0.15827540472809265
39	0xbfb22e48aff235af	-0.07101873679694991
40	0xbfa0c05a8dd28e09	-0.03271754246932452
41	0x3fdfa9de60f1486c	0.4947429606155598
42	0x3fb03942fcc5995d	0.06337374373615519
43	0x3fd4e5681f2d5a13	0.32650187534946545
44	0xbfd06939fd4f4912	-0.2564225171783089
45	0x3fee9336f177ee84	0.9554705349141419
46	0x3fb8cbbd7c20b4b4	0.09685882835829568
47	0xbfb59e87ec94388f	-0.08445024038175773
48	0x3fc0966782d86e61	0.12958997620522708
49	0xbfb2025f2f6b6fa3	-0.07034869106013146
50	0xbfaffb3227e61f85	-0.06246334778830857
51	0xbffe9849c3fa2159	-1.9121797232965803
52	0x3fb0a8ef00e0e2dc	0.0650777222771341
53	0xbfce167432f30746	-0.23506023872146836
54	0x3fc25a5cc8e1db1e	0.14338264282897567
55	0x3f98c8d9c66b7539	0.024203684554654024
56	0x3fc2de4456eac1b1	0.14740804904932994
57	0xbfbfcc286f82904f	-0.12420895311748946
58	0xbffdaca569436403	-1.8546499358983517
59	0xbfcc04f2b9693a95	-0.21890100529931958
60	0x3fd200be92f4d695	0.2812954363938414
61	0x3fe8f7a89ff7bbf1	0.78023177379316
62	0x3fb8f9aac11c5be5	0.09755961622828087
63	0x3fddef8cc71ea467	0.46774596638949223
64	0xbfb9b987932ee03b	-0.10048720687234518
65	0xbfc232ce8136a647	-0.14217549618961042
66	0xbf837a2ff5a82a22	-0.009510397610047742
67	0x3f82eda72add9ee7	0.009242349620492486
68	0xbfb53a4b1f424989	-0.08292073739202101
69	0x3f833640558c3a39	0.00938081990309768
70	0xbfba00723ce84d65	-0.10156930911062075
71	0x3fb7b0e8b65909ef	0.09254316760874536
72	0xbf8ff0336dd04f94	-0.015594865597485165
73	0xbfcb79f9881fc36c	-0.21465987345393545
74	0x3fa63552f3bbc7bb	0.04337558007490779
75	0x3f5890279e838280	0.0014992129236405527
76	0xbfc92f1c2dd6ec62	-0.19675018537768368
77	0xbfbc11e8261088c8	-0.10964823655425271
78	0xbfb05ada9a72b034	-0.06388632078841355
79	0x3fa83e60bb71e0e2	0.04735090530533782
80	0xbfb3390d079639dc	-0.07508927760338885
81	0xbfb8479e3c561bb3	-0.09484280560546558
82	0xbfa23a61074064ad	-0.035601646552274026
83	0xbfc0962028ca892b	-0.1295814704108776
84	0xbfc469eea2ccc631	-0.1594827933236487
85	0x3f8a580bfe80b102	0.012863248543077525
86	0xbfc36015458bd86d	-0.15136972328008672
87	0xbfb276278d430c9b	-0.07211539458062292
88	0x3fac621560b31065	0.055435817770132435
89	0x3fa192f9aef061a0	0.034324457745415815
90	0xbfbb718f7e970097	-0.10720154610226228
91	0x3fb43461c4433c0a	0.07892428437774882
92	0x3faa85c2c1de3701	0.051801763692408194
93	0xbfc4f38cd5bd81d5	-0.16368256031547782
94	0xbfc4ec104c79f273	-0.16345409139821107
95	0xbfc03d2c0bdf3f13	-0.1268668230027222
96	0xbf93529d469764e3	-0.01886983626704798
97	0xbfc0479107cce9a8	-0.12718403702622294
98	0x3fc59846211cf164	0.16870953194473792
99	0x3fd6868f2be04873	0.35196284565711905
100	0x3fa3cd115d8018ed	0.03867391840326371
101	0x3fd4e97b02e1c3cb	0.32675051957545226
102	0x3fab41e012f4099b	0.0532369635711973
103	0x3f82dc0a39141354	0.009208755366225375
104	0x3fc21e9df9e36060	0.1415593595654654
105	0x3fe102e4e892582a	0.5316032926955405
106	0x3f83115fdd39210b	0.009310482920355875
107	0x3fc67101554f49d8	0.17532364526284883
108	0xbfc38ae0c57c9bf2	-0.15267572062404572
109	0x3fee4b338f3a0983	0.9466798589131006
110	0x3facc22e40134877	0.056168980905241854
111	0x3fa4c9b138d774aa	0.04060128992907981
112	0x3f8f829e543d1050	0.015385853715663839
113	0xbf8596e0f54c39c9	-0.01054168461407991
114	0xbfa0e6d20053ac92	-0.03301101926793949
115	0xbfb751d9013742a1	-0.09109264640506833
116	0xbf845eba004169c1	-0.009946301586912011
117	0xbfc8fd162f1ca647	-0.1952235918081888
118	0xbfaf7a21cc22ba92	-0.06147866837396977
119	0x3fa7c21bd617a3d3	0.04640280712539604
120	0x3f8e100ecbb782d6	0.014679065315193734
121	0xbfc5ed63747500ba	-0.17130702196482678
122	0xbfc091fc664b879c	-0.12945513720393087
123	0x3f9b24ab2d5320a1	0.026507067338372384
124	0x3fafac002a0b11e0	0.06185913575385249
125	0xbfaa4e1c57edbb2b	-0.051377187474704954
126	0xbfcb8030c0e94668	-0.2148495618771904
127	0xbfc38c67e585201b	-0.15272234637291224
128	0x3f7b519a92cda579	0.006669620325604136
129	0x3faf62a6321f36af	0.061299508684539254
130	0xbfff74eb073dfe8c	-1.9660444529435237
131	0x3fbf64922f4f9b7c	0.12262834219982993
132	0xbfefde467f629540	-0.995883225249294
133	0xbf9f78586642a9f4	-0.030732518426399083
134	0x3fef7521841a5794	0.9830482082495444
135	0xbfc1e9e2df339e3b	-0.1399501409389233
136	0xbfe75f013c3ff3d8	-0.7303472687486829
137	0x3fd3ffd57f7e0872	0.31248986673757095
138	0x3fc22e53848e4d0d	0.1420387646909166
139	0xbfc8bbbc79d19288	-0.19322925518203626
140	0x3fd43485e35d17ce	0.31570574954491526
141	0x3fdd95a8f295dcf1	0.46225951852780073
142	0xbfeb1515f0dc4b70	-0.8463239387805128
143	0x3fc2a5f931acdef6	0.14569010663557663
144	0x3fb0f3dd9cde1531	0.06622109489224638
145	0xbfb32463f32fd0c8	-0.07477402388741716
146	0x3fd04b2d827622a4	0.25458848705651804
147	0x3fc145562f4537fb	0.1349284869015149
148	0x3fab1f2259e7e178	0.052971909975840725
149	0x3fc2fac93d039677	0.14827838401031432
150	0x3fc67ae3751cd604	0.17562525957480102
151	0xbfa97e422fd0b7d7	-0.04979140123064923
152	0x3fc46fa3781470d6	0.1596569382026078
153	0x3fd37e7bf1e206fb	0.3045949804437524
154	0xbf98d442c6afc326	-0.024247210862031875
155	0x3fd4c41a62c6ab83	0.3244691815004261
156	0xbfbd88b3de5e8c25	-0.11536716631830808
157	0x3fe8453447054e8a	0.7584477793811442
158	0x3fbb967441d0aebb	0.10776449782195645
159	0xbfc483a74f89391a	-0.16026774772257896
160	0xbfb6158ffc6a9ddb	-0.08626651680480484
161	0xbfc1bbe2ae63e7d7	-0.13854630961560474
162	0xbfd5f00dd64799aa	-0.3427767365050395
163	0xbfc7c0a9fe4073e6	-0.1855671397651399
164	0x3fd15dea0a03fcd4	0.27135706880649235
165	0xbfde55a1efcb2b8f	-0.4739765969977094
166	0xbfe4a135adb62cb9	-0.644678916244991
167	0xbf9aa59816050471	-0.026022316307038943
168	0xbfe369216c1df02e	-0.6065833198222259
169	0xbff0b2a84e341207	-1.0436175398655239
170	0x3fe281c2b47125fc	0.5783399128205811
171	0xbfb7b82b42b80557	-0.09265394572141382
172	0xbfaf501d12aeb388	-0.06115809300476999
173	0x40015c32dcc093f4	2.1700188871641277
174	0xbfe1049a750c7061	-0.5318119321923512
175	0x3fd67eaab46971bb	0.3514811288676147
176	0xbfb70018b8b5e323	-0.08984522351773853
177	0xbf9c57d9bf9054ca	-0.02767887336456879
178	0xbf9c807793dfbddd	-0.027833813095581184
179	0x3f96c7f5443af40e	0.022247154511877247
180	0x3fc63b24ed51fd5f	0.17367993915466237
181	0xbfc8bebca8746ea6	-0.1933208296330708
182	0x3fb5c4a69491e006	0.0850319016188906
183	0x3fb781b17b5abd6d	0.09182271253188441
184	0x3fb528eb2c755c02	0.0826556190053083
185	0xbfe0068578414782	-0.5007960652094285
186	0xbfc584379ad4ba37	-0.16809744892221243
187	0xbfcaf376d1b73f65	-0.21055493583707655
188	0x3fd3965d99ff1874	0.30605258978574246
189	0x3ff3cb26f3b7aaed	1.2370976944172825
190	0x3fc9f4815835d90b	0.20277420813699396
191	0x3fa22d813d406d05	0.03550342438412638
192	0xbfb5cab41a80ded9	-0.08512426039748834
193	0xbfadde2936e2c6bc	-0.0583355788707087
194	0xbfa32e54c207781a	-0.037462853131487076
195	0xbfbd95193dbbb8ba	-0.11555631405983294
196	0x3f6c107ac4e521b1	0.0034258268198394605
197	0x3f808544129ad0be	0.008066684549114075
198	0xbfb3ac013254eb6b	-0.07684333304216089
199	0x3f9e95b940d5e255	0.0298680253813209
200	0xbfc8c685e0adefc0	-0.1935584399287773
201	0xbfbcea494b68e3ee	-0.1129499253373891
202	0xbfb4016adcb3070f	-0.07814662826697492
203	0xbfbb9b12dbf4b9b3	-0.10783498640078086
204	0x3f7adaf222eaeecf	0.006556459279348294
205	0xbfbe6ca0b5b2eb0e	-0.1188450282669857
206	0xbfb5d8a918c02d49	-0.08533722738518636
207	0xbfa4df8a5f7b008e	-0.040767978816348735
208	0x3fbe59e8cd7d4da5	0.11855940834839503
209	0x3fac399961f0fe17	0.0551269466454835
210	0x3f96d93d09c11165	0.022313073845240967
211	0x3f9318c0eafc73dc	0.018649114935317943
212	0xbfc13edfc5c27f1b	-0.1347312656043805
213	0xbfb701c0f0debd45	-0.0898705089627941
214	0xbfa9e81d84113319	-0.0505990241732432
215	0x3fb1ec58e56417e0	0.07001262283674192
216	0x3fbe1dcc2e5a72f7	0.11764217502281925
217	0x3facc3caa073295c	0.05618127068153697
218	0x3f7b980823513676	0.00673678568734958
219	0xbfa3286774602328	-0.03741763396835146
220	0xbfc2c988162c1694	-0.1467752559912482
221	0x3f92671e740e771a	0.01797149260857287
222	0xbfaa5fe2fe017f26	-0.05151280737550072
223	0xbfb14a0ac7725a18	-0.06753604287437331
224	0xbfb9e819bfe93b51	-0.10119782386139532
225	0xbfbc3ec3306f2e1b	-0.11033267910459481
226	0xbfa1daeab433bcd1	-0.03487332772953667
227	0x3f92eef251b6184a	0.018489633786451777
228	0xbfb2efc61fe08e48	-0.07397115972758528
229	0x3fa1958a4bcf2ccc	0.034344026331007166
230	0x3f96968f09d552c8	0.022058711028267536
231	0x3f79e30ef21e2cf9	0.006320055372167171
232	0x3fb0529df912dc1b	0.06376063662433788
233	0xbfc3e93c65b3b10f	-0.15555529561914525
234	0xbfa4ba67d9c093d7	-0.04048466237171738
235	0x3fb6dc87aa307b2d	0.08930251984609745
236	0xbfbfd06afc2dc964	-0.12427395493231114
237	0x3f99cecc69713d20	0.025202936111154206
238	0xbfc3e86409fb57ff	-0.15552950370209825
239	0xbfb91708610f7ca0	-0.09800770158425332
240	0x3fbea25af4c89acc	0.11966484523928073
241	0x3fc253d601fe7500	0.1431834707008548
242	0x3fc32f9426016bc1	0.14988948684444206
243	0x3f62e3a6b052ddfc	0.002305818141930647
244	0xbfb1b1862d1fc15f	-0.0691150531927227
245	0x3fb24b7a99a463f5	0.07146421671895083
246	0x3fb7796834096286	0.09169627447534809
247	0x3f97b552a60a1120	0.02315262926505668
248	0xbfa416f9494812a6	-0.039237775989055465
249	0x3fd992e4f7496eae	0.3995907225523564
250	0xbfc5546df6d2855b	-0.16663908531067304
251	0x3fc384d7c24407f5	0.15249154077179097
252	0xbfd69c0608558314	-0.35327292264814614
253	0x3ff205fea3a15645	1.126463545971448
254	0x3fa2ac7983d60ef8	0.03647212728813359
255	0xbfd29e9b5465c2db	-0.29093058816856193

layer_1.edge_model.edge_mlp.2.bias f8 [16]
0	0x3fbb68659ace8498	0.10706172017536841
1	0x3fa8de7fadbfbb16	0.04857253070792049
2	0x3fd026e0c7e7ea39	0.2523729278761127
3	0x3fd59e91ebefdc25	0.33780334511488014
4	0x3f96143f8a66785c	0.021561615774423934
5	0x3fb280722eb8bfc1	0.07227243080774227
6	0x3fbec92929078ae4	0.12025696994491458
7	0x3f5f21d301053421	0.0019001541696355222
8	0xc0161ee0fba29dd5	-5.530155116844488
9	0x3fbdc75ceb367940	0.11632328741550158
10	0xc001d229b6fe7142	-2.227618627204863
11	0x3fd235677af90e80	0.28450953492231434
12	0x3facd843d147ac6f	0.0563374703377456
13	0x3fab5d73d2f1eb04	0.05344736051571
14	0xbfb3442a08d526d5	-0.07525885310783605
15	0x3fd1e9c02917d444	0.27989200604435305

layer_1.edge_model.edge_mlp.4.weight f8 [1, 16]
0	0x3fd2f9aebd825194	0.2964894152330768
1	0xbfaa79cc6c268701	-0.05171049900242331
2	0x3fd1b0fc534e247b	0.27642734656598805
3	0xbfd776bb4d62fb96	-0.3666218047837274
4	0xbf93534fc5ef4db9	-0.01887249608610173
5	0xbf610fd11d2be8c7	-0.002082737374959984
6	0x3fd00ef721952e97	0.25091341285290397
7	0xbf9e12a678fa3b6e	-0.02936802018535494
8	0x4001eafcc144cd7f	2.2397399043199466
9	0x3fc76e39e8fba867	0.18305133701443596
10	0x40009853acc01978	2.074378347027217
11	0xbfeaccd9c9a17dad	-0.8375061929800062
12	0x3f9fcc4f080ea1a7	0.03105281340290991
13	0xbfa5560250ab8164	-0.04167182192554966
14	0xbfad280b0aaff02d	-0.05694612985095691
15	0x3fc479a58a438378	0.15996236086996496

layer_1.edge_model.edge_mlp.4.bias f8 [1]
0	0x3fba1e68de94c7bd	0.10202651437864936

layer_1.node_model.node_mlp_1.0.weight f8 [16, 3]
0	0x3fd23a8e75b492d0	0.28482400412239617
1	0xbf94afd52f99953c	-0.020201998739499447
2	0xbff823f9d89262c9	-1.5087831935726845
3	0xc00de1f4edbaa320	-3.7353304455358654
4	0x3fa8e3c2e538f49c	0.048612680894146026
5	0x3fa614e539bb3b64	0.04312816934326838
6	0xc00f663d551e4e0e	-3.924921669947941
7	0x3f7f361a1b649d58	0.007619955044254688
8	0x3fda3ad3b8b84d89	0.4098405174165341
9	0xc01349ca9de255a6	-4.822061984004369
10	0xbfa74f6ebd7416a2	-0.04552789747871812
11	0x3fd9db8ae5fcb0a2	0.40402481517481637
12	0xc00df55215f8f0f1	-3.744785472545225
13	0x3fc89fee12f585de	0.19238067556129484
14	0x3fd0133138a2dd6b	0.25117140322568926
15	0xc012a90ec7ef566f	-4.66509544752408
16	0xbfa410a098aa2caf	-0.03918935645659737
17	0x3fd6720e495a28ed	0.35071141398715505
18	0xc01178b54b080026	-4.367879078257863
19	0xbfb28e6ac2432b3c	-0.0724856113694558
20	0x3fe00a1ee2fdef51	0.5012354310451689
21	0xc00060b9fad4b045	-2.047229728332271
22	0xbfc41f942ef16ae4	-0.15721370975628368
23	0x3f6651a0f4108d46	0.00272447048384242
24	0x3fabf11f97982ec1	0.05457400060194351
25	0x3fd24333ea055797	0.28535173276520126
26	0xbfd81570494bbf91	-0.37630850942422805
27	0xc00f452299c17358	-3.9087574016724993
28	0x3fcc5f59910b0b59	0.2216598470896212
29	0x3fce8bbc18130b18	0.23863936591632107
30	0xbfc57039e53624c5	-0.16748737041442588
31	0xbf930759f4394e18	-0.01858273079990455
32	0xbf87e41a56885cc6	-0.011665540471808799
33	0xc0120c0a92b5167a	-4.511759083082888
34	0xbfb8e8a3d988d812	-0.09729980526830698
35	0x3fe2c094c25e2331	0.5860084339375132
36	0xbff44ccb81085cf2	-1.2687487640703776
37	0x3fb6e18e8b913c34	0.08937922389417069
38	0xbfc0914371ad075a	-0.12943308878498777
39	0xc00e8a573b2edc91	-3.8175491927791616
40	0x3fa96ba236fe175e	0.04964930459304527
41	0x3f9e042c4a515e96	0.029312793766023214
42	0xc00c1420d3154a3b	-3.5098282328483754
43	0x3f99ee55d066d2f6	0.025323239178493183
44	0x3fca524faa8a2480	0.20563693835382324
45	0x3fe14cd61d996e32	0.5406294420349183
46	0xbfe24b56e28b30dd	-0.5716967034036561
47	0x3fd1d3c3fcd95bab	0.2785501450757077

layer_1.node_model.node_mlp_1.0.bias f8 [16]
0	0x3fe4a87baba36e27	0.6455667831718913
1	0xbfcb39fdd6c5481c	-0.2127072619137501
2	0x3fb4bb446b9cfecb	0.08098247172619748
3	0x3fea5a7fc02c7feb	0.8235472443957382
4	0xbfcdeb5e7f486b86	-0.2337453958033075
5	0x3fea4a93c09dae6c	0.8216036569624072
6	0x3fed9dd4b23c325f	0.9255164605288647
7	0xbfb04b8b78b30cc2	-0.0636527223278334
8	0x3fe0319fc8b3e485	0.5060576362585755
9	0xbfb9d8ec756e66b1	-0.10096624247526155
10	0x3fbe02a3230dc5cd	0.11722774129682208
11	0x3fe8e35243ab2bd9	0.7777491876271326
12	0x3fea310d7503f7b6	0.8184878621539073
13	0xbfdaf3d74c08292a	-0.4211328737734613
14	0xbfdc640c104d35af	-0.44360639182999767
15	0xbfe994ba7157cd1b	-0.7994053090791654

layer_1.node_model.node_mlp_1.2.weight f8 [16, 16]
0	0xbfab497e35786348	-0.0532950821181602
1	0x3fc5d850feb324a4	0.1706639522219905
2	0x3fd312c6bcf9b974	0.2980210156882983
3	0x3fe3580bc0bccb2b	0.6044977917102633
4	0x3fc8e9c7e8a77c7c	0.19463442668982
5	0x3fdfb27de7c60c23	0.4952692759908947
6	0x3fe454088ce7ac36	0.6352579834032273
7	0x3fc1f5474c28f11c	0.1402978059649137
8	0x3fb72d56625f9f1c	0.09053554441163353
9	0xbfa9364e96ff4bc4	-0.049242454464227176
10	0x3fb2b9fab0b24944	0.07315031827809998
11	0x3fd7a96b2bacc755	0.3697154928696496
12	0x3fa54515e3599331	0.041542705538438425
13	0x3fd0dc36546da35d	0.263440687608229
14	0x3fcc5cb7ebfde5c0	0.2215795423797271
15	0x3ff647a5d1daed89	1.3924921224086992
16	0xbfc08b2d6d4aad8c	-0.12924735867032344
17	0xbfad755659c5f422	-0.05753583761086413
18	0x3f7fcac195a9effd	0.007761722745836861
19	0xbfafd6411a4397e2	-0.06218150563817894
20	0xbfb15aec94761dab	-0.06779364227815303
21	0x3f8bcf7c24a3320e	0.013579339855277286
22	0xbfc9fe4e2a8d27e2	-0.20307328298286992
23	0xbfa01d50035e50ee	-0.03147363701933324
24	0xbf9f1e3a17b27122	-0.03038874406466719
25	0xbfb86c943cf20762	-0.09540678489613932
26	0x3f9819de0d40092a	0.023536176260685306
27	0xbf6e19c657a15ef9	-0.0036743997452893776
28	0xbfab3e4b0a66d4d2	-0.05320963384603207
29	0xbfbf0debf1387917	-0.12130617751288174
30	0xbf5c29ffddae90fe	-0.0017189978304737448
31	0xbfa10489ce189613	-0.03323774948902893
32	0xbfabcf83ffcf17d1	-0.05431759355228361
33	0x3fcd3c458ff8c629	0.22840184717056047
34	0x3fbc1fdf99e8f845	0.10986135013169569
35	0x3fe1f48758c73e0b	0.5610996946288095
36	0x3fc41d50c9784301	0.15714464032546263
37	0x3fddb2d530946d4e	0.4640400862133064
38	0x3fe3a9cff61992b1	0.6144790465010229
39	0x3fc07e7cbb4daee9	0.12886008401562002
40	0x3fb7a72a2173afa6	0.09239447895714523
41	0x3fa2107c9a52a393	0.035282033766015485
42	0xbfbf99050c9e526c	-0.12342864568774709
43	0x3fe11bb93aef173b	0.5346342230848004
44	0x3fcbb1dd18478baf	0.21636546788712738
45	0x3fd3124b9f793acd	0.297991662727253
46	0x3fcab980810e8271	0.20878607083888626
47	0x3ff5c0ef24e8a87a	1.359603065657693
48	0xbfb4098cc77a5f65	-0.0782707201964264
49	0x3fc991fa36d8f00a	0.1997673766908295
50	0x3fccc338a157612e	0.22470767858499968
51	0x3fd9e3c5149625c4	0.404526968101518
52	0xbfa85359f89af2f8	-0.04751092109424876
53	0x3fe5fd17c99bed34	0.6871451318433288
54	0x3fd96b67387cd286	0.39718037144056273
55	0x3fc2b46e65ec8b3e	0.14613132454641148
56	0xbfba1de6c3bff8c7	-0.10201875952768368
57	0x3fbd606870264b3b	0.1147523187449168
58	0xbfb26f98630057c2	-0.07201530854248886
59	0x3fe32e4b9c4b679b	0.59940128828315
60	0xbf88499331473c12	-0.011859083119729195
61	0x3fbcfbabda9c9bf0	0.11321519934845958
62	0x3fc6df7e1c2c6629	0.17869545341163587
63	0x3fbffe7653b45efb	0.1249765352589484
64	0x3ff5b20d270b30be	1.3559695744652767
65	0xbfe2db863fd852e5	-0.5892974135373065
66	0xbfc3be5676818267	-0.15424614702625947
67	0xbff26d16737f2303	-1.1516327392184287
68	0x3f54b0fc8fcd3bd6	0.0012629000113581943
69	0xbffc7ddc08a46729	-1.7807274186693098
70	0xbfe8fa0321e19776	-0.7805190717451598
71	0xbfb9e7007996a221	-0.10118105858294558
72	0x3fd3bcfafd6b4c8a	0.3084094500347382
73	0xbfb4fd8201f6d6f3	-0.0819932226939633
74	0x3fc275dd2f47b8ea	0.14422192391015837
75	0xbfb5f560f3b1cc56	-0.08577543210576385
76	0x3fa5776dfd9ac62f	0.04192680092581857
77	0xbfe43b27e6e059b2	-0.632221175127418
78	0xbfc8b1d59ef2774b	-0.19292707692232577
79	0xbff49c943d4c4ae1	-1.2882273096517383
80	0xbfd0c83ee05c8f21	-0.26222202215488905
81	0x3fc85a8e39dea1b9	0.19026353669802434
82	0x3fba63bb11c55d8f	0.10308427032338428
83	0x3fe33b8b457fd398	0.601018558255066
84	0x3fa09d3dc47502bd	0.03244965575368528
85	0x3fe475e02e450ea7	0.6393891242700719
86	0x3fd7f77db5d1e8f7	0.3744806552491719
87	0x3fb602988ef2bfd6	0.08597711076686151
88	0xbfc35052055b45c2	-0.1508886839060733
89	0x3fc3d9005c9a2dfa	0.15505985757441448
90	0xbfc2f623ce96fe4b	-0.14813659274476473
91	0x3fdcfd6cabb32f0e	0.4529678036458201
92	0x3f9b59f18a310ca8	0.0267102947802981
93	0x3fa03d6494a58585	0.03171839060338314
94	0x3fb29e97eb62b8a4	0.0727324437782238
95	0x3ffd01b1af2318b0	1.8129135934155265
96	0xbfa89eaee5010398	-0.04808565659960279
97	0x3fc303735cff84c6	0.14854280510829748
98	0x3fb1a517346693f3	0.06892533330262988
99	0x3fe0758f1eacf41c	0.5143504714138802
100	0x3fc32037a3aed23c	0.14942069523171309
101	0x3fe29652f3ad1458	0.5808501014040628
102	0x3fe04201dd2ad640	0.5080575294184158
103	0x3fc1c3d79efc899b	0.1387891317654749
104	0x3fb57b88e970acea	0.08391624163839465
105	0x3fc2555722f35be8	0.14322938162396714
106	0x3fa0cb074f01cf2c	0.03279898490373365
107	0x3fd657e0db78d99a	0.34911366875476235
108	0x3fb4cfd704fb6393	0.08129638549452371
109	0x3fc8571eb932c48c	0.1901586918152457
110	0x3fc9a0fcf9cd23fb	0.20022546956377582
111	0x3fb811ee3831b1e9	0.09402359840323239
112	0xbf897d4c997a496f	-0.012446020540015394
113	0x3fd17da6bd1cc5d3	0.2732941481400221
114	0x3fc228827824887a	0.14186125627844942
115	0x3fe0627dc9bc777d	0.5120228710327265
116	0x3fc5d064d21cc563	0.17042217502015963
117	0x3fe676917db1b6e4	0.7019736723866257
118	0x3fdbe809c0062f4a	0.43603748085364613
119	0x3fb56e96f66157fe	0.08371871485846324
120	0xbfc058ae60fd3ac0	-0.12770633445548718
121	0x3fbf3deb0ede3a9b	0.12203854668607976
122	0x3fc09677472492a2	0.12959185575268345
123	0x3fe2e52a8783c374	0.5904743811389452
124	0x3fc0667fc2be995f	0.12812802323351044
125	0x3fc2bc8022bcb05e	0.14637757965226944
126	0x3fcba66f51a84d27	0.21601668822459283
127	0x3ff34cb425787e9d	1.2062264884661211
128	0x3ff903f1c8be0b24	1.5634630052088108
129	0xbfcd6632a6e3742a	-0.22968133114673722
130	0xbfb636e94543b970	-0.08677537861851703
131	0xbfd2585494a928ce	-0.28664125936178386
132	0xbfa3ab2b86498c0e	-0.03841529859780489
133	0xbfd4b93b25affe95	-0.3238056057016164
134	0xbfd0172bc43bc28e	-0.25141424334928153
135	0xbfc3e61c68ecf349	-0.15545992968864145
136	0x3fc6f1f347d55b70	0.17925873763553168
137	0x3f3c314fb04807fa	0.0004301852752918164
138	0xbf90b1ea8039660c	-0.016303695751366518
139	0xbfe297368e956885	-0.5809586319767425
140	0x3fc97b8a55da2b52	0.19908265296938993
141	0xbfc8083b0178167b	-0.18775117465718325
142	0xbfa192c4ae5d770e	-0.03432287815551947
143	0xbff399aae2c2baa3	-1.2250164850080771
144	0xbff035cad88d63fa	-1.0131329020571216
145	0x3fcc0b53a6137c66	0.2190956650656261
146	0x3fd0050f077ceff1	0.2503087590337137
147	0x3fe3fc6022facd33	0.6245575602719441
148	0xbfae6b465f9df708	-0.05941219250870061
149	0x3fe2baf30b5ced50	0.5853209707196729
150	0x3fe21d5b2070648d	0.5660834916663063
151	0x3fd80cea450619f2	0.375788276105964
152	0xbfb414f31ff2f875	-0.07844466714866079
153	0xbf71b86d936bef08	-0.004326274901128142
154	0x3fa2e1067cc7f439	0.03687305710989403
155	0x3fd54c863fd4b875	0.3327956794117946
156	0xbfba04b2f687c232	-0.10163420218283006
157	0x3fc0db9f66921d98	0.1317023516496476
158	0x3fc8907a4414fbd8	0.19190910648646198
159	0x3f74d4df40ad5e14	0.005085823135992058
160	0x3fd1b440c81b95ed	0.2766267732789334
161	0xbfe1ac3f1b0c4258	-0.5522761848715829
162	0x3fc06bfab5aaf7b9	0.12829526777744407
163	0xbfd27e24e32391e5	-0.28894922429597464
164	0x3fd3bdd5dfd3f849	0.30846163614467464
165	0xbfe23e2e193434f1	-0.5700903408302606
166	0x3fac5fa25a0d460d	0.05541713094011067
167	0x3fb1762ff0d9b94c	0.06820964460505258
168	0xbff27c455bf06ef8	-1.1553395835280167
169	0x3fd074daff4ab6d1	0.2571322911343091
170	0xbfa4b724a5e74332	-0.04045977139651881
171	0xbfabe6256ab7eeee	-0.05449025085178315
172	0xbfcc075d81f747d3	-0.21897477003091
173	0xbfe374ce49352219	-0.6080085210642806
174	0xbfc27951a751344d	-0.14432736081872335
175	0xbfac500cd04dbbd8	-0.055298233440104816
176	0x3ff25292fa4550df	1.145159700031449
177	0xbfe3911ee5eb84a6	-0.6114649286866054
178	0xbfd697e628c2fbc8	-0.35302118282919226
179	0xbff1246f761639f8	-1.0713953602568136
180	0xbfb796bd6b140670	-0.09214385856832918
181	0xbfefe1c3f1bd818f	-0.9963092538346688
182	0xbfeff7f9d7ad4743	-0.9990205013693657
183	0x3fc31ba1f841c615	0.1492807829086337
184	0x3fd4261c13f1dc4d	0.3148260302327273
185	0xbfbed37d9bc00034	-0.1204145913361579
186	0xbf8bf1a23c06fc4c	-0.013644473511588505
187	0xbffa8fbda1ab6fde	-1.6600929560872753
188	0x3fb1d00c1c1c6e51	0.0695807999258531
189	0xbfde223e4a2b4bec	-0.4708400463397868
190	0xbfda6135eec7de70	-0.41218326872283395
191	0xbff2e1151af3e642	-1.1799517681923963
192	0xbfdba7a7347af62b	-0.4321077358725655
193	0x3fc55c69d6176e35	0.16688273385703814
194	0x3fb0fbbd35edc1de	0.06634123388881316
195	0x3fe3f6cfa78ef531	0.6238783142686427
196	0x3fc52fabda0311d2	0.1655173124801324
197	0x3fe3e01d79edd3e1	0.6211078053880749
198	0x3fe248d65af5e9a1	0.5713912750791686
199	0xbfb52d1612bbc289	-0.08271921117171578
200	0xbfc495a9b46d751f	-0.16081734952869284
201	0x3fbcdc1160a6f2b0	0.11273296937629129
202	0x3fb230f2f969e5be	0.07105940427017907
203	0x3fe0beaae5c95b7b	0.5232748497027012
204	0x3fa3dfa0d1aa5fbe	0.038815522760330165
205	0x3fd210894686583a	0.28225929152666007
206	0x3f9e4e877f04b9e3	0.02959644043692745
207	0x3fd6ae784ea86a27	0.35439880067284196
208	0x3ff0ffd842a004ab	1.0624621012250752
209	0xbfeb7c0af1689fbc	-0.8588919367803025
210	0xbfcceb59a06d1577	-0.22593231519037335
211	0xbff295035c0e61b6	-1.1613801570839377
212	0x3f944caed681187e	0.019823772280027623
213	0xbff73f21508ca52f	-1.452912630697323
214	0xbfdbd41e2406bcd8	-0.43482163923449724
215	0xbfbb4a2544ab5444	-0.10660012175078842
216	0x3fd861402f9f4e35	0.3809357132970235
217	0xbfb5ad8ba3ada0f5	-0.08467934366274561
218	0x3fbae0dcd4bd03e0	0.1049936313038553
219	0x3fbb40dc04a3268b	0.10645842660155773
220	0xbfb1f06e626f57f9	-0.07007493880459482
221	0xbfde07f51a2e7cf5	-0.4692356830291396
222	0xbfc3928ac9884e6c	-0.15290961113406654
223	0xbff286c458aa930d	-1.1579020942237463
224	0x3ff578cc1222c57e	1.3419914921217635
225	0x3facdfaf5c0f815d	0.05639408110414721
226	0xbff16fe795dc76a7	-1.0898204664185103
227	0xbfbe8456ee4f7982	-0.11920684164167564
228	0xbfe7b507cbdcacce	-0.7408484441451948
229	0xbfb4511d4576c86c	-0.07936270662210781
230	0x3fb75c0d965a022b	0.09124836846059085
231	0x3faa56ef4bcf6f46	0.05144450951021766
232	0xbfc09087a4a93d63	-0.12941070118038586
233	0xbfe8e67a8ea11f92	-0.7781346116762384
234	0xbfbcc0ebde494e15	-0.11231874634659562
235	0xbfc10daff66db0eb	-0.1332302048935
236	0xbff358879f20926f	-1.2091137138278574
237	0x3fd2f1273ba4f655	0.295968826528996
238	0x3fdf2bfd304415e0	0.4870598765704397
239	0xbff399aaabf76f6f	-1.2250162808840874
240	0x3f82ae8a8e7706f5	0.009121973488507499
241	0x3fd42f73c5b1855a	0.31539625459671117
242	0x3faae721e6d2fbbe	0.05254465048482569
243	0x3fd71b0acdc413e1	0.36102552503899515
244	0x3fa9c6d810fde5a5	0.0503451843969274
245	0x3fe06bd543059408	0.5131632145900094
246	0x3fe3aa97641fbfd3	0.6145741420314103
247	0x3fc2c3541c223654	0.14658595441544497
248	0xbf9e408697a6eae4	-0.02954302120790943
249	0x3fc9b2cf690ea4d4	0.2007693541502592
250	0x3fb6c5001c5c54e8	0.08894348804854568
251	0x3fd91b5c33d33685	0.39229493199386695
252	0x3fc4223312df5619	0.15729368611816666
253	0x3fc1b5c355eade21	0.13835946746051866
254	0x3fbee2bcca5a0892	0.12064723911501776
255	0x3fc033c20713fd06	0.1265795263825355

layer_1.node_model.node_mlp_1.2.bias f8 [16]
0	0x3f82d9f021b6ece2	0.00920474627388618
1	0xbfbe482e2f366d2a	-0.11828888561870046
2	0x3f89687ef04ce385	0.01240634127462826
3	0x3fab963054ebbfd6	0.05388022457725554
4	0x3ff8cdcac83a1d61	1.5502422162406548
5	0x3fa0db3727aa2064	0.03292248114763721
6	0xbfbd73003dece02a	-0.1150360251602939
7	0x3fb2183fe1e980c6	0.07068251862938543
8	0x3fefc09d4a6c3375	0.9922625020568449
9	0x3fcf9e4dd7635464	0.24701855675690176
10	0x3ff3949dd77d70e0	1.2237833421304956
11	0x3ffd28c5f8ec77e2	1.8224544261533926
12	0xbfc1067e851e95e4	-0.13301068782781933
13	0x3ff4db18982bbbec	1.3034902519391336
14	0x3fbd89ac6269869b	0.1153819790138421
15	0x3faa180b5668f6ad	0.05096469335374585

layer_1.node_model.node_mlp_1.4.weight f8 [16, 16]
0	0x3fc3d79448fe49e0	0.15501645626188942
1	0xbfcb198b865679cc	-0.21171707210028357
2	0x3fce1b3143ffc07b	0.2352048475290792
3	0x3fb4122d2b205556	0.07840235045326457
4	0xbff9d44ec87089b3	-1.6143329457923812
5	0x3fbe59c1b4ee4ecc	0.11855707804925969
6	0x3fd16a669fe16b3b	0.2721191941579268
7	0x3fd11df6e2779cca	0.26745388141575843
8	0xbfe55ebe2ab3c920	-0.6678152879742676
9	0x3fdca9027ef3a8ce	0.4478155364764803
10	0x40053782237d775c	2.652103688494135
11	0xbffbca8681e764ff	-1.7369446825380803
12	0x3fcfaecce9668545	0.24752198597438216
13	0xbffae644d1608495	-1.6812179735937083
14	0xc000a51e40871ea9	-2.0806241074786453
15	0x3fbdbf7aa13ae448	0.11620298801689544
16	0x3fcaf8da0b6e1097	0.21071935232260294
17	0xbfa11cdcca53cffd	-0.033423328111808794
18	0x3fb409f7e7d2803d	0.07827710542415019
19	0x3fd6de9de1a38e02	0.35733744654700683
20	0xbff94b15524c65cf	-1.5808308806211817
21	0x3fc9cd80d36ea654	0.2015839607604898
22	0x3fc2a07da92cdb1f	0.14552279243954389
23	0x3fb7dc5dcf4ef2ea	0.09320627509346094
24	0xbfedc190b0a5fb99	-0.9298785638965114
25	0x3fe3cc6de84bf8b4	0.6187047516866842
26	0x4008a89a0112b52f	3.082324989684501
27	0xbffdc528c3268e00	-1.860634577090309
28	0x3fbf6e776ce0d071	0.12277933509978013
29	0xbffb3b6d4c24d104	-1.702008531033301
30	0xc003064b0622d00b	-2.3780727843641265
31	0x3fcc9b7b5b2ae2a1	0.22349492980517474
32	0x3fa6669acc508226	0.043751561585171836
33	0xbfbf97deea266258	-0.12341111389685844
34	0x3fcc13dadd9468d4	0.21935592479059685
35	0x3fa2c091ae0e59f8	0.03662543534953849
36	0xbff9b10a3cc533bf	-1.6057226537552507
37	0x3fc18be32a78d488	0.13708152364566595
38	0x3fcf08a1bc558f52	0.24245092102057214
39	0x3fcd444f8bf5b6c9	0.22864717802024462
40	0xbfe45737e9c2828d	-0.6356467786427672
41	0x3fe39a8475619cb9	0.6126119892695875
42	0x4005ae30832567ab	2.7100534673490606
43	0xbfff060746e59740	-1.938971783581522
44	0x3fd3a20c870e62a3	0.3067656821163302
45	0xbffb24d99c04fdba	-1.696496591044577
46	0xbffe3a856321427e	-1.8892873642218144
47	0x3fcf84ea6e083d81	0.2462437665239854
48	0xbfc075fa10666097	-0.12860036659981652
49	0x3fc3e38f68e3ca70	0.15538208600590364
50	0xbfcd592008f9c9ec	-0.22928238333004403
51	0xbfd5c569b9f97643	-0.3401741329342693
52	0x3ff95fe75cc7fa82	1.5859140037788682
53	0xbfc847c5960aa041	-0.18969030214543817
54	0xbfc7a128b6f489c1	-0.18460568364487354
55	0xbfc369068f63e1ea	-0.15164262773011156
56	0x3fe30429e99fdc5f	0.5942582667329467
57	0xbfe3dc3aacd4c7a1	-0.6206334472283183
58	0xc00638a1f4d87154	-2.7776526573708598
59	0x3ffee7afeed61417	1.931564267114714
60	0xbfc2cb2349cbb606	-0.14682427504833145
61	0x3ff94e2c61830dcf	1.5815852936801666
62	0x4000bd3806ad9256	2.09239201752852
63	0xbfc10f1622a854ce	-0.13327290241492168
64	0x3fc62755914b878a	0.17307538599476074
65	0xbfbe6b98b74fadf2	-0.11882929301616921
66	0x3fd03dfbd49a6de4	0.2537831855968007
67	0x3fd1da3cb43b5c69	0.2789451370312635
68	0xbffa5c17735468d1	-1.6474833016459807
69	0x3fb17881a6eb5313	0.06824503255058927
70	0x3fbae42ea417b00b	0.10504428392567904
71	0x3fce04096ae20817	0.2344981929673515
72	0xbfecb7eb89d816a7	-0.8974511806743138
73	0x3fe473ecb44835ec	0.6391509553083643
74	0x40078dda191ee1ca	2.944263645415252
75	0xc0003183187e6e48	-2.024175826414453
76	0x3fd4060afe167732	0.31286883176095437
77	0xbff7368f10c375a2	-1.450820031626201
78	0xc00180a46e3e5947	-2.187813626554234
79	0x3fb673cde01df0e1	0.08770453187566175
80	0x3fc7e71ab50ec92d	0.18674024429999161
81	0x3f97afaebdb7f5b3	0.023131113366607624
82	0x3fca58149d47d291	0.20581300430025753
83	0x3fcebf7c33ef68b6	0.24021866355798743
84	0xbff9d3033a68a106	-1.6140167504873388
85	0x3fcbd05312bc75f0	0.2172950593457439
86	0x3fa1cc3d6811b4c6	0.03476135154128594
87	0x3fb83a1455a5ca89	0.0946362217999114
88	0xbfe9657a0595cd82	-0.7936372860989851
89	0x3fd7dc9e8d1e5da9	0.3728405359374514
90	0x40067b0251a4bba7	2.8100630167386558
91	0xbffcedfa500f813b	-1.80810004495295
92	0x3fc1331f8e328f8f	0.1343726581882234
93	0xbff7956dd09203c0	-1.4739816806106631
94	0xbffef8d706703391	-1.9357519389625149
95	0x3fb11844413b745a	0.06677652924141012
96	0x3fc8c64b3c8b13f3	0.19355144935812482
97	0xbf6c246721dc8461	-0.0034353269865197576
98	0x3fbca0b98104cf08	0.11182746314880998
99	0x3fc10d5c1d03d751	0.1332202092814279
100	0xbff794576d0b4399	-1.4737161883860834
101	0x3fbbffa3e66b86af	0.10936951041687835
102	0x3fd24f39f4065f30	0.28608559446864756
103	0x3fcff98711ab0479	0.2498024784345352
104	0xbfe6d9b0341fa094	-0.7140732782400101
105	0x3fd5928ad49c3f19	0.3370692325852232
106	0x4005ee3aaf4b6d60	2.7413228697675294
107	0xbffc93c6a6c87efe	-1.7860781207054397
108	0x3fd0e54b5b8d8c9d	0.26399501743999015
109	0xbff770de7c1db38b	-1.4650559280664506
110	0xbffccbac794220ed	-1.799725030579846
111	0x3fc83bc7a5819e59	0.18932433682788277
112	0x3fd11e5e09bc02c9	0.2674784750998183
113	0xbfbf7bd4d2da20d1	-0.12298326633220148
114	0x3fc5d672d2b0567d	0.1706069496873858
115	0x3fbee3bcb2b858a6	0.12066249240192181
116	0xbff832ef19d1cc15	-1.5124350555968296
117	0x3fadf4d5ee2e6ccc	0.058508572888251814
118	0x3fbfb64a9faf0f70	0.12387529753237714
119	0x3fcea19ed0956048	0.23930726227513532
120	0xbfe49be2c0a1968d	-0.6440290224388306
121	0x3fd9a85fc1fccd78	0.4009017366799621
122	0x40077ab176591e20	2.934908794970184
123	0xbffc0bb5378ebe7f	-1.7528583688944364
124	0x3fb987e6fe8fec12	0.09972995486161576
125	0xbffb2eb37bc7316a	-1.6989016375619834
126	0xc000d4cd44f67e1c	-2.1039071452830864
127	0x3fa162bc9c1bd3b9	0.033956426674115865
128	0x3fb9b527adcd9f55	0.10042045586817257
129	0xbfbba7b8d4bd3746	-0.1080279845602635
130	0x3fc9e1b07c0e0eb6	0.20219999368065594
131	0x3fc81014267d0842	0.18799068335835228
132	0xbff71bf7b720028c	-1.444328036625083
133	0x3fd1c7b1e027df7b	0.2778134049435647
134	0x3fce6a4320d0f157	0.23761786558487571
135	0x3fc1c9d4ac553fbe	0.1389718858213182
136	0xbfe6d4da1691aa5a	-0.7134828987885371
137	0x3fdc84f70a92a785	0.44561553986078933
138	0x400519161ad01a0b	2.637249192691575
139	0xbffb93077ede577c	-1.7233958202172905
140	0x3fcc329b380e3656	0.2202943824490144
141	0xbff786bb25eb665a	-1.470393322108427
142	0xc0001db46b578e7e	-2.014504278764263
143	0x3fce83805a57c808	0.23838810359262674
144	0xbfce68968ae58a8e	-0.23756677419722333
145	0x3fbfcc260f703cf9	0.12420881153979114
146	0xbfd161a40ccf8cb2	-0.27158452273415457
147	0xbfccc76b745817c6	-0.22483580761780625
148	0x3ff8b5b51f61f8a6	1.5443621850859386
149	0xbfd1624559eac5be	-0.2716229799362643
150	0xbfba7cf560b1d463	-0.10346921549519687
151	0xbfcf0c70d05fa132	-0.2425671594094268
152	0x3fe3107bf9bb3d22	0.5957622411314427
153	0xbfe3836736f142c1	-0.609790427503036
154	0xc005a81093c3aa50	-2.707062868508082
155	0x3ffc68e2afbda8f4	1.775606810081226
156	0xbfd4417eab5cd461	-0.3164974854910892
157	0x3ff90b472932319a	1.5652534112187824
158	0x40006a6903e1a977	2.051958113025815
159	0xbfc480f265a325fe	-0.16018514597662653
160	0x3fcd21d304375c31	0.22759473520156484
161	0x3fa86c511bc82ef0	0.04770139183173494
162	0x3fcfbf30f94399bf	0.2480221955403987
163	0x3fbcedc8f9810705	0.1130033120289476
164	0xbff6ef46eec820ed	-1.4334172561084941
165	0x3fa3ecfbb3a5256f	0.03891741340573673
166	0x3fc57415529de9e8	0.16760508092904947
167	0x3fc2f609bf237870	0.14813348610818222
168	0xbfe95c0fc60446c0	-0.7924879901422273
169	0x3fd842903903b250	0.3790627056867253
170	0x400486a10d8a04fd	2.5657368715043263
171	0xbffc4cf9d1c61bb1	-1.7687929338733108
172	0x3fc72a809c95fc9a	0.18098456998629758
173	0xbff80946c87b6b1f	-1.5022647696811828
174	0xbffe1b15d69cd014	-1.881612623529695
175	0x3fd180cfdac9441c	0.2734870564063969
176	0x3fd257b578396920	0.28660332432413504
177	0xbfc9014967b9676f	-0.19535176815662278
178	0x3fd119d8d5b0c4f5	0.26720257633412753
179	0x3fd42d542d26d6dc	0.3152666512427069
180	0xbff980948c88d427	-1.5938916673305898
181	0x3fcc7a8af4497118	0.22248970916815192
182	0x3fb08f3c70cf77c2	0.06468560938034698
183	0x3fbc00b0f4591177	0.1093855473091646
184	0xbfe294bccf9b8bfc	-0.5806564383350401
185	0x3fe2533be046ef51	0.5726603870784662
186	0x4006a232ee88ad99	2.8291987071476794
187	0xbffcb497d234b742	-1.7940901003998566
188	0x3fc8249123c2a6b0	0.18861593481169825
189	0xbff88ca260786590	-1.5343345421191295
190	0xbffdd83a52fd6de1	-1.8652899972720365
191	0x3fd2ad040e080bba	0.2918100487733529
192	0xbfd181683bf23cd5	-0.2735233865177638
193	0x3fb14b64ad205a63	0.06755665995329134
194	0xbfcfac6183da0de1	-0.24744814813685337
195	0xbfc5ab57fcdf7ecc	-0.1692914948207459
196	0x3ff63fc9520ddc2c	1.3905728535880924
197	0xbfc7d7e0f485d489	-0.18627559604252422
198	0xbfccf38db7fd2a27	-0.22618266567072107
199	0xbfbb0394ca5f4a79	-0.10552339497307085
200	0x3fe8dfcd9f1b79d0	0.7773197276654233
201	0xbfd969ba751b158f	-0.3970781463252359
202	0xc004d0652de454c1	-2.6017554841333497
203	0x3ffe553ecf6bdb1f	1.8958118536372195
204	0xbfd3d6e9e3494722	-0.3099922866432384
205	0x3ff979db001d94e2	1.5922498707307615
206	0x3ffe96c9a8c1763e	1.9118134109516087
207	0xbfcfbd941c72dd01	-0.24797297848792968
208	0x3fd59ae85fadd512	0.3375798162808944
209	0x3fae46ee347aa442	0.059134906679283464
210	0x3fcc0494665c7162	0.21888976095295748
211	0x3fd0e1331d5378d3	0.2637450968158081
212	0xbff8698995f48be6	-1.5257659776332217
213	0x3fc25a2f52619b33	0.14337722322962917
214	0x3fca8deb47748dec	0.20745602597263202
215	0x3fb6d68ce5fd0c1f	0.08921127905800617
216	0xbfe958e17464140f	-0.7920996926555989
217	0x3fdc2f407693cdc8	0.4403840215665835
218	0x40059d399073cc82	2.7017699513758666
219	0xbffee14e0d9ac5d5	-1.930006077902694
220	0x3fd672633723f2f6	0.3507316626053546
221	0xbff71195c45c5350	-1.441793219598555
222	0xbffea558b411c4f5	-1.9153677972756757
223	0x3fd21f98fe7d8df0	0.2831785664804718
224	0x3fd2620335a4d4bd	0.2872322105279855
225	0x3f91602ef06540ee	0.016968472883775947
226	0x3fd0d61800071454	0.26306724550915317
227	0x3fc4cc64ec77bdab	0.1624876169803263
228	0xbffab454a11410c0	-1.6690260212063066
229	0x3fce8cb0a89c1b94	0.2386685202875155
230	0x3fc94a271b3be1ac	0.1975754626253211
231	0x3fd572f6ec0fd246	0.33514187863264444
232	0xbfe603506b45382e	-0.687904557716825
233	0x3fdd9fa41f2ceabe	0.4628687195251294
234	0x40046567c3dfda3f	2.549514322537362
235	0xbffc74274e4f617d	-1.778357797526126
236	0x3fbb2b3f49018a79	0.10612865002034678
237	0xbff960ce4df2b18b	-1.5861342472881883
238	0xbffc8a038048b1f4	-1.7836947451679608
239	0x3fb6a8859428fa7a	0.08850893847646005
240	0xbfd336fdb7dd5bf2	-0.3002313895753438
241	0xbfa56a5908dd673e	-0.04182699425901014
242	0xbfd48ee8c4f383af	-0.3212224887229764
243	0xbfc3d2857ff81da5	-0.15486210583206375
244	0x3ff808c14fec16ae	1.5021374818765412
245	0xbfc744fe8adb324e	-0.18179303913201966
246	0xbfc150b7d15670f4	-0.1352758190304325
247	0xbfcb4ee0528703f1	-0.2133446124044265
248	0x3fe66574fbd76e8b	0.6998848837642567
249	0xbfdbf6ed9cd14c66	-0.43694629968849197
250	0xc007080f1ef95d7c	-2.878935091004392
251	0x3ffc81ff10743313	1.7817373888712538
252	0xbfbbbc205c7f2636	-0.10833933122844361
253	0x3ff7b38265af8a0f	1.4813255283448858
254	0x3ffee7ffb38a06c1	1.9316403401611952
255	0xbfbed3629d4af1b3	-0.12041298236994784

layer_1.node_model.node_mlp_1.4.bias f8 [16]
0	0xbfb0c3c649eb3c1a	-0.06548728279743479
1	0xbfa84659831187f1	-0.04741172528225935
2	0x3fbeab17931b6cd2	0.11979815808756492
3	0xbfc037f8d0632d44	-0.12670812773863294
4	0x3fa36a7c187965f5	0.03792178915746184
5	0x3fb29d1030636059	0.07270909482338207
6	0xbfa2c4024fc34298	-0.03665168021837423
7	0xbfba6ae451d52760	-0.10319354055277818
8	0x3fad31b67ffdc28b	0.05701990425484834
9	0x3fb68ac0029df230	0.08805465759173425
10	0xbf78dcb238be2654	-0.006069847276998514
11	0xbf9e02db0e43469e	-0.029307768579036712
12	0xbfc114b53d7d21ff	-0.13344445707686245
13	0xbf7e7cc4a1bafc47	-0.007443206875620118
14	0xbfb598aa482fad8a	-0.08436073553428095
15	0x3fadd06a40c0ebd0	0.05823070564698407
