src/meta_layer20T.pth (torch, 93213 bytes, 88 tensors)

layer_1.edge_model.edge_mlp.0.weight f8 [16, 6]
-1.1982188298240195 -0.004212961560313606 5.33417730028727 0.06930473056539367 1.8664188689055732 0.031208773960925838 0.03799025418905395 0.06046951851914288
-0.07148783214771638 -0.09820506623386395 0.08336830605976568 0.2686326940805316 -0.27176629963395427 0.2485097432443315 1.3026536499118808 -0.12330806904633053
1.0818060400375598 -0.23371456309672733 0.5715115897335955 -0.1464076719957088 2.5640131520637457 -0.017714642043911096 0.5194606298008633 -0.019828244880256054
-0.3099198634477541 -0.026886046504354635 -0.23984052252972873 -0.30165679321341343 0.05815174374169522 -0.1813166249245891 -0.37049482974420156 -0.21355466110798033
-0.2863197260389895 -0.2446425336366229 0.03394563104989887 0.16346488455576394 -0.19686878815389486 -0.08867923561790228 0.13533171045048506 -0.18960259106424399
0.11815338645599041 -0.16520060544658505 1.0716294186649111 -0.01277762806236172 -2.007970271362792 0.37742940106939793 -1.3231671312094133 0.17267147744907882
0.8311447099000187 -0.3761148069669552 -1.697848714952703 0.4156523095296081 -0.6378546284150208 0.3208522757447489 -0.4762807815683165 -0.1888011772313686
3.867472622281333 -0.03618579662230736 0.1946000186424111 -0.06362376361605036 0.5983700953257817 0.37109228949505135 -1.5322136494679748 0.1581026354037353
-1.0712228168972169 -0.2594998661534928 0.14305983638752207 -0.1643473800779296 -1.4065925499792287 0.10735943269105937 -0.8664470391382952 0.014199367537169067
-0.6561453023958723 -0.06791353029056903 3.545957589374566 0.04274036349597893 1.8121037365877404 -0.10639534345126678 0.29249047079767126 -0.19043647660254517
-2.005888128563204 0.20303429833793799 -1.111691527771992 0.24281183065081974 -0.6027878684181784 -0.1808848079357895 4.359645525131868 -0.05685451899602129
0.31685861310008595 -0.06381887145855267 0.3868228320524571 0.14072368838280241 0.5330071959327566 -0.32222881599867864 0.10755932855920837 -0.3659829278355448
00000000: 96ba f881 e72b f3bf 9402 ef41 9c41 71bf
00000010: 9532 ff92 3256 1540 7988 3c6f f4bd b13f
00000020: 5263 2908 dadc fd3f e9ae 0a5e 31f5 9f3f
00000030: b90f 9e66 7573 a33f a6a0 e358 dcf5 ae3f
00000040: c1e9 22cd 064d b2bf 49a5 c69b f723 b9bf
00000050: 63b3 0c14 a057 b53f 9a95 ed2e 4731 d13f
00000060: 1c4c 457a 9e64 d1bf a862 fcd1 2acf cf3f
00000070: 5b2f 865a abd7 f43f d90b e31b 1e91 bfbf
00000080: b239 a9d9 134f f13f 3cb8 8cda 5bea cdbf
00000090: b91a 66ac d249 e23f c072 8d91 7cbd c2bf
000000a0: 7405 d553 1983 0440 efad f480 c923 92bf
000000b0: 96bc 11e6 6b9f e03f 07ed 30fd da4d 94bf
000000c0: 91e3 781f bad5 d3bf 57db d109 0488 9bbf
000000d0: 7ba7 4220 18b3 cebf 2ef1 5d4b 584e d3bf
000000e0: 65e3 26bb 10c6 ad3f bcd7 2217 6235 c7bf
000000f0: e6a8 45f2 2fb6 d7bf 66fe ae56 c255 cbbf
00000100: 7e60 e2f8 0f53 d2bf 2706 9750 7250 cfbf
00000110: 9c1d 675e 5261 a13f dd0f 9bd6 6aec c43f
00000120: 50b0 5c17 ff32 c9bf d22b d0b0 aeb3 b6bf
00000130: c38f 3fab 8c52 c13f 0ecc edcf e544 c8bf
00000140: 0a79 bde2 4c3f be3f e613 d61e 4b25 c5bf
00000150: 7b8e a9e3 6425 f13f 84b5 2f35 282b 8abf
00000160: 5cbf b6b7 5210 00c0 6815 89a5 cd27 d83f
00000170: 32fc 3a4c b12b f5bf 0343 4c56 191a c63f
00000180: 9672 68ca bc98 ea3f 26b9 ddd6 4312 d8bf
00000190: 9570 046a 632a fbbf 34f0 fb24 0c9a da3f
000001a0: c4a1 141c 4e69 e4bf 8bef cafb d788 d43f
000001b0: bb26 2363 627b debf f5d7 d310 a32a c8bf
000001c0: 4ffd 767c 95f0 0e40 ff20 25da f186 a2bf
000001d0: f260 ef45 a7e8 c83f 0fb8 fa9f a549 b0bf
000001e0: 2d84 ca0a d925 e33f e674 cbdf f9bf d73f
000001f0: 3732 af75 f283 f8bf dd37 3c08 b53c c43f
00000200: 37d7 5489 ba23 f1bf 2f85 9c53 a59b d0bf
00000210: 04e8 53e3 c84f c23f 481a 4fbf 5509 c5bf
00000220: 1a54 8f30 6781 f6bf 2d41 5364 e87b bb3f
00000230: 9014 1a24 efb9 ebbf aa75 91d9 8e14 8d3f
00000240: 90db e66e 24ff e4bf 59cc 8df7 c762 b1bf
00000250: 1fef 3a03 1f5e 0c40 4867 de9e 10e2 a53f
00000260: efa8 d97c 60fe fc3f 90e3 91a8 b93c bbbf
00000270: d5ed 9df3 29b8 d23f 6598 7cf3 3860 c8bf
00000280: aae8 3c13 0f0c 00c0 bdf3 a923 07fd c93f
00000290: f155 300e 7dc9 f1bf 9e13 dd43 7514 cf3f
000002a0: 1803 a9c8 094a e3bf ebb6 36bf 3b27 c7bf
000002b0: 6160 a2ea 4670 1140 4979 6f17 091c adbf
000002c0: 5d21 2e59 6947 d43f 7638 c8fd 6e56 b0bf
000002d0: d7ba 408d b4c1 d83f 7635 b0db 3b03 c23f
000002e0: 170b 621b 650e e13f 95c2 a29c 659f d4bf
000002f0: f9a0 8a16 0289 bb3f ebab 7ca8 436c d7bf

layer_1.edge_model.edge_mlp.0.bias f8 [16]
0.17414236744282852 -0.06604688102498645 -0.19822365060330516 0.5245616836344461 0.13200898297732808 0.06270648071463496 -0.1615861330904603 -0.1833241799000514
0.4331925786319655 0.09092394657870458 -0.18643579465403998 -0.03590731477828815 0.49571705464249444 0.14237809400442833 0.1503931480164571 -0.011318467264689637
00000000: 54ea 810e 4c4a c63f 874f 01ca 72e8 b0bf
00000010: 4445 5180 645f c9bf 873a 7e95 35c9 e03f
00000020: 673a 559c abe5 c03f 13a7 ea2b 880d b03f
00000030: 2329 8eba daae c4bf 8a4d 9eae 2a77 c7bf
00000040: 6007 865d 6db9 db3f cd91 fab0 ca46 b73f
00000050: 46e3 6bcc 20dd c7bf b4e1 518d 7162 a2bf
00000060: c792 7006 d4b9 df3f 073a b504 7239 c23f
00000070: 40f7 222a 1540 c33f b406 f1f5 222e 87bf

layer_1.edge_model.edge_mlp.2.weight f8 [16, 16]
-0.8064054855121326 -0.03567552857184365 -0.18529949326487025 -0.6297827522474782 0.011305371669195827 -0.10003719028425992 -0.04751747872737172 0.3304568003615771
0.4553025102439466 -0.02612836321767768 -0.05988779745430658 0.06801660062282756 -0.19913879884603017 0.08275005474462678 -1.2627843579562135 -0.4505432888508052
-0.28669232891160745 0.21427880426421636 0.08530386577256176 1.222341181201234 0.010569670464955888 0.07451885288916033 -0.11447257952562227 -0.15742419674223948
-0.3056798814686182 1.3192302324314429 -0.09676108796614726 -0.12419818706044407 0.9148943710327235 -0.1035769495726846 1.8865324040233002 -0.15595529019286328
-0.6716414063810481 0.12585650574639237 0.011195922426347342 1.1260438294413344 0.0579938531716478 0.020768027423163398 0.06424937246693542 -0.15293270233071052
-0.1933751078159939 1.07461021710928 -0.0014378503533293032 -0.2157400547991086 1.0039516483369022 -0.314725954324509 1.9107994698013993 -0.029128345100708115
1.2723676042645051 -0.11525201955631677 -0.175249371368615 1.7407156824731633 -0.20639035944227221 -0.1997689835879218 0.1378783068007722 -0.31963790617750604
-0.3560686685402941 1.3294360716294489 -0.016789169599930088 0.10297503687485957 1.0982287469096683 -0.18345696719711294 1.7235763284700074 -0.02078090354116692
-0.7764239907183966 0.052913773568830584 -0.301053799236636 -0.4138274942939824 0.02303640108430252 -0.0647515456612088 -0.026663163648123035 0.3558899709157276
0.4176354102488257 -0.27139084083216103 -0.08913687981218137 0.14504224084812062 -0.3487588286932399 0.3376779372274628 -1.2966743968204328 -0.06455159304882287
-0.029458527427850417 -0.16194880821191 -0.09019294554260127 0.06983748031802788 0.047945842300694215 -0.1652537370575673 -0.1726587630641994 -0.2959715625045255
-0.1535458148517548 -0.0797301912186499 -0.3003358948359408 -0.29749602146924087 -0.211422374556839 -0.086071694982176 -0.3047250359719563 0.06458839791828751
0.10302653900360381 -0.3381329819947034 0.032555811586130655 -0.16046093946200124 -0.04959824248851497 0.13868274144290274 -0.15624716113833298 -0.26717310787602444
-0.2962059650599056 0.1820140160088118 -0.042972356591323924 -0.11862355803713596 -0.19932668464982972 -0.15579919057879352 -0.14719100317998013 -0.023424953665679607
-0.17847799284044427 -0.1119416948729378 0.011530248764049577 -0.15887830607560005 0.12331811640659882 -0.14452344067681885 0.1929799888154166 -0.0901850409083382
-0.13471299303819642 -0.026833925359842453 -0.1172194445724371 -0.3357769409837856 -0.27313149319604496 -0.22089412843626305 -0.0741912617451952 0.12189656956140198
-0.14685868262783172 -0.4775972413557366 -0.1927478345697526 -0.05989070813190794 0.13340331788754445 0.1078244196109363 -0.14992948443659945 -0.2615404138063393
-0.34401209535752186 -0.27560719591470756 -0.35188630367113416 -0.27529065622323223 -0.3356317737119094 -0.15528259648144577 -0.10013768166835196 -0.40434607839728154
3.7021445227310554 -0.16463489523187222 -0.06184388930235993 1.591215146284649 -0.14556897669641408 0.09587438898310342 0.12422164480249054 -0.273712674828217
-0.045129346391015276 2.0543446712283324 -0.4247102501009537 -0.04069184120918654 1.1104105131601223 -0.24989918227925348 2.4029838625842572 -0.13921810908829255
0.0438389562911922 -0.33037513552082365 -0.23712474333752806 0.057433364778883805 -0.010325453864704069 -0.062015258996479514 0.002835235963031293 0.030627622809783213
-0.14176742892175162 -0.15001627251289534 -0.015405829670082888 -0.06618963994464341 -0.11949172247346226 -0.08028580057898163 0.09411890435245088 -0.02599755476041041
0.00015220007376301833 -0.22352543578959996 -0.19296563856581184 0.016910276752656234 -0.012967943201965119 -0.09649393254382906 0.08354747956811447 -0.07937281780031177
0.12225435453887189 -0.14864815488254313 -0.19315655321822778 0.0012298131799236148 0.17913126634545978 -0.13431766272165963 -0.28862482070246814 0.028556442148622786
2.224909061470243 0.17906838515896414 0.1631587217310098 1.357799963987098 -0.0512793050047935 0.1110469063466476 -0.11049280549841568 -0.14123956156758186
-0.3349507222043308 1.7442063923898714 0.12209059397014682 -0.14936377724422478 1.107854762499514 -0.16653363465432167 2.159098448986652 0.04770948171534368
2.6479471006386626 0.21300147318868626 0.19367479335629978 1.3131790321213288 0.07634097735058169 0.10012842101415025 -0.04129494526051736 -0.04542409863598562
-0.5055249896329819 1.4666200402260583 -0.2205106238399687 -0.269428568925164 0.6929044297485207 0.008661763331955941 1.9160317821510933 0.04017202231439286
-0.6000774170034323 0.10807838968636775 -0.44916660345517895 -0.03788359081467308 -0.207648346169434 0.10949608944707508 -0.1636179183566691 -0.07471880988232232
0.28492335550522613 -0.054266763471223625 0.18115459633353964 0.21528058286901236 -0.367410263232963 0.07735517050368335 -0.823142767997487 -0.13343075458320067
1.9462436417353897 -0.08385375433859249 0.07192911056455543 1.1272236717507902 -0.04672728909548661 -0.1332684706744339 0.10808405686029425 -0.03763053332850066
-0.5107322926060669 1.5095363506542137 0.09422455765847576 -0.3108526009136297 0.8179960359518181 -0.09367568017663686 2.559589842288626 0.14663946663083588
00000000: 19de 72e0 12ce e9bf 1198 f718 1044 a2bf
00000010: dbdc c4cf e4b7 c7bf f89b 8f28 2e27 e4bf
00000020: a5e1 b44c 4527 873f 8695 a78c 099c b9bf
00000030: 18b0 3e02 3654 a8bf 34cd 9247 3426 d53f
00000040: 8534 d223 ad23 dd3f 8b5d 12c6 64c1 9abf
00000050: dbce fd06 9da9 aebf 6198 4233 8969 b13f
00000060: 2d47 3452 617d c9bf 55d1 de8a 1b2f b53f
00000070: 1e28 f55e 5d34 f4bf b0f9 c284 b3d5 dcbf
00000080: 9c1f 2cc8 2a59 d2bf c238 45e4 7c6d cb3f
00000090: bf2c b761 79d6 b53f 5103 5da0 b58e f33f
000000a0: 23d6 cf27 8da5 853f 3429 18e4 aa13 b33f
000000b0: 3fef 5931 134e bdbf cbb1 4de0 7926 c4bf
000000c0: d9fb 7c59 4290 d3bf 1b00 0329 911b f53f
000000d0: 0909 57ac 55c5 b8bf 31a8 a5cf 73cb bfbf
000000e0: 4429 5c8f d046 ed3f 30bc 08db 0484 babf
000000f0: 45fd 219a 3c2f fe3f e51d 82cb 57f6 c3bf
00000100: 3879 611e 167e e5bf 2bb5 15e4 101c c03f
00000110: 6f93 5b45 e3ed 863f 9802 d588 4604 f23f
00000120: 8985 7bcd 5eb1 ad3f bbf4 56ba 3644 953f
00000130: e9b4 8899 a572 b03f 37e9 7f7d 4c93 c3bf
00000140: bd0f f7f9 83c0 c8bf b9e8 a67b 9a31 f13f
00000150: 8b31 9f0f c88e 57bf 5f53 e6bf 5e9d cbbf
00000160: e4f4 859a 2f10 f03f 8aac 4154 7824 d4bf
00000170: ab2d 0077 a292 fe3f 1267 6026 d2d3 9dbf
00000180: 0ce5 0c22 9e5b f43f 55d6 ca06 2881 bdbf
00000190: 011d 5647 926e c6bf 75b4 fdaf f8d9 fb3f
000001a0: bfd2 01d2 ff6a cabf dbf4 a1b1 0792 c9bf
000001b0: 05c2 4411 ffa5 c13f 1709 668c f274 d4bf
000001c0: 65b1 a03d d4c9 d6bf d256 1cc2 5e45 f53f
000001d0: 4d4e 6f19 2e31 91bf 0a92 ae6f 925c ba3f
000001e0: bd10 784e 5892 f13f 79df 2a95 847b c7bf
000001f0: d503 afc5 c493 fb3f 64d1 5cd4 9647 95bf
00000200: e9e3 fe1f 77d8 e8bf 07df f89d 8317 ab3f
00000210: a8b4 8327 7744 d3bf f568 8b50 267c dabf
00000220: 8835 19b5 da96 973f baf7 faaa 8e93 b0bf
00000230: 5d9f 819f 964d 9bbf 1ead 83ba e6c6 d63f
00000240: 5fe5 2adf 89ba da3f 78b7 73b0 775e d1bf
00000250: 4b2a a9af acd1 b6bf 0e99 7d80 be90 c23f
00000260: 5770 db8c 1052 d6bf 9d40 3eec 839c d53f
00000270: f477 fea6 2dbf f4bf 29a5 0c05 7486 b0bf
00000280: ab51 904f 602a 9ebf eeba 7211 bdba c4bf
00000290: 2875 6f87 e216 b7bf cb3f 007e dee0 b13f
000002a0: 6141 5281 5b8c a83f d01d 1ad2 0827 c5bf
000002b0: 1941 5dae ae19 c6bf 7230 60b5 32f1 d2bf
000002c0: 31ec 9ca6 63a7 c3bf a1b5 c9a3 3269 b4bf
000002d0: 1ea8 880b b438 d3bf d9a1 b9c0 2c0a d3bf
000002e0: eca0 2e6c e30f cbbf ad4a 0f6b cb08 b6bf
000002f0: 0e68 f16f 9d80 d3bf 8f94 c280 dd88 b03f
00000300: e0fa a37f f25f ba3f f36f d784 f8a3 d5bf
00000310: 4345 1dc4 27ab a03f 642a a3eb fb89 c4bf
00000320: 71c0 dada f064 a9bf 7d29 8227 5bc0 c13f
00000330: 324b 972f e8ff c3bf 64af 2c3c 5d19 d1bf
00000340: 94fe 33dd 09f5 d2bf a3f2 153b 3c4c c73f
00000350: d031 6204 7900 a6bf fffd 4d0e 1d5e bebf
00000360: 8c43 e56b 8983 c9bf 7bbc 2356 3af1 c3bf
00000370: 8033 76a0 27d7 c2bf 741d 9e07 b6fc 97bf
00000380: 5718 27eb 5dd8 c6bf 87bf 89fe 35a8 bcbf
00000390: 66c7 d9ca 2b9d 873f 00bd 51d4 1f56 c4bf
000003a0: 5e7d f8ac c691 bf3f bb2d 9b7d be7f c2bf
000003b0: 0551 5f7a 91b3 c83f 0e2c 4ae9 5d16 b7bf
000003c0: 8d00 b97d 463e c1bf 8b14 603f 5a7a 9bbf
000003d0: c4d6 e4f0 1702 bebf 97ae 1191 5e7d d5bf
000003e0: dd37 b283 fc7a d1bf e68e c140 4246 ccbf
000003f0: 0137 d8d2 32fe b2bf 7bc4 c213 9d34 bf3f
00000400: 4795 82eb 43cc c2bf e117 1205 f490 debf
00000410: 3f0b ed06 f6ab c8bf f78a 85b1 fea9 aebf
00000420: 68a0 c023 5c13 c13f 4c6c f093 619a bb3f
00000430: 3f40 2eac e330 c3bf ac5a f800 14bd d0bf
00000440: 9c4b bf4e 4b04 d6bf 61bd 3f5d 8ca3 d1bf
00000450: d461 8b21 4e85 d6bf e0e1 57b3 5c9e d1bf
00000460: f7d4 e5b0 fd7a d5bf 924c c3d4 4ce0 c3bf
00000470: 74e2 dc83 9fa2 b9bf fadb be5f cee0 d9bf
00000480: 3490 91f2 fd9d 0d40 4390 6699 c112 c5bf
00000490: 4cac 0594 00aa afbf 2b14 6303 9e75 f93f
000004a0: 9794 1c15 01a2 c2bf 69d7 3455 398b b83f
000004b0: 68cc e15d fdcc bf3f efd2 b82a 8284 d1bf
000004c0: 4eb4 ad95 311b a7bf b919 4d42 4c6f 0040
000004d0: b569 9de6 732e dbbf fd3a 6a9e 8fd5 a4bf
000004e0: 5084 72d0 3dc4 f13f 6de0 9747 b2fc cfbf
000004f0: d0eb 749a 4f39 0340 5bc8 c524 e6d1 c1bf
00000500: 9575 1f47 0f72 a63f ea4d 9ec0 dd24 d5bf
00000510: 7f81 da84 1a5a cebf dc5d d9ee e767 ad3f
00000520: 3f74 52f5 8225 85bf be56 7cca 76c0 afbf
00000530: 52ee 9ab7 eb39 673f f2f9 49f9 d85c 9f3f
00000540: cfaf 6d63 6f25 c2bf 52c5 27b4 bb33 c3bf
00000550: 5057 ce74 178d 8fbf 3671 e5e2 cdf1 b0bf
00000560: f68d 2a70 0297 bebf 3ae5 d137 9c8d b4bf
00000570: 920e 2130 2d18 b83f 1942 e35d 1a9f 9abf
00000580: 869c b3ad fcf2 233f 712e 4542 7b9c ccbf
00000590: 602a 7219 19b3 c8bf a5d2 7976 ed50 913f
000005a0: ef31 97df ef8e 8abf e5c5 898c d3b3 b8bf
000005b0: 0785 681c 5e63 b53f e6c9 a4e8 c651 b4bf
000005c0: 3fbd 89b6 0f4c bf3f e866 ea19 e706 c3bf
000005d0: a049 8a9b 5ab9 c8bf 445d d4d8 3526 543f
000005e0: 4e89 52f9 c5ed c63f 7214 5538 5231 c1bf
000005f0: 1fc8 6e3d d478 d2bf 2d4b 7964 e63d 9d3f
00000600: c1b5 3c1f 9dcc 0140 1bad 007d b6eb c63f
00000610: 3128 f28e 62e2 c43f 5f5a 7d74 8cb9 f53f
00000620: c115 eaf3 4741 aabf 08b1 14ef 916d bc3f
00000630: 9919 0faa 4149 bcbf 2fc5 ea50 2314 c2bf
00000640: 5be8 6827 d56f d5bf 469e 4cf6 44e8 fb3f
00000650: 3c41 4044 5441 bf3f e448 3c2d 5a1e c3bf
00000660: c173 5aea c5b9 f13f 0b1d 4361 f950 c5bf
00000670: 9bef 5968 d545 0140 a95f 5a8f 606d a83f
00000680: a53f b6e3 fe2e 0540 7130 acdc a143 cb3f
00000690: cc2e c3eb 55ca c83f 8d10 4c04 c802 f53f
000006a0: b3bf 1011 158b b33f b3e8 a725 04a2 b93f
000006b0: e09f c46e 9c24 a5bf 3005 2fd4 d341 a7bf
000006c0: c619 39be 422d e0bf b2dd 4693 4677 f73f
000006d0: b517 e82e b139 ccbf fa10 0953 513e d1bf
000006e0: e8bf 20e9 452c e63f 1a3c e431 42bd 813f
000006f0: fbf7 26f1 10a8 fe3f 5ee7 1b64 6d91 a43f
00000700: f721 238e d533 e3bf 9177 1b7d 06ab bb3f
00000710: bde7 1248 25bf dcbf 4148 355f 7a65 a3bf
00000720: d6df ee93 3894 cabf 5d0f 378b ef07 bc3f
00000730: bad4 3094 6ef1 c4bf 9c32 d79c c520 b3bf
00000740: dfbc 702b 2f3c d23f b2c2 bc6c dac8 abbf
00000750: aee5 62e5 1230 c73f da6f 716b 508e cb3f
00000760: 9038 3356 a683 d7bf 1865 7d67 8ccd b33f
00000770: b29e 8f80 2f57 eabf d593 9b4b 4214 c1bf
00000780: b2d2 745f d023 ff3f 64f4 878c 7077 b5bf
00000790: 7150 8139 f269 b23f 9d25 57b0 1b09 f23f
000007a0: 5ee0 fda4 a3ec a7bf 833b 91f5 f00e c1bf
000007b0: 8b18 6f91 65ab bb3f 9332 f42b 4f44 a3bf
000007c0: 1422 b83f eb57 e0bf b7ed a296 0f27 f83f
000007d0: 548b 9fc1 191f b83f b13c b34e 02e5 d3bf
000007e0: 5e76 d505 062d ea3f b809 ca1e 21fb b7bf
000007f0: 756d 3e3d 0a7a 0440 c6bc bd00 15c5 c23f

layer_1.edge_model.edge_mlp.2.bias f8 [16]
0.01654560925161203 -0.29667229065220596 0.03757417961711393 -0.10098814990121809 -0.17247588936571903 -0.47201069612472574 -0.23773588712235308 0.08462622396341839
-0.10352226334927236 -0.2839448332527202 -0.010366889192050723 0.05981174513476243 -0.17232712100016842 0.10456204209401328 0.0087724512840143 -0.0692744120724577
00000000: 7124 830a 55f1 903f a9c2 7ec6 adfc d2bf
00000010: 4c52 4241 ec3c a33f 99f9 1b01 5cda b9bf
00000020: b94e 16a0 b013 c6bf edf1 cd59 6c35 debf
00000030: bd55 232a 216e cebf f38d 4e70 10aa b53f
00000040: d636 7e5f 6f80 babf 2112 2cf3 262c d2bf
00000050: 6e33 5450 3c3b 85bf e57d 8a22 a59f ae3f
00000060: 676c 74aa d00e c6bf 055f 32f7 93c4 ba3f
00000070: 51fa f67a 4af7 813f 6b03 4dc6 f7bb b1bf

layer_1.edge_model.edge_mlp.4.weight f8 [1, 16]
0.23473789140373652 -0.11957492353236687 -0.07092467201025862 -0.1346922492240394 0.28788148138081676 -0.12243484722848487 0.01085799133604298 0.1459784597522165
0.12081736140452504 -0.7888074392496204 0.025162867727040846 0.04006626068109955 -0.29533579396999304 -0.19394847298274637 0.12288697913102697 -0.2802751854602994
00000000: 9e03 5b27 e40b ce3f 7043 fe51 769c bebf
00000010: 767a c38a 1e28 b2bf 2f91 b87a 983d c1bf
00000020: a3e5 e972 a66c d23f 81b2 bce0 e357 bfbf
00000030: 9f29 82ed b63c 863f 4932 4713 6caf c23f
00000040: 987d 05f8 e2ed be3f 6365 4d19 e93d e9bf
00000050: 8f48 d877 4bc4 993f 23bf 989e 9083 a43f
00000060: b91d 1c1a c8e6 d2bf eaf6 48b6 4dd3 c8bf
00000070: b0d4 7864 8575 bf3f 24ab db54 07f0 d1bf

layer_1.edge_model.edge_mlp.4.bias f8 [1]
0.12010312497659296
00000000: 83ff eb11 14bf be3f

layer_1.node_model.node_mlp_1.0.weight f8 [16, 3]
-0.2780060996327431 0.5561394707691362 0.43348142153178537 0.29875163746078864 0.4772241495510481 0.3605677746876915 -0.5876904313311202 -0.30520755402633354
0.21738576008134025 0.16496132522431753 0.1400998663233844 0.2636278322639268 -0.05110492427656131 0.35964528498908993 -0.31933812077979346 -1.3185105416476357
-0.28424250382269106 -0.5541313682292149 0.47368185701815324 0.024502384499109877 0.018718228740195464 0.12405334850803289 0.4728273823955221 0.13269332729305744
0.134907968669121 0.5654946233651055 -0.3949377922640861 0.02935927023597922 -0.08583273404740047 -0.5231072720634165 0.017468169091428124 -0.5437830959953295
0.1436571902358165 -0.6850607115810079 -0.19914635755089288 -0.8671973567235539 0.197426198321209 -0.01752391469560207 -0.17797966676677165 0.02269329679410101
0.18362105465553694 -0.32492092785688564 0.3640793658643809 0.11358616797575354 0.3991262075813052 -1.1322573072403967 -0.1959398971531799 -0.7324074099742345
00000000: abb6 8018 daca d1bf 65fb de00 e5cb e13f
00000010: 56c4 39dc 28be db3f 7550 2130 bf1e d33f
00000020: f8b8 cb28 d78a de3f c29b 11dc 8a13 d73f
00000030: 4ea8 d729 5cce e2bf a141 c243 8588 d3bf
00000040: c02d 15ed 4bd3 cb3f ddbc 78e4 731d c53f
00000050: 5236 04dc caee c13f 61e4 7845 47df d03f
00000060: de61 ddb4 6c2a aabf 5514 4ca8 6d04 d73f
00000070: 4161 4728 0970 d4bf ebec 7c82 9e18 f5bf
00000080: a14d 8378 0731 d2bf 476e 07b5 71bb e1bf
00000090: 3e7f 26b5 cd50 de3f f709 6430 2717 993f
000000a0: 00dd 1c11 df2a 933f 7321 cdd2 f5c1 bf3f
000000b0: 01b1 02c8 cd42 de3f 6680 8f4e 18fc c03f
000000c0: 5fab b310 aa44 c13f c857 2d2e 8818 e23f
000000d0: e2a2 6e29 a946 d9bf 6de8 fd45 5b10 9e3f
000000e0: faeb a851 22f9 b5bf 1efd 3976 4bbd e0bf
000000f0: 21ee dffb 2ce3 913f b95c adce ab66 e1bf
00000100: 5df4 f2da 5b63 c23f 347a 0071 04ec e5bf
00000110: c638 66ba a07d c9bf 19c5 c9ab 14c0 ebbf
00000120: d4e3 94fc 4245 c93f 76e0 0f02 caf1 91bf
00000130: afe1 0ea8 09c8 c6bf 58be 465e e93c 973f
00000140: ad20 4d0c e580 c73f 689a bb25 81cb d4bf
00000150: c14c 628a 134d d73f e3db bbac fb13 bd3f
00000160: 1572 22a6 488b d93f 8c12 94d6 b91d f2bf
00000170: d293 20fd 8e14 c9bf 31ff 25aa e16f e7bf

layer_1.node_model.node_mlp_1.0.bias f8 [16]
-0.07418064569781117 -0.2047568602491387 -0.47022349247466294 0.5535513669519028 0.06333941540731995 -0.0027719248077874297 0.5812617315894567 -0.21700296838505845
0.5713840791766832 0.31440672633408756 -0.26178408934015923 -0.27247074841306296 -0.25758614299296057 0.22494369385949492 -0.09149244697953589 0.003205126949230026
00000000: d3ac 44b7 80fd b2bf ae6a 3309 7935 cabf
00000010: 4555 7f46 2418 debf 54dd 365b b1b6 e13f
00000020: f3e1 b80d 0337 b03f 0175 afcc 25b5 66bf
00000030: 3dfa f233 b299 e23f c6a3 2cd6 c0c6 cbbf
00000040: 119b b043 c748 e23f 39d4 cf63 3d1f d43f
00000050: 6710 950d 12c1 d0bf 7a3f 6326 2970 d1bf
00000060: d2ae 0397 4a7c d0bf 22b3 4878 f4ca cc3f
00000070: cbad 9b8b 0c6c b7bf f6a6 a56d a341 6a3f

layer_1.node_model.node_mlp_1.2.weight f8 [16, 16]
-0.025283160894250683 0.15660000842502977 -0.07000603786511539 0.2877834015970406 0.16296397268207505 0.9835852317344166 0.09120927254153251 0.3167924298779273
0.14758798375238993 0.5177425287180201 -0.014926252469581543 1.6249259416625972 0.047186593744243846 0.07846735254285238 0.035282119070757074 0.9824589753362308
0.33298088116864216 0.36041722187653863 -0.013750910079409637 0.06563952619201092 0.363384195532244 1.0448933055526946 -0.18862159329456069 0.0327322635004905
0.2203169537141596 0.3433744713628797 -0.2115958538972444 1.7416390809534827 -0.13844885385203876 0.23983516744215636 0.08676779304585232 0.8533342371051785
0.3180635137811874 0.22445062852728198 0.08191003201167439 0.12787238777410626 0.22698534068241188 1.084825100859557 0.18766561384914915 0.19172108613586633
0.3327148446741467 0.40854611727285656 -0.08502736832602642 1.5446151759452658 -0.11273649985285815 0.28289282056463816 0.0647059019312238 0.7486926738246715
0.17842041784828336 0.18786499240744875 0.2379461770755953 0.17584102102676638 -0.03171978314028735 1.0944663452569268 0.046442487830252815 0.2524861053578968
0.3645948057805116 0.38308255503627187 0.005572797035357906 1.7331648782266418 -0.06831529945652681 0.35350073107277585 0.19094175416133014 0.9989784155430337
0.4019064213739827 0.17040443292298968 0.07753642545632744 0.010690675108528072 -0.013631807490070948 1.0314514342745564 0.07028105146226427 0.38624492217711
0.0262328595529652 0.3067314571154354 0.09408199892324852 1.4949328016942596 -0.1348890425251354 0.3165181292137021 0.10668490814613951 0.9448748173758973
-0.15904996454380926 -0.2645161122868197 0.13359459133332074 -0.17099017183707774 -0.13481457558613055 0.04734380880557072 -0.2782377290715222 -0.4344294784802682
-0.14930055472552703 0.37615765403110785 -0.027410288055151305 0.16729556768563594 -0.10840199273454773 -0.004028559627400029 -0.2797761853342665 0.34962347528843374
0.14672201208077762 0.23931053875697283 -0.16257608926872175 0.2434436990219662 0.40583846419898295 1.2057795799551787 -0.09064905877362464 0.4035381143077718
0.29636400469102125 0.2179807307167254 -0.13227811600073403 1.6246146247191886 0.25989760870272044 0.2054804548725454 0.0774163606606313 1.0177303737865564
-0.01604067737978445 0.03192860696149891 -0.3782646268469667 -0.25572524588311557 0.1202305764092311 2.2890808702075294 -0.026730233433108718 -0.06836019578766199
-0.08513455306296008 0.12222392150071772 0.4732463602566456 0.7893194391137195 -0.02658511164520946 0.2217359402284554 0.07391894886810553 0.38180397218512285
-0.17354086678634226 0.013104282636034699 0.10354843835531054 -0.09353077378459393 -0.1967853752558402 0.0816847530969034 -0.09072757727394064 -0.032071101955066385
0.08809844105188273 -0.21083523718478656 -0.15962723591611985 0.006981141725993231 -0.08377312686900495 -0.17318054727223164 -0.19467563410119862 0.07365775047278318
-0.058038763571651455 -0.16203698401666045 -0.21673493021940415 0.0824640487684922 -0.19382582742918872 -0.06678703304041067 0.02162138443935792 -0.04351327449360373
-0.18669279361863111 -0.2145990260213241 0.1901111218521208 -0.10610561879686164 0.16488070950167366 0.11299000234398586 -0.10871788098336542 -0.06416754659095625
-0.02105330178379577 0.03913667516410206 -0.10490477416401324 0.002238556540945379 -0.19678803604266584 -0.026258422360285815 -0.19331981605818493 -0.10215952816240016
0.11620980678837756 -0.08337250635462762 0.031744663262930795 -0.12765775984945466 -0.07068244951273134 0.07853243274030382 0.0009182638058805545 0.15648069123572966
0.31375382826102083 0.2776769674040503 -0.09495209877996721 0.004807449614342566 0.3116374762264771 1.0745034377585394 -0.01441975450347523 -0.02856090937954925
0.14477813548373905 0.25710229354998054 -0.19501718662364564 1.583282727287221 0.1296822601388318 -0.027697998934919702 0.2648677087291927 0.8074392200247138
-0.02121966352088295 0.1972278352172625 -0.20785522208368962 0.24437682198182875 0.10517714211611548 1.140206225733503 0.09354758694980939 0.18748592660982533
0.059462292450056006 0.4018375644082041 -0.1302141235043726 1.420268082037035 0.23940288836406928 0.17004225269019974 0.31253977119704957 0.7574786067549427
-0.0783012824062552 -0.1586177168897905 0.05303086276567651 0.04094837426203999 -0.012108934000502756 -0.2166473784117326 -0.18679894073129877 0.016409065680288742
-0.12396334480154078 -0.10721317394027223 -0.0656725144377665 -0.1247584570924285 0.07272464693542637 -0.14371794839800867 0.01229186172734663 0.19278712446696852
-0.21334244704259692 -0.013721053694365859 0.16211465136347242 -0.12047248926417722 0.11571849360608355 -0.018921857964955043 -0.14790978063664423 0.1366520019105414
-0.046650758075146896 0.3332735453416547 0.019645066035483418 -1.2613901847052436 0.03393230231285267 0.10382776537102474 -0.2102106176979613 -0.662178662928592
0.2372157461623301 0.324126949052852 -0.08888940947427741 0.009987003921222244 0.23422733780144486 1.1442530234534762 0.18361033392431975 0.39354694162414655
0.3459876688826925 0.3032947022937546 0.20346063055207853 1.7502870280530802 -0.060923636139896854 0.26512123528884685 0.33071140531668775 0.9977319399080637
00000000: eba3 b834 d4e3 99bf e591 5e15 780b c43f
00000010: a838 276b eaeb b1bf 1738 8c12 0b6b d23f
00000020: 8741 8ce2 00dc c43f c317 64bc 8779 ef3f
00000030: bd67 a8aa 7d59 b73f 6d8c 7cc1 5346 d43f
00000040: 51e2 bfbd 29e4 c23f 9bf3 92c7 5891 e03f
00000050: b166 abb1 a791 8ebf 45ce 1d58 b2ff f93f
00000060: 72e0 e159 d728 a83f 35aa f9b8 6f16 b43f
00000070: e1bf 1577 7f10 a23f 9162 17ce 4d70 ef3f
00000080: 5101 b40a 8f4f d53f 83fe 3765 1311 d73f
00000090: 3881 a6e8 6f29 8cbf c5d2 5182 c0cd b03f
000000a0: b66e ecc8 af41 d73f d187 f20a e2b7 f03f
000000b0: a680 429b c024 c8bf 3d6f 8482 48c2 a03f
000000c0: e073 7a8f 5833 cc3f 183b 32eb d8f9 d53f
000000d0: 1e9b 3aac 9215 cbbf 5e17 e2f0 c0dd fb3f
000000e0: d049 bb29 b1b8 c1bf 9f20 4c34 ebb2 ce3f
000000f0: 4d60 7a01 6a36 b63f 3190 1d9a 834e eb3f
00000100: 496d 6f11 275b d43f 66b0 8b56 ccba cc3f
00000110: 2357 b44c 0ef8 b43f 448e c655 1f5e c03f
00000120: 1a81 730b db0d cd3f ae25 a190 715b f13f
00000130: 1c6e 0845 6d05 c83f 531d 7409 518a c83f
00000140: 3e3a 3134 334b d53f 8f0f 269d 9e25 da3f
00000150: a8a8 3986 5ac4 b5bf 7871 1967 beb6 f83f
00000160: 1ffc ee9b 4cdc bcbf d44a 267d ea1a d23f
00000170: 361d a7e4 9090 b03f c69d 9a56 4af5 e73f
00000180: 896b ccf1 7ad6 c63f 1a05 3ac7 f50b c83f
00000190: 68bb 5f34 0575 ce3f 8577 4d65 f581 c63f
000001a0: e28e 724e 933d a0bf e437 7724 ef82 f13f
000001b0: ac6a c04c 4fc7 a73f 8f38 4d7b bb28 d03f
000001c0: ea99 c773 8555 d73f 4e21 63b1 6c84 d83f
000001d0: 45c9 3950 80d3 763f aff2 6818 0bbb fb3f
000001e0: 6073 fb88 1c7d b1bf 5d75 c487 c19f d63f
000001f0: 1a2a c886 c770 c83f ee59 0595 a1f7 ef3f
00000200: 38a2 f6b5 d5b8 d93f 88b3 3ffd cfcf c53f
00000210: 486b 955b 6dd9 b33f 08d1 b41f fee4 853f
00000220: ee7e d73a feea 8bbf b8f1 1938 d380 f03f
00000230: 4015 8f61 f0fd b13f cbca 3f9f 3cb8 d83f
00000240: 2833 7167 c9dc 9a3f 31c6 3dfa 7ca1 d33f
00000250: 5785 8404 c215 b83f 77e9 4fa8 3eeb f73f
00000260: 96fa 1d4d 0b44 c1bf cd17 6441 d541 d43f
00000270: 18e5 76bf b34f bb3f c130 ee1c 6a3c ee3f
00000280: b0a3 12ce bf5b c4bf 765d e2fc d4ed d0bf
00000290: 087c 59a8 a019 c13f 4324 fd85 01e3 c5bf
000002a0: 8951 95a0 9a41 c1bf 8adb f99c 723d a83f
000002b0: 2208 b89e a5ce d1bf fb6d 9f4c b1cd dbbf
000002c0: df0f e9d3 471c c3bf 4509 8d8d f712 d83f
000002d0: 5850 154b 7111 9cbf 2ddf fcef f069 c53f
000002e0: 86b9 9da5 3bc0 bbbf 983e 983d 4080 70bf
000002f0: b675 8d5f dae7 d1bf a0c5 1124 3b60 d63f
00000300: bcc0 be71 c9c7 c23f bc50 c64c baa1 ce3f
00000310: 7ea7 4215 4bcf c4bf f1b9 dbc2 2929 cf3f
00000320: 4862 cce4 41f9 d93f 4879 6187 df4a f33f
00000330: e28c d8d6 c634 b7bf 870c e986 91d3 d93f
00000340: 7d02 f7ba a0f7 d23f 0813 cbe6 cae6 cb3f
00000350: 088e 1943 7dee c0bf 0c5b 9ce7 6bfe f93f
00000360: 5bf4 6b94 29a2 d03f 5c88 d2fc 2e4d ca3f
00000370: f176 3601 8fd1 b33f 23f2 f8a4 9f48 f03f
00000380: e6e7 01a3 f76c 90bf 30b7 6945 f258 a03f
00000390: bca5 62d6 7c35 d8bf 2f17 f56b cd5d d0bf
000003a0: 1229 a859 6ec7 be3f 4486 9ba1 0950 0240
000003b0: b37a a399 2b5f 9bbf 0b94 41c5 0d80 b1bf
000003c0: cc3c 2ac9 60cb b5bf 916b a221 114a bf3f
000003d0: 8336 101a ab49 de3f 48e5 22d7 1a42 e93f
000003e0: 1786 4ea4 2039 9bbf f383 d0e1 d761 cc3f
000003f0: 2d76 f12b 5aec b23f da26 81ed 796f d83f
00000400: 5ff4 ae4d 9636 c6bf c4dd df0a 6bd6 8a3f
00000410: d5b5 4984 2682 ba3f 360c 93fe a1f1 b7bf
00000420: a907 875f 4330 c9bf 920e 22bf 4ae9 b43f
00000430: afa4 3c29 ec39 b7bf c55e 169c 9f6b a0bf
00000440: cb7b 2593 9e8d b63f b7ca 4628 a6fc cabf
00000450: 1dc2 e74e aa6e c4bf bd1b 6ef6 4198 7c3f
00000460: 00a0 2fd8 2772 b5bf 0837 6bb9 c72a c6bf
00000470: 8977 e594 21eb c8bf f5a5 60fd 3bdb b23f
00000480: ba8b e1be 41b7 adbf 3809 8cbd a0bd c4bf
00000490: 38ba 985e f8bd cbbf be71 8e28 5d1c b53f
000004a0: 43d9 f6e2 48cf c8bf 6897 b47a f418 b1bf
000004b0: a4c1 3e8c ea23 963f fca6 c835 5f47 a6bf
000004c0: c0d5 7ea9 8ce5 c7bf d5ec 411b fb77 cbbf
000004d0: 32f9 7aad 8f55 c83f 6084 a7e2 bc29 bbbf
000004e0: 0486 86a3 cf1a c53f 63a6 d7ac e9ec bc3f
000004f0: a760 505f efd4 bbbf 589d 12ca 486d b0bf
00000500: 4f71 892a ff8e 95bf 46d8 cee7 b809 a43f
00000510: 418c 3a0e 0adb babf ca82 46e4 9756 623f
00000520: 8d0e 86b1 5930 c9bf 13c0 20e5 7ce3 9abf
00000530: f4be d127 b4be c8bf 31ab 6e78 2027 babf
00000540: 686c a107 edbf bd3f d4bd 2d8c e657 b5bf
00000550: 20da 1225 d640 a03f e227 d1e7 1657 c0bf
00000560: 2cf0 0eb9 3e18 b2bf 2d80 4b96 b31a b43f
00000570: d43b f781 f416 4e3f 2e0e a82d 8f07 c43f
00000580: 800e d8ef 8a14 d43f 2995 769d 75c5 d13f
00000590: 2e4f f2de c74e b8bf 9dab eeed f9b0 733f
000005a0: d071 2650 def1 d33f cbcc 4984 2a31 f13f
000005b0: 8af8 11b0 1a88 8dbf 20af ea2e 123f 9dbf
000005c0: d30c 8a06 1788 c23f 4185 a12d 5d74 d03f
000005d0: 286e 5abb 52f6 c8bf 2753 e044 2055 f93f
000005e0: 7575 15a5 6d99 c03f 3149 5c3e dd5c 9cbf
000005f0: 9588 b0b0 97f3 d03f d271 70c6 8ad6 e93f
00000600: f1d1 6a83 9bba 95bf 083c 0fff c23e c93f
00000610: 627d 93fa ff9a cabf b0fb 275d bd47 cf3f
00000620: f6ea aca1 e3ec ba3f 2c89 23e2 483e f23f
00000630: aab3 9112 bcf2 b73f 2cee 9ff1 89ff c73f
00000640: 761b d672 d771 ae3f 7f00 5ce7 b4b7 d93f
00000650: e1db f63c dbaa c0bf 686d 3e06 6bb9 f63f
00000660: 17ba 0bfc c0a4 ce3f ba0c 1fcd f1c3 c53f
00000670: d266 ffcf a600 d43f f5d3 6dc6 433d e83f
00000680: 2e73 2b87 8d0b b4bf 9bcd 4dd9 954d c4bf
00000690: 95b5 837a dc26 ab3f dd45 8f70 2ff7 a43f
000006a0: 1233 2c9c 91cc 88bf 8e71 85ee 19bb cbbf
000006b0: c426 af16 07e9 c7bf 98ab d1c1 89cd 903f
000006c0: b64c d3cf 0fbc bfbf a319 c693 5272 bbbf
000006d0: 8c9c c1f5 e9cf b0bf b084 1c95 2bf0 bfbf
000006e0: d167 331c 159e b23f 60dc 1b88 5965 c2bf
000006f0: f9db 01c1 792c 893f 2777 569d 3fad c83f
00000700: aac2 7228 ce4e cbbf 535a 12a7 c819 8cbf
00000710: c27e e742 2cc0 c43f 0a15 75f9 48d7 bebf
00000720: 909c 9429 ba9f bd3f 3f60 8e64 4060 93bf
00000730: d6e4 4b2b b5ee c2bf 14c1 9113 d07d c13f
00000740: d760 88b0 9be2 a7bf 0152 7790 5a54 d53f
00000750: fac3 9910 d61d 943f e8de 6c79 a72e f4bf
00000760: 4a62 6c21 935f a13f a570 afd8 7494 ba3f
00000770: 2271 2478 2ee8 cabf d864 ac4e 9130 e5bf
00000780: 6085 eee7 155d ce3f e0ca 7bf5 7ebe d43f
00000790: 331c a7d2 74c1 b6bf 173a d0f9 1074 843f
000007a0: 53da d751 29fb cd3f 0f4f 2142 dc4e f23f
000007b0: d6cf b41d 8b80 c73f a3db ed82 df2f d93f
000007c0: 82e8 aa76 a924 d63f fbb5 d92e 2e69 d33f
000007d0: d852 1f79 ff0a ca3f c19d 81f8 2c01 fc3f
000007e0: e56b 8c01 6231 afbf 219b c20e bff7 d03f
000007f0: c0f5 8f2b 602a d53f 7c8d 8288 6bed ef3f

layer_1.node_model.node_mlp_1.2.bias f8 [16]
0.014906381838076115 0.13753590457577733 0.30383046046090356 0.16376848755862872 0.1548743652177929 -0.08244765163975007 0.15713961344067745 -0.03908975989853717
-0.2538180831071373 -0.03549509894917702 0.17522773183374293 -0.004111957882726463 0.22574950682089506 0.03741518807174619 -0.21994718781949193 0.04965819860838857
00000000: f644 f8b3 3c87 8e3f f7e0 16ca c69a c13f
00000010: 2e53 cd50 f571 d33f 3000 17a5 5df6 c43f
00000020: f2b1 cc56 ecd2 c33f eeba 6c0f 4a1b b5bf
00000030: 1620 519e 261d c43f c5d3 beb0 9203 a4bf
00000040: 3507 8533 8e3e d0bf 105c 4fe2 692c a2bf
00000050: ef01 cac0 dc6d c63f 13ba 0f4a b3d7 70bf
00000060: c222 711e 5ce5 cc3f 259f 4862 1528 a33f
00000070: e314 44bd 3a27 ccbf 9baa 00a6 cc6c a93f

layer_1.node_model.node_mlp_1.4.weight f8 [16, 16]
-0.2672172627820304 -0.3318575028737705 -0.12211037248955611 -0.15473089228024878 -0.3182327686005194 -0.07874855712613882 -0.29419264237250353 0.06558592429183713
0.07140126392481468 0.012727690818206053 -0.14322635947253354 -0.25141779577269113 -0.1453311612220253 0.1309463121535495 0.12235663202974832 -0.2277244152430108
-0.16226204456933863 -0.3384570993502807 -0.30720809045967745 -0.3555549796908559 -0.3973791097705068 -0.1734824002093851 -0.18376887859803312 0.18563776330379203
-0.12741479291540253 0.17231215492479868 0.13756415430227814 -0.3119565941807504 0.09389496226803973 0.0037024478023863624 0.04118677434886275 -0.41650885773169705
0.21379601759782182 0.20401484063401104 0.38613925199938104 0.17858987196682263 0.15238848508449276 0.07487962285615063 0.2587775363512151 -0.11198619985049886
0.06649614001574422 0.04619678825549082 -0.19895341106072473 0.1567270828339707 0.01953772936276632 -0.1868641938211991 -0.19198227883567717 0.20051487312958127
0.2708365282462018 0.24681552415161614 0.30869408121124603 0.227515555308054 0.15812773387678583 -0.03829007961172949 0.23629193584407385 0.10669424783806966
-0.10216160450007075 0.03671639059340942 -0.14312892320400025 0.2652943263074939 0.21718015761963083 0.062294428217751975 -0.17209405763922023 0.36984602965678137
-0.1148787451894715 -0.3306418922192257 -0.42468773516973557 -0.2764598490276841 -0.2731859552108074 -0.23200782439768017 -0.03524240379082386 -0.07074594944210483
-0.19651116240003141 0.1343052814611354 0.022453400456149106 -0.021612960973732703 -0.28399217507600644 0.09756265401383314 -0.20290680171038403 -0.21691980983276224
0.288920356617708 0.21321373716093356 0.31386500870661777 0.12080081515956557 0.17751900417047972 0.26867879757402097 0.17768314942020422 -0.13733588977297922
0.07909928823804337 0.15828759154528102 -0.024316138841431464 0.33446689719328543 -0.1193639020896966 0.12803282167433894 -0.07044080072942417 0.33552489450383166
-0.2926751885792489 -0.27057567285821493 -0.08381649242695566 -0.2716167056848196 -0.18316578231768657 -0.3867933383329296 -0.3353681763104427 -0.19658101180227383
0.099343352177905 -0.04762768784677796 0.03719856450471367 -0.3695303695515969 -0.04233808149439754 -0.20336774868802335 -0.14175943749565365 -0.2001886006687744
0.011933447863733316 -0.2212619277162152 -0.024123633196536945 -0.14320547405450793 -0.30194042039005725 -0.029660982061471317 -0.270465569578679 -0.17932943642621113
0.05293176355990204 -0.1105193304952399 0.06831043970998647 -0.03009566515153374 -0.26501506793723895 0.04908294650519868 0.13717478818975526 -0.011697157852345668
-0.03983113357610636 0.4264206806647755 0.36083604558212373 0.34264854429402586 0.40184450416246 0.21373312731491034 0.2783187664745533 0.06751819170328384
0.12419034033726542 0.012796021391962975 0.20193843999940714 0.17459539840502256 0.23921326036157148 -0.1945974934659522 -0.14866623811686847 0.3562389044570854
-0.1987161807268645 0.008433074412051782 -0.2777198534257829 -0.2851803358449796 -0.005683811359938164 -0.3271349249502446 -0.1520347376484667 0.10071143444004156
-0.11159964424656758 -0.20017699777766362 -0.13164398817590553 -0.07087268855810484 0.08236129073331822 0.11880154372238254 0.2693761569487943 -0.2645444957738972
-0.010693161706891878 -0.32596983301247284 -0.07627043754275326 0.05878676906150837 -0.0346499829873442 0.02583679797563234 -0.275279584562499 0.07860153213919124
-0.0068852302280910434 -0.11247697535300408 -0.16798090936161886 -0.11533560366418728 0.021640695712513522 -0.07814889479462879 0.0772920055401744 -0.1195177034126601
0.06609199267268472 -0.0881582713816918 -0.27495861328637716 -0.3715377890723494 -0.11564627456061945 -0.2651824254456346 -0.36787058766907527 -0.20441987935973735
-0.05927642204471161 0.045635303933959225 0.15643014747544662 -0.008771299931962628 -0.21463635564295863 0.14558543341093316 -0.21867621833080847 -0.3733288176346418
0.3434717003592769 0.326228730134838 0.4320728590653186 0.23668541217040284 0.006243509000135002 0.1509215858231714 0.32174318981967664 0.1049905334744039
0.26016920941901656 0.019256937944395567 0.1536496147309733 0.15669103175755375 0.2348725667922772 0.1637916714221438 0.07852478277481117 0.2926399619316053
0.25811263331209655 -0.14114452063702895 0.24699315097518393 0.13943459642866413 -0.12968431934259994 0.3395879859586976 0.10961918955130805 0.005061567424122469
0.0449102717940655 -0.017735226498977685 0.1521282423303874 0.14384638171419323 -0.001522208293073428 -0.051016884305120996 -0.08529731721887154 0.2584350034677716
0.2226831263264596 0.06251145276264164 0.24969435607374965 0.12376254766316541 0.02771040875359642 0.3615853950385489 0.3534495178137604 -0.05502244827344975
0.05394425303920589 -0.009304746358931455 -0.131345576563338 0.08376560310882078 0.1397809706933797 0.08630323595950787 0.04256540262914195 0.18603058455452218
-0.024336928501822397 -0.1281068984975855 -0.29961592001844906 -0.33186314218182733 -0.32724776142377343 -0.1565342247127753 -0.09911229850314816 -0.09342215143148265
0.0650866730399974 -0.014974019309907037 -0.2102016406356073 -0.006459026775625275 -0.2160160581905178 0.16314125303324203 -0.1005991612002519 -0.1285410937848923
00000000: 50d4 246f 161a d1bf c19a 7140 273d d5bf
00000010: 5653 5818 a042 bfbf 0625 03cd 38ce c3bf
00000020: b2e7 69f9 ec5d d4bf b0c5 768d dd28 b4bf
00000030: b2ad 6d60 0dd4 d2bf b44f e937 3dca b03f
00000040: 9d3c 736d 5a47 b23f d5d7 8abe f910 8a3f
00000050: b609 eec8 3d55 c2bf ad78 9eaa 3a17 d0bf
00000060: 15e7 4424 369a c2bf 519b 1d48 d9c2 c03f
00000070: b737 04a5 c352 bf3f 1c17 fcd9 1226 cdbf
00000080: 0259 67af 00c5 c4bf 1cbe 33f7 47a9 d5bf
00000090: b4d1 651f 4ca9 d3bf 5cf0 6cac 69c1 d6bf
000000a0: a7fc 24ca a86e d9bf b05a aad9 ab34 c6bf
000000b0: 5ff2 cc15 bd85 c7bf 916c 256d fac2 c73f
000000c0: fe93 4cc0 204f c0bf 547a 0d1f 530e c63f
000000d0: 6a43 eac3 b39b c13f 92c8 71ca 18f7 d3bf
000000e0: 684c 3310 8009 b83f dea3 3e87 9854 6e3f
000000f0: 5f52 b6d1 6e16 a53f d7ec 9cc4 14a8 dabf
00000100: f380 ccfb aa5d cb3f 3afb 3586 281d ca3f
00000110: fa82 c268 81b6 d83f 3846 bf6d 08dc c63f
00000120: e0c8 dc43 7781 c33f b4d1 4d9b 4f2b b33f
00000130: cd58 e4a7 cf8f d03f 0912 f6a9 20ab bcbf
00000140: 2088 ad1a e405 b13f c5a2 79fd 1aa7 a73f
00000150: 887b f72c 4e77 c9bf 7aae 950f a20f c43f
00000160: 00cf 9ad2 b201 943f c3b2 a078 2aeb c7bf
00000170: 7361 8114 e092 c8bf 8400 3aab 78aa c93f
00000180: a54b d8bb 6255 d13f 412a 30ae a697 cf3f
00000190: 3559 d1d1 a4c1 d33f 3c8f b0ce 3a1f cd3f
000001a0: 8db2 cb92 873d c43f 7221 63df c19a a3bf
000001b0: 4121 616c d03e ce3f 9ec5 2271 5050 bb3f
000001c0: aa14 3c4e 4327 babf 88d6 a6a1 7dcc a23f
000001d0: 9fed 226e 0c52 c2bf c185 d30d 95fa d03f
000001e0: 1881 2835 8fcc cb3f bd26 d627 0ee5 af3f
000001f0: e7bc b296 2d07 c6bf c89a 7bae 8eab d73f
00000200: e023 9885 b168 bdbf 7239 719c 3c29 d5bf
00000210: a43e 6477 152e dbbf b7c8 8ea6 84b1 d1bf
00000220: 15d8 d6f1 e07b d1bf 7f21 1ab1 6eb2 cdbf
00000230: 5d93 6dd7 4a0b a2bf b4a5 2d13 681c b2bf
00000240: 644e e71b 4727 c9bf 981f c75b ea30 c13f
00000250: 6996 9232 06fe 963f eb26 3542 b521 96bf
00000260: dd5d 1184 ed2c d2bf 79e5 4cb8 ddf9 b83f
00000270: 05b4 bd9e d9f8 c9bf 570a 8b40 07c4 cbbf
00000280: f296 b4ce ab7d d23f da02 1576 964a cb3f
00000290: 453c f042 5d16 d43f fbc2 705e cdec be3f
000002a0: 5054 aa56 f1b8 c63f a760 2d8e 0832 d13f
000002b0: ffaf e749 52be c63f 462d 92f1 3894 c1bf
000002c0: b988 1ed8 d93f b43f e758 868e c442 c43f
000002d0: ff13 5b74 54e6 98bf 598b 42d8 e767 d53f
000002e0: 6056 ccf7 a18e bebf 10f4 f326 6163 c03f
000002f0: a1da 6f87 6808 b2bf d5d1 3868 3d79 d53f
00000300: bc1a d3b6 30bb d2bf 083b 81a0 1c51 d1bf
00000310: 38d6 d665 ff74 b5bf edaa fd08 2b62 d1bf
00000320: f57d 66f2 f971 c7bf 90d6 9cd8 38c1 d8bf
00000330: 42d7 5715 ac76 d5bf 1c49 5a0c 9129 c9bf
00000340: 4fda ade0 906e b93f 713c 5f03 a862 a8bf
00000350: 3b04 03b4 b00b a33f f695 06b5 62a6 d7bf
00000360: cfa2 c946 56ad a5bf f58d d652 f407 cabf
00000370: 67ba f859 2c25 c2bf 0bc3 73b2 c79f c9bf
00000380: 4d11 6d42 9070 883f 430e b293 4f52 ccbf
00000390: 942e 8f9e ddb3 98bf 890d d695 8e54 c2bf
000003a0: 439c bae9 fd52 d3bf 4c5f afcf 725f 9ebf
000003b0: 3f34 02d2 4e4f d1bf 6c91 5458 44f4 c6bf
000003c0: c19a d142 df19 ab3f f288 0dae fe4a bcbf
000003d0: 1d9f 8700 cb7c b13f a50e 4fe6 65d1 9ebf
000003e0: d035 6fc2 01f6 d0bf 58f2 0f64 6621 a93f
000003f0: 442c 8e86 f18e c13f e9ae 74f3 adf4 87bf
00000400: 22db 2410 bf64 a4bf f1c4 72f7 794a db3f
00000410: 5f90 bf11 f017 d73f 47f3 f028 f4ed d53f
00000420: 6220 dd02 d2b7 d93f 08d6 f16b 9b5b cb3f
00000430: d9c2 f783 f9cf d13f 6d2b 4049 df48 b13f
00000440: 3a48 3a2a f0ca bf3f adde 2deb cc34 8a3f
00000450: aa25 cd69 1ed9 c93f b740 175b 2459 c63f
00000460: b6e0 0245 8a9e ce3f 77f0 2817 92e8 c8bf
00000470: 329b 5dcb 7e07 c3bf ee2f 0d43 9ecc d63f
00000480: 5936 b424 886f c9bf 099c 6f16 5c45 813f
00000490: 4379 fa7d 29c6 d1bf aca7 fa05 6540 d2bf
000004a0: b565 857e e847 77bf 139b 0253 c7ef d4bf
000004b0: 6e2e 07d1 df75 c3bf 75d3 407d 39c8 b93f
000004c0: 1bc4 4856 cb91 bcbf 74ea 6e5d 669f c9bf
000004d0: 711b f7cf b5d9 c0bf 2362 8967 b624 b2bf
000004e0: 50ec 272a a115 b53f 9b7f 0029 c769 be3f
000004f0: f9b3 1a7e 753d d13f 7de2 6b09 4cee d0bf
00000500: 5c55 93de 4be6 85bf 8e5a 1193 b0dc d4bf
00000510: 04d2 e59a 7586 b3bf 9005 1da5 4c19 ae3f
00000520: aca6 797f a4bd a1bf 26d4 5a29 f674 9a3f
00000530: 1ef4 3c43 2e9e d1bf bc0c f4e1 3a1f b43f
00000540: e636 7bea af33 7cbf dab3 b182 4acb bcbf
00000550: 3ebe 0700 6680 c5bf 9156 cd55 a286 bdbf
00000560: 8c48 6481 fa28 963f a589 5ce3 9001 b4bf
00000570: 7c8c 09ac 68c9 b33f 984d 7353 b698 bebf
00000580: c780 0ea3 67eb b03f 64cd 745c 8a91 b6bf
00000590: 5262 f402 ec98 d1bf 0bcf 526f 46c7 d7bf
000005a0: 7d60 2487 fe9a bdbf 51d4 30b5 bff8 d0bf
000005b0: 13bc cc13 318b d7bf 974c 403c 6e2a cabf
000005c0: 6f3c 36ac 7a59 aebf c3f5 e0b3 825d a73f
000005d0: e9fb c12f e705 c43f e03a cff2 aff6 81bf
000005e0: ee72 0240 3479 cbbf 9610 a321 8ba2 c23f
000005f0: 5267 1213 95fd cbbf e349 998d 9ee4 d7bf
00000600: 3841 09ba 70fb d53f 9a76 bc77 eee0 d43f
00000610: 472f cbeb 14a7 db3f 1428 5b24 b54b ce3f
00000620: 555c 7c2f cb92 793f 387c af05 6651 c33f
00000630: 6a1e 7fbf 7097 d43f 3083 a9db a8e0 ba3f
00000640: de5f 78c1 9ca6 d03f 29e5 c43a 17b8 933f
00000650: fd00 2863 caaa c33f 0dd3 7ca4 730e c43f
00000660: 1cda 8ce4 4d10 ce3f acc1 0e20 20f7 c43f
00000670: 4c7d f13d 331a b43f 77ee 7ff6 9cba d23f
00000680: 1ea2 b0d9 ea84 d03f 37a4 120e 0611 c2bf
00000690: b81f e3b8 789d cf3f fac8 cb2b fed8 c13f
000006a0: ccb3 30eb 7e99 c0bf bfa7 733f cfbb d53f
000006b0: 6b0b 23d2 0010 bc3f 9884 d928 70bb 743f
000006c0: a34f 38a9 7afe a63f d077 33e7 2e29 92bf
000006d0: 6ab1 cd30 f078 c33f 5621 8ee8 8e69 c23f
000006e0: 1467 88b5 9af0 58bf 54c4 4493 e21e aabf
000006f0: 4e3f e483 0bd6 b5bf 5449 02f8 328a d03f
00000700: 24ba 7874 e180 cc3f d4b1 3d25 c000 b03f
00000710: 7790 aa12 fcf5 cf3f f0d4 aefe e6ae bf3f
00000720: 3e05 6c0d 1e60 9c3f 3ab7 9911 3724 d73f
00000730: 3303 f3b9 ea9e d63f 16b9 c2ff e62b acbf
00000740: 6d98 38c5 949e ab3f 5736 79ea 5d0e 83bf
00000750: a02a e88d eecf c0bf 62d1 e19d a971 b53f
00000760: f897 ddc4 57e4 c13f ba2c fc07 f817 b63f
00000770: da6a 77e8 21cb a53f edd4 5ba6 d9cf c73f
00000780: 706d 00a0 c7eb 98bf 2035 b88d ce65 c0bf
00000790: aec5 7540 e82c d3bf becc 9ae7 3e3d d5bf
000007a0: bc46 4098 a0f1 d4bf 834c ec3f 5009 c4bf
000007b0: 37d1 b370 6c5f b9bf f5c3 1e9d 83ea b7bf
000007c0: 5abb 1c2c 85a9 b03f f947 ced9 b2aa 8ebf
000007d0: a038 0c2a e3e7 cabf 0baa 3ecc c774 7abf
000007e0: db67 ab08 6aa6 cbbf 85ff 3305 d0e1 c43f
000007f0: 6f30 5cdb ddc0 b9bf 68c4 ffd8 0874 c0bf

layer_1.node_model.node_mlp_1.4.bias f8 [16]
-0.48434137441139763 -0.4200299474364546 0.33555085394954093 0.04496049495064383 -0.48303138966747494 0.21446834387622185 -0.17412613492285592 -0.46724919747176363
0.48192876241905597 -0.18685707883582217 -0.17830001568083095 -0.2618086124667632 0.3979522096659115 0.1509676033898205 0.08310962428780584 -0.349695734622146
00000000: d195 ccf6 72ff debf 8821 e549 c5e1 dabf
00000010: f1eb f649 aa79 d53f 1498 d9de 0f05 a73f
00000020: 140c 647d fce9 debf 41e2 7cdd b273 cb3f
00000030: b5af 6fe3 c349 c6bf 584d 8e2d 69e7 ddbf
00000040: c3dc 65bc ebd7 de3f 211f 50c9 eeea c7bf
00000050: bfdb 1cf0 88d2 c6bf d5c6 16e9 78c1 d0bf
00000060: a2b4 788b 0c78 d93f a34a a80b e852 c33f
00000070: 8589 4c1e ac46 b53f 122e f037 6a61 d6bf
