src/waxman_120_sci2.pth (torch, 198383 bytes, 17 tensors)

layer_1.weight_ih f4 [128, 120]
00000000: 98a9 233e 6009 c73d 30f9 763d 88ef b03d
00000010: a92d fa3d 6319 9e3d a6bf 6f3d e903 3b3e
00000020: e72f 303e 0bb3 b23d 4b77 603e a606 403e
00000030: 3304 773d f824 403e 548e da3d a962 a63d
00000040: 2394 aa3d 0d34 c13d ded6 143e f5ec 363e
00000050: d956 033e 97e0 a03d 3a1b 8b3d d761 0c3e
00000060: 677c 2f3e f768 443e 1f16 0e3e 668a cb3d
00000070: 9c29 9f3d a5f0 3c3e f3b9 153e b263 103e
00000080: 3b6b 433e 0f93 d83d 1322 263e decc 273e
00000090: 19f3 a23d 8c3a 223e 26e2 c23d 5536 143e
000000a0: 64e0 763d 9873 e73d 6fad 4e3e d215 953d
000000b0: 215d 213e 79de 373e 681b 0e3e 2b91 be3d
000000c0: 33e4 1f3e d17b 083e d4e5 ca3d 481b 563e
000000d0: b1c8 1d3e 794f a03d bcd3 493e 3e60 733d
000000e0: 9b4e 923d c816 b43d 9e9b d83d f50b e03d
000000f0: e565 453e 965e 073e 55ba 273e f5c1 343e
00000100: 111a 103e 27ff 4d3e 1293 023e 5caf 1d3e
00000110: ab1e 123e a6f2 033e 9323 b83d 9abe 423e
00000120: 65bc 133e 5dc3 3d3e 79eb 293e b9cc 293e
00000130: 3421 5c3e e7c3 0e3e 807e a33d 07c9 593e
00000140: fcb2 a43d 5cd7 12bc 6002 133e 79e3 5a3e
00000150: 1b3d dc3d a1ba 293e 9d54 293e 8d52 c53d
00000160: 272c a33d b877 c73d 335c aa3d 04b5 a03d
00000170: ac02 a63d a758 aa3d ad69 2b3e 300a 483e
00000180: 2f18 9c3d a434 883d 2a7d 7a3d 1f5e 243e
00000190: 54b0 023e 3910 643d c508 4e3e 3dab 7a3d
000001a0: 8f8e 393e 9681 0d3e 142e 543e ba53 033e
000001b0: 53fa 1f3e 7e2f b43d 1af3 093e 28fc 203e
000001c0: d9b4 9b3d 4251 8d3d 542e 503e 7d4e 563e
000001d0: 2a39 4d3e b603 243e 08d1 213e c32d 563e
000001e0: 7fd0 5e3d 56e4 053e 68b3 d73d b860 0a3e
000001f0: 02f7 4c3d 18ba ae3c 1ace 583d 9682 193e
00000200: a456 2b3e 722a b93d a0ed ac3d 1454 253e
00000210: 52d7 113e 3998 b93d c7da d73d 79e9 d43d
00000220: ef30 b63d 6834 033e f353 fa3d b3a5 083e
00000230: f209 123e 1129 d63d c130 b13d f86f cf3d
00000240: 3fdd db3d 2f07 433e 5175 24be ae59 bf3d
00000250: 852e d33d e29c c83d f8ac 913d 15b2 b93d
00000260: 0d9f 103e 642a a3bd db74 7e3d 159b 693d
00000270: ce72 eb3d 201e 8d3d 1c26 11be 4a8f 0e3e
00000280: 4d16 123e 6a3f a43b 67a4 ef3d 871d fd3d
00000290: 5149 d33c f4fd 233e a792 143e f88b 8a3d
000002a0: 1992 083e 108a 4c3d ca20 9b3d e29e 343e
000002b0: 996b 233d 60b4 ac3d a901 1a3e 2bc8 bc3d
000002c0: 71bc 083e 582e 33bd 3658 203e 8284 0d3e
000002d0: 7a21 0f3e 2ba3 e03d 3f09 d63d 2491 9e3d
000002e0: bf97 813d b292 8b3d a9d9 643d 4326 313e
000002f0: fdd3 273e 38cb 043e 2658 003e 814d 9b3d
00000300: 14f4 b03d 0d34 253e 789c 2f3d 2275 ea3d
00000310: 2a2b 203e fed0 8f3c 9f7c fd3c 26fe e93d
00000320: b190 8b3d 64f7 723d c6de fe3c facc 13bd
00000330: 17ae c43d 24e1 98bc 7266 0e3e 4340 df3d
00000340: b9c8 e23d 70cc e93d 9073 193e 769e aebd
00000350: 4439 183e 5fce 0c3d a993 ff3d 8049 273e
00000360: 819c 823d d551 a7bd e7a9 013e 2c1b 003d
00000370: 744f 443d b179 133e 80d3 ae3d 35a7 9a3d
00000380: a22f c83d 9ed6 a13d d7a8 283e 0411 d83c
00000390: 8b7f df3d d179 363d cf68 ab3d 8724 0b3e
000003a0: 1baf e13d ab93 2dbb 3201 7c3d 13a1 263e
000003b0: 7326 763d e399 063e 8330 073e c6de 4f3d
000003c0: f7b2 293e 21bc 1e3e a9c8 123e 4a12 d53d
000003d0: 9a3d 8a3d 25c4 f13d 6c05 c33d d5b5 fd3d
000003e0: 78bb bb3d f0ca 1e3e d89a 383e b92e 0a3e
000003f0: cbca 803d 7ff3 a83d 0222 dc3d 15fb 3d3e
0.15982664 0.09718585 0.060296237 0.08639437 0.1221574 0.07719686 0.05853238 0.1826321
0.17205773 0.08725556 0.21920507 0.18752536 0.06030674 0.18764102 0.10671678 0.08124287
0.08329036 0.09433756 0.1453509 0.1786383 0.12826099 0.07855337 0.067923024 0.13709198
0.171373 0.19180666 0.13875626 0.09938507 0.07771608 0.18451174 0.14621715 0.1410053
0.19083874 0.10574924 0.16223936 0.16386744 0.079565234 0.15842646 0.09515791 0.14473851
0.06027259 0.11301345 0.20183347 0.072795525 0.15758182 0.1795596 0.13877642 0.09305032
0.15614395 0.13328482 0.099071175 0.20908844 0.15408589 0.07827658 0.19709677 0.059417956
0.07143899 0.08793408 0.105765566 0.109397806 0.19277151 0.13219675 0.16379674 0.17652114
0.14072444 0.20116864 0.12751415 0.15398926 0.14269511 0.12885532 0.0899116 0.19018021
0.14427336 0.18531556 0.16593732 0.16582002 0.21497041 0.13941918 0.07983112 0.21268092
0.08041951 -0.0089624785 0.14356375 0.21375836 0.107538424 0.165751 0.16536184 0.09634886
0.07967406 0.097396314 0.08318367 0.07847026 0.08105978 0.0831769 0.16739531 0.19535136
0.076218 0.066506654 0.061154522 0.1605153 0.12762576 0.055679534 0.20120533 0.06119846
0.18120788 0.13818964 0.20720702 0.12824908 0.15622835 0.08798121 0.13471642 0.1572119
0.07602853 0.06900264 0.20330173 0.20928378 0.20041338 0.1601704 0.15802395 0.20915894
0.054398056 0.13075384 0.10532266 0.13513458 0.050040253 0.02132897 0.05293093 0.14991221
0.1673227 0.09041299 0.08443761 0.16145355 0.14242294 0.09062237 0.10539775 0.10396094
0.08896052 0.1281296 0.12223043 0.13344459 0.14261606 0.104570515 0.08651877 0.10128778
0.10735559 0.19045709 -0.16060378 0.09343277 0.10311607 0.09795548 0.07113069 0.090671696
0.14123173 -0.0796707 0.06212316 0.057032663 0.11496507 0.068905115 -0.14174694 0.13921848
0.1426632 0.0050124424 0.11701279 0.123591475 0.025791796 0.16014844 0.14509068 0.06764978
0.13336982 0.049936354 0.075746134 0.17638734 0.039897535 0.08432841 0.15039696 0.092178665
0.13353135 -0.04374537 0.1565865 0.13820079 0.13977614 0.10968622 0.10450982 0.07742527
0.063277714 0.06815089 0.05587164 0.17299752 0.16389461 0.12968147 0.12533626 0.07583142
0.08640304 0.16133137 0.04287383 0.114481226 0.15641466 0.01755571 0.030943213 0.11425428
0.06814707 0.05931796 0.031112086 -0.036084153 0.096035175 -0.018662043 0.13906267 0.10900929
0.11073441 0.114159465 0.1498549 -0.08526318 0.14865595 0.0343765 0.12479336 0.16336632
0.06377507 -0.08169905 0.12662469 0.031275913 0.047927335 0.1440189 0.08536434 0.075514235
0.0977471 0.07902263 0.16470657 0.026375301 0.10912999 0.044549767 0.083696 0.13588153
0.11019727 -0.0026485722 0.061524577 0.16272382 0.06009526 0.1314464 0.132021 0.050749563
0.16572176 0.15501453 0.14334358 0.10403879 0.06750031 0.1180499 0.095225185 0.12388197
0.09166616 0.15507102 0.18027818 0.13494386 0.0628868 0.08249568 0.10748674 0.18552811

layer_1.weight_hh f4 [128, 128]
00000000: 8c10 8e3c 7acb 6c3c b2f0 773d 7d3c 0cbd
00000010: 37c1 1b3d 5d23 f8bb c6eb 7f3b 4b97 52bd
00000020: 34a2 bd3b e1d0 823d d78a 4f3d cbe2 72bb
00000030: 01ed d6bc 9266 e1bc 7f2f 32bd a0df 433d
00000040: 197b f03c 8048 19bd 7101 da3b 950a 40bd
00000050: 7465 393b bec3 90bc 21b9 8a3d 5532 133d
00000060: d0bd 45bd 6c2a 39bb 3c5e fd3c 1a74 2e3b
00000070: 955c 83bd 1e5b 7d3d ebd6 42bd 7d20 21bd
00000080: 24e8 88bd 7e15 8cbd 9af5 043d 162c dabc
00000090: 7f7d 713c d5b8 e33c 66fc 3cbd 7c9b 89bd
000000a0: e0d9 19bd aefb 703d 4256 fcbc e316 753d
000000b0: 7401 14bd dacd 103d 3b30 b23c cafd 45bd
000000c0: d22a 0a3d 435d f4bc 347d 68bd 527c 1d3c
000000d0: b143 793c f1bd 613b 5375 3ebd eb7e 16bd
000000e0: 4523 44bd 8dc5 273d 6119 bc3c 821c 513d
000000f0: 2da8 82bd cd80 d6bc b46d 8a3c 4e31 113d
00000100: efc8 213d 2683 6ebd 79ac 5f3b 3b0c 0e3d
00000110: b75f 3dbd b649 e0bb 9b85 3c3b 6f59 e9bc
00000120: 961c 6c3d 20d7 853d d359 6abd 5f54 7b3d
00000130: bdf9 633d 89ae 5dbd 8fbe 07bd 9c97 73bd
00000140: 4ae6 82bd 4d09 80bd f8cc 7cbc a519 88bd
00000150: 73af 3d3c 9879 64bd acc4 173c c453 063d
00000160: bec8 8c3d 2c1c 883d 8407 883c bad3 823c
00000170: e6fe ae3b 96a6 983a e012 32bd 93f3 18bd
00000180: cda7 94bc 692c a7bc d29c 75bd f01e c6bc
00000190: c51b f2bc 6d2b 153d d2dd 693d f5b5 07bd
000001a0: 9cbd 05bc 6441 ca3b f91f 85bc 4ef0 38bc
000001b0: ff0d 4ebc 907c 8b3c 1799 743d a74e 58bd
000001c0: 11a3 10bd f8b8 833c 31f2 03bc bc6d 83bd
000001d0: a5a9 0c3d 4571 6bbd 2e61 ae3c be96 36bd
000001e0: 29a1 8a3d 67e2 73bd 901d 8cbc 13c7 383d
000001f0: 5951 ed3c ef61 4a3d 2f36 84bd 25c9 903b
00000200: 2334 433d 554f 673d 9672 893d e648 98bc
00000210: 4cb4 06bd afec f0bc 1e5a 12bc d2a2 e9bc
00000220: 11c0 8cbd a273 413c 15dc ad3c 2dd7 12bd
00000230: 1c3d 5a3d c197 a3bb 1484 85bd 5abc e9bc
00000240: 84bf 82bd 2ac1 233c cbbd 38bd 54a8 ab3b
00000250: b18e dd3c 28ae 27bc a699 793d d1c2 f43c
00000260: 5b50 5ebc 8ad5 3ebd 02a2 0d3d 8113 1bbd
00000270: 8314 c23c f8e8 f8bc 629f bcbc 62f3 04bd
00000280: 6697 94bc 0a31 2fbd d36d 793d 9b62 66bd
00000290: 2144 56bd cef0 543c e8ab 533d 209d 4ebd
000002a0: c02a 85bd 9ccf 623d 742d 523c 03c6 d13c
000002b0: 3830 763d 1ffe 10bd d1ab 0e3d e299 e33c
000002c0: 5bea 813c 5742 29bc c7d3 ef3b a833 ed3c
000002d0: 6525 0abc e9fc d2ba b281 55bc 9ca4 c43c
000002e0: 3494 de3c 1652 793d 1aed 5b3d 6019 51bd
000002f0: cab3 84bc 4c78 5e3c 9951 68bd 7a36 89bd
00000300: ec15 11bc f942 023c f636 3b3d 90cc fd3c
00000310: 1c40 223c 271e e9bc 72eb 873d 4a39 30bd
00000320: 56fb 69bd 1c28 893c cea4 583d 2d43 653d
00000330: 3729 3dbd ae3b aa3c 97e7 643d e0eb 833c
00000340: a4a0 b33c 67a1 483c 4dc5 86bc e042 1fbd
00000350: 5326 953c 4f84 febc 0ff3 9d3c f4b2 c1bc
00000360: d29f 203d 247b 2cbd 2095 833d aee9 3b3d
00000370: b97f d83c 3779 22bd da77 41bd 0057 8abd
00000380: d47f 17bd ddd2 70bd 77e0 abbc 0ee2 83bd
00000390: 4685 663b 237b 85bb 4377 18bd 3326 6dbc
000003a0: 4b63 1e3a 644c 24bd 7db7 01bc d5b0 0e3d
000003b0: 922f 4dbd dc4e 2a3d aedb abbc 1737 81bc
000003c0: 510a 85bb 72f2 75bc 0dde 77bd ffaa 703d
000003d0: f4fe 1abd 4479 49bd 2eb2 d6bc abbb 3bbd
000003e0: fb4a 85bd 1d9c 6bbd ed7e c7bc c415 0b3d
000003f0: 3c36 44bc acc8 7dbd 0ca1 9d3c 63af 07bd
0.017341875 0.0144528095 0.06053228 -0.034237374 0.03802606 -0.007572575 0.0039050444 -0.051413815
0.0057871584 0.06387497 0.050669517 -0.0037061449 -0.02623606 -0.02751473 -0.043502327 0.047820687
0.029355573 -0.037422657 0.006653004 -0.04688509 0.002828923 -0.017671462 0.06773592 0.035936672
-0.048276722 -0.0028254045 0.030928724 0.0026619495 -0.06414143 0.061854474 -0.047568243 -0.039337624
-0.06684902 -0.06840037 0.032460786 -0.02663235 0.014739393 0.027798096 -0.046139143 -0.067191094
-0.037561297 0.05883377 -0.03080285 0.05983628 -0.0361342 0.035352565 0.021751514 -0.048337735
0.033732243 -0.029829627 -0.056760028 0.00961216 0.015213893 0.003444549 -0.046498608 -0.036742132
-0.0478852 0.040959883 0.02296132 0.051052578 -0.06379733 -0.026184464 0.016898014 0.03544741
0.039498266 -0.05823054 0.0034129901 0.034679633 -0.04623386 -0.0068447245 0.0028766159 -0.028485028
0.05764445 0.065351725 -0.05721457 0.06135976 0.05565809 -0.054121528 -0.033140715 -0.059470758
-0.063915804 -0.06251774 -0.015429728 -0.06645516 0.011577475 -0.055780023 0.009263199 0.03279473
0.06874226 0.06645998 0.016605146 0.0159701 0.005340445 0.0011646326 -0.04347503 -0.037341665
-0.01814642 -0.020406919 -0.05996401 -0.024184674 -0.029554257 0.036418367 0.05709631 -0.033132512
-0.008162882 0.006172346 -0.016250597 -0.011287762 -0.012576579 0.01702717 0.05971631 -0.052809384
-0.035311762 0.01607941 -0.008053348 -0.064174145 0.034341473 -0.05748107 0.021286573 -0.044577353
0.0676902 -0.059542086 -0.01710394 0.045111727 0.028969454 0.049409803 -0.06455647 0.0044185095
0.047657143 0.05647214 0.06711309 -0.018589448 -0.03288679 -0.029409735 -0.008932618 -0.028520022
-0.06872571 0.011807354 0.021223107 -0.03584974 0.053280935 -0.0049924557 -0.065193325 -0.028532196
-0.06384185 0.009994784 -0.045102876 0.005238572 0.02704558 -0.010234393 0.060937546 0.029878052
-0.013568963 -0.046590365 0.03457833 -0.037860397 0.023691421 -0.030384526 -0.023025218 -0.03245867
-0.018138599 -0.042771377 0.060895752 -0.05624638 -0.052311067 0.012996865 0.051677614 -0.050442815
-0.065022945 0.055373773 0.01282822 0.025607115 0.06010458 -0.0353986 0.034831826 0.027783338
0.01585882 -0.010330758 0.007318947 0.028955296 -0.008431767 -0.0016097102 -0.01303141 0.024004273
0.027170278 0.0608693 0.053692915 -0.05104959 -0.016199011 0.013578486 -0.056718443 -0.06699844
-0.008855324 0.007950538 0.04570671 0.030981332 0.00990298 -0.02845676 0.066367045 -0.043023385
-0.05712446 0.016742758 0.052891545 0.055972267 -0.046181884 0.02078041 0.055884924 0.016103685
0.021927185 0.012245513 -0.016451502 -0.038882136 0.018206751 -0.031068949 0.019280938 -0.023644902
0.039214917 -0.042109624 0.06424928 0.04587715 0.02642809 -0.03966638 -0.04723344 -0.06754875
-0.03698714 -0.058794845 -0.020981057 -0.06439601 0.0035174652 -0.004073517 -0.03722311 -0.014474439
0.00060420175 -0.040111914 -0.007917282 0.03483661 -0.050094195 0.041579112 -0.020978775 -0.01577334
-0.0040600677 -0.015011417 -0.0605145 0.058756825 -0.0378408 -0.049187914 -0.02620801 -0.04583327
-0.06508442 -0.057521928 -0.024352515 0.033956304 -0.011975821 -0.061958954 0.019241832 -0.033126246

layer_1.bias_ih f4 [128]
00000000: c947 4a3e 6acc 1f3e f169 203e 66e6 d03d
00000010: 8a71 c13d 6903 a73d 9cc5 003e f98a f73d
00000020: 2cb4 dc3d ba60 413e fb17 053e a020 183e
00000030: da8f 163e 7679 8b3d 40dc 263e a740 253d
00000040: c59d 133e 1653 523e 5e8a 973c cec1 3b3d
00000050: 2e1e 63bd d22a e63d c003 183e cb44 313e
00000060: 9739 a63d eae6 023e d949 403e 68ab 203e
00000070: 9e2e 403e ffce 303e dd56 173e 0988 063e
00000080: ccec a63d c61a 363e 2a76 e03d 3655 d23d
00000090: 5c7f 2f3e b6f1 1f3e 3cf5 053e 6227 3c3e
000000a0: e790 663d e9d5 af3d 8278 103e ea8a 8f3d
000000b0: e16e fb3d fe4a bf3d a6ea 5e3d 06e9 113e
000000c0: 44ca 043e 4f4e 023e a329 0c3e 89ab e03d
000000d0: 8d97 c63d 2323 243e 8bbb e43d e6a9 3a3e
000000e0: 3168 433e 770e 583d f9f4 0d3e 51d9 e43d
000000f0: fc0c ee3d 58f7 e23d 70c9 c23d d878 2a3e
00000100: 2ad5 ab3d fd21 133e 57d2 3e3d 3343 113e
00000110: 0977 b83c cf92 2e3e 4681 dc3d 6a74 2e3e
00000120: 2328 be3d 3bb2 1d3e 3b57 fa3d 8299 0f3e
00000130: c369 473d 82c5 7b3d bbab 413e 1a4f a33d
00000140: f736 65bc c2ec 033d 1345 e83d 7e88 3a3b
00000150: d5b5 933d 0cca 43bc fa47 d73d e5c9 0f3e
00000160: 3c54 913d 279a b03d 004e 163e 42c7 e23d
00000170: c212 873d 87eb 173e e5b0 80bd 8961 023e
00000180: c52d 053e 8808 743d a86b 2bbd 25cb 443e
00000190: 1ef7 023e 210f 5d3d b71d 4dbd 830f 983d
000001a0: 56d0 223d ab93 e73d ee70 e63d 5b50 653d
000001b0: ec88 183e 7685 2f3e 527d cf3d d576 063e
000001c0: a6fc 103e 350b 033e b59b 243e d1ba 093e
000001d0: 692b fd3d 85bf 5bbd 2758 a23d 98b7 353e
000001e0: 62b1 293e 9906 4d3e 7a0f d73d 9cfb b93d
000001f0: d316 8e3d 5fa4 c03d 2f8f 513e edb6 b73d
0.19753946 0.15605322 0.15665413 0.10200195 0.09445484 0.08154947 0.12575382 0.12087054
0.107765526 0.18884555 0.12997429 0.14856195 0.14703313 0.06810276 0.16294956 0.04034486
0.14415653 0.20539507 0.018498596 0.045839123 -0.055448703 0.11238636 0.1484518 0.17311399
0.08116453 0.12783399 0.1877817 0.15690386 0.18767783 0.17266463 0.1477923 0.13137831
0.08150634 0.17783651 0.10960038 0.10270159 0.17138427 0.15619549 0.1308183 0.18374398
0.056290533 0.08585722 0.1410847 0.07008918 0.12277008 0.093404755 0.054422997 0.14249048
0.12967783 0.12725185 0.13687758 0.10970218 0.09696875 0.16029029 0.111685835 0.18228874
0.19082715 0.05274817 0.13862981 0.11174262 0.1162357 0.11082333 0.095110774 0.1664766
0.08390267 0.14368434 0.046587314 0.1418579 0.022517698 0.1704819 0.107668445 0.17036596
0.09284999 0.15400021 0.12223669 0.14023402 0.048684847 0.061467655 0.18913166 0.07974072
-0.013990155 0.03220821 0.113413 0.0028462703 0.07212416 -0.011950027 0.10511775 0.1404186
0.070961446 0.08623152 0.14678192 0.11073162 0.06595375 0.1483594 -0.0628374 0.12732519
0.13005741 0.05957845 -0.041850716 0.19218118 0.1278958 0.053969506 -0.050077166 0.074248336
0.039749466 0.11307462 0.112520084 0.055984836 0.14895982 0.17140755 0.10131325 0.13131268
0.14158878 0.12797244 0.16075023 0.13450171 0.123617955 -0.053649444 0.0792697 0.17745817
0.16571572 0.20022048 0.10500999 0.09081194 0.06937947 0.09406351 0.20464776 0.08970437

layer_1.bias_hh f4 [128]
00000000: b723 9f3d 05be 1f3d 7c2e 1d3e 580c 003e
00000010: 5ec4 d53d 824b 3f3e 7d05 4c3e be5f c93d
00000020: af57 ea3d 05c4 053e 4fec fc3d 0d9e e23d
00000030: d4aa 0b3e 1f7a 713d 81dd ec3d f88a 853d
00000040: 8e08 363e 2d2a 203e 7313 37bd 7c7c fe3c
00000050: 459f 3fbc 903a 1d3d 1328 073e 643c 383e
00000060: 1599 cd3d 2942 ef3d ab11 403e c827 1d3e
00000070: c8d9 f23d d0b1 b53d 7438 253e 0223 063e
00000080: d06c 493e a85a 1c3e fe43 d73d 27be d73d
00000090: 6502 c53d 9ec7 263e 59e0 aa3d 7296 1b3e
000000a0: 8cc9 573d 31fc 543e 9b30 103e f5e3 243d
000000b0: d038 363e 289d 443e bf29 933d f801 353e
000000c0: a78f 893d bae2 ee3d 62c7 9a3d 61e8 e63d
000000d0: a829 b53d 0194 a63d cb46 043e ae7b 0b3e
000000e0: e94d 413e 5a5d 233e 5ff8 0e3e 91a1 c03d
000000f0: d5c9 2e3d b926 e43d 907d 4a3e 4b2e 2d3e
00000100: b8ed 223e a27f cb3d edc0 0b3d bd5a 953d
00000110: b908 8c3d c6ca 443e 4765 0d3e 6424 943d
00000120: 21c9 c43d bbb8 f63d 63f2 573d e731 953d
00000130: d4e2 843d 1b84 943d 5983 da3d a4c6 4b3e
00000140: e617 19bd b603 13bc 7eb7 0c3e e26e 513d
00000150: c7ad 523e 4ce7 54bd 1ccd 1e3e c783 2a3e
00000160: 61cb 043e cbf8 f83d d8b9 303e fba0 4f3e
00000170: 3e28 a13d 9b91 873d 79ff 30bd 49da ab3d
00000180: fdd8 e93d 53a7 343d ed47 263d 8250 1b3e
00000190: 97df c63d 11ff bb3d 6d95 db3c b6a7 1a3e
000001a0: ce65 5c3d cd4a 1b3e 8396 033e c914 af3d
000001b0: ec76 2a3e 38e9 363e f20d 3b3d 32f1 0e3e
000001c0: 10e5 013e 95ca 523e 61af 3a3e 5d78 b93d
000001d0: ff1c 013e 4976 053d b150 833d e261 323e
000001e0: 4f66 0e3e 24cf b23d 08c7 fe3d 6308 b03d
000001f0: 3cb3 093e 1789 0a3e 9890 043e c635 e13d
0.07770484 0.038999576 0.15349764 0.12504709 0.10437845 0.18681148 0.19923969 0.098327145
0.114425056 0.13063057 0.1234976 0.11065302 0.13639385 0.058954354 0.11565686 0.06520647
0.17776701 0.15641089 -0.044696283 0.031065218 -0.011695688 0.038385928 0.13198881 0.17991787
0.10038964 0.11682541 0.1875674 0.15347207 0.11857945 0.08871806 0.16134816 0.13099292
0.19670415 0.15268958 0.10511015 0.105343156 0.09619597 0.16287085 0.08343572 0.15194109
0.052682444 0.20799328 0.14081042 0.04025646 0.1779511 0.19200575 0.07185697 0.17676532
0.06716853 0.116643384 0.075575605 0.112747915 0.08845836 0.08133698 0.1291763 0.13621399
0.18877377 0.1595358 0.13961934 0.09405816 0.04267295 0.11140198 0.19774461 0.1691219
0.15910995 0.099364534 0.034119535 0.072926976 0.06837601 0.19217977 0.13808165 0.072335035
0.09608675 0.12046953 0.052721392 0.07284909 0.064885765 0.072517596 0.10669584 0.19899994
-0.037376307 -0.008973053 0.13741872 0.051131137 0.20574103 -0.051978394 0.1550793 0.16651832
0.12968208 0.121568285 0.17258394 0.20276253 0.07869004 0.06619569 -0.043212388 0.08391244
0.1141834 0.044104885 0.040595938 0.1516743 0.09710615 0.091795094 0.02680465 0.15103039
0.053808026 0.15165253 0.12850384 0.08548886 0.16646928 0.17862403 0.045667596 0.13959196
0.12685037 0.20585091 0.18230964 0.090561606 0.12608717 0.03258351 0.06411875 0.17420152
0.13906215 0.08730915 0.12440306 0.0859535 0.13447279 0.13528858 0.12945783 0.109965846

layer_2.weight_ih f4 [64, 128]
00000000: 08bf 923c 4d4e ae3c 3f72 143e e1e2 113e
00000010: 062d 7a3d 7cd5 313e e387 e73d 647e cd3d
00000020: c2da 023d 94b1 933c fa92 023d f878 193e
00000030: a108 393e 01df 223f 55e1 2d3e 3bb7 f83e
00000040: 8ed4 2f3e ee6a 573d 3895 253f fb71 653f
00000050: f21b d93e 9265 313d 353d bc3d 4182 313c
00000060: d60d 1b3e 14e9 5d3a fb99 3e3d 2e7a 7e3c
00000070: f516 e43d e020 bd3d 9fdf 563c dc0c 083e
00000080: 0b37 283e 796d 003e 2255 173e 826a 993d
00000090: 7400 a13c 9a35 303e da0f 2f3e 3242 113c
000000a0: 310a fd3d 7564 383e 1257 033d f7b0 f23e
000000b0: 4fc8 82bb 6eb0 a63d 062d ca3d 7c46 0c3c
000000c0: 9a00 de3d 078f 323e 60af 313e 8a79 c53d
000000d0: 1bc2 1b3e 4fec 273e 2f9a be3d 2427 3a3d
000000e0: b5bf 243e 9bae a83d 6f03 8e3d 201f d03b
000000f0: dc0e 2c3d 281e 9b3d 651b fd3d 5ec8 e33d
00000100: f833 0d3c 3d7a 3c3e 363e 0e3c 6f23 1f3e
00000110: a5ab 593f a4d3 373d 989a 0c3e b8be 6e3d
00000120: cace f33a 43e5 f43d 9f12 023e a50e 003d
00000130: 8549 9f3e a7cf d03d 0e32 d13d 5751 3b3e
00000140: 5886 0c3f e92f 5e3f bd1c cd3d a86e 2a3f
00000150: 3e85 9a3d 49ef 023f e589 c13d 8b42 e93c
00000160: a30b e03d 90d9 9c3d d979 803b 2c1b 843d
00000170: 57ab d13d faf9 083e 93bc 0b3f 8901 1a3e
00000180: 3da6 4dbc 566d 093d 46f1 2d3f f762 f53d
00000190: efd0 553d 091a a43c 1165 313f fd36 bd3c
000001a0: 0d91 043f 01d7 ef3d 6611 0e3e d6ff 413e
000001b0: 8808 8b3d ca86 043e 31e9 a13d 9d19 fc3c
000001c0: 1415 3b3e 5efc 383e f0c8 973d a591 ae3d
000001d0: 5846 833d 2103 253f e245 043d b046 ac3d
000001e0: 372f 2a3e 0a3d f73d d634 103e e66c 1f3e
000001f0: df80 2c3e f6e6 df3c 8812 f53d 48f3 ba3d
00000200: 9c04 c1bd 5b30 1c3d 1086 21bb 835a 4cbc
00000210: e2e8 733c 6b93 c7bd f9dc a23d 6c5c 043d
00000220: 9607 25bb 0a51 44bd c701 01bd cb84 b6bc
00000230: 12a7 9a3d 2969 d5bd 57be 233d a008 6fbd
00000240: d3f8 47bd 14cf 00bd 5ce3 07ba 5618 90bd
00000250: c9ee 41bd ba5a 7a3c 6970 8cbd dd69 113d
00000260: 5f75 fa3c 1547 cebd 4753 8abd 6a6b 8f3b
00000270: 5b00 b9bd 386b 973d 6282 2f3d e506 523d
00000280: b15a 9fbd 8546 1dbc a8d5 de3c 2907 34bd
00000290: 540e bcbd 3e0b ad3d eae0 b2bd e03f 4e3d
000002a0: 08ca a43d 4395 083d 90ba cd3c ca35 c4bd
000002b0: 3c4e 0bbd ef51 58bd 66a1 94bd 2bd1 0e3d
000002c0: 455b c0bd ae3b f4bc 86d0 d0bd e946 243d
000002d0: c8da 22bd 8546 edba da86 393d 4b7b 7b3c
000002e0: dcbc 23bd 0c44 cbbd cce1 b8bd cfcd 66bb
000002f0: 3660 9e3c fa63 7ebd 6df7 d0bd 1df6 813c
00000300: 4cb4 09bd a95f 993d 2900 03bc da10 9b3c
00000310: aa57 243d 7591 51bd c486 b33c 95e0 8fbd
00000320: 244a ffbc 8aee 85bd 399d 0f3d 38f3 9fbd
00000330: e94c 02bd c726 dbbb 2acb ee3b 6ef4 ecbc
00000340: cec9 203d 5532 91bd a7e0 d43c d2ae a1bc
00000350: abc3 93bd 5978 2cbd 1adc afbd 177b 823d
00000360: 1d5d 6dbd e5b5 48bd dfbe 94bd ce0a e93c
00000370: 8555 a8bc bab6 6f3d d99f 80bd 4cae abbd
00000380: b0cc 913d 44d5 91bd 6262 773c cca8 aabd
00000390: fedb a6bd 8ac0 893d 9108 a03d 0b0c 963d
000003a0: 5881 413c 55d8 30bd a675 4e3d 0307 f9bc
000003b0: c8c8 2a3d 5d11 9d3c 28dd 31bd 08cf 15bc
000003c0: fb20 74bd 63b2 9fbb 503b 09bd 9913 0ebd
000003d0: d2e6 b0bd 116d 223c c3b7 56bd 1a31 dd3b
000003e0: 1b0b 013a d7aa c6bd 9765 9d3d 9b8e 813d
000003f0: 8390 313d f910 6b3c 7b89 48bb a9a3 8e3d
0.017913356 0.021277571 0.14496706 0.14246704 0.061078094 0.17366594 0.11305215 0.10033873
0.031946905 0.018029012 0.03187845 0.14987552 0.18069698 0.63621527 0.16980489 0.48577294
0.17170927 0.05259221 0.64680815 0.89627045 0.42404133 0.043309756 0.09191362 0.010834278
0.15141997 0.00084652123 0.046533566 0.01553206 0.11137191 0.09234786 0.013114839 0.13286155
0.16427247 0.1254176 0.1477857 0.07491018 0.019653536 0.17207947 0.1709589 0.00886588
0.123554595 0.18007071 0.03206546 0.47400638 -0.003991164 0.0813912 0.09871869 0.008561727
0.108399585 0.17437373 0.17352057 0.09642322 0.15210764 0.16398738 0.09306752 0.045447484
0.16088755 0.08236428 0.06934249 0.0063513666 0.04200636 0.07574111 0.12358741 0.111222014
0.008618347 0.18406005 0.008681824 0.1554086 0.85027534 0.04487957 0.13730848 0.058287352
0.0018601057 0.11957791 0.12702416 0.031263966 0.31110778 0.101958565 0.10214625 0.18292747
0.5489249 0.86791855 0.10015247 0.665751 0.07544945 0.5114637 0.094501294 0.028474113
0.109397195 0.07658684 0.0039207754 0.06450495 0.102377586 0.13376608 0.54584616 0.15039648
-0.012551841 0.033551537 0.6794628 0.11981767 0.052201208 0.020031946 0.6929484 0.02309751
0.5178383 0.117109306 0.13873824 0.1894525 0.067887366 0.12942043 0.07905806 0.030773932
0.1826976 0.1806502 0.07411373 0.08523873 0.064099014 0.644579 0.032293208 0.0841192
0.16619574 0.12072189 0.14082655 0.15568885 0.16846035 0.02733181 0.11966425 0.091284335
-0.09424707 0.038132053 -0.0024646558 -0.012472752 0.014887067 -0.097449146 0.079523034 0.032314703
-0.0025181524 -0.047928847 -0.031495836 -0.022280117 0.075513974 -0.10420448 0.039976444 -0.058357835
-0.04882128 -0.031447485 -0.00051837205 -0.07035892 -0.047346864 0.01528042 -0.06857378 0.03550135
0.030573545 -0.100721516 -0.06754165 0.0043768184 -0.09033271 0.07393497 0.042848952 0.051276106
-0.0778097 -0.009599333 0.027201489 -0.04395214 -0.091824204 0.0844941 -0.08734305 0.050353885
0.08046347 0.033345472 0.025113374 -0.09580572 -0.034010157 -0.052812513 -0.07257347 0.034867447
-0.09392408 -0.029813614 -0.10196023 0.040106688 -0.039759427 -0.0018102681 0.04529462 0.01534922
-0.039975032 -0.09925088 -0.09027442 -0.0035217886 0.019332986 -0.062107064 -0.10203443 0.015864426
-0.03361921 0.07488949 -0.007995644 0.018928934 0.040122665 -0.05116411 0.021914847 -0.070252575
-0.031163283 -0.06539638 0.03506205 -0.07810062 -0.03181163 -0.006687972 0.0072874026 -0.028925147
0.039254956 -0.07089678 0.025986029 -0.019736681 -0.07215055 -0.04210696 -0.08586903 0.06371134
-0.057950128 -0.049001593 -0.07262968 0.028447535 -0.020548591 0.05852387 -0.062804885 -0.08382854
0.07119119 -0.07120755 0.01509914 -0.08332977 -0.08147429 0.06726177 0.07814134 0.07326516
0.011810623 -0.04317506 0.050405167 -0.030398851 0.041695386 0.019173319 -0.0434238 -0.009143598
-0.059601765 -0.0048735603 -0.03350383 -0.03468666 -0.086377755 0.009913699 -0.052421343 0.006750238
0.00049226143 -0.09700554 0.07685392 0.06326028 0.043350708 0.014347308 -0.0030599523 0.069648094

layer_2.weight_hh f4 [64, 64]
00000000: 7c43 19bb 4b20 7cbd f8d8 b3bd 3779 2a3d
00000010: ee6f a1bd 3bbc 883d 2e66 913d d273 f0bc
00000020: 03cb 453d a67b be3d e900 883d e9a9 2ebd
00000030: f9e1 52bc 108b b3bd 8b0a a7bc f740 2cbd
00000040: 46dc 9c3d 1d87 90bd d742 6d3c 2ec1 a3bd
00000050: 97ea 33bd 9494 adbd b0ea 87bd 95d1 593d
00000060: 3c4a a93d be54 023c f720 6dbd 2eb1 733d
00000070: b8e0 23bd 1f54 cabc 3077 82bd 68a7 ae3c
00000080: 44db f1bc 75f5 9cbd 34b9 6e3d a8f9 93bc
00000090: 243a aa3d fc1d ea3c d96f 303d ef47 be3d
000000a0: 4c41 b73b 71f5 5d3d afbc d13b 7983 edbb
000000b0: 721a 4e3d 70d0 a03d d6ce cbbc 2ae8 15bd
000000c0: 4510 e7bb 94a5 60bd 9ecd c13d 53a0 acbc
000000d0: 5a0a 933d 5cac a43d 8243 a53b 70b7 86bd
000000e0: 3d67 903d 6e01 d93a 76fb 613d 7ce0 57bd
000000f0: 3058 1ebd efbb 99bc 84a2 0dbc 0778 a7bd
00000100: c8f2 c1bd 1477 8bbd fcb5 c43c 6855 683d
00000110: 0d35 2fbd d1c0 973c 5836 2cbd 218e 763d
00000120: 6829 a23c b661 88bc 28a1 7abd bda1 263c
00000130: 5cf8 163d 8ae1 3f3d a01a 653d 1509 29bd
00000140: cd1b 643d eb0d 893d 5ae8 c03c 7332 783d
00000150: 913b ed3c 4ec1 353d 73df 03bd e26f 3abd
00000160: e98d a33d f2a5 e43b f78b 0f3d 9416 33bc
00000170: 9d21 c13d 6f2b 88bb fa30 483d f9f7 6abd
00000180: 22f8 bc3d 605f c53c 2b8a 333d 1cd2 4f3c
00000190: e39d ddbc ed24 7b3d 824c 103d edfa acbd
000001a0: b8d6 90bd 3630 3b3d 9330 1cbd af88 3d3d
000001b0: 2398 57bd 056b 41bd a117 a43d da17 38bc
000001c0: 9ea9 aa3d b0e6 bbbd 754e 5fbd 19ad a63d
000001d0: 2e21 adbc 77c0 a9bd 66b3 123d 4cb1 053d
000001e0: 6247 bc3a 3964 94bd 8b25 ad3c 459b 5a3d
000001f0: 0b0a 9b3d 90ff 7f3d 6b45 a1bd ac7a a8bd
00000200: b408 b43d 9eb8 e4bc 0a9c 41bd 4b00 c73c
00000210: 0db1 5f3d ec6f 9abc 726c b33d b31c 93bd
00000220: 601c 243d 3434 b8bd 8808 5e3d 3314 543d
00000230: 3999 723c 9bfb e33c fab7 debc 611d 873c
00000240: 0eaa 8e3d 9761 79bd 65a5 c83c ac91 813d
00000250: d663 82bb 3cda bbba 0ae1 b83d 6e73 ad3d
00000260: 297c 723d 75eb c63d 3566 f53c 6dee 963d
00000270: 31e5 923d 1b26 8dbc 2d3f bb3c f7bf bf3d
00000280: 97b3 60bd 9c8d 8dbd 120c 523d bc24 91bb
00000290: e890 813d 2559 ea3c 15a2 9ebd 923e 3c3d
000002a0: 7f62 6abc 6aea 9c3d 9477 0c3d 8d6e afbc
000002b0: 3ca4 c2bd d6c7 91bd 4f99 afbd b4da b8bd
000002c0: e871 c43d 8e55 cfbc fb39 3fbc ee8a e6bb
000002d0: ea2f a0bc 11b5 bb3d 7aed ffbc 081d 3e3d
000002e0: a4b9 a0bd fc59 a7bd 8556 b83d b733 673d
000002f0: 6b94 8abd 8468 abbc 9ef1 aa3d 313f 973c
00000300: 73ca bb3d 9933 63bd 9498 adbd 7cda a03d
00000310: 125f 59bd dc7c a2bd 68ee a5bd caa3 6b3c
00000320: 65d0 3f3d 809e 73bd d3b8 0b3d 1b92 443d
00000330: 441d a3bd 81e7 99bd b351 463c d80c bf3d
00000340: b723 d93c 7c8a 893c 48fd 97bd 199f 65bd
00000350: b373 f03c 9cab 7cbb 99ba 64bc 2cfb 133d
00000360: c86b 9b3d 8c7c 16bd 25bc 513d b93e 84bd
00000370: 0680 6b3c 1988 b7bb d587 70bc e116 c2bd
00000380: 02f3 0a3d b5bc 99bc c02b 4ebd c520 3e3d
00000390: c075 a03d 7c62 8a3c 6eb8 54bd d03a 97bc
000003a0: 8c8e 0a3c f54c a7bc 7827 47bd 95da 9b3d
000003b0: 2907 dcbc a728 7fbd 5255 933d 5e7b 18bd
000003c0: 33dc bb3d abae 9a3d 92fc dd3c eaa8 9dbd
000003d0: 140f 723c 291d 47bd 12e6 babb 8e33 fe3c
000003e0: 2858 2dbc a65f d6bc 6561 49bc 0280 ad3d
000003f0: ce1c bcbd 9d85 b63b 8cca 5e3d e085 8bbd
-0.002338617 -0.061554234 -0.08781618 0.041619506 -0.07882677 0.06676527 0.07099567 -0.029352102
0.04828931 0.09300928 0.066407986 -0.042642508 -0.012871259 -0.087667584 -0.02039077 -0.042054143
0.07659201 -0.07057021 0.014481268 -0.079958305 -0.043924894 -0.08475605 -0.0663656 0.05317839
0.08266112 0.007954774 -0.057892766 0.059495144 -0.04000923 -0.024698315 -0.063703895 0.02132006
-0.0295235 -0.07664005 0.058282092 -0.018063381 0.08311871 0.02857875 0.043075416 0.09291064
0.005592501 0.05418915 0.0064006667 -0.007248339 0.05031819 0.07852256 -0.0248789 -0.036598362
-0.0070515 -0.054845408 0.094630465 -0.021072542 0.07179709 0.080406874 0.005043448 -0.06577957
0.07050941 0.0016556212 0.055171452 -0.05270432 -0.03865832 -0.018766372 -0.008644704 -0.0817719
-0.09470135 -0.06809822 0.024012558 0.056722075 -0.042775203 0.01852456 -0.042044014 0.06019414
0.019795135 -0.016648155 -0.061188847 0.010170397 0.036857948 0.04684595 0.055933595 -0.041268427
0.055690575 0.06692108 0.023548294 0.060594987 0.028959068 0.044373803 -0.03219552 -0.045516856
0.079860516 0.00697779 0.03504559 -0.010930676 0.09430239 -0.0041555683 0.048874833 -0.05736539
0.09227015 0.02409333 0.04383294 0.012684371 -0.027052825 0.061314512 0.035229214 -0.08446298
-0.07072204 0.045700274 -0.03813226 0.04627293 -0.052635323 -0.047221202 0.08012319 -0.011236155
0.08333133 -0.091748595 -0.05451818 0.081384845 -0.021133985 -0.08288663 0.03581562 0.032639787
0.0014364535 -0.072456785 0.021136066 0.053370733 0.07570275 0.062499583 -0.078745686 -0.08226523
0.087907225 -0.027920064 -0.04726795 0.024292132 0.05461221 -0.018852197 0.08760919 -0.07183208
0.040066123 -0.08994332 0.054207355 0.051777076 0.014807039 0.027829936 -0.027187336 0.016493501
0.06966029 -0.060884085 0.024492929 0.06326613 -0.0039791865 -0.0014332007 0.09027298 0.08469282
0.05920044 0.097128786 0.029955963 0.07369695 0.07172621 -0.017230084 0.022857273 0.09362786
-0.05485877 -0.069117755 0.051281042 -0.004429428 0.06326467 0.02860696 -0.077457584 0.04595811
-0.01430571 0.076618984 0.034293726 -0.02141502 -0.095039815 -0.07118194 -0.08574163 -0.09026089
0.095920384 -0.02530935 -0.011671538 -0.0070356047 -0.019554097 0.09165395 -0.031241167 0.046414405
-0.07847908 -0.0817146 0.09000877 0.056445803 -0.0676659 -0.02092386 0.08346866 0.01846275
0.091694735 -0.05546913 -0.084763676 0.078541726 -0.05306918 -0.07933971 -0.08102113 0.014382312
0.0468296 -0.05947733 0.03411181 0.0479909 -0.07964566 -0.07514859 0.01210444 0.093286216
0.026506288 0.016789667 -0.074213564 -0.05605993 0.029352045 -0.0038554436 -0.013960504 0.036128208
0.07588917 -0.03673987 0.05120482 -0.06457276 0.014373785 -0.005600941 -0.014680822 -0.0947702
0.033923157 -0.01876674 -0.050334692 0.04641797 0.07834959 0.016892664 -0.0519337 -0.018460661
0.008456837 -0.020422438 -0.048621625 0.076100506 -0.026858883 -0.06229463 0.07194008 -0.037227027
0.09172859 0.075528465 0.027097974 -0.076982334 0.014774103 -0.048611794 -0.005703696 0.031030443
-0.0105801 -0.026168656 -0.012291287 0.08471681 -0.091851816 0.005570127 0.054392383 -0.06812644

layer_2.bias_ih f4 [64]
00000000: e233 353d 7453 bf3c 07d3 cf3d 5c09 b0bd
00000010: 6001 0dbd c1e9 093e 4ca8 1f3c b948 353e
00000020: 3551 b43d 745b 9f3c a2cf 083e fa4c 113d
00000030: 4bd2 563d b486 b53d 7896 893d 40af 613e
00000040: d236 5e3e 49b8 6c3e 2fa5 a6bc ca42 643e
00000050: 646e 443e 48e5 7c3e 13ca 823d cc29 b6bd
00000060: ad28 8e3c 4679 e4bb 464d 7b3e f888 5b3e
00000070: e632 c6bb 28ce db3d 1973 033e e54d 243e
00000080: b808 333e 9370 2c3e f5f3 f8bb 3bf3 563c
00000090: e33b a63d a656 293e 177e 013d d349 afbc
000000a0: cd7f afbd 3e4b 753e 5fdd 923d 2000 8b3d
000000b0: 1661 fe3d 0e37 d43d e9c2 353e 2ca0 5d3d
000000c0: c4c0 173e 5ff8 3e3e 92b0 a73d dc75 4c3e
000000d0: 349d 6a3e a4b5 253e 06f6 1b3e 74a4 433e
000000e0: 3efc e63d 24c6 723e 6c59 e03d dfab e93d
000000f0: f90f 4f3e b890 263c e6d0 793e c506 193e
0.044238932 0.023355223 0.10147672 -0.08595535 -0.03442514 0.13468076 0.009744715 0.17703523
0.088045515 0.019452788 0.13360456 0.0354738 0.052446645 0.08863583 0.06718153 0.22039509
0.217006 0.23117174 -0.020342438 0.22291103 0.19182736 0.24696839 0.06386199 -0.08894691
0.01735338 -0.0069724647 0.24541196 0.21438968 -0.006048548 0.107326806 0.12836875 0.1604534
0.17483795 0.16839819 -0.0075974413 0.013119514 0.08116891 0.1653696 0.03161439 -0.021397507
-0.08569298 0.23954484 0.071711294 0.06787133 0.124208614 0.10362063 0.17750134 0.05410783
0.14819628 0.18649434 0.08187975 0.19966835 0.2291153 0.16182572 0.15230569 0.19105703
0.1127858 0.23708397 0.10954556 0.11409735 0.20220937 0.01016634 0.24396095 0.14943989

layer_2.bias_hh f4 [64]
00000000: 232a 1d3e ef61 a93d 68d0 7b3e 12a5 1a3d
00000010: 797b dc3c 5a79 533e 8757 6f3d 8719 163e
00000020: d909 6c3e c0f9 933b f357 953d 4456 0f3d
00000030: 931a 4c3e c6ab 453e 0aca 943d f8c2 153e
00000040: 4ab4 de3d 084d 393e f582 ca3c eb75 d33d
00000050: e761 213e ab64 2d3e ce9a 293e 9c01 bd3c
00000060: 4ff2 b8bd 5dbd a23d 2a0a 3f3e 1140 383e
00000070: 5818 a4bd b7c6 d93d 0bef 7b3e edad 753d
00000080: f920 6a3e 9b7a 7b3d ce42 a4bd 05bd 6a3b
00000090: 983c cbbc 153a 1b3e ee02 02bc 3969 5fbd
000000a0: fdc0 a7bc 9463 583e ad0a 623e c897 6c3d
000000b0: 4b34 7d3e 11d3 c43d 75f6 aa3d 9630 763e
000000c0: b694 223e 471b 503e 0b83 683e acb7 5e3e
000000d0: fbaf 4e3e 9391 113e 27e2 2c3e 624a 5e3e
000000e0: 6bc4 273e 8627 6d3e af32 e13d bafc ef3d
000000f0: dc1a 593e eda6 dbbd 29e2 6c3e 0a81 d43d
0.15348105 0.082706325 0.2459122 0.03775508 0.026914345 0.2065176 0.058433082 0.14658175
0.23050632 0.0045158565 0.072921656 0.03499438 0.19932012 0.19303808 0.072650984 0.14625156
0.10874231 0.18095791 0.024720648 0.103252254 0.15760003 0.16932933 0.1656296 0.023072056
-0.09030592 0.079462744 0.18656221 0.1799319 -0.08012456 0.10633605 0.24602906 0.05998032
0.2286414 0.061396223 -0.080205545 0.003581823 -0.024809167 0.15158875 -0.007935269 -0.054543708
-0.020477766 0.21131736 0.22074385 0.057761937 0.2472698 0.0961057 0.08347789 0.24041972
0.15877041 0.20322905 0.22706239 0.21749753 0.20184319 0.14215688 0.16883145 0.21708062
0.16383521 0.23159608 0.10995995 0.11718126 0.21201652 -0.10725198 0.23133148 0.10376175

layer_3.weight_ih f4 [32, 64]
00000000: de6e c9bd 1f45 a4bd 30c8 9f3d 8b26 d3bc
00000010: 8c17 533d d0a4 ca3c 13e1 063e 8477 7bbc
00000020: 71d1 b5bd 4a9e f6bd e78f 43bc 549e c23d
00000030: 5278 0cbc 56fe 953d 80e5 10bd 4b65 f03d
00000040: b371 e73d 8101 74bd fbc4 823d 8264 423d
00000050: 5252 31bd dac4 c1bd 0c09 c53d 3387 89bb
00000060: 204c b43d 6ba3 f83d 4540 973d 4c20 0fbe
00000070: b3a9 633c d5ab a6bb 1a31 dc3d be36 11be
00000080: 0f0f cabd 999c 63bd 927b 353c 9fdb 833d
00000090: ea3a acbd 86d7 c03d e1ea d83d 2be7 c0bb
000000a0: 71a8 a3bc 25dc b13d 0366 f03d 802e babd
000000b0: 6be3 3dbd 35c5 2dbd 6db6 c43d 4e8f 7e3c
000000c0: 8f5d 05bd d950 833c a85b b2bd 70e3 93bd
000000d0: 97a4 4f3d 2ff3 18be 7a8d 9fbd 060e 8cbc
000000e0: 392b 303c c8d5 91bc bef9 97bd 1f3b cebb
000000f0: 27b3 debd 6130 e9bd b089 2b3c 3f99 dd3d
00000100: 140d 883d 9a6d 3c3b 12ff e8bc 6dcd d03d
00000110: 8cce 953d 4ed3 f2bd 1b5f e0bd e2f2 f13d
00000120: b008 453d 35d1 f33c c6bb e5bd 2072 c53d
00000130: 5094 acbd a8f6 89bc 47dd b23b e87c 193d
00000140: 1d58 babd 670b 573d 6f4c abbd 37c4 453b
00000150: 507d 3b3d 7eba e3bb 489d 113d 86d5 8a3d
00000160: 65cf b03d d56e 043e 2d02 d3bc a531 3a3c
00000170: cb3c b83d 91f2 0cbd 9108 be3d 4963 9a3d
00000180: b46d 2f3d f425 b23d fddc 5c3d 1334 e43b
00000190: 0398 b83d becb 5cbd a0f1 d5bd 94ae f8bc
000001a0: d71c e8bc a572 c9bd 91be 89bd 8151 b7bd
000001b0: c170 a53d bc49 a4bd cd7f dbbd c111 1ebc
000001c0: 92b2 e9bd 1cc3 0ebe 3eb3 00be edbe 923c
000001d0: 70c9 293b b157 3ebd eaa6 ca3b 2473 ad3c
000001e0: aa00 873d 421d 43bd ad26 f1bc 5695 53bb
000001f0: ca5a ebbd b6a0 ca3c 9461 a73d b6db 12bd
00000200: 9740 b43d d572 203d f9ec 903e 4e42 173d
00000210: fdb2 8cbd d425 8b3e 3880 213e 4c2a 363e
00000220: 39b8 283e 04ee a6bd dc18 6c3e 3561 05bb
00000230: 9a4f 853e e94b 823e 8033 03be d8cf 663e
00000240: 26ec 553e c271 863d e6b0 8d3b c79a 333e
00000250: 6086 903e 4c0f 313e ca9c 1d3e 622d 6abc
00000260: 2453 c2bd f6c2 00be 6f73 1a3e f942 853e
00000270: a776 5fbc 46dc d93d f33f 5d3e 350a 613e
00000280: 3067 8e3e 191e 523e a844 523d 5a08 c1bd
00000290: dc31 bebd 8165 613e 9f5c eebd af52 49bd
000002a0: 2730 dbbd 45d1 f93c 7328 223e c320 123e
000002b0: de75 543e bfd8 693e 250a 2e3e db40 523e
000002c0: 673a 8b3e f0f9 8e3e 2fd2 613e e62b 613e
000002d0: b13e 6a3e a5fd 383e fce6 523e d97e 7a3e
000002e0: 6975 b03d a8c4 c63d dd51 353e 0f0c 193e
000002f0: 20fa ee3d f1d4 79bd 80b2 133e 97b8 e93d
00000300: 7bea 393e bdd4 be3c e804 823e e92c e33c
00000310: 0e33 b33d c132 c83d 5e57 063e a837 6e3e
00000320: 3298 4f3e 07b4 33bd eed1 6f3e aa70 82bd
00000330: c92e e23d 526e ce3d 5b5e 593d db99 763e
00000340: d964 703e aa81 403d bd91 1ebd 595f 3f3e
00000350: 3207 833e 77ef 5a3e 9d3f 053e d4aa 84bd
00000360: 2d01 07bd 5a76 00be 189a 643e 3174 393d
00000370: bf25 1a3e 783c 5a3e 91d9 233d 8a65 aa3d
00000380: 2ba2 163e fbc6 493d 8248 173e 376b d33d
00000390: 2ca1 b2bd 8516 7a3e b313 973d 7750 eb3d
000003a0: a7e9 103d 6a96 823e 08ee f43d 663a 843e
000003b0: f23d 7c3d 51d4 0d3e b6a7 633e b4cd 533d
000003c0: d951 ec3c 6471 4f3e 7c21 753e 840e cb3d
000003d0: 8925 773e be59 ee3d bba6 1d3e 4d13 103e
000003e0: 8518 a83d 740e 1f3e 58d2 723e f39c 253e
000003f0: 0811 093e 18c0 f8bd 2175 833e 72b1 eb3c
-0.09835599 -0.08020996 0.078018546 -0.025775215 0.051536128 0.024736792 0.13171797 -0.015348319
-0.088778384 -0.1204191 -0.011936164 0.09502855 -0.0085736085 0.07323901 -0.03537512 0.1173807
0.11300983 -0.059571747 0.06385227 0.047459133 -0.043291397 -0.094613746 0.09620866 -0.004197025
0.08803582 0.121405445 0.07385305 -0.13977164 0.01389544 -0.005086402 0.10751553 -0.14181039
-0.098661534 -0.055569265 0.011076825 0.06438374 -0.084096745 0.09416108 0.105916746 -0.0058869324
-0.01997778 0.08684567 0.11738207 -0.090909004 -0.04635946 -0.0424244 0.096051075 0.015537096
-0.032559928 0.016029762 -0.08708888 -0.07221115 0.050694074 -0.14936517 -0.077906564 -0.01709653
0.010752493 -0.017802134 -0.074206814 -0.006293669 -0.10874014 -0.11386181 0.010469839 0.10820245
0.066431195 0.002875185 -0.02844194 0.10195432 0.07314786 -0.118567094 -0.1095564 0.11813904
0.04810399 0.029762844 -0.112174556 0.09640908 -0.08426726 -0.016841248 0.005458507 0.037472636
-0.090988375 0.05250111 -0.08364188 0.0030176768 0.045773804 -0.006949722 0.035550386 0.067790076
0.08633307 0.12932904 -0.025757873 0.011364375 0.0899597 -0.034411017 0.09278978 0.075384684
0.04282923 0.08698645 0.05392169 0.0069642155 0.09013369 -0.05390524 -0.10446477 -0.030356683
-0.028334064 -0.0983632 -0.06725801 -0.089510925 0.08078147 -0.08021876 -0.107177354 -0.009647788
-0.11411013 -0.13941616 -0.12568375 0.017913306 0.002590742 -0.046470348 0.0061844485 0.021173067
0.065919235 -0.047635324 -0.029437387 -0.0032285056 -0.11491926 0.024734836 0.081729084 -0.035854064
0.08801382 0.039172012 0.28305796 0.036928467 -0.06870077 0.27177298 0.15771568 0.17789572
0.16476525 -0.08150867 0.23056358 -0.002035213 0.26037294 0.2544854 -0.12812614 0.22540224
0.20890865 0.06564666 0.0043240665 0.17539512 0.2822752 0.17290992 0.15391842 -0.014293047
-0.09488514 -0.12574372 0.15083097 0.2602766 -0.013639129 0.10637717 0.21606426 0.2197655
0.278131 0.20519294 0.051335007 -0.09425421 -0.09286854 0.22011377 -0.1163876 -0.04915112
-0.10702544 0.030495295 0.15835743 0.1427031 0.20748088 0.22836588 0.16996057 0.20532553
0.27192995 0.27925062 0.22052835 0.21989402 0.22875477 0.18065508 0.20595926 0.24462451
0.08616144 0.09705478 0.1770701 0.14946006 0.11668801 -0.060994092 0.14423561 0.11412161
0.18155853 0.0232948 0.25394368 0.027731376 0.08749972 0.097753055 0.13119265 0.23263419
0.20272902 -0.04387286 0.23419926 -0.06369145 0.1104408 0.10079636 0.0530685 0.24082129
0.2347597 0.046998657 -0.038713206 0.18688716 0.25591427 0.21380411 0.13012548 -0.064778954
-0.032960106 -0.12545148 0.22324407 0.045276824 0.15053461 0.2131213 0.04000241 0.08320148
0.147103 0.04926203 0.14773753 0.10323184 -0.08722147 0.24422653 0.07376804 0.11489957
0.03537908 0.25505382 0.11959463 0.25825804 0.061582513 0.13850524 0.22231945 0.051709846
0.028847622 0.20258099 0.23938555 0.09914878 0.24135412 0.11638211 0.15395634 0.14069863
0.08207802 0.15532857 0.23713052 0.16173153 0.13385403 -0.12146014 0.256753 0.028771136

layer_3.weight_hh f4 [32, 32]
00000000: 5843 37bb 7a58 583d 802a 9c3b 5c64 a0bd
00000010: 0180 5a3d 3b2d a0bd 45a2 21bd 2e35 913b
00000020: 93e8 7b3d 63b7 8ebc 0d02 483d 1097 58bc
00000030: 6f7d 053c 35e8 e1ba 8267 9dbc 2f72 06be
00000040: d41b f4bd 5754 96bc aa88 bdbd 8cca 1fbd
00000050: e264 8a3d b06d 013e a230 f0bd f8f4 8ebc
00000060: 43ae c73d b0db a63d 37e3 233d a2d4 66bc
00000070: 173d a93d 00e8 a2bd bd06 a2bc 7ffa cabd
00000080: 0498 363d d49c bbbd 0334 243d 0664 883d
00000090: f954 f1bd be8f b23d 0a30 92bd fac3 ecbd
000000a0: e953 46bd 9d95 c6bd e84b 61bd a77c cd3d
000000b0: 1c0a 623d 9dd8 d13d c82c 9a3c 4404 a7bd
000000c0: 514b 64bc bfbf 493d 30d4 e63d 87a1 0b3e
000000d0: cc59 103c 837f 2bbd 0939 a3bd 6d4a bb3c
000000e0: 6e79 af3d 073a 313d be3b e83d 6550 a0bd
000000f0: 0906 21bd 5547 cb3d eb6a 8bbd 833d 063e
00000100: 85ef 883c e291 ae3b 3ece d5bd 170c 243d
00000110: 6349 be3d f9f4 d03c 2d95 66bc ac2a 3f3d
00000120: a1f7 e5bd 26b0 d03d da53 45bd ae89 413d
00000130: 5977 93bd cb4b 04be 5f78 5c3d 6a2d 893d
00000140: 589f 803d 2e10 233d 8f72 2dbc 2e32 b3bd
00000150: 6553 9f3d 29ce c5bd e2f5 13bd 70b0 13ba
00000160: 6028 86bd 7bc9 bc3d 60aa adbd 952c 25bc
00000170: c7c2 833d fc06 cf3c 3593 f8bd 4ad5 a3bd
00000180: fc77 393d acf7 cd3d 8a85 da3c 3de2 b93d
00000190: 3181 d03d 47a0 fa3d 6f21 e03d 29f5 003d
000001a0: f0c9 b13d ac26 983c efab 523d a96a f83d
000001b0: 28d3 cb3d 2d35 b13d c76e 663d 2a19 2d3d
000001c0: 3a0f 4fbc e424 943d 3f10 12bd 7666 c1bd
000001d0: d9c2 04be 5017 35bd bede 9a3d 7a00 8cbb
000001e0: 0664 833d 4ec9 073e ec3d 253d 2732 5c3d
000001f0: c0b7 e03d 9b23 66bd 8651 853d dba9 9abd
00000200: 9f31 823d 7f2f babc 6251 48bd b5ff d5bd
00000210: 5eee 9a3d bc3c f3bb 1f85 f93d c4ab f6bb
00000220: 9f91 e6bc ad88 b2bd 19cb 6d3d 2241 b83d
00000230: b88b 8d3b 8807 da3c c4df 8abd bb47 f93d
00000240: 03e3 b9bd c015 67bd 05af b43a 1b61 de3d
00000250: ca90 673d 8b26 103c 5c5c ffbb 883b 8c3b
00000260: 7935 db3c 8793 a73d 7730 d2bc 10c0 dbbd
00000270: 61dc f53d 9787 9e3d 153f 08be 4a22 6cbd
00000280: 0338 643d 38ed 103d a21d 133d 01ff a2bd
00000290: 29c7 f83c 7a00 03bd a9b0 06ba 3fca e0bd
000002a0: 6a01 8e3b e696 c83d 25ff 093e e476 afbd
000002b0: d937 0cbe 3e40 0a3e a38a cb3d 06ea 593d
000002c0: 33f4 63bd dee2 f63d f6e1 ef3d a7fe b3bd
000002d0: c864 6c3d 8b50 013e 9d5e a63d 07d3 3dbd
000002e0: b192 043d 85a7 a53d 3207 ca3d 55df f53d
000002f0: ea44 5abd b6d6 80bd 5122 6dbd 67e7 fdbc
00000300: 55db e73d 4c80 a33c e853 eebd 6a04 93bd
00000310: 802d a13d 599a f4bd 9306 7abc bdcb 863d
00000320: e615 913d fc7d 213d 6146 063e ec98 973d
00000330: 9676 813d 8888 cb3d 6a89 ffbd 1e0d 8abc
00000340: 8e47 b7bd e829 cfbd 382f a63d b3a4 e63b
00000350: 1f51 0a3e 459b 84bd c531 d6bb 10cc b53c
00000360: 94c9 213d 48d9 00bb bc48 b03d f314 4dbd
00000370: 85ce 4fbd cc3e 073e 0c56 55bc b61e b53d
00000380: f4c7 053d 8216 8e3d c231 d53d 8c7c 203c
00000390: 4e2f 08be c4fb 6bbd f34c 933d 23e0 cf3d
000003a0: 6361 f5bd 82b1 f23d fe12 003e d22c 07be
000003b0: 2f14 a3bd 2568 08bd 347e 9ebd 84f7 e83d
000003c0: bd37 623d 52e9 ac3d dffc 473d 151a 04be
000003d0: c03a ba3d 3695 88bd a9eb d8bd b6b0 fd3d
000003e0: 9abc dd3d de04 ed3d 7ee4 5c3d a7a1 50bd
000003f0: 2c32 aa3c 164d 993d ad2b 0b3e 328a cbbd
-0.0027963724 0.052818753 0.0047658086 -0.07831642 0.05334473 -0.07821127 -0.039461393 0.0044313883
0.061501097 -0.01742143 0.04883008 -0.01321961 0.0081475815 -0.0017235341 -0.019214395 -0.13129495
-0.1191937 -0.018350763 -0.09254582 -0.039011523 0.06757523 0.12639499 -0.11728026 -0.017450795
0.09750035 0.08147371 0.04001161 -0.014088782 0.08263605 -0.07954407 -0.019778604 -0.099110596
0.044578567 -0.09160772 0.040088665 0.06659703 -0.117837854 0.08718823 -0.07138069 -0.11560817
-0.048419867 -0.09696505 -0.05500403 0.10033541 0.055185422 0.10246394 0.018820181 -0.081551105
-0.013933972 0.04925513 0.1127094 0.13635837 0.008810472 -0.04186965 -0.07969863 0.022862637
0.08568083 0.04326823 0.1133952 -0.07827834 -0.039312396 0.09925715 -0.06807502 0.13109402
0.016715774 0.005327449 -0.10439728 0.040050592 0.09291341 0.025507437 -0.014073652 0.046671554
-0.11228872 0.10189848 -0.04817567 0.047250442 -0.07200498 -0.12919538 0.053825732 0.06698115
0.062803924 0.039810352 -0.010586395 -0.087498054 0.07779578 -0.096584626 -0.036123164 -0.0005633896
-0.0655067 0.09218117 -0.08479762 -0.01008143 0.06433635 0.025271885 -0.121374525 -0.07999666
0.04528044 0.10057005 0.026675005 0.09076355 0.10180891 0.12237602 0.10943877 0.031483803
0.08681095 0.018573128 0.0514335 0.12129719 0.09952384 0.086527206 0.05625799 0.042260326
-0.012637908 0.07233599 -0.035660025 -0.09443371 -0.12964953 -0.044211686 0.07562016 -0.0042725177
0.06415562 0.13260385 0.040342256 0.053758767 0.109725475 -0.0561863 0.0650969 -0.075519286
0.06357121 -0.022727726 -0.048905738 -0.10449163 0.07564996 -0.0074230116 0.12183594 -0.0075278003
-0.02814561 -0.08717475 0.058055017 0.08996798 0.0043196343 0.02661492 -0.06780961 0.121718846
-0.09076502 -0.056417227 0.001378507 0.10858365 0.056534566 0.008798252 -0.0077929925 0.0042795576
0.026758896 0.081824355 -0.025657875 -0.107299924 0.120049246 0.077407055 -0.13305314 -0.057649888
0.05571748 0.03538248 0.035916932 -0.079587944 0.030368404 -0.031982876 -0.0005138019 -0.109760754
0.0043336647 0.097944066 0.13476236 -0.085675985 -0.13693179 0.13501069 0.09938552 0.053201698
-0.05565281 0.1205499 0.117130205 -0.087888055 0.0577133 0.12628381 0.08123515 -0.04634383
0.03236646 0.080885924 0.09864654 0.12005488 -0.053288378 -0.06290953 -0.057894055 -0.03099413
0.11321131 0.019958638 -0.116370976 -0.07178576 0.078700066 -0.11943502 -0.0152603565 0.06581829
0.07084255 0.03942679 0.13112785 0.074022144 0.063214466 0.09938151 -0.124773815 -0.016851958
-0.08949195 -0.10115415 0.08114475 0.0070386766 0.13507508 -0.06474928 -0.0065366947 0.022192031
0.03949888 -0.001966076 0.08607623 -0.050068807 -0.05073406 0.13207549 -0.013021003 0.08843748
0.032661393 0.06937887 0.10409881 0.009795319 -0.13299295 -0.05761315 0.07192411 0.101501726
-0.11981466 0.11850263 0.12507245 -0.13200691 -0.07962834 -0.033302445 -0.07738915 0.11375335
0.055228937 0.0844294 0.04882514 -0.12900575 0.09093237 -0.06669085 -0.105918236 0.123872206
0.108269885 0.11573194 0.053928845 -0.050935414 0.020775877 0.07485406 0.1359088 -0.09938468

layer_3.bias_ih f4 [32]
00000000: bdd0 c1bb 7894 1bbd 7e5d 2d3e 35b9 583e
00000010: 0560 893e 82f0 4b3c 7b8b 3f3e 6b1a 833e
00000020: ccd1 703e bdd0 c93b 8a6e 04bd 8a74 c73b
00000030: 8a9f b83d 0276 813d b0cd 8b3e 615d 9f3d
00000040: c960 e23d 917c a53d 3745 9cbd 2247 913e
00000050: 01dd 6d3e 410f 083e 1e5e a83c 4afd dd3d
00000060: a387 4a3d c342 90bc 19c4 2b3b a116 10be
00000070: 5ee2 1a3d 5c54 1e3e f841 acbd b116 253d
-0.005914776 -0.037983388 0.16930196 0.21164401 0.2683107 0.012447478 0.18705551 0.25606093
0.23517531 0.0061589167 -0.03233198 0.0060868906 0.09014805 0.06321336 0.27305365 0.077814825
0.110536166 0.080804 -0.07630389 0.28374583 0.23228838 0.13287069 0.020552691 0.10839327
0.04944576 -0.01760996 0.0026209413 -0.14071132 0.037813537 0.15461868 -0.0841102 0.040304843

layer_3.bias_hh f4 [32]
00000000: b11e 433d 4856 0d3d 1041 623e 9a16 433e
00000010: 01e2 8b3e 3b74 a33b 37ec 3f3e 0c35 d53d
00000020: eba4 2f3e a850 d03d e153 d13d b9d8 5abd
00000030: 1050 353e 0b27 99bb b1d8 1f3e c652 fa3d
00000040: 7565 ce3c 8066 293d bc4f c33c e450 003d
00000050: 844f 6a3d 259a 3abd 44e6 b739 100f 883e
00000060: 8c24 403e 9e9b 133e e10c aebd a595 11be
00000070: ddcf 6f3e 62df dc3d 1ca8 fcbd 39ac 093e
0.04763669 0.034506112 0.22095132 0.1905159 0.27320865 0.004988221 0.18742453 0.104105085
0.17152755 0.10171634 0.10221077 -0.05342934 0.17706323 -0.0046738437 0.15610005 0.12222819
0.025194863 0.041357517 0.023841731 0.031327143 0.05720474 -0.04555716 0.0003507604 0.26573992
0.18763942 0.14414832 -0.0849855 -0.14217241 0.23419137 0.107847944 -0.12336752 0.13444604
